results/NewBirdAgent3/BirdAgent/BirdAgent-149433.pt (torch, 618247 bytes, 33 tensors)

network_body._body_endoder.seq_layers.0.weight f4 [128, 64]
0	0xbe26873a	-0.16262522
1	0xbd77a4ff	-0.060460087
2	0x3e8ec638	0.27885604
3	0xbd1e7bdf	-0.03869235
4	0x3dca2b9b	0.09871598
5	0x3d7f00c7	0.0622566
6	0x3e094c0d	0.13407917
7	0xbc9bb2c4	-0.01900614
8	0xbd0b145b	-0.03395496
9	0x3d66fa81	0.056391243
10	0xbe1d92f6	-0.15388092
11	0xbbc724ac	-0.0060773697
12	0xbddbf414	-0.107399136
13	0x3e6fc82c	0.23416203
14	0x3db37187	0.08761888
15	0x3ddc8243	0.10767033
16	0xbe0e8141	-0.13916494
17	0x3ddc2952	0.10750069
18	0xbccffe48	-0.025389805
19	0x3e431ea8	0.19054663
20	0x3e784d20	0.24248171
21	0x3da7f790	0.08201516
22	0x3d0c6661	0.034277324
23	0x3d21d1af	0.03950661
24	0xbe31e34a	-0.1737186
25	0x3da1600d	0.07879648
26	0xbe11c8ac	-0.14236706
27	0xbdd7566c	-0.105145305
28	0x3e5a8130	0.21338344
29	0xbd50eb58	-0.05100569
30	0x3e0c38d7	0.13693558
31	0xbe185736	-0.14877018
32	0x3d0b7e7e	0.03405618
33	0xbe0d643c	-0.13807768
34	0x3de2550e	0.11051379
35	0x3d5ffa5d	0.054682124
36	0xbd82e177	-0.0639066
37	0x3e16ac61	0.14714195
38	0x3e12e54a	0.1434528
39	0xbdb472f0	-0.08810985
40	0xbe58c4a2	-0.2116876
41	0xbe3f46b9	-0.18679322
42	0x3e3c8f52	0.18414047
43	0xbd8ff79e	-0.07029651
44	0x3db9706c	0.09054646
45	0xbde3d64e	-0.1112486
46	0x3e18001c	0.14843792
47	0xbe3054be	-0.17219827
48	0xbca88b8d	-0.020574355
49	0x3e8efbb2	0.27926403
50	0x3eb3847a	0.3506201
51	0xbe1702f0	-0.14747214
52	0x3dfb19a4	0.1226075
53	0xbd340a13	-0.04395492
54	0xbe8cebea	-0.27523738
55	0xbd0406ad	-0.03223293
56	0xbc934191	-0.0179756
57	0xbeb7d421	-0.3590403
58	0xbe8fa740	-0.2805729
59	0x3d48096c	0.04883711
60	0x3cbea55f	0.023272214
61	0x3e284832	0.1643379
62	0xbd2e1943	-0.04250456
63	0x3db44690	0.08802521
64	0x3d3b1bd1	0.045680825
65	0x3e55d9a0	0.20883799
66	0x3d14bc13	0.036312174
67	0xbe379046	-0.1792613
68	0x3d556063	0.052093875
69	0x3e78792a	0.2426497
70	0xbe0c73d9	-0.13716067
71	0xbe778f5e	-0.24175784
72	0xbe197f30	-0.14989924
73	0xbd6bc3bb	-0.05755971
74	0x3e3e4ab4	0.18583184
75	0x3ce18505	0.027529249
76	0x3d95297b	0.072833024
77	0x3d215ef5	0.0393972
78	0xbdff8b21	-0.124777086
79	0xbd0b858a	-0.0340629
80	0xbbb8a24e	-0.0056345826
81	0x3ccf6f4a	0.025321621
82	0xbe3ae757	-0.18252312
83	0x3e807652	0.2509027
84	0xbce97ad9	-0.028500961
85	0x3d81af5b	0.063322745
86	0xbd09e105	-0.03366186
87	0xbdfc3ba9	-0.12316067
88	0xbddd8a62	-0.1081741
89	0x3e92a44d	0.28640977
90	0x3db7cae7	0.089742474
91	0x3c6e31cb	0.014538239
92	0xbd419f08	-0.047270805
93	0xbbbcb928	-0.005759377
94	0xbe0868e5	-0.13321264
95	0xbc434bda	-0.01191994
96	0xbdf51b09	-0.11968047
97	0x3df9dd62	0.122004285
98	0xbe0e9a04	-0.1392594
99	0xbe0bc8f6	-0.1365088
100	0xbd24883a	-0.04016898
101	0x3deecf22	0.11660601
102	0xbe19eceb	-0.15031783
103	0x3e4dcf90	0.2009871
104	0x3e8b2855	0.27179208
105	0x3d6496a8	0.05580774
106	0xbe185bdc	-0.14878792
107	0x3dd9d27e	0.10635851
108	0x3e2f73e9	0.1713406
109	0xbe25d0cb	-0.1619293
110	0xbd9f73eb	-0.077857815
111	0xbe194cdc	-0.14970726
112	0x3dd3523d	0.1031842
113	0xbdf579b2	-0.11986102
114	0x3e2b2fbc	0.16717428
115	0xbcf980b5	-0.03045688
116	0xbe692f79	-0.22772016
117	0xbbead148	-0.0071660616
118	0x3ea54196	0.322766
119	0xbd63a50f	-0.055577334
120	0xbd733849	-0.05937985
121	0xbd4d22ae	-0.0500819
122	0xbe3f6de2	-0.1869426
123	0xbc7111e3	-0.014713737
124	0x3d848324	0.064703256
125	0x3e0d461d	0.13796277
126	0xbdf94e81	-0.121731766
127	0xbcd6fe09	-0.02624418
128	0x3e26d8b0	0.16293597
129	0xbe67b530	-0.22627711
130	0xbe07fc9c	-0.13279957
131	0x3cc56f87	0.024101032
132	0x3d3c16c5	0.045920152
133	0x3dfa0359	0.1220767
134	0xbb0b23aa	-0.0021230974
135	0xbbffb786	-0.00780386
136	0x3d96e45c	0.07367775
137	0xbdb7d758	-0.089766204
138	0x3e300bd5	0.17192014
139	0x3cf7461d	0.0301848
140	0x3bb786b4	0.0056007747
141	0x3d425353	0.047442745
142	0x3ccdfcc8	0.02514495
143	0xbced8a77	-0.02899669
144	0x3e0aa141	0.13538076
145	0x3d728232	0.059206195
146	0xbd7519d5	-0.05983909
147	0xbe086139	-0.13318338
148	0x3e2f5053	0.17120485
149	0xbe8753e5	-0.26431194
150	0x3aebc954	0.0017989078
151	0xbc046253	-0.008080083
152	0x3d57d67a	0.052694775
153	0xbc75ba38	-0.014998011
154	0xbe06dda1	-0.13170482
155	0x3dc77748	0.09739548
156	0xbe0a344a	-0.13496509
157	0x3d711018	0.05885324
158	0xbe3445a7	-0.17604695
159	0x3d989457	0.074501686
160	0x3dfbce1e	0.12295173
161	0xbdeaeac2	-0.11470558
162	0xbe342049	-0.17590441
163	0xbd345b42	-0.044032343
164	0xbd7bf4ca	-0.061512746
165	0x3e08c5b6	0.1335667
166	0x3d389f41	0.04507375
167	0xbe8eefab	-0.27917227
168	0x3e959c2f	0.2922072
169	0xbe1a11a1	-0.15045787
170	0xbe1a970a	-0.1509668
171	0xbe250243	-0.16114144
172	0xbcfc96fd	-0.030833716
173	0xbd2228bc	-0.03958963
174	0x3d25f068	0.040512472
175	0x3e115ede	0.14196345
176	0x3e1c9724	0.1529203
177	0x3e726420	0.23671007
178	0x3e47d965	0.19516523
179	0x3de134f7	0.1099643
180	0x3e235273	0.1594942
181	0xbe41b75e	-0.18917605
182	0x3d23c8b0	0.039986312
183	0x3d979dd3	0.074031495
184	0xbd70b666	-0.0587677
185	0xbe1e1246	-0.15436658
186	0x3db8202d	0.08990512
187	0xbd140a78	-0.036142796
188	0xbcddb2d1	-0.027062805
189	0x3a26d35c	0.00063638925
190	0xbe64aea1	-0.2233224
191	0xbe4e1faf	-0.20129274
192	0x3de3958b	0.111125074
193	0xbde5a3fd	-0.11212919
194	0xbd7fee8d	-0.06248336
195	0x3d792a65	0.060831446
196	0x39785396	0.00023682261
197	0xbe1a42bd	-0.15064521
198	0xbd691994	-0.05690916
199	0xbd175a84	-0.036951557
200	0x3def8912	0.11696066
201	0x3e6cda26	0.23130092
202	0x3be8b06f	0.0071011106
203	0xbde0d9b2	-0.10979022
204	0xbe3acf5f	-0.18243168
205	0x3e02a858	0.1275953
206	0x3d7c9c1c	0.061672315
207	0x3c372517	0.0111782765
208	0x3d1ddc15	0.038539965
209	0xbd78d34b	-0.06074838
210	0xbd485d7c	-0.04891728
211	0x3e1a52df	0.15070675
212	0xbe06fc8e	-0.1318228
213	0x3ccc6a8c	0.02495315
214	0xbd113acc	-0.035456464
215	0x3cd3f180	0.025871992
216	0xbe4b8411	-0.19874598
217	0x3dc7b89b	0.097520076
218	0x3d000ba4	0.0312611
219	0xbd5c1498	-0.053730577
220	0xbce22e1e	-0.027609881
221	0x3d354a88	0.04426053
222	0x3a2a5427	0.0006497525
223	0xbd9dac14	-0.07698837
224	0x3cf5e3fb	0.030015936
225	0xbd8d3e44	-0.06896642
226	0xbe1724e0	-0.1476016
227	0x3e9650fe	0.29358667
228	0x3dc01765	0.09379462
229	0x3e278039	0.16357507
230	0x3d2eeed0	0.042708218
231	0x3d612665	0.054968257
232	0x3d2e01d3	0.04248221
233	0xbe16cb8b	-0.14726083
234	0xbd4ff9a7	-0.050775196
235	0xbd6ea2ec	-0.058260843
236	0x3d2caa53	0.04215462
237	0xbda3d372	-0.07999314
238	0xbe838818	-0.2568977
239	0x3e00c792	0.1257613
240	0x3df856f2	0.121259585
241	0x3dc34959	0.09535474
242	0x3c7c17c3	0.015386525
243	0xbe7944d7	-0.24342667
244	0x3e5b16bd	0.21395393
245	0x3e4b6a30	0.19864726
246	0x3d411ef0	0.047148645
247	0xbe079c50	-0.13243222
248	0xbe325dba	-0.17418566
249	0xbd144848	-0.036201745
250	0xbe021948	-0.12704957
251	0xbdfa589f	-0.122239344
252	0xbdd15a93	-0.10222354
253	0x3d1c47a0	0.038154244
254	0x3d5f1501	0.05446339
255	0xbd9779e9	-0.073962994

network_body._body_endoder.seq_layers.0.bias f4 [128]
0	0xbc8065ad	-0.015673483
1	0x3b4336a6	0.0029787212
2	0x3b398843	0.0028309978
3	0x3b1796d7	0.002313068
4	0x3aeab3e6	0.0017906397
5	0x3c8e21ff	0.017350195
6	0x3ad01acd	0.0015877128
7	0xbbe2d321	-0.006922141
8	0x3c1df2f7	0.009640447
9	0xbb7664d7	-0.0037596726
10	0xbc248e8f	-0.010043754
11	0x3bea9da2	0.0071599046
12	0x3c1afd5e	0.0094598215
13	0xbc934c6e	-0.01798078
14	0xbc950c9a	-0.018194485
15	0xbbf8f59b	-0.007597638
16	0xbc531dd1	-0.012885527
17	0xbc913d90	-0.01772955
18	0xbcd060d6	-0.0254368
19	0x3c8907e8	0.016727403
20	0xbc20ebf6	-0.0098218825
21	0x3ac08962	0.0014689381
22	0x3cc836cc	0.024440192
23	0x3b8c7e7c	0.004287539
24	0xbcc9c5ca	-0.024630446
25	0xbc2afa13	-0.010435599
26	0x3bb19633	0.0054195165
27	0x3cafd6d6	0.021464746
28	0x3c41d060	0.011829466
29	0x3a44bd22	0.00075049896
30	0x3a4d9ec9	0.000784379
31	0x3c804260	0.01565665
32	0x3cc38d88	0.023871198
33	0xbc838c27	-0.01605804
34	0xbbd8e5ad	-0.0066191764
35	0xbc1c6b37	-0.009547046
36	0xbc72935c	-0.014805641
37	0x3c2d74f5	0.010586967
38	0xbaa91753	-0.0012900628
39	0x3c89c32a	0.016816694
40	0x3b88a861	0.004170463
41	0x3cac4b2c	0.021031938
42	0xbc48bb02	-0.012251617
43	0xbd0a73f1	-0.033801977
44	0x3b999850	0.0046873465
45	0xbd1bf17f	-0.038072105
46	0x3b035161	0.002003752
47	0xbc97087f	-0.018436668
48	0xbc90f915	-0.017696897
49	0xbbddc710	-0.006768115
50	0xbc9af482	-0.018915419
51	0x3b88cd94	0.0041748974
52	0x3cece97c	0.028919928
53	0x3cbd9e74	0.023146845
54	0xbb67f295	-0.0035392393
55	0x3caf8663	0.021426385
56	0x3b2e147a	0.0026562498
57	0xbbb992f8	-0.005663272
58	0x3cab1b31	0.02088699
59	0xbb295089	-0.0025835356
60	0xbc865959	-0.016400026
61	0x3cbd6b7e	0.023122545
62	0xbb47e066	-0.0030498742
63	0x3c17cd4a	0.009265253
64	0x3ba24d19	0.0049530384
65	0xbb2a68f9	-0.002600251
66	0xbc03f3d8	-0.008053742
67	0x3c5d2866	0.013498401
68	0xbcb9e4b5	-0.022692064
69	0xbc55706e	-0.013027294
70	0x3cb63191	0.022240432
71	0x3c6ba3bf	0.014382302
72	0x3c82a4ba	0.015947688
73	0x3c6b5e38	0.014365725
74	0xbcafeec4	-0.021476157
75	0x3c8905e5	0.016726444
76	0x3bea7edf	0.0071562375
77	0x3ac09be9	0.0014694902
78	0xbcdc3fb2	-0.026885841
79	0x3ca02c14	0.019552268
80	0xbb97e79d	-0.0046357648
81	0x3d1df4a5	0.03856339
82	0x3c8f14fa	0.017466057
83	0x3cc92ae8	0.024556592
84	0x3cc8b041	0.024498107
85	0x3c9cb7d9	0.019130634
86	0xb917a00a	-0.00014460101
87	0xbc4d42df	-0.01252815
88	0x3c332b09	0.010935553
89	0xbcae51c7	-0.021279229
90	0x3c998270	0.018738955
91	0xbb949549	-0.0045343977
92	0x3badd6ce	0.0053051477
93	0xbba9c2f3	-0.0051807105
94	0xbbd2d65f	-0.0064342464
95	0x3d29e883	0.041481506
96	0xbd0cb3af	-0.034351047
97	0x3c3eb588	0.01163996
98	0x3c7e5192	0.015522378
99	0x3c9d35b7	0.019190652
100	0xbbb9ae93	-0.005666563
101	0x39bc8a9f	0.00035961435
102	0x3c06774d	0.008207154
103	0x3c7ed5f9	0.015553945
104	0x3c3d5644	0.011556212
105	0x3ca66140	0.020310044
106	0xbc5ff1f5	-0.013668527
107	0xbc8f2cac	-0.017477356
108	0xbb2bf94c	-0.0026241122
109	0x3c9c8cf6	0.019110184
110	0xbb41af4c	-0.0029553948
111	0xbb477bf6	-0.0030438877
112	0x3d49c2d3	0.049258064
113	0x3b0a09e0	0.0021063015
114	0xbc8d2005	-0.017227182
115	0xbc0cf8b0	-0.008604214
116	0x3c13b37e	0.009014962
117	0xbc254f5b	-0.010089721
118	0xbd2960fc	-0.041352257
119	0xbc637be9	-0.013884523
120	0xbca526f9	-0.020160185
121	0x3c33dbde	0.010977713
122	0xbb574fc8	-0.003285395
123	0xbc60088d	-0.013673914
124	0x3cdd30d7	0.027000828
125	0x3995933a	0.00028529187
126	0x3c47ff12	0.01220681
127	0x3c9da055	0.019241491

network_body._body_endoder.seq_layers.2.weight f4 [128, 128]
0	0x3e379f03	0.17931752
1	0xbe1bea18	-0.15226018
2	0xbd8b8e89	-0.06814296
3	0x3d70b9e3	0.058771025
4	0xbcdbd5c4	-0.02683533
5	0x3c56dcbf	0.013114153
6	0xbdcacb6f	-0.09902083
7	0x3c0038a9	0.007826009
8	0x3d0dec68	0.034649283
9	0xbca05e14	-0.01957611
10	0xbcf029f2	-0.029316876
11	0x3c94ca24	0.018162794
12	0x3d5f973e	0.054587595
13	0x3d746d10	0.059674323
14	0xbb8303c9	-0.003998254
15	0x3ddce534	0.107859045
16	0x3d617519	0.055043314
17	0xbd81041e	-0.062996134
18	0xbdcea794	-0.10090557
19	0xbd09afb0	-0.033614814
20	0xbe16796a	-0.14694753
21	0x3d6944be	0.056950323
22	0xbd627ad2	-0.05529291
23	0xbdcd32c2	-0.10019447
24	0xbc4d2ddd	-0.012523142
25	0xbe4a8dbe	-0.19780633
26	0xbd1db37c	-0.038501248
27	0x3c3ed61b	0.011647726
28	0x3db280fb	0.08716007
29	0x3e5f3044	0.21795756
30	0xbcbcc114	-0.023041286
31	0xbcfa1ef9	-0.030532347
32	0x3cffa34d	0.031205798
33	0xba93a0ae	-0.0011263096
34	0x3e161c4d	0.14659233
35	0xbe6c8d21	-0.23100711
36	0x3e28b366	0.16474685
37	0x3c011921	0.007879526
38	0xbdc000c9	-0.0937515
39	0xbdb6fb00	-0.08934593
40	0x3d64ad19	0.05582914
41	0x3dd3da6b	0.10344394
42	0xbc01e8dc	-0.007929053
43	0xbd411dcb	-0.047147553
44	0xbddea04f	-0.1087042
45	0x3d90d2b7	0.07071441
46	0x3dc09a7c	0.094044656
47	0xbd94ec3d	-0.072716214
48	0xbc606455	-0.013695796
49	0x3c95bc2d	0.018278206
50	0xbe3b04bf	-0.18263529
51	0x3cfd8dee	0.030951466
52	0x3e8ea076	0.27856797
53	0xbaf857b8	-0.0018947041
54	0x3d3ac8a0	0.045601487
55	0xbd631c25	-0.055446763
56	0xbd841489	-0.06449229
57	0xbc37feab	-0.011230151
58	0xbcbb16c9	-0.022838013
59	0xbc67044f	-0.014100148
60	0xbc9f3fff	-0.019439695
61	0x3d21e3e6	0.03952398
62	0x3c864a7c	0.016392939
63	0xbdfd5895	-0.12370411
64	0x3e385508	0.18001187
65	0xbdbb238c	-0.091376394
66	0x3dad5504	0.08463481
67	0xbc3de569	-0.01159034
68	0xbe2c2d6b	-0.168142
69	0xbd8be872	-0.06831445
70	0x3dc54fad	0.096343376
71	0x3c8dbc2f	0.017301647
72	0xbcd4e637	-0.025988681
73	0x3dffcc17	0.12490099
74	0xbcf9a440	-0.030473828
75	0xbbe4e374	-0.0069851223
76	0xbdc1edaf	-0.09469163
77	0xbd801c85	-0.0625544
78	0xbd2c8bea	-0.04212562
79	0x3e10bfac	0.14135617
80	0x3dee21fd	0.116275765
81	0x3ca0410c	0.019562267
82	0xbc2b14cc	-0.01044197
83	0x3bb60086	0.0055542616
84	0x3ddf0e31	0.10891379
85	0x3e367503	0.17818074
86	0x3cf71f41	0.03016627
87	0xbcc3542b	-0.023843845
88	0x3d92f397	0.07175367
89	0xbd310db8	-0.043225974
90	0xbdd87a35	-0.10570184
91	0xbd9ea83e	-0.077469334
92	0x3d6a150e	0.057148986
93	0xbb69859e	-0.003563262
94	0xbdc02d66	-0.09383659
95	0x3e21f5ae	0.15816376
96	0xbd3602b5	-0.044436175
97	0xbdefbfde	-0.11706518
98	0x3d80b6db	0.06284877
99	0xbe01b463	-0.12666468
100	0xbd1915ce	-0.03737431
101	0xbddf7691	-0.109112866
102	0x3e4bfb33	0.19920044
103	0x3dac4612	0.08411802
104	0x3da334ad	0.079690315
105	0xbbb25309	-0.0054420275
106	0xbdb3da7a	-0.087819055
107	0x3c8efdd3	0.017455017
108	0xbc3ac2c5	-0.011398976
109	0xbdb6cddf	-0.089259855
110	0xbd950ec2	-0.072782055
111	0xbddbad1a	-0.10726376
112	0x3da617ee	0.08110033
113	0x3e07f73f	0.1327791
114	0x3e538f5d	0.20660158
115	0xbbe49cad	-0.006976685
116	0x3e70fbb7	0.23533522
117	0xbd287340	-0.041125536
118	0xbd186126	-0.037202023
119	0xbb511e9e	-0.0031909118
120	0xbc49e002	-0.012321474
121	0x3c807342	0.01567996
122	0xbd241bfb	-0.040065747
123	0x3e43c171	0.19116761
124	0x3c44f13f	0.012020408
125	0x3d881276	0.06644146
126	0xbde99e77	-0.11407178
127	0x3d515575	0.05110689
128	0x3d488ec9	0.048964296
129	0x3c055c55	0.008139689
130	0xbdaafc5f	-0.08348917
131	0xbd898828	-0.06715423
132	0xbd8c495c	-0.0684993
133	0x3dd158c1	0.102220066
134	0x3ce7201e	0.028213557
135	0xbdb24345	-0.08704237
136	0x3dc32704	0.09528926
137	0xbd1faed8	-0.038985103
138	0xbe020908	-0.12698758
139	0x3d284958	0.04108557
140	0x3d4e909d	0.050430883
141	0xbcc7ebb6	-0.024404388
142	0xbd806883	-0.06269934
143	0x3d80ed3b	0.06295248
144	0xbd683f22	-0.056700833
145	0x3d6cf355	0.057849247
146	0x3db529c7	0.08845859
147	0x3d970a36	0.073749945
148	0xbdabf522	-0.08396365
149	0xbe34dcaf	-0.17662309
150	0xbc6fa7c8	-0.0146274045
151	0x3cddd6ed	0.027080024
152	0xbd0e6a2f	-0.034769233
153	0x3d7c16fb	0.061545353
154	0x3e164614	0.1467517
155	0xbcc214bf	-0.023691533
156	0xbab4833d	-0.0013772022
157	0xbd4c63dc	-0.04989992
158	0xba7bd2e2	-0.0009606314
159	0x3d141397	0.036151495
160	0x3d27c198	0.04095611
161	0xbc89e0c8	-0.016830817
162	0xbd19ee4a	-0.037580766
163	0xbda4b05d	-0.08041451
164	0x3d8c93b4	0.0686411
165	0xbd0ac45c	-0.03387867
166	0x3d9815c3	0.07426026
167	0x3d6c5435	0.057697494
168	0x3c62ea2a	0.013849774
169	0x3bd612b3	0.006532991
170	0x3dedb31a	0.116064265
171	0xbdb7a18a	-0.08966358
172	0x3d9578c0	0.07298422
173	0xbe719c08	-0.23594677
174	0xbc4a9684	-0.012364987
175	0x3d71f684	0.059072986
176	0x3e2aa9b2	0.16666296
177	0x3c946861	0.018116178
178	0x3d9c2cff	0.0762577
179	0x3c786ae7	0.015162206
180	0xbe290bec	-0.16508454
181	0xbd977655	-0.07395617
182	0x3a8d1e65	0.0010766505
183	0x3da8bf09	0.08239562
184	0x3da302c4	0.07959512
185	0x3dd6d050	0.10488951
186	0x3dc5f3fe	0.096656784
187	0x3de908df	0.11378645
188	0xbbb24491	-0.0054403027
189	0x3da93b67	0.08263283
190	0xbddb12fc	-0.1069698
191	0x3bf040d3	0.0073319464
192	0x3e108bf5	0.1411589
193	0x3db86fed	0.09005723
194	0xbb3132db	-0.002703837
195	0x3ca1a19e	0.019730385
196	0x3d8b24d7	0.06794136
197	0xbd24098a	-0.04004816
198	0xbd571ede	-0.05251967
199	0x3ba07976	0.004897292
200	0xbc864133	-0.016388511
201	0x3dc414cf	0.095742814
202	0xbbddb4d8	-0.006765943
203	0xbda77e1e	-0.08178352
204	0xbda4bd18	-0.08043879
205	0xbded9da8	-0.11602336
206	0xbd72c839	-0.05927298
207	0x3d16c3f5	0.036807973
208	0x3da767b6	0.08174078
209	0x3c815ab3	0.01579032
210	0xbe288fb4	-0.16461068
211	0xbd713d84	-0.058896556
212	0x3d41519d	0.047196973
213	0xbc2d588f	-0.010580196
214	0xbd94092e	-0.072283134
215	0xbdbcdf2d	-0.09222255
216	0xbd3ec2eb	-0.046572607
217	0x3c08d417	0.008351347
218	0xbdb54b98	-0.08852309
219	0xbdccb52a	-0.09995492
220	0x3d5a95f2	0.053365655
221	0x3d33dd63	0.043912303
222	0xbd5b4678	-0.053534
223	0x3d8dde26	0.06927137
224	0xbd20f5ce	-0.039296918
225	0x3dede0cb	0.116151415
226	0x3d84b532	0.06479873
227	0xbe1029d1	-0.14078452
228	0x3d289c4b	0.041164678
229	0x3ca29cf8	0.01985024
230	0x3e19cd15	0.15019639
231	0xbd9f8c4d	-0.07790432
232	0xbc9b9b03	-0.018994814
233	0x3d316807	0.0433121
234	0xbdb49294	-0.0881702
235	0xbd5b589c	-0.0535513
236	0xbdef190b	-0.116746984
237	0xbe80cbfc	-0.25155628
238	0x3d97dada	0.074147895
239	0xbe2f9ca9	-0.17149605
240	0xbdbadb76	-0.0912389
241	0xbcb5de3c	-0.022200696
242	0x3daf5de4	0.0856283
243	0xbd6dcba1	-0.058055524
244	0x3acf5ed6	0.001582111
245	0xbdf01c6f	-0.11724173
246	0x3c4dc5a7	0.012559331
247	0x3c742dc7	0.014903492
248	0x3d4b6934	0.049660876
249	0xbbceab1e	-0.00630702
250	0xbe0064e5	-0.12538488
251	0xbd2066d9	-0.039160583
252	0xbdc5498e	-0.0963317
253	0xbc2c062b	-0.010499517
254	0xbd71226e	-0.058870725
255	0x3d6c6b72	0.057719655

network_body._body_endoder.seq_layers.2.bias f4 [128]
0	0x3c909440	0.017648816
1	0xbc623688	-0.013806947
2	0x3c7fa33f	0.015602886
3	0x3c8a2c77	0.016866906
4	0xbb2c77d6	-0.0026316545
5	0x3d0cc54a	0.034367837
6	0x3cb91667	0.02259369
7	0xbbbbefad	-0.0057353587
8	0xbca3d079	-0.019996868
9	0xbc390b18	-0.011294149
10	0xbc82d375	-0.015969971
11	0x3cde63f5	0.027147273
12	0x3c604c0a	0.013690004
13	0xbc655958	-0.013998352
14	0xbc7c1863	-0.015386674
15	0xbb9fd307	-0.0048774513
16	0x3b95d5be	0.004572599
17	0xbb3f075b	-0.0029148671
18	0xbc2ff9af	-0.010740682
19	0x3c80014e	0.015625622
20	0xbba5ae85	-0.0050562047
21	0xbc803e19	-0.01565461
22	0x3c945a66	0.018109512
23	0x3c205f66	0.00978837
24	0x3c9418f9	0.018078314
25	0xbb418c05	-0.002953292
26	0x38e8540f	0.00011078279
27	0x3c000c4d	0.007815433
28	0xbaa1b0b4	-0.0012335987
29	0xbc8758f7	-0.016521914
30	0xbc35ae24	-0.011088882
31	0x3cc66f06	0.024222862
32	0xbc4ef947	-0.012632675
33	0x3c81857f	0.015810726
34	0x3c0b7de9	0.008513906
35	0xbbc9c29e	-0.0061572334
36	0x3cac5e90	0.021041185
37	0xbc77b05c	-0.015117731
38	0xbc62563f	-0.013814508
39	0xbc852ebc	-0.016257636
40	0xbc73f5c2	-0.014890136
41	0xbbe69c90	-0.0070377067
42	0x3ac92678	0.0015346548
43	0xbca3532e	-0.019937124
44	0x3c95d075	0.018287877
45	0xbc7f42e8	-0.015579917
46	0x3c75194c	0.0149596445
47	0xbc6d0ed5	-0.014468868
48	0x3b94b749	0.004538451
49	0xbc5a8f36	-0.013339808
50	0x3c313bc0	0.010817468
51	0xbbe11277	-0.0068686563
52	0xbbfa7b84	-0.0076441187
53	0x3b843c7b	0.00403553
54	0x3c8e5a73	0.017377114
55	0x3c83f7f9	0.016109454
56	0x3c64f353	0.013974029
57	0x3c96866f	0.01837465
58	0x3c12a97e	0.008951543
59	0x3c26c3c5	0.010178511
60	0x3cad01fa	0.021119107
61	0x3cbf10de	0.023323473
62	0xbbe31bc0	-0.0069307983
63	0x3beacef7	0.0071657854
64	0x3c948370	0.01812908
65	0x3ca68f55	0.020332018
66	0xbc1522ed	-0.009102565
67	0xbc52d7e0	-0.012868851
68	0xbca12503	-0.019670969
69	0xbc4e7e46	-0.012603348
70	0xbc9eca97	-0.019383712
71	0x3bbc36eb	0.0057438514
72	0x3bd2c55f	0.00643222
73	0x3c3e501e	0.011615781
74	0xbc0ea356	-0.0087059345
75	0xbce285ac	-0.02765163
76	0xbcad4426	-0.02115066
77	0xbc654803	-0.01399422
78	0xbb46a557	-0.0030310953
79	0x3c300a5e	0.010744659
80	0x3c76e4f6	0.015069237
81	0xbc646661	-0.013940425
82	0xbbf56c55	-0.007489721
83	0x3bb4fad7	0.0055230665
84	0x3c48028c	0.0122076385
85	0xbbedb1b9	-0.007253852
86	0x3c63e33b	0.013909156
87	0xbc3e9da8	-0.011634268
88	0x3c816ee7	0.015799953
89	0xbc533bd0	-0.012892678
90	0x3cfa7fd9	0.03057854
91	0xbc59fd7b	-0.013305063
92	0xbc670bfd	-0.014101979
93	0x3bb59425	0.005541342
94	0xbc39f2e2	-0.011349412
95	0xbc4e55f0	-0.012593731
96	0xbc300c20	-0.010745078
97	0x3cd8e2d8	0.026475355
98	0xbc2bff01	-0.010497809
99	0xbc619b9f	-0.013770013
100	0x3c9aaba2	0.018880669
101	0xbc8c5c75	-0.01713393
102	0xbc69607d	-0.014244196
103	0xbc5a7095	-0.013332506
104	0xbc68e9aa	-0.014215866
105	0xbc972a5b	-0.018452814
106	0x3c907e18	0.017638251
107	0xba901fdc	-0.0010995823
108	0xbc0878de	-0.008329598
109	0x3c6534ee	0.01398967
110	0xbc950f6b	-0.018195828
111	0x3cc6e44c	0.024278782
112	0x3c4efc03	0.012633326
113	0x3b58981f	0.0033049656
114	0x3bb44f37	0.005502607
115	0xbc043260	-0.008068651
116	0x3c78fceb	0.015197019
117	0x3cf488e2	0.029850427
118	0xbc2a0a44	-0.010378424
119	0xbcb227ff	-0.021747587
120	0x3c842355	0.016130129
121	0xbc71533f	-0.01472932
122	0x3c9e1217	0.019295735
123	0xbc134f04	-0.008991007
124	0x3ca06e97	0.019583983
125	0x3c6ce303	0.014458421
126	0xbc1fbf4d	-0.0097501995
127	0xbb27b44c	-0.0025589643

action_model._discrete_distribution.branches.0.weight f4 [3, 128]
0	0xbcff90fb	-0.031197062
1	0xbade55f9	-0.0016962878
2	0xbc258fe9	-0.010105112
3	0xbc52631a	-0.0128410105
4	0x3c42bb9d	0.011885551
5	0xbcdd3f56	-0.02700774
6	0x3b79ff2f	0.0038146486
7	0xbb847ce3	-0.004043208
8	0x3b36715e	0.0027838568
9	0x3c12e947	0.00896675
10	0x3cc419c7	0.023938073
11	0xbcb1f7da	-0.02172463
12	0xba9691df	-0.0011487565
13	0xba74af80	-0.0009334013
14	0x3c57ee39	0.013179355
15	0xbc2a6b83	-0.010401609
16	0x3c577b5f	0.013151973
17	0xbb526dee	-0.003210898
18	0x3c888d54	0.016668953
19	0xbc54a0f6	-0.012977829
20	0x3d2214fc	0.039570794
21	0x3c667554	0.014066059
22	0xbc5c1ef2	-0.013435112
23	0xbb986dfe	-0.004651784
24	0xbc7feed3	-0.015620905
25	0x3d0b75a6	0.034047745
26	0x3c860fee	0.016365018
27	0x3ba960b9	0.005169001
28	0x3c9d0314	0.019166507
29	0x3c1e2975	0.009653439
30	0x3c0cb4cf	0.00858803
31	0xbd0602ff	-0.0327177
32	0xb9ee4ee7	-0.00045453684
33	0xbc36aede	-0.01115009
34	0xbb469d06	-0.0030305996
35	0x3cb33033	0.02187357
36	0xbcd3be66	-0.025847625
37	0x3cc1bb9f	0.023649035
38	0x3c0c5a49	0.0085664475
39	0x3ca11bb0	0.019666523
40	0x3ceab68e	0.028651502
41	0x3c3837db	0.011243786
42	0xbb56bbf8	-0.0032765847
43	0x3ca3b6f8	0.019984707
44	0xbccf1794	-0.025279798
45	0x3c94629e	0.01811343
46	0xbc4bd031	-0.012439773
47	0x3ca4274f	0.020038275
48	0x3c03d9ce	0.008047534
49	0x3caf84ff	0.021425722
50	0xbafb71ec	-0.0019183732
51	0x3ca85490	0.020548135
52	0xbb18b84d	-0.0023303211
53	0xbbc83533	-0.0061098575
54	0xbcaff319	-0.021478223
55	0xbc6be513	-0.014397877
56	0xbb2bdc66	-0.0026223897
57	0xbc4ec2c6	-0.01261968
58	0x3b0789f0	0.0020681582
59	0x3b869d5f	0.0041081156
60	0xbca862e9	-0.020554977
61	0xbc95c481	-0.018282177
62	0x386ffc93	5.721727e-05
63	0x3c5d2fc8	0.0135001615
64	0xbcfc398b	-0.030789157
65	0xbc68fc06	-0.014220243
66	0x3c04648a	0.008080611
67	0xba71c6b9	-0.00092230324
68	0x3c3cb2c9	0.011517235
69	0x3c66802e	0.014068646
70	0x3cb40a58	0.021977589
71	0x3c986b2c	0.018605791
72	0x3bdd733b	0.0067581213
73	0xbc6157e0	-0.013753861
74	0x3cf463a2	0.029832665
75	0x3cd027dc	0.025409631
76	0x3cae5d0f	0.021284608
77	0x3a0da924	0.0005403927
78	0x3c2708b4	0.010194946
79	0x3c208f5f	0.009799807
80	0xbc284e29	-0.010272541
81	0x3c62104b	0.01379783
82	0x3c98337a	0.018579233
83	0x3a7c0e47	0.00096151646
84	0xbcb89e2c	-0.02253636
85	0x3c3fb59a	0.011701012
86	0xba897db0	-0.0010489728
87	0x3cabce48	0.020972386
88	0xbc4d67c0	-0.012536943
89	0x3ab1314f	0.0013518723
90	0xbd4aebfc	-0.04954146
91	0x3cd04cab	0.025427183
92	0x3c4c766f	0.012479409
93	0xbb41874f	-0.0029530113
94	0xbc420c65	-0.011843775
95	0x3b8ec80f	0.004357345
96	0xba59b652	-0.0008305061
97	0xbbafe8f8	-0.005368348
98	0x3bc03cea	0.0058666365
99	0x3cefb5d7	0.029261513
100	0xbbb63789	-0.0055608195
101	0x3ca93a41	0.02065766
102	0x3cbb952c	0.02289828
103	0xbb7f656e	-0.003897037
104	0x3ca7a15c	0.020462684
105	0x3c7f20fc	0.015571829
106	0xbc9e3131	-0.019310566
107	0x3c9c2fd4	0.019065775
108	0xbbfb144d	-0.007662332
109	0xbc0ce0c4	-0.00859851
110	0x3bcb0d54	0.006196657
111	0xbcc04418	-0.02346997
112	0xbc9a10ad	-0.01880678
113	0xbc1dbbcd	-0.009627295
114	0xbd061b92	-0.032741137
115	0x3ca4416a	0.020050723
116	0xbbc8ffb7	-0.006133999
117	0xbca1f603	-0.019770628
118	0xbbc3ebe8	-0.00597905
119	0x3c923d6a	0.01785155
120	0xbbf41ff3	-0.0074500977
121	0x3cd00ba4	0.025396176
122	0xbc63e0b3	-0.013908553
123	0x3ca746bb	0.02041947
124	0xbc708d37	-0.014682106
125	0xbc36e9cc	-0.01116414
126	0xbb9544b6	-0.00455531
127	0x3c66482d	0.014055294
128	0x3c768592	0.015046494
129	0xbbf71fd0	-0.007541634
130	0x3c7431a8	0.014904417
131	0x3caadb55	0.020856539
132	0x3ae1b031	0.0017218647
133	0x3d0e5da7	0.034757283
134	0x3c315888	0.01082433
135	0xbc2cf28d	-0.0105558755
136	0xbc3c7298	-0.011501931
137	0x3c2a91d2	0.010410743
138	0xbd10b742	-0.03533102
139	0x3c88b60c	0.01668837
140	0x3c518694	0.012788434
141	0xbad7dd81	-0.0016469212
142	0xbb76bac2	-0.0037647937
143	0xbc4fd673	-0.012685406
144	0x3af0bfbc	0.0018367688
145	0x3bf8c458	0.0075917654
146	0xbc6366f4	-0.013879526
147	0x3c41d754	0.011831123
148	0xbc66d2fc	-0.0140883885
149	0xbc95607d	-0.018234486
150	0x3cf88c8f	0.030340461
151	0x3c68af86	0.014202004
152	0x3cba12b2	0.022713993
153	0xbd0d9402	-0.03456498
154	0xbcca96ea	-0.024730165
155	0x3c2ab83b	0.0104199005
156	0xbd265839	-0.04061148
157	0xbc9f96b0	-0.019481033
158	0xbc43f4b4	-0.011960197
159	0x3d015b23	0.031581055
160	0xbc744ca3	-0.01491085
161	0x3c8f7dc4	0.017516024
162	0x3ba478cd	0.0050192834
163	0xba5739ea	-0.0008210229
164	0x3cd78b9b	0.026311686
165	0xbcf85c8f	-0.030317573
166	0x39bd61c4	0.0003612173
167	0xbca77737	-0.020442588
168	0xbca0b040	-0.019615293
169	0xbd34ec68	-0.044170767
170	0x3c3c681b	0.01149943
171	0xbcaeac24	-0.021322317
172	0x3c8a9d3e	0.016920682
173	0xbc9c819c	-0.019104771
174	0x3ca60b5d	0.02026909
175	0xbc34a569	-0.011025765
176	0x3af00a17	0.0018313554
177	0xbc8b044d	-0.016969824
178	0x3c5fb5b9	0.013654166
179	0xbc32dd8a	-0.010917077
180	0x391eb0e3	0.0001513395
181	0x3c06638b	0.008202444
182	0x3cb04da9	0.021521406
183	0x3c8f01dc	0.017456941
184	0x3ca97c1c	0.020689063
185	0x3c9f38ae	0.019436207
186	0x3c796f26	0.015224254
187	0x3c7e7916	0.015531799
188	0x3c9445c4	0.018099673
189	0x3ce72fe3	0.028221076
190	0xbc1cbcd3	-0.009566504
191	0xbbbe8307	-0.0058139595
192	0x3c3b4138	0.011429124
193	0x3cf1d2c9	0.029519456
194	0xbcbccaa0	-0.023045838
195	0xbb01cdef	-0.0019806584
196	0xbc8c2e87	-0.01711203
197	0xbcd28962	-0.025700275
198	0xbcb2036c	-0.021730147
199	0x3c3c2f14	0.011485834
200	0x3c293ffd	0.010330197
201	0x3bd12996	0.0063831313
202	0xbcd3419a	-0.025788117
203	0xbca7e923	-0.02049691
204	0xbc7c42ea	-0.015396813
205	0xbc74168a	-0.014897952
206	0xbb2d26aa	-0.002642075
207	0x3ba6a742	0.0050858567
208	0x3cb0a99e	0.021565255
209	0xbd0324e0	-0.03201759
210	0xbcb0f851	-0.021602781
211	0xbb58f645	-0.0033105772
212	0x3c0862ac	0.008324306
213	0xbc3d3a2a	-0.011549512
214	0x3cbc01e8	0.022950128
215	0xbca1cf80	-0.019752264
216	0x3cad4b75	0.021154145
217	0xba4b7bb5	-0.0007762269
218	0x3d01fb22	0.03173364
219	0xbd1ebe65	-0.038755793
220	0xbc6f16e1	-0.014592857
221	0x3b665584	0.0035146186
222	0xbc2f4109	-0.010696658
223	0xbc3ecf92	-0.011646168
224	0xbce337a1	-0.027736487
225	0x3d1bbd6b	0.03802244
226	0xbc5ad407	-0.013356215
227	0xbc82fc56	-0.015989464
228	0x3ce72dfd	0.028220171
229	0xbcb345b4	-0.021883823
230	0xbca70b78	-0.02039121
231	0xbc91e434	-0.017809011
232	0xbcf4a752	-0.02986494
233	0xbc34cb01	-0.011034728
234	0x3c8f0158	0.017456695
235	0xbcced82f	-0.025249569
236	0xbc8c64ee	-0.01713797
237	0x3c79f503	0.015256169
238	0xbcce26e3	-0.025165027
239	0x3cdb5611	0.026774438
240	0x3bf1b530	0.0073763356
241	0x3b827ba0	0.0039820224
242	0x3bb2fcfd	0.0054622875
243	0xbc9a5acb	-0.018842122
244	0x3c01b3d7	0.007916412
245	0x3cd6f652	0.026240502
246	0xbbb46250	-0.005504884
247	0xbca9e5db	-0.020739486
248	0x3cbc8f34	0.023017503
249	0xbd0fa5b8	-0.03507015
250	0x3cc64c51	0.024206312
251	0xbc677070	-0.014125928
252	0x3cb9f68a	0.022700567
253	0x3bfc38fa	0.007697222
254	0xbc5fa0f3	-0.013649213
255	0xbc4fc848	-0.012682028

action_model._discrete_distribution.branches.0.bias f4 [3]
0	0xbc922a78	-0.017842516
1	0x3c884e7b	0.016638985
2	0xbc4899fd	-0.012243745

exp_avg f4 [128, 64]
0	0x00000000	0.0
1	0xb59c6d04	-1.1654633e-06
2	0x22a7f3b0	4.5523455e-18
3	0xb4930b75	-2.738922e-07
4	0xb527c8a9	-6.2504347e-07
5	0x00000000	0.0
6	0xb59b99a5	-1.1593116e-06
7	0xb49658ef	-2.8004385e-07
8	0x1f399054	3.929466e-20
9	0xb52b32d5	-6.3776434e-07
10	0x00000000	0.0
11	0xb59c6d04	-1.1654633e-06
12	0xb4930b75	-2.738922e-07
13	0x00000000	0.0
14	0xb5233d5b	-6.0811516e-07
15	0x00000000	0.0
16	0xb5644da9	-8.504963e-07
17	0xb51e121b	-5.8885934e-07
18	0xa1db9c24	-1.4881347e-18
19	0xb4f83a00	-4.62358e-07
20	0x00000000	0.0
21	0xb5347fd2	-6.724123e-07
22	0xb54ddff2	-7.6694334e-07
23	0x00000000	0.0
24	0xb4ea1d2b	-4.360712e-07
25	0x00000000	0.0
26	0xb5128003	-5.457552e-07
27	0xb56fdfc1	-8.9360043e-07
28	0x229a7db8	4.1874894e-18
29	0xb4c1586f	-3.6013395e-07
30	0x00000000	0.0
31	0xb4feeb37	-4.7482328e-07
32	0xb5817515	-9.645324e-07
33	0x1f07a42c	2.8723162e-20
34	0xb4aee844	-3.257902e-07
35	0x00000000	0.0
36	0xb506ceeb	-5.0219995e-07
37	0xb57b90d5	-9.3715545e-07
38	0x22b8880e	5.0017353e-18
39	0xb4bede77	-3.5552122e-07
40	0x00000000	0.0
41	0xb4e686ea	-4.2939e-07
42	0xb5878e25	-1.0099653e-06
43	0x1f2d7d58	3.6737857e-20
44	0xb4a9ea15	-3.164902e-07
45	0x00000000	0.0
46	0xb53684e6	-6.7993676e-07
47	0xb54bdad8	-7.594185e-07
48	0x22a7f3b0	4.5523455e-18
49	0xb4c1fe43	-3.613405e-07
50	0x00000000	0.0
51	0xb52a646c	-6.347607e-07
52	0xb557fb56	-8.0459483e-07
53	0x1e5af474	1.1591376e-20
54	0xb4b6dfd2	-3.4062992e-07
55	0x00000000	0.0
56	0xb6f6d82c	-7.356537e-06
57	0x00000000	0.0
58	0xb7565f74	-1.2777618e-05
59	0xb6ca02dc	-6.020402e-06
60	0x00000000	0.0
61	0xb54fe3f8	-7.744525e-07
62	0xb715b1e4	-8.9225105e-06
63	0xb76c80bc	-1.40966695e-05
64	0x00000000	0.0
65	0xb408e8ea	-1.275072e-07
66	0x22870e12	3.660672e-18
67	0x32904001	1.6792912e-08
68	0x364403a3	2.9208393e-06
69	0x00000000	0.0
70	0x31e9f2c2	6.808791e-09
71	0xb3fc610d	-1.1752318e-07
72	0x1f35e295	3.8515665e-20
73	0x3633f60e	2.6816301e-06
74	0x00000000	0.0
75	0xb408e8ea	-1.275072e-07
76	0x32904001	1.6792912e-08
77	0x00000000	0.0
78	0x364c86d0	3.047684e-06
79	0x00000000	0.0
80	0xb6f4e363	-7.298238e-06
81	0x36f12c5d	7.1875243e-06
82	0x20a1625e	2.7339555e-19
83	0x36344191	2.6860255e-06
84	0x00000000	0.0
85	0xb6b2fb9d	-5.334105e-06
86	0x36af4493	5.2233895e-06
87	0x00000000	0.0
88	0x361a09cf	2.2953498e-06
89	0x00000000	0.0
90	0xb7099555	-8.200605e-06
91	0x3707b9d3	8.089893e-06
92	0x23132935	7.977612e-18
93	0x35fc61bd	1.8803909e-06
94	0x00000000	0.0
95	0xb70b5127	-8.30394e-06
96	0x370975a6	8.1932285e-06
97	0x1f08a4b3	2.8935356e-20
98	0x35a60501	1.236942e-06
99	0x00000000	0.0
100	0xb6ee20c4	-7.096767e-06
101	0x36ea69bf	6.986054e-06
102	0x22e9e4d3	6.3397054e-18
103	0x359dac2d	1.1747521e-06
104	0x00000000	0.0
105	0xb6eedf60	-7.118957e-06
106	0x36eb285d	7.0082447e-06
107	0x1f34b9af	3.8270076e-20
108	0x352990eb	6.316829e-07
109	0x00000000	0.0
110	0xb68dbde1	-4.2242323e-06
111	0x368a06dc	4.113519e-06
112	0x22870e12	3.660672e-18
113	0x35108d54	5.384984e-07
114	0x00000000	0.0
115	0xb68977da	-4.0968707e-06
116	0x3685c0d4	3.986157e-06
117	0x1e26f8ad	8.839392e-21
118	0x33f33bf5	1.13264754e-07
119	0x00000000	0.0
120	0x345a78d5	2.034679e-07
121	0x00000000	0.0
122	0x3603b4e9	1.9625825e-06
123	0xb50b829e	-5.197161e-07
124	0x00000000	0.0
125	0x32b82ee4	2.1441743e-08
126	0x36a21b0d	4.8311254e-06
127	0x35db1bb7	1.6324838e-06
128	0x00000000	0.0
129	0xb5c2a75e	-1.4502837e-06
130	0x23a596c7	1.7953193e-17
131	0xb3ff9fb2	-1.1903411e-07
132	0x35f9a849	1.8600923e-06
133	0x00000000	0.0
134	0xb5a8e4d8	-1.2583578e-06
135	0xb4a6f206	-3.1096005e-07
136	0x1eefde82	2.5397136e-20
137	0x35eae449	1.7500798e-06
138	0x00000000	0.0
139	0xb5c2a75e	-1.4502837e-06
140	0xb3ff9fb2	-1.1903411e-07
141	0x00000000	0.0
142	0x3603204f	1.9539327e-06
143	0x00000000	0.0
144	0xb711abcf	-8.682676e-06
145	0x36eeaf45	7.113357e-06
146	0xa39dd9f9	-1.7114289e-17
147	0x36066c73	2.0030682e-06
148	0x00000000	0.0
149	0xb6deb5da	-6.637286e-06
150	0x36aa0d7f	5.067966e-06
151	0x00000000	0.0
152	0x35e15596	1.6788715e-06
153	0x00000000	0.0
154	0xb7023b30	-7.7623845e-06
155	0x36cfce09	6.1930664e-06
156	0x23ce74d0	2.2384037e-17
157	0x35a58cef	1.2334475e-06
158	0x00000000	0.0
159	0xb7053505	-7.939762e-06
160	0x36d5c1b3	6.370444e-06
161	0x1db2115f	4.713417e-21
162	0x353aff18	6.966161e-07
163	0x00000000	0.0
164	0xb6ecadcf	-7.053582e-06
165	0x36b80576	5.484263e-06
166	0x23c53cc3	2.1384516e-17
167	0x35382294	6.859566e-07
168	0x00000000	0.0
169	0xb6efc430	-7.1455943e-06
170	0x36bb1bd7	5.5762753e-06
171	0x1ef4c602	2.5916399e-20
172	0x346c881c	2.2028729e-07
173	0x00000000	0.0
174	0xb680a42e	-3.8338103e-06
175	0x3617f7ad	2.264492e-06
176	0x23a596c7	1.7953193e-17
177	0x33a47f73	7.660028e-08
178	0x00000000	0.0
179	0xb6801e6f	-3.81824e-06
180	0x3616ec2e	2.2489216e-06
181	0x1ed118a3	2.2138925e-20
182	0xb4a750c4	-3.116494e-07
183	0x00000000	0.0
184	0xb6e20add	-6.7365895e-06
185	0x00000000	0.0
186	0xb72f4ceb	-1.0448722e-05
187	0xb6debf9f	-6.638423e-06
188	0x00000000	0.0
189	0xb53e5ceb	-7.091573e-07
190	0x378026eb	1.5276912e-05
191	0xb73fedcf	-1.1439856e-05
192	0x00000000	0.0
193	0x3691d7ef	4.3464747e-06
194	0x223b1276	2.5352999e-18
195	0xb4618f03	-2.1006785e-07
196	0x36403819	2.8642883e-06
197	0x00000000	0.0
198	0x3698b90b	4.551495e-06
199	0xb4ded8ef	-4.1508562e-07
200	0x1fdd16ce	9.363487e-20
201	0x3633138b	2.6684454e-06
202	0x00000000	0.0
203	0x3691d7ef	4.3464747e-06
204	0xb4618f03	-2.1006785e-07
205	0x00000000	0.0
206	0x364ad975	3.0226922e-06
207	0x00000000	0.0
208	0xb64b8353	-3.0325798e-06
209	0x36f08d29	7.1689906e-06
210	0xa0b6c25f	-3.0960623e-19
211	0x364b3594	3.0280544e-06
212	0x00000000	0.0
213	0xb516a34b	-5.6116977e-07
214	0x369d9fe9	4.6975806e-06
215	0x00000000	0.0
216	0x3639415c	2.7605192e-06
217	0x00000000	0.0
218	0xb67e3cdf	-3.788438e-06
219	0x3704f4f7	7.924848e-06
220	0x22169c46	2.0411521e-18
221	0x362051c1	2.3889445e-06
222	0x00000000	0.0
223	0xb6764d59	-3.6701879e-06
224	0x3702f917	7.8066e-06
225	0x1f5c2d57	4.6624316e-20
226	0x35f696cf	1.8372319e-06
227	0x00000000	0.0
228	0xb688b52f	-4.0742084e-06
229	0x3709c059	8.210621e-06
230	0x2216da1e	2.044426e-18
231	0x36007efa	1.9147396e-06
232	0x00000000	0.0
233	0xb68325b7	-3.908495e-06
234	0x3706f89d	8.044907e-06
235	0x1fd64529	9.074694e-20
236	0x35c1734f	1.441318e-06
237	0x00000000	0.0
238	0xb5d59063	-1.5911759e-06
239	0x36c02f95	5.727585e-06
240	0x223b1276	2.5352999e-18
241	0x35c3a7e3	1.4577494e-06
242	0x00000000	0.0
243	0xb5c0e6eb	-1.4372321e-06
244	0x36bb0537	5.5736414e-06
245	0x1f46642b	4.2010988e-20
246	0x359a52cb	1.149799e-06
247	0x00000000	0.0
248	0x37b0c059	2.1070404e-05
249	0x00000000	0.0
250	0x3815c3bb	3.5706656e-05
251	0x37cf59e1	2.4718176e-05
252	0x00000000	0.0
253	0x3614dbd7	2.2181682e-06
254	0x382a9320	4.066818e-05
255	0x3811233a	3.46035e-05

exp_avg_sq f4 [128, 64]
0	0x00000000	0.0
1	0x2e3c4f88	4.281689e-11
2	0x2edb972f	9.9858226e-11
3	0x2f1a4dbe	1.4033838e-10
4	0x2f2cfe5c	1.5733675e-10
5	0x00000000	0.0
6	0x2dcf6273	2.3576896e-11
7	0x2f3f134b	1.7378203e-10
8	0x2e9e4f74	7.199122e-11
9	0x2f7c9b40	2.2974422e-10
10	0x00000000	0.0
11	0x2e359907	4.129055e-11
12	0x2f740d3d	2.2196374e-10
13	0x00000000	0.0
14	0x2f0a6030	1.25852e-10
15	0x00000000	0.0
16	0x2d7e102b	1.4441818e-11
17	0x2f4a8899	1.8420322e-10
18	0x2ebc8343	8.572567e-11
19	0x2f117e2f	1.3232503e-10
20	0x00000000	0.0
21	0x2e1356cc	3.350102e-11
22	0x2f81ff9f	2.3646593e-10
23	0x00000000	0.0
24	0x2e6482b8	5.19573e-11
25	0x00000000	0.0
26	0x2d2cc9e0	9.821893e-12
27	0x2f5e53cd	2.0220554e-10
28	0x2eca3bb7	9.196504e-11
29	0x2f01299d	1.1747266e-10
30	0x00000000	0.0
31	0x2e2d74bd	3.943933e-11
32	0x2f69cac8	2.1263269e-10
33	0x2d0cf98c	8.013489e-12
34	0x2e6441e6	5.1899728e-11
35	0x00000000	0.0
36	0x2cdd24d3	6.285286e-12
37	0x2f5b4a96	1.9944432e-10
38	0x2ee30401	1.0323476e-10
39	0x2f02e4cc	1.1904716e-10
40	0x00000000	0.0
41	0x2e082569	3.0956047e-11
42	0x2f8f4ffc	2.606838e-10
43	0x2e1163d3	3.3057845e-11
44	0x2ec13776	8.786476e-11
45	0x00000000	0.0
46	0x2cbe6129	5.4109117e-12
47	0x2f6dacb4	2.1616381e-10
48	0x2edb972f	9.9858226e-11
49	0x2ef71263	1.1235526e-10
50	0x00000000	0.0
51	0x2d9c7910	1.778891e-11
52	0x2f75caa5	2.2354614e-10
53	0x2e8843a6	6.196581e-11
54	0x2ef302ed	1.10508803e-10
55	0x00000000	0.0
56	0x32271e0c	9.727511e-09
57	0x00000000	0.0
58	0x3155684a	3.105486e-09
59	0x310c4ea2	2.041738e-09
60	0x00000000	0.0
61	0x2eecec21	1.07739824e-10
62	0x32c53913	2.2959773e-08
63	0x32852c5a	1.5503407e-08
64	0x00000000	0.0
65	0x30c8d4f9	1.4612446e-09
66	0x2dee525f	2.7094047e-11
67	0x2d65aaa9	1.3055037e-11
68	0x2f4d91c7	1.8696432e-10
69	0x00000000	0.0
70	0x30bedb77	1.3886695e-09
71	0x2e947b4f	6.752165e-11
72	0x2cd46bef	6.0373854e-12
73	0x2f59f0b6	1.9821553e-10
74	0x00000000	0.0
75	0x30c9104c	1.4629307e-09
76	0x2e2b3acc	3.893312e-11
77	0x00000000	0.0
78	0x2f621427	2.056174e-10
79	0x00000000	0.0
80	0x305c675f	8.0182433e-10
81	0x30036821	4.78055e-10
82	0x2d0350c4	7.4644214e-12
83	0x2f3fa4a1	1.7429837e-10
84	0x00000000	0.0
85	0x307c96ad	9.189119e-10
86	0x2fe61d92	4.1857767e-10
87	0x00000000	0.0
88	0x2f3b94c6	1.7060406e-10
89	0x00000000	0.0
90	0x30242aca	5.972366e-10
91	0x303d432d	6.885326e-10
92	0x2d67c756	1.3175091e-11
93	0x2f125a99	1.331081e-10
94	0x00000000	0.0
95	0x3045dbd1	7.198056e-10
96	0x30282988	6.1177063e-10
97	0x2c14ff7f	2.1173894e-12
98	0x2f0e34e4	1.2933615e-10
99	0x00000000	0.0
100	0x2fda85e4	3.9749104e-10
101	0x3087a23a	9.86865e-10
102	0x2d870751	1.5350972e-11
103	0x2f010e32	1.1737525e-10
104	0x00000000	0.0
105	0x30069f27	4.8975085e-10
106	0x307d8c08	9.223986e-10
107	0x2c7e6934	3.615397e-12
108	0x2f04c434	1.2075035e-10
109	0x00000000	0.0
110	0x2eff8d2a	1.1621133e-10
111	0x30a8845c	1.2261228e-09
112	0x2dee525f	2.7094047e-11
113	0x2f15a10f	1.360869e-10
114	0x00000000	0.0
115	0x2f13a0ff	1.342677e-10
116	0x30a5171f	1.2011901e-09
117	0x2c720f75	3.4398849e-12
118	0x2f137045	1.3409458e-10
119	0x00000000	0.0
120	0x3314b9da	3.4627966e-08
121	0x00000000	0.0
122	0x33b06ecf	8.2157946e-08
123	0x332c6ce4	4.0145906e-08
124	0x00000000	0.0
125	0x2fd2f892	3.8375397e-10
126	0x33d189f4	9.7574144e-08
127	0x33b81187	8.571356e-08
128	0x00000000	0.0
129	0x304b6ce7	7.400573e-10
130	0x2ed05d3d	9.475307e-11
131	0x2e88f285	6.227644e-11
132	0x2f30d7a2	1.6083715e-10
133	0x00000000	0.0
134	0x3037272f	6.6630695e-10
135	0x2f2281b4	1.4779894e-10
136	0x2dce86b3	2.3479307e-11
137	0x2f470f36	1.8104349e-10
138	0x00000000	0.0
139	0x304ab8ca	7.3749773e-10
140	0x2f13906c	1.3420881e-10
141	0x00000000	0.0
142	0x2f305c25	1.6039843e-10
143	0x00000000	0.0
144	0x2fb87201	3.355041e-10
145	0x2fd7cccb	3.9253786e-10
146	0x2e18b856	3.4724522e-11
147	0x2f156ebd	1.3590813e-10
148	0x00000000	0.0
149	0x2ff3078e	4.420681e-10
150	0x2fba20e0	3.3856562e-10
151	0x00000000	0.0
152	0x2efcf8a1	1.15037986e-10
153	0x00000000	0.0
154	0x2f6a6d78	2.1321067e-10
155	0x300f7730	5.219247e-10
156	0x2e819184	5.8920896e-11
157	0x2f029e26	1.1879617e-10
158	0x00000000	0.0
159	0x2fb99a01	3.376073e-10
160	0x2ff9c137	4.5430124e-10
161	0x2cc9ffc0	5.7411575e-12
162	0x2ed01bb9	9.4636694e-11
163	0x00000000	0.0
164	0x2f17f815	1.3821506e-10
165	0x302aea40	6.217853e-10
166	0x2e99b12f	6.9891086e-11
167	0x2efa829f	1.1391887e-10
168	0x00000000	0.0
169	0x2f7a6f45	2.2776898e-10
170	0x30173d30	5.502043e-10
171	0x2d58fb35	1.2333958e-11
172	0x2ee870bc	1.0570164e-10
173	0x00000000	0.0
174	0x2e8d9268	6.4379446e-11
175	0x303cf738	6.874532e-10
176	0x2ed05d3d	9.475307e-11
177	0x2f138707	1.3417543e-10
178	0x00000000	0.0
179	0x2ec9b4f7	9.1725676e-11
180	0x30334024	6.521097e-10
181	0x2db380f8	2.0407218e-11
182	0x2f0ca397	1.2791045e-10
183	0x00000000	0.0
184	0x32b12e37	2.0626528e-08
185	0x00000000	0.0
186	0x3345db46	4.6067065e-08
187	0x32b09c1b	2.0560085e-08
188	0x00000000	0.0
189	0x2f7b4cab	2.2855555e-10
190	0x33c86179	9.330956e-08
191	0x336a129d	5.44993e-08
192	0x00000000	0.0
193	0x30acadc9	1.256404e-09
194	0x2f671f56	2.102046e-10
195	0x2ec0ecb6	8.7731974e-11
196	0x2fb33e31	3.26041e-10
197	0x00000000	0.0
198	0x308a3ce2	1.0058125e-09
199	0x2f74321a	2.220947e-10
200	0x2f5f4107	2.0304834e-10
201	0x300f4bc9	5.2130794e-10
202	0x00000000	0.0
203	0x30ae96fc	1.2703079e-09
204	0x2fae1116	3.1662556e-10
205	0x00000000	0.0
206	0x2fba19a1	3.3851413e-10
207	0x00000000	0.0
208	0x2fbcecc0	3.4365222e-10
209	0x303a588a	6.779223e-10
210	0x2f63401c	2.0668306e-10
211	0x2fe98a5f	4.2480772e-10
212	0x00000000	0.0
213	0x301ca646	5.698876e-10
214	0x30463e56	7.2120565e-10
215	0x00000000	0.0
216	0x2f8d42be	2.5695174e-10
217	0x00000000	0.0
218	0x2f54c476	1.9351085e-10
219	0x30783b9c	9.0306584e-10
220	0x2f6a3c04	2.1303498e-10
221	0x2fc633c8	3.6052783e-10
222	0x00000000	0.0
223	0x2f94cdc6	2.7067254e-10
224	0x30877dfc	9.85835e-10
225	0x2dabe960	1.9544089e-11
226	0x2f6d9787	2.1608858e-10
227	0x00000000	0.0
228	0x2f035aaf	1.1946598e-10
229	0x308f4e54	1.0426882e-09
230	0x2f6c0811	2.1466941e-10
231	0x2fb60db7	3.3115352e-10
232	0x00000000	0.0
233	0x2f21b9cd	1.4708874e-10
234	0x309b8ff8	1.1318653e-09
235	0x2ec1a081	8.805135e-11
236	0x2f87529f	2.4615063e-10
237	0x00000000	0.0
238	0x2e46bb70	4.5186466e-11
239	0x309f6977	1.1598748e-09
240	0x2f671f56	2.102046e-10
241	0x2fb46e3a	3.282013e-10
242	0x00000000	0.0
243	0x2ec57b4b	8.980424e-11
244	0x309df9e6	1.1494279e-09
245	0x2f33c3a7	1.6349465e-10
246	0x2fa9da8d	3.089621e-10
247	0x00000000	0.0
248	0x3327cc0c	3.9068297e-08
249	0x00000000	0.0
250	0x33bc304e	8.763219e-08
251	0x331c2fe8	3.636515e-08
252	0x00000000	0.0
253	0x2fedeb60	4.3277293e-10
254	0x33db1da6	1.0203375e-07
255	0x33ee602c	1.1100232e-07

exp_avg f4 [128]
0	0xb5c13edb	-1.4397914e-06
1	0xb3ec94cd	-1.1016673e-07
2	0xb5d29e83	-1.5692352e-06
3	0x368acd5a	4.1366266e-06
4	0xb62b13f3	-2.5492598e-06
5	0x3736cd2e	1.08958175e-05
6	0xb6828d16	-3.8907265e-06
7	0x35b78c05	1.3675314e-06
8	0x378902cf	1.633298e-05
9	0x36f98283	7.435972e-06
10	0xb68050c6	-3.8241005e-06
11	0x37889946	1.6283837e-05
12	0x375ad0db	1.30424405e-05
13	0x363b7cb7	2.7937765e-06
14	0x356115bd	8.3850665e-07
15	0xb609467f	-2.0455625e-06
16	0x365a8c32	3.2566136e-06
17	0x35c2f68b	1.452588e-06
18	0x3798fa16	1.8236267e-05
19	0x37c30b10	2.3250963e-05
20	0x366e1af1	3.5480446e-06
21	0x364a3843	3.0133094e-06
22	0x3697dc42	4.525792e-06
23	0xb6cc1568	-6.082166e-06
24	0x36845299	3.943522e-06
25	0xb76f5de7	-1.4267373e-05
26	0xb724fb98	-9.8337405e-06
27	0xb66fcebb	-3.5734108e-06
28	0xb50fad82	-5.352414e-07
29	0x364b83f8	3.0326173e-06
30	0x365c3758	3.281477e-06
31	0x376b576c	1.4027446e-05
32	0xb7b3d77a	-2.1438802e-05
33	0x3614c396	2.2167565e-06
34	0x37aedcb5	2.0845191e-05
35	0x36f09d90	7.1709e-06
36	0xb6302089	-2.6244982e-06
37	0x373eb714	1.1367509e-05
38	0xb6c4da56	-5.866673e-06
39	0xb8194ac9	-3.654769e-05
40	0x3532fd34	6.6678626e-07
41	0xb7402e26	-1.1454837e-05
42	0xb6257693	-2.4655935e-06
43	0x35bcd2b5	1.4068415e-06
44	0xb7e96af9	-2.7825577e-05
45	0x34f32218	4.5287084e-07
46	0x378972bb	1.6385098e-05
47	0xb748c321	-1.1966361e-05
48	0x36af898d	5.2314194e-06
49	0xb8028317	-3.1116502e-05
50	0x3635acb4	2.7071628e-06
51	0x370dbf86	8.448847e-06
52	0xb839db25	-4.431153e-05
53	0xb657f53f	-3.2180249e-06
54	0x362ceaa5	2.5766578e-06
55	0xb595a95c	-1.1150655e-06
56	0xb5afb0e5	-1.3089999e-06
57	0xb6d07647	-6.2126524e-06
58	0xb72b9c7d	-1.02288295e-05
59	0x32cb7f70	2.3690262e-08
60	0xb6c79886	-5.948418e-06
61	0x371a6f17	9.20498e-06
62	0x36f17a86	7.1966233e-06
63	0x36c40c56	5.8426913e-06
64	0x3764788a	1.3617924e-05
65	0x36f0ec37	7.1800564e-06
66	0xb561f139	-8.4170057e-07
67	0xb7461b1f	-1.1808034e-05
68	0x36fe722a	7.5830803e-06
69	0x37010f4f	7.6925635e-06
70	0xb520d73f	-5.991787e-07
71	0x375b5f78	1.3075645e-05
72	0xb752ffc5	-1.2576526e-05
73	0x37c49663	2.343505e-05
74	0x35029d9a	4.8658114e-07
75	0x3609a4d1	2.0510527e-06
76	0xb76ea142	-1.4223451e-05
77	0xb360b50d	-5.231873e-08
78	0x35fbbd5d	1.8756069e-06
79	0x379959bf	1.8280813e-05
80	0x37af1156	2.0869698e-05
81	0xb6a9a0d5	-5.055316e-06
82	0x37262e81	9.905199e-06
83	0x372dacfa	1.0351878e-05
84	0xb63b3e81	-2.7901553e-06
85	0x368d5dc0	4.2130414e-06
86	0x375b752d	1.3080699e-05
87	0xb6dda642	-6.605668e-06
88	0xb4e71919	-4.3045364e-07
89	0x354a95db	7.546893e-07
90	0xb685ef6f	-3.9915826e-06
91	0xb5bcd304	-1.4068505e-06
92	0xb59e8d84	-1.1813104e-06
93	0xb5c55ce2	-1.4704676e-06
94	0xb4f7254e	-4.6034478e-07
95	0x36a81f33	5.0104222e-06
96	0x36662864	3.4296181e-06
97	0xb6f634d2	-7.3375204e-06
98	0xb704fd86	-7.926841e-06
99	0x37a23d3c	1.934042e-05
100	0xb6ae8f63	-5.2022965e-06
101	0x3604ab17	1.976912e-06
102	0x37eed8bb	2.8472734e-05
103	0x3668736e	3.4637883e-06
104	0x3681b029	3.8650073e-06
105	0x3798c137	1.8209785e-05
106	0xb4e224b7	-4.2122494e-07
107	0x367cd8cf	3.7677125e-06
108	0xb73baf7b	-1.1186926e-05
109	0x36ce170f	6.141963e-06
110	0x3688aedc	4.073472e-06
111	0xb77ba903	-1.5000117e-05
112	0xb8099579	-3.2802553e-05
113	0x35b79a8e	1.3679544e-06
114	0x3786a55f	1.6051052e-05
115	0x36f3e77f	7.268914e-06
116	0xb4eb8398	-4.3867908e-07
117	0x36a60012	4.9471937e-06
118	0x36f8f336	7.4192894e-06
119	0x372e76c7	1.0398863e-05
120	0x36f08a39	7.1686486e-06
121	0x3781c525	1.5469801e-05
122	0x370b8b3c	8.317464e-06
123	0xb712e3dc	-8.755331e-06
124	0x35537250	7.876997e-07
125	0xb6409764	-2.869835e-06
126	0x368301a8	3.904297e-06
127	0x37f8abc3	2.9643887e-05

exp_avg_sq f4 [128]
0	0x2fac93e1	3.1391692e-10
1	0x30cc72e8	1.4875612e-09
2	0x3063a005	8.280952e-10
3	0x30dda8c5	1.6127834e-09
4	0x30faa8a5	1.8237826e-09
5	0x34a25e81	3.0243612e-07
6	0x3348ff66	4.6798412e-08
7	0x30418494	7.0401396e-10
8	0x3314b812	3.4626346e-08
9	0x31383169	2.680361e-09
10	0x3020eb61	5.8542154e-10
11	0x33ad98d5	8.08374e-08
12	0x33279f46	3.9027576e-08
13	0x30943e8e	1.0786196e-09
14	0x30bade5a	1.3596477e-09
15	0x3082131e	9.464178e-10
16	0x31bea19a	5.5480998e-09
17	0x30cc8a53	1.4882268e-09
18	0x315d6c45	3.2221277e-09
19	0x340b683c	1.2983304e-07
20	0x34be38d7	3.5431614e-07
21	0x327a65d4	1.4575068e-08
22	0x333b5c41	4.3623235e-08
23	0x3213e506	8.6086e-09
24	0x30cf5e2f	1.5088001e-09
25	0x33a30b54	7.5923396e-08
26	0x30a8c3e5	1.2279285e-09
27	0x3242368d	1.130469e-08
28	0x2f03290e	1.1928966e-10
29	0x30944d92	1.0790464e-09
30	0x327ba003	1.4646505e-08
31	0x34154110	1.3900376e-07
32	0x345c1568	2.0496884e-07
33	0x30213ed2	5.866073e-10
34	0x3097a384	1.103317e-09
35	0x33a6b714	7.763279e-08
36	0x309cd024	1.1409651e-09
37	0x32f33d76	2.8316872e-08
38	0x309aa17f	1.1250875e-09
39	0x33705a8b	5.5961703e-08
40	0x3218c5fd	8.892582e-09
41	0x3252fdfb	1.2281357e-08
42	0x32325242	1.0379667e-08
43	0x30b0c1b0	1.2860735e-09
44	0x33a5fcf2	7.729422e-08
45	0x307632b7	8.956635e-10
46	0x31f20e7e	7.0447745e-09
47	0x341a4bf4	1.4369999e-07
48	0x31721915	3.5229892e-09
49	0x338d76cc	6.587433e-08
50	0x30a9e476	1.2361301e-09
51	0x322f03a9	1.0187173e-08
52	0x340b7670	1.2988471e-07
53	0x30a6ba59	1.2131053e-09
54	0x2fdef905	4.0558504e-10
55	0x3104b5d9	1.9311897e-09
56	0x301f5b76	5.7973837e-10
57	0x31b17057	5.1641496e-09
58	0x33e69625	1.0737521e-07
59	0x2faf7ff0	3.192322e-10
60	0x30a09620	1.16842e-09
61	0x32f42026	2.8419958e-08
62	0x315fd7b5	3.2573386e-09
63	0x329b6710	1.8091242e-08
64	0x33222b6b	3.7758053e-08
65	0x33cf7d51	9.6619836e-08
66	0x318989f3	4.002908e-09
67	0x336d6483	5.5272277e-08
68	0x3171ce3a	3.5187342e-09
69	0x3349989d	4.693776e-08
70	0x328ef3a6	1.6641774e-08
71	0x33ee3537	1.10924184e-07
72	0x34356775	1.6894576e-07
73	0x34051d6c	1.2397294e-07
74	0x3079eafe	9.0919616e-10
75	0x30a905b9	1.2297995e-09
76	0x31c50060	5.7334972e-09
77	0x2f15638a	1.3586834e-10
78	0x30bb19c9	1.3613369e-09
79	0x34a1da41	3.0147388e-07
80	0x31e81926	6.7549477e-09
81	0x34b0922c	3.288891e-07
82	0x35473d1c	7.42222e-07
83	0x33345531	4.1986997e-08
84	0x3471a325	2.2504226e-07
85	0x34bd138d	3.5218218e-07
86	0x319418ee	4.310201e-09
87	0x3282396f	1.516011e-08
88	0x32827118	1.5185421e-08
89	0x310660cc	1.955459e-09
90	0x3115d752	2.180475e-09
91	0x303124d4	6.444456e-10
92	0x2f6359cb	2.067743e-10
93	0x302dbabe	6.320241e-10
94	0x3181381c	3.760773e-09
95	0x324f270f	1.2057867e-08
96	0x314c7aa6	2.9755625e-09
97	0x33f98af4	1.16202415e-07
98	0x2f4dbd64	1.8711926e-10
99	0x350be2bf	5.2111494e-07
100	0x31ed56eb	6.9074892e-09
101	0x32035662	7.644845e-09
102	0x32e20801	2.6313502e-08
103	0x34369434	1.7003987e-07
104	0x323fcd08	1.1164282e-08
105	0x344e4edf	1.9213938e-07
106	0x2f9a0a91	2.8019945e-10
107	0x30eea857	1.7364624e-09
108	0x3045d7aa	7.197466e-10
109	0x3301ab83	3.0191142e-08
110	0x3282b21c	1.5214987e-08
111	0x32876e5b	1.5766252e-08
112	0x343f85fb	1.7837003e-07
113	0x3269c31d	1.3606749e-08
114	0x32d5628a	2.4841274e-08
115	0x332e3e05	4.056894e-08
116	0x32dfab62	2.6038553e-08
117	0x30a19600	1.1756924e-09
118	0x30bca379	1.3725262e-09
119	0x3328faca	3.934364e-08
120	0x31ac6dbe	5.018335e-09
121	0x33304f34	4.1050228e-08
122	0x31324335	2.5940612e-09
123	0x333b5e0e	4.3624873e-08
124	0x322cbb38	1.0054286e-08
125	0x2e0e9de2	3.242729e-11
126	0x317b392c	3.6557806e-09
127	0x340f1aad	1.3327617e-07
