results/NewBirdAgent3/BirdAgent/BirdAgent-149433.onnx (onnx, 103045 bytes, 6 tensors)

action_model._discrete_distribution.branches.0.bias f4 [3]
00000000: 782a 92bc 7b4e 883c fd99 48bc
-0.017842516 0.016638985 -0.012243745

action_model._discrete_distribution.branches.0.weight f4 [3, 128]
00000000: fb90 ffbc f955 deba e98f 25bc 1a63 52bc
00000010: 9dbb 423c 563f ddbc 2fff 793b e37c 84bb
00000020: 5e71 363b 47e9 123c c719 c43c daf7 b1bc
00000030: df91 96ba 80af 74ba 39ee 573c 836b 2abc
00000040: 5f7b 573c ee6d 52bb 548d 883c f6a0 54bc
00000050: fc14 223d 5475 663c f21e 5cbc fe6d 98bb
00000060: d3ee 7fbc a675 0b3d ee0f 863c b960 a93b
00000070: 1403 9d3c 7529 1e3c cfb4 0c3c ff02 06bd
00000080: e74e eeb9 deae 36bc 069d 46bb 3330 b33c
00000090: 66be d3bc 9fbb c13c 495a 0c3c b01b a13c
000000a0: 8eb6 ea3c db37 383c f8bb 56bb f8b6 a33c
000000b0: 9417 cfbc 9e62 943c 31d0 4bbc 4f27 a43c
000000c0: ced9 033c ff84 af3c ec71 fbba 9054 a83c
000000d0: 4db8 18bb 3335 c8bb 19f3 afbc 13e5 6bbc
000000e0: 66dc 2bbb c6c2 4ebc f089 073b 5f9d 863b
000000f0: e962 a8bc 81c4 95bc 93fc 6f38 c82f 5d3c
00000100: 8b39 fcbc 06fc 68bc 8a64 043c b9c6 71ba
00000110: c9b2 3c3c 2e80 663c 580a b43c 2c6b 983c
00000120: 3b73 dd3b e057 61bc a263 f43c dc27 d03c
00000130: 0f5d ae3c 24a9 0d3a b408 273c 5f8f 203c
00000140: 294e 28bc 4b10 623c 7a33 983c 470e 7c3a
00000150: 2c9e b8bc 9ab5 3f3c b07d 89ba 48ce ab3c
00000160: c067 4dbc 4f31 b13a fceb 4abd ab4c d03c
00000170: 6f76 4c3c 4f87 41bb 650c 42bc 0fc8 8e3b
00000180: 52b6 59ba f8e8 afbb ea3c c03b d7b5 ef3c
00000190: 8937 b6bb 413a a93c 2c95 bb3c 6e65 7fbb
000001a0: 5ca1 a73c fc20 7f3c 3131 9ebc d42f 9c3c
000001b0: 4d14 fbbb c4e0 0cbc 540d cb3b 1844 c0bc
000001c0: ad10 9abc cdbb 1dbc 921b 06bd 6a41 a43c
000001d0: b7ff c8bb 03f6 a1bc e8eb c3bb 6a3d 923c
000001e0: f31f f4bb a40b d03c b3e0 63bc bb46 a73c
000001f0: 378d 70bc cce9 36bc b644 95bb 2d48 663c
00000200: 9285 763c d01f f7bb a831 743c 55db aa3c
00000210: 31b0 e13a a75d 0e3d 8858 313c 8df2 2cbc
00000220: 9872 3cbc d291 2a3c 42b7 10bd 0cb6 883c
00000230: 9486 513c 81dd d7ba c2ba 76bb 73d6 4fbc
00000240: bcbf f03a 58c4 f83b f466 63bc 54d7 413c
00000250: fcd2 66bc 7d60 95bc 8f8c f83c 86af 683c
00000260: b212 ba3c 0294 0dbd ea96 cabc 3bb8 2a3c
00000270: 3958 26bd b096 9fbc b4f4 43bc 235b 013d
00000280: a34c 74bc c47d 8f3c cd78 a43b ea39 57ba
00000290: 9b8b d73c 8f5c f8bc c461 bd39 3777 a7bc
000002a0: 40b0 a0bc 68ec 34bd 1b68 3c3c 24ac aebc
000002b0: 3e9d 8a3c 9c81 9cbc 5d0b a63c 69a5 34bc
000002c0: 170a f03a 4d04 8bbc b9b5 5f3c 8add 32bc
000002d0: e3b0 1e39 8b63 063c a94d b03c dc01 8f3c
000002e0: 1c7c a93c ae38 9f3c 266f 793c 1679 7e3c
000002f0: c445 943c e32f e73c d3bc 1cbc 0783 bebb
00000300: 3841 3b3c c9d2 f13c a0ca bcbc efcd 01bb
00000310: 872e 8cbc 6289 d2bc 6c03 b2bc 142f 3c3c
00000320: fd3f 293c 9629 d13b 9a41 d3bc 23e9 a7bc
00000330: ea42 7cbc 8a16 74bc aa26 2dbb 42a7 a63b
00000340: 9ea9 b03c e024 03bd 51f8 b0bc 45f6 58bb
00000350: ac62 083c 2a3a 3dbc e801 bc3c 80cf a1bc
00000360: 754b ad3c b57b 4bba 22fb 013d 65be 1ebd
00000370: e116 6fbc 8455 663b 0941 2fbc 92cf 3ebc
00000380: a137 e3bc 6bbd 1b3d 07d4 5abc 56fc 82bc
00000390: fd2d e73c b445 b3bc 780b a7bc 34e4 91bc
000003a0: 52a7 f4bc 01cb 34bc 5801 8f3c 2fd8 cebc
000003b0: ee64 8cbc 03f5 793c e326 cebc 1156 db3c
000003c0: 30b5 f13b a07b 823b fdfc b23b cb5a 9abc
000003d0: d7b3 013c 52f6 d63c 5062 b4bb dbe5 a9bc
000003e0: 348f bc3c b8a5 0fbd 514c c63c 7070 67bc
000003f0: 8af6 b93c fa38 fc3b f3a0 5fbc 48c8 4fbc
-0.031197062 -0.0016962878 -0.010105112 -0.0128410105 0.011885551 -0.02700774 0.0038146486 -0.004043208
0.0027838568 0.00896675 0.023938073 -0.02172463 -0.0011487565 -0.0009334013 0.013179355 -0.010401609
0.013151973 -0.003210898 0.016668953 -0.012977829 0.039570794 0.014066059 -0.013435112 -0.004651784
-0.015620905 0.034047745 0.016365018 0.005169001 0.019166507 0.009653439 0.00858803 -0.0327177
-0.00045453684 -0.01115009 -0.0030305996 0.02187357 -0.025847625 0.023649035 0.0085664475 0.019666523
0.028651502 0.011243786 -0.0032765847 0.019984707 -0.025279798 0.01811343 -0.012439773 0.020038275
0.008047534 0.021425722 -0.0019183732 0.020548135 -0.0023303211 -0.0061098575 -0.021478223 -0.014397877
-0.0026223897 -0.01261968 0.0020681582 0.0041081156 -0.020554977 -0.018282177 5.721727e-05 0.0135001615
-0.030789157 -0.014220243 0.008080611 -0.00092230324 0.011517235 0.014068646 0.021977589 0.018605791
0.0067581213 -0.013753861 0.029832665 0.025409631 0.021284608 0.0005403927 0.010194946 0.009799807
-0.010272541 0.01379783 0.018579233 0.00096151646 -0.02253636 0.011701012 -0.0010489728 0.020972386
-0.012536943 0.0013518723 -0.04954146 0.025427183 0.012479409 -0.0029530113 -0.011843775 0.004357345
-0.0008305061 -0.005368348 0.0058666365 0.029261513 -0.0055608195 0.02065766 0.02289828 -0.003897037
0.020462684 0.015571829 -0.019310566 0.019065775 -0.007662332 -0.00859851 0.006196657 -0.02346997
-0.01880678 -0.009627295 -0.032741137 0.020050723 -0.006133999 -0.019770628 -0.00597905 0.01785155
-0.0074500977 0.025396176 -0.013908553 0.02041947 -0.014682106 -0.01116414 -0.00455531 0.014055294
0.015046494 -0.007541634 0.014904417 0.020856539 0.0017218647 0.034757283 0.01082433 -0.0105558755
-0.011501931 0.010410743 -0.03533102 0.01668837 0.012788434 -0.0016469212 -0.0037647937 -0.012685406
0.0018367688 0.0075917654 -0.013879526 0.011831123 -0.0140883885 -0.018234486 0.030340461 0.014202004
0.022713993 -0.03456498 -0.024730165 0.0104199005 -0.04061148 -0.019481033 -0.011960197 0.031581055
-0.01491085 0.017516024 0.0050192834 -0.0008210229 0.026311686 -0.030317573 0.0003612173 -0.020442588
-0.019615293 -0.044170767 0.01149943 -0.021322317 0.016920682 -0.019104771 0.02026909 -0.011025765
0.0018313554 -0.016969824 0.013654166 -0.010917077 0.0001513395 0.008202444 0.021521406 0.017456941
0.020689063 0.019436207 0.015224254 0.015531799 0.018099673 0.028221076 -0.009566504 -0.0058139595
0.011429124 0.029519456 -0.023045838 -0.0019806584 -0.01711203 -0.025700275 -0.021730147 0.011485834
0.010330197 0.0063831313 -0.025788117 -0.02049691 -0.015396813 -0.014897952 -0.002642075 0.0050858567
0.021565255 -0.03201759 -0.021602781 -0.0033105772 0.008324306 -0.011549512 0.022950128 -0.019752264
0.021154145 -0.0007762269 0.03173364 -0.038755793 -0.014592857 0.0035146186 -0.010696658 -0.011646168
-0.027736487 0.03802244 -0.013356215 -0.015989464 0.028220171 -0.021883823 -0.02039121 -0.017809011
-0.02986494 -0.011034728 0.017456695 -0.025249569 -0.01713797 0.015256169 -0.025165027 0.026774438
0.0073763356 0.0039820224 0.0054622875 -0.018842122 0.007916412 0.026240502 -0.005504884 -0.020739486
0.023017503 -0.03507015 0.024206312 -0.014125928 0.022700567 0.007697222 -0.013649213 -0.012682028

network_body._body_endoder.seq_layers.0.bias f4 [128]
00000000: ad65 80bc a636 433b 4388 393b d796 173b
00000010: e6b3 ea3a ff21 8e3c cd1a d03a 21d3 e2bb
00000020: f7f2 1d3c d764 76bb 8f8e 24bc a29d ea3b
00000030: 5efd 1a3c 6e4c 93bc 9a0c 95bc 9bf5 f8bb
00000040: d11d 53bc 903d 91bc d660 d0bc e807 893c
00000050: f6eb 20bc 6289 c03a cc36 c83c 7c7e 8c3b
00000060: cac5 c9bc 13fa 2abc 3396 b13b d6d6 af3c
00000070: 60d0 413c 22bd 443a c99e 4d3a 6042 803c
00000080: 888d c33c 278c 83bc ade5 d8bb 376b 1cbc
00000090: 5c93 72bc f574 2d3c 5317 a9ba 2ac3 893c
000000a0: 61a8 883b 2c4b ac3c 02bb 48bc f173 0abd
000000b0: 5098 993b 7ff1 1bbd 6151 033b 7f08 97bc
000000c0: 15f9 90bc 10c7 ddbb 82f4 9abc 94cd 883b
000000d0: 7ce9 ec3c 749e bd3c 95f2 67bb 6386 af3c
000000e0: 7a14 2e3b f892 b9bb 311b ab3c 8950 29bb
000000f0: 5959 86bc 7e6b bd3c 66e0 47bb 4acd 173c
00000100: 194d a23b f968 2abb d8f3 03bc 6628 5d3c
00000110: b5e4 b9bc 6e70 55bc 9131 b63c bfa3 6b3c
00000120: baa4 823c 385e 6b3c c4ee afbc e505 893c
00000130: df7e ea3b e99b c03a b23f dcbc 142c a03c
00000140: 9de7 97bb a5f4 1d3d fa14 8f3c e82a c93c
00000150: 41b0 c83c d9b7 9c3c 0aa0 17b9 df42 4dbc
00000160: 092b 333c c751 aebc 7082 993c 4995 94bb
00000170: ced6 ad3b f3c2 a9bb 5fd6 d2bb 83e8 293d
00000180: afb3 0cbd 88b5 3e3c 9251 7e3c b735 9d3c
00000190: 93ae b9bb 9f8a bc39 4d77 063c f9d5 7e3c
000001a0: 4456 3d3c 4061 a63c f5f1 5fbc ac2c 8fbc
000001b0: 4cf9 2bbb f68c 9c3c 4caf 41bb f67b 47bb
000001c0: d3c2 493d e009 0a3b 0520 8dbc b0f8 0cbc
000001d0: 7eb3 133c 5b4f 25bc fc60 29bd e97b 63bc
000001e0: f926 a5bc dedb 333c c84f 57bb 8d08 60bc
000001f0: d730 dd3c 3a93 9539 12ff 473c 55a0 9d3c
-0.015673483 0.0029787212 0.0028309978 0.002313068 0.0017906397 0.017350195 0.0015877128 -0.006922141
0.009640447 -0.0037596726 -0.010043754 0.0071599046 0.0094598215 -0.01798078 -0.018194485 -0.007597638
-0.012885527 -0.01772955 -0.0254368 0.016727403 -0.0098218825 0.0014689381 0.024440192 0.004287539
-0.024630446 -0.010435599 0.0054195165 0.021464746 0.011829466 0.00075049896 0.000784379 0.01565665
0.023871198 -0.01605804 -0.0066191764 -0.009547046 -0.014805641 0.010586967 -0.0012900628 0.016816694
0.004170463 0.021031938 -0.012251617 -0.033801977 0.0046873465 -0.038072105 0.002003752 -0.018436668
-0.017696897 -0.006768115 -0.018915419 0.0041748974 0.028919928 0.023146845 -0.0035392393 0.021426385
0.0026562498 -0.005663272 0.02088699 -0.0025835356 -0.016400026 0.023122545 -0.0030498742 0.009265253
0.0049530384 -0.002600251 -0.008053742 0.013498401 -0.022692064 -0.013027294 0.022240432 0.014382302
0.015947688 0.014365725 -0.021476157 0.016726444 0.0071562375 0.0014694902 -0.026885841 0.019552268
-0.0046357648 0.03856339 0.017466057 0.024556592 0.024498107 0.019130634 -0.00014460101 -0.01252815
0.010935553 -0.021279229 0.018738955 -0.0045343977 0.0053051477 -0.0051807105 -0.0064342464 0.041481506
-0.034351047 0.01163996 0.015522378 0.019190652 -0.005666563 0.00035961435 0.008207154 0.015553945
0.011556212 0.020310044 -0.013668527 -0.017477356 -0.0026241122 0.019110184 -0.0029553948 -0.0030438877
0.049258064 0.0021063015 -0.017227182 -0.008604214 0.009014962 -0.010089721 -0.041352257 -0.013884523
-0.020160185 0.010977713 -0.003285395 -0.013673914 0.027000828 0.00028529187 0.01220681 0.019241491

network_body._body_endoder.seq_layers.0.weight f4 [128, 64]
00000000: 3a87 26be ffa4 77bd 38c6 8e3e df7b 1ebd
00000010: 9b2b ca3d c700 7f3d 0d4c 093e c4b2 9bbc
00000020: 5b14 0bbd 81fa 663d f692 1dbe ac24 c7bb
00000030: 14f4 dbbd 2cc8 6f3e 8771 b33d 4382 dc3d
00000040: 4181 0ebe 5229 dc3d 48fe cfbc a81e 433e
00000050: 204d 783e 90f7 a73d 6166 0c3d afd1 213d
00000060: 4ae3 31be 0d60 a13d acc8 11be 6c56 d7bd
00000070: 3081 5a3e 58eb 50bd d738 0c3e 3657 18be
00000080: 7e7e 0b3d 3c64 0dbe 0e55 e23d 5dfa 5f3d
00000090: 77e1 82bd 61ac 163e 4ae5 123e f072 b4bd
000000a0: a2c4 58be b946 3fbe 528f 3c3e 9ef7 8fbd
000000b0: 6c70 b93d 4ed6 e3bd 1c00 183e be54 30be
000000c0: 8d8b a8bc b2fb 8e3e 7a84 b33e f002 17be
000000d0: a419 fb3d 130a 34bd eaeb 8cbe ad06 04bd
000000e0: 9141 93bc 21d4 b7be 40a7 8fbe 6c09 483d
000000f0: 5fa5 be3c 3248 283e 4319 2ebd 9046 b43d
00000100: d11b 3b3d a0d9 553e 13bc 143d 4690 37be
00000110: 6360 553d 2a79 783e d973 0cbe 5e8f 77be
00000120: 307f 19be bbc3 6bbd b44a 3e3e 0585 e13c
00000130: 7b29 953d f55e 213d 218b ffbd 8a85 0bbd
00000140: 4ea2 b8bb 4a6f cf3c 57e7 3abe 5276 803e
00000150: d97a e9bc 5baf 813d 05e1 09bd a93b fcbd
00000160: 628a ddbd 4da4 923e e7ca b73d cb31 6e3c
00000170: 089f 41bd 28b9 bcbb e568 08be da4b 43bc
00000180: 091b f5bd 62dd f93d 049a 0ebe f6c8 0bbe
00000190: 3a88 24bd 22cf ee3d ebec 19be 90cf 4d3e
000001a0: 5528 8b3e a896 643d dc5b 18be 7ed2 d93d
000001b0: e973 2f3e cbd0 25be eb73 9fbd dc4c 19be
000001c0: 3d52 d33d b279 f5bd bc2f 2b3e b580 f9bc
000001d0: 792f 69be 48d1 eabb 9641 a53e 0fa5 63bd
000001e0: 4938 73bd ae22 4dbd e26d 3fbe e311 71bc
000001f0: 2483 843d 1d46 0d3e 814e f9bd 09fe d6bc
00000200: b0d8 263e 30b5 67be 9cfc 07be 876f c53c
00000210: c516 3c3d 5903 fa3d aa23 0bbb 86b7 ffbb
00000220: 5ce4 963d 58d7 b7bd d50b 303e 1d46 f73c
00000230: b486 b73b 5353 423d c8fc cd3c 778a edbc
00000240: 41a1 0a3e 3282 723d d519 75bd 3961 08be
00000250: 5350 2f3e e553 87be 54c9 eb3a 5362 04bc
00000260: 7ad6 573d 38ba 75bc a1dd 06be 4877 c73d
00000270: 4a34 0abe 1810 713d a745 34be 5794 983d
00000280: 1ece fb3d c2ea eabd 4920 34be 425b 34bd
00000290: caf4 7bbd b6c5 083e 419f 383d abef 8ebe
000002a0: 2f9c 953e a111 1abe 0a97 1abe 4302 25be
000002b0: fd96 fcbc bc28 22bd 68f0 253d de5e 113e
000002c0: 2497 1c3e 2064 723e 65d9 473e f734 e13d
000002d0: 7352 233e 5eb7 41be b0c8 233d d39d 973d
000002e0: 66b6 70bd 4612 1ebe 2d20 b83d 780a 14bd
000002f0: d1b2 ddbc 5cd3 263a a1ae 64be af1f 4ebe
00000300: 8b95 e33d fda3 e5bd 8dee 7fbd 652a 793d
00000310: 9653 7839 bd42 1abe 9419 69bd 845a 17bd
00000320: 1289 ef3d 26da 6c3e 6fb0 e83b b2d9 e0bd
00000330: 5fcf 3abe 58a8 023e 1c9c 7c3d 1725 373c
00000340: 15dc 1d3d 4bd3 78bd 7c5d 48bd df52 1a3e
00000350: 8efc 06be 8c6a cc3c cc3a 11bd 80f1 d33c
00000360: 1184 4bbe 9bb8 c73d a40b 003d 9814 5cbd
00000370: 1e2e e2bc 884a 353d 2754 2a3a 14ac 9dbd
00000380: fbe3 f53c 443e 8dbd e024 17be fe50 963e
00000390: 6517 c03d 3980 273e d0ee 2e3d 6526 613d
000003a0: d301 2e3d 8bcb 16be a7f9 4fbd eca2 6ebd
000003b0: 53aa 2c3d 72d3 a3bd 1888 83be 92c7 003e
000003c0: f256 f83d 5949 c33d c317 7c3c d744 79be
000003d0: bd16 5b3e 306a 4b3e f01e 413d 509c 07be
000003e0: ba5d 32be 4848 14bd 4819 02be 9f58 fabd
000003f0: 935a d1bd a047 1c3d 0115 5f3d e979 97bd
-0.16262522 -0.060460087 0.27885604 -0.03869235 0.09871598 0.0622566 0.13407917 -0.01900614
-0.03395496 0.056391243 -0.15388092 -0.0060773697 -0.107399136 0.23416203 0.08761888 0.10767033
-0.13916494 0.10750069 -0.025389805 0.19054663 0.24248171 0.08201516 0.034277324 0.03950661
-0.1737186 0.07879648 -0.14236706 -0.105145305 0.21338344 -0.05100569 0.13693558 -0.14877018
0.03405618 -0.13807768 0.11051379 0.054682124 -0.0639066 0.14714195 0.1434528 -0.08810985
-0.2116876 -0.18679322 0.18414047 -0.07029651 0.09054646 -0.1112486 0.14843792 -0.17219827
-0.020574355 0.27926403 0.3506201 -0.14747214 0.1226075 -0.04395492 -0.27523738 -0.03223293
-0.0179756 -0.3590403 -0.2805729 0.04883711 0.023272214 0.1643379 -0.04250456 0.08802521
0.045680825 0.20883799 0.036312174 -0.1792613 0.052093875 0.2426497 -0.13716067 -0.24175784
-0.14989924 -0.05755971 0.18583184 0.027529249 0.072833024 0.0393972 -0.124777086 -0.0340629
-0.0056345826 0.025321621 -0.18252312 0.2509027 -0.028500961 0.063322745 -0.03366186 -0.12316067
-0.1081741 0.28640977 0.089742474 0.014538239 -0.047270805 -0.005759377 -0.13321264 -0.01191994
-0.11968047 0.122004285 -0.1392594 -0.1365088 -0.04016898 0.11660601 -0.15031783 0.2009871
0.27179208 0.05580774 -0.14878792 0.10635851 0.1713406 -0.1619293 -0.077857815 -0.14970726
0.1031842 -0.11986102 0.16717428 -0.03045688 -0.22772016 -0.0071660616 0.322766 -0.055577334
-0.05937985 -0.0500819 -0.1869426 -0.014713737 0.064703256 0.13796277 -0.121731766 -0.02624418
0.16293597 -0.22627711 -0.13279957 0.024101032 0.045920152 0.1220767 -0.0021230974 -0.00780386
0.07367775 -0.089766204 0.17192014 0.0301848 0.0056007747 0.047442745 0.02514495 -0.02899669
0.13538076 0.059206195 -0.05983909 -0.13318338 0.17120485 -0.26431194 0.0017989078 -0.008080083
0.052694775 -0.014998011 -0.13170482 0.09739548 -0.13496509 0.05885324 -0.17604695 0.074501686
0.12295173 -0.11470558 -0.17590441 -0.044032343 -0.061512746 0.1335667 0.04507375 -0.27917227
0.2922072 -0.15045787 -0.1509668 -0.16114144 -0.030833716 -0.03958963 0.040512472 0.14196345
0.1529203 0.23671007 0.19516523 0.1099643 0.1594942 -0.18917605 0.039986312 0.074031495
-0.0587677 -0.15436658 0.08990512 -0.036142796 -0.027062805 0.00063638925 -0.2233224 -0.20129274
0.111125074 -0.11212919 -0.06248336 0.060831446 0.00023682261 -0.15064521 -0.05690916 -0.036951557
0.11696066 0.23130092 0.0071011106 -0.10979022 -0.18243168 0.1275953 0.061672315 0.0111782765
0.038539965 -0.06074838 -0.04891728 0.15070675 -0.1318228 0.02495315 -0.035456464 0.025871992
-0.19874598 0.097520076 0.0312611 -0.053730577 -0.027609881 0.04426053 0.0006497525 -0.07698837
0.030015936 -0.06896642 -0.1476016 0.29358667 0.09379462 0.16357507 0.042708218 0.054968257
0.04248221 -0.14726083 -0.050775196 -0.058260843 0.04215462 -0.07999314 -0.2568977 0.1257613
0.121259585 0.09535474 0.015386525 -0.24342667 0.21395393 0.19864726 0.047148645 -0.13243222
-0.17418566 -0.036201745 -0.12704957 -0.122239344 -0.10222354 0.038154244 0.05446339 -0.073962994

network_body._body_endoder.seq_layers.2.bias f4 [128]
00000000: 4094 903c 8836 62bc 3fa3 7f3c 772c 8a3c
00000010: d677 2cbb 4ac5 0c3d 6716 b93c adef bbbb
00000020: 79d0 a3bc 180b 39bc 75d3 82bc f563 de3c
00000030: 0a4c 603c 5859 65bc 6318 7cbc 07d3 9fbb
00000040: bed5 953b 5b07 3fbb aff9 2fbc 4e01 803c
00000050: 85ae a5bb 193e 80bc 665a 943c 665f 203c
00000060: f918 943c 058c 41bb 0f54 e838 4d0c 003c
00000070: b4b0 a1ba f758 87bc 24ae 35bc 066f c63c
00000080: 47f9 4ebc 7f85 813c e97d 0b3c 9ec2 c9bb
00000090: 905e ac3c 5cb0 77bc 3f56 62bc bc2e 85bc
000000a0: c2f5 73bc 909c e6bb 7826 c93a 2e53 a3bc
000000b0: 75d0 953c e842 7fbc 4c19 753c d50e 6dbc
000000c0: 49b7 943b 368f 5abc c03b 313c 7712 e1bb
000000d0: 847b fabb 7b3c 843b 735a 8e3c f9f7 833c
000000e0: 53f3 643c 6f86 963c 7ea9 123c c5c3 263c
000000f0: fa01 ad3c de10 bf3c c01b e3bb f7ce ea3b
00000100: 7083 943c 558f a63c ed22 15bc e0d7 52bc
00000110: 0325 a1bc 467e 4ebc 97ca 9ebc eb36 bc3b
00000120: 5fc5 d23b 1e50 3e3c 56a3 0ebc ac85 e2bc
00000130: 2644 adbc 0348 65bc 57a5 46bb 5e0a 303c
00000140: f6e4 763c 6166 64bc 556c f5bb d7fa b43b
00000150: 8c02 483c b9b1 edbb 3be3 633c a89d 3ebc
00000160: e76e 813c d03b 53bc d97f fa3c 7bfd 59bc
00000170: fd0b 67bc 2594 b53b e2f2 39bc f055 4ebc
00000180: 200c 30bc d8e2 d83c 01ff 2bbc 9f9b 61bc
00000190: a2ab 9a3c 755c 8cbc 7d60 69bc 9570 5abc
000001a0: aae9 68bc 5b2a 97bc 187e 903c dc1f 90ba
000001b0: de78 08bc ee34 653c 6b0f 95bc 4ce4 c63c
000001c0: 03fc 4e3c 1f98 583b 374f b43b 6032 04bc
000001d0: ebfc 783c e288 f43c 440a 2abc ff27 b2bc
000001e0: 5523 843c 3f53 71bc 1712 9e3c 044f 13bc
000001f0: 976e a03c 03e3 6c3c 4dbf 1fbc 4cb4 27bb
0.017648816 -0.013806947 0.015602886 0.016866906 -0.0026316545 0.034367837 0.02259369 -0.0057353587
-0.019996868 -0.011294149 -0.015969971 0.027147273 0.013690004 -0.013998352 -0.015386674 -0.0048774513
0.004572599 -0.0029148671 -0.010740682 0.015625622 -0.0050562047 -0.01565461 0.018109512 0.00978837
0.018078314 -0.002953292 0.00011078279 0.007815433 -0.0012335987 -0.016521914 -0.011088882 0.024222862
-0.012632675 0.015810726 0.008513906 -0.0061572334 0.021041185 -0.015117731 -0.013814508 -0.016257636
-0.014890136 -0.0070377067 0.0015346548 -0.019937124 0.018287877 -0.015579917 0.0149596445 -0.014468868
0.004538451 -0.013339808 0.010817468 -0.0068686563 -0.0076441187 0.00403553 0.017377114 0.016109454
0.013974029 0.01837465 0.008951543 0.010178511 0.021119107 0.023323473 -0.0069307983 0.0071657854
0.01812908 0.020332018 -0.009102565 -0.012868851 -0.019670969 -0.012603348 -0.019383712 0.0057438514
0.00643222 0.011615781 -0.0087059345 -0.02765163 -0.02115066 -0.01399422 -0.0030310953 0.010744659
0.015069237 -0.013940425 -0.007489721 0.0055230665 0.0122076385 -0.007253852 0.013909156 -0.011634268
0.015799953 -0.012892678 0.03057854 -0.013305063 -0.014101979 0.005541342 -0.011349412 -0.012593731
-0.010745078 0.026475355 -0.010497809 -0.013770013 0.018880669 -0.01713393 -0.014244196 -0.013332506
-0.014215866 -0.018452814 0.017638251 -0.0010995823 -0.008329598 0.01398967 -0.018195828 0.024278782
0.012633326 0.0033049656 0.005502607 -0.008068651 0.015197019 0.029850427 -0.010378424 -0.021747587
0.016130129 -0.01472932 0.019295735 -0.008991007 0.019583983 0.014458421 -0.0097501995 -0.0025589643

network_body._body_endoder.seq_layers.2.weight f4 [128, 128]
00000000: 039f 373e 18ea 1bbe 898e 8bbd e3b9 703d
00000010: c4d5 dbbc bfdc 563c 6fcb cabd a938 003c
00000020: 68ec 0d3d 145e a0bc f229 f0bc 24ca 943c
00000030: 3e97 5f3d 106d 743d c903 83bb 34e5 dc3d
00000040: 1975 613d 1e04 81bd 94a7 cebd b0af 09bd
00000050: 6a79 16be be44 693d d27a 62bd c232 cdbd
00000060: dd2d 4dbc be8d 4abe 7cb3 1dbd 1bd6 3e3c
00000070: fb80 b23d 4430 5f3e 14c1 bcbc f91e fabc
00000080: 4da3 ff3c aea0 93ba 4d1c 163e 218d 6cbe
00000090: 66b3 283e 2119 013c c900 c0bd 00fb b6bd
000000a0: 19ad 643d 6bda d33d dce8 01bc cb1d 41bd
000000b0: 4fa0 debd b7d2 903d 7c9a c03d 3dec 94bd
000000c0: 5564 60bc 2dbc 953c bf04 3bbe ee8d fd3c
000000d0: 76a0 8e3e b857 f8ba a0c8 3a3d 251c 63bd
000000e0: 8914 84bd abfe 37bc c916 bbbc 4f04 67bc
000000f0: ff3f 9fbc e6e3 213d 7c4a 863c 9558 fdbd
00000100: 0855 383e 8c23 bbbd 0455 ad3d 69e5 3dbc
00000110: 6b2d 2cbe 72e8 8bbd ad4f c53d 2fbc 8d3c
00000120: 37e6 d4bc 17cc ff3d 40a4 f9bc 74e3 e4bb
00000130: afed c1bd 851c 80bd ea8b 2cbd acbf 103e
00000140: fd21 ee3d 0c41 a03c cc14 2bbc 8600 b63b
00000150: 310e df3d 0375 363e 411f f73c 2b54 c3bc
00000160: 97f3 923d b80d 31bd 357a d8bd 3ea8 9ebd
00000170: 0e15 6a3d 9e85 69bb 662d c0bd aef5 213e
00000180: b502 36bd debf efbd dbb6 803d 63b4 01be
00000190: ce15 19bd 9176 dfbd 33fb 4b3e 1246 ac3d
000001a0: ad34 a33d 0953 b2bb 7ada b3bd d3fd 8e3c
000001b0: c5c2 3abc dfcd b6bd c20e 95bd 1aad dbbd
000001c0: ee17 a63d 3ff7 073e 5d8f 533e ad9c e4bb
000001d0: b7fb 703e 4073 28bd 2661 18bd 9e1e 51bb
000001e0: 02e0 49bc 4273 803c fb1b 24bd 71c1 433e
000001f0: 3ff1 443c 7612 883d 779e e9bd 7555 513d
00000200: c98e 483d 555c 053c 5ffc aabd 2888 89bd
00000210: 5c49 8cbd c158 d13d 1e20 e73c 4543 b2bd
00000220: 0427 c33d d8ae 1fbd 0809 02be 5849 283d
00000230: 9d90 4e3d b6eb c7bc 8368 80bd 3bed 803d
00000240: 223f 68bd 55f3 6c3d c729 b53d 360a 973d
00000250: 22f5 abbd afdc 34be c8a7 6fbc edd6 dd3c
00000260: 2f6a 0ebd fb16 7c3d 1446 163e bf14 c2bc
00000270: 3d83 b4ba dc63 4cbd e2d2 7bba 9713 143d
00000280: 98c1 273d c8e0 89bc 4aee 19bd 5db0 a4bd
00000290: b493 8c3d 5cc4 0abd c315 983d 3554 6c3d
000002a0: 2aea 623c b312 d63b 1ab3 ed3d 8aa1 b7bd
000002b0: c078 953d 089c 71be 8496 4abc 84f6 713d
000002c0: b2a9 2a3e 6168 943c ff2c 9c3d e76a 783c
000002d0: ec0b 29be 5576 97bd 651e 8d3a 09bf a83d
000002e0: c402 a33d 50d0 d63d fef3 c53d df08 e93d
000002f0: 9144 b2bb 673b a93d fc12 dbbd d340 f03b
00000300: f58b 103e ed6f b83d db32 31bb 9ea1 a13c
00000310: d724 8b3d 8a09 24bd de1e 57bd 7679 a03b
00000320: 3341 86bc cf14 c43d d8b4 ddbb 1e7e a7bd
00000330: 18bd a4bd a89d edbd 39c8 72bd f5c3 163d
00000340: b667 a73d b35a 813c b48f 28be 843d 71bd
00000350: 9d51 413d 8f58 2dbc 2e09 94bd 2ddf bcbd
00000360: ebc2 3ebd 17d4 083c 984b b5bd 2ab5 ccbd
00000370: f295 5a3d 63dd 333d 7846 5bbd 26de 8d3d
00000380: cef5 20bd cbe0 ed3d 32b5 843d d129 10be
00000390: 4b9c 283d f89c a23c 15cd 193e 4d8c 9fbd
000003a0: 039b 9bbc 0768 313d 9492 b4bd 9c58 5bbd
000003b0: 0b19 efbd fccb 80be dada 973d a99c 2fbe
000003c0: 76db babd 3cde b5bc e45d af3d a1cb 6dbd
000003d0: d65e cf3a 6f1c f0bd a7c5 4d3c c72d 743c
000003e0: 3469 4b3d 1eab cebb e564 00be d966 20bd
000003f0: 8e49 c5bd 2b06 2cbc 6e22 71bd 726b 6c3d
0.17931752 -0.15226018 -0.06814296 0.058771025 -0.02683533 0.013114153 -0.09902083 0.007826009
0.034649283 -0.01957611 -0.029316876 0.018162794 0.054587595 0.059674323 -0.003998254 0.107859045
0.055043314 -0.062996134 -0.10090557 -0.033614814 -0.14694753 0.056950323 -0.05529291 -0.10019447
-0.012523142 -0.19780633 -0.038501248 0.011647726 0.08716007 0.21795756 -0.023041286 -0.030532347
0.031205798 -0.0011263096 0.14659233 -0.23100711 0.16474685 0.007879526 -0.0937515 -0.08934593
0.05582914 0.10344394 -0.007929053 -0.047147553 -0.1087042 0.07071441 0.094044656 -0.072716214
-0.013695796 0.018278206 -0.18263529 0.030951466 0.27856797 -0.0018947041 0.045601487 -0.055446763
-0.06449229 -0.011230151 -0.022838013 -0.014100148 -0.019439695 0.03952398 0.016392939 -0.12370411
0.18001187 -0.091376394 0.08463481 -0.01159034 -0.168142 -0.06831445 0.096343376 0.017301647
-0.025988681 0.12490099 -0.030473828 -0.0069851223 -0.09469163 -0.0625544 -0.04212562 0.14135617
0.116275765 0.019562267 -0.01044197 0.0055542616 0.10891379 0.17818074 0.03016627 -0.023843845
0.07175367 -0.043225974 -0.10570184 -0.077469334 0.057148986 -0.003563262 -0.09383659 0.15816376
-0.044436175 -0.11706518 0.06284877 -0.12666468 -0.03737431 -0.109112866 0.19920044 0.08411802
0.079690315 -0.0054420275 -0.087819055 0.017455017 -0.011398976 -0.089259855 -0.072782055 -0.10726376
0.08110033 0.1327791 0.20660158 -0.006976685 0.23533522 -0.041125536 -0.037202023 -0.0031909118
-0.012321474 0.01567996 -0.040065747 0.19116761 0.012020408 0.06644146 -0.11407178 0.05110689
0.048964296 0.008139689 -0.08348917 -0.06715423 -0.0684993 0.102220066 0.028213557 -0.08704237
0.09528926 -0.038985103 -0.12698758 0.04108557 0.050430883 -0.024404388 -0.06269934 0.06295248
-0.056700833 0.057849247 0.08845859 0.073749945 -0.08396365 -0.17662309 -0.0146274045 0.027080024
-0.034769233 0.061545353 0.1467517 -0.023691533 -0.0013772022 -0.04989992 -0.0009606314 0.036151495
0.04095611 -0.016830817 -0.037580766 -0.08041451 0.0686411 -0.03387867 0.07426026 0.057697494
0.013849774 0.006532991 0.116064265 -0.08966358 0.07298422 -0.23594677 -0.012364987 0.059072986
0.16666296 0.018116178 0.0762577 0.015162206 -0.16508454 -0.07395617 0.0010766505 0.08239562
0.07959512 0.10488951 0.096656784 0.11378645 -0.0054403027 0.08263283 -0.1069698 0.0073319464
0.1411589 0.09005723 -0.002703837 0.019730385 0.06794136 -0.04004816 -0.05251967 0.004897292
-0.016388511 0.095742814 -0.006765943 -0.08178352 -0.08043879 -0.11602336 -0.05927298 0.036807973
0.08174078 0.01579032 -0.16461068 -0.058896556 0.047196973 -0.010580196 -0.072283134 -0.09222255
-0.046572607 0.008351347 -0.08852309 -0.09995492 0.053365655 0.043912303 -0.053534 0.06927137
-0.039296918 0.116151415 0.06479873 -0.14078452 0.041164678 0.01985024 0.15019639 -0.07790432
-0.018994814 0.0433121 -0.0881702 -0.0535513 -0.116746984 -0.25155628 0.074147895 -0.17149605
-0.0912389 -0.022200696 0.0856283 -0.058055524 0.001582111 -0.11724173 0.012559331 0.014903492
0.049660876 -0.00630702 -0.12538488 -0.039160583 -0.0963317 -0.010499517 -0.058870725 0.057719655
