results/ppo/MoveToGoal.onnx (onnx, 72639 bytes, 7 tensors)

action_model._continuous_distribution.log_sigma f4 [1, 2]
0.0 0.0
00000000: 0000 0000 0000 0000

action_model._continuous_distribution.mu.bias f4 [2]
0.0 0.0
00000000: 0000 0000 0000 0000

action_model._continuous_distribution.mu.weight f4 [2, 128]
-0.012764637 0.007221566 -0.03222719 0.0037627376 -0.033184554 0.021778023 0.014320955 0.0023237797
-0.037925072 -0.0048571406 0.04211917 0.02875081 -0.010441034 0.019864965 -0.002478884 -0.0027261244
-0.012792112 -0.019898681 -0.0057633305 0.017757053 0.006431161 -0.03992108 0.02737284 -0.016859634
0.010871919 0.02779223 -0.011664176 -0.010988266 0.026365904 0.025756944 0.0024687503 -0.02019404
0.0024779218 -0.018011563 -0.026539821 -0.008396055 -0.0045624482 0.035823476 -0.018877044 0.0034066227
-0.016443616 -0.03146339 -0.001554824 0.004387518 -0.029872028 -0.004405666 -0.01606936 -0.0039852806
-0.04619797 -0.039224964 -0.004352775 0.005489847 -0.013675439 -0.025681568 0.01935205 -0.0070377584
0.010807347 0.032573793 -0.0020627568 0.025706952 -0.0023545735 -0.015051997 -0.007241459 0.018331459
0.032398894 -0.0044750106 -0.0087425355 -0.015700443 0.015910624 0.010119125 0.03579908 0.010170316
-0.003813614 -0.0014654323 -0.031037543 -0.01727722 0.010615111 0.00081710465 -0.009312534 0.015177034
-0.0054776347 -0.014069522 0.0058022644 0.005425204 0.0018696006 -0.024671094 0.0072087063 -0.0117356675
-0.0035030216 0.020851513 0.018904088 -0.014246856 -0.020990232 -0.017103285 0.011568117 0.007426274
0.009239179 -0.053755857 0.00730908 0.0014587607 -0.008583548 0.008437607 0.0046670465 -0.014722693
-0.015871665 0.011864759 0.01393183 -0.010603521 0.0485781 0.01079662 -0.015874172 -0.0089126285
-0.0025475938 -0.00952681 -0.007002202 0.016577445 0.005728424 0.014912985 -0.01759722 0.01086126
-0.003631339 -0.020207848 -0.01915192 -0.016462857 0.022252347 0.017819043 -0.0036670875 0.044229995
-0.033117056 -0.043671723 -0.0058691516 0.02100665 0.021966409 -0.00263877 0.009755157 0.026889605
0.0045080404 -0.022160754 -0.017554117 -0.006587203 0.034472417 -0.022031179 0.010500188 -0.032102462
-0.0204218 -0.01634131 -0.006298178 0.002505634 0.014170502 -0.0050208615 0.0043663555 -0.026908273
-0.004383319 -0.00020271889 0.0016006159 0.008848656 -0.012324498 0.000829581 0.018251581 -0.023938619
0.016229065 0.016507026 -0.014972244 -0.014316422 0.021850286 0.029329244 0.008510598 0.01246946
0.0008970678 0.0034529436 0.021785615 -0.010855686 -0.01539682 0.005207901 0.020531213 -0.018158501
-0.03252777 -0.011235623 0.018248027 0.0056835446 -0.0066186264 -0.013361922 -0.030923514 -0.008440333
-0.0040341658 -0.004856875 -0.011772174 0.0054560564 0.0068901554 0.0008990587 0.026960954 0.0153562
-0.0033002382 -0.001154601 -0.00879786 -0.0063797086 -0.0027692006 -0.01425039 0.0005065646 0.0015046579
0.014840953 -0.0005441822 0.011332425 0.004674511 -0.02134907 -0.030413127 -0.026149964 0.033428386
0.012975598 0.00082591793 0.013711916 0.007333719 -0.014798517 0.009727369 -0.016600305 -0.008338361
-0.013627884 0.021176852 0.010280056 -0.009589405 0.039600328 -0.018903479 -0.0013175233 0.002604689
7.522121e-05 -0.01149887 -0.008124301 -0.0024260085 -0.008562694 0.0064924955 -0.028937062 0.012572683
0.004337272 -0.0064612636 -0.019816922 0.02210962 -0.0025478096 -0.011533209 -0.023261676 -8.781198e-05
-0.010841045 -0.0053131985 -0.015538841 0.0046967682 -0.027263893 -0.009193202 0.0065674083 0.040798184
-0.008024603 0.013493647 -0.034343414 -0.0065815314 -0.021835927 0.025773628 -0.031528965 -0.00228947
00000000: c522 51bc e3a2 ec3b a800 04bd 4398 763b
00000010: 87ec 07bd d367 b23c 70a2 6a3c 8e4a 183b
00000020: 5257 1bbd a628 9fbb 2785 2c3d d286 eb3c
00000030: df10 2bbc dabb a23c c674 22bb c7a8 32bb
00000040: 0296 51bc 8f02 a3bc 52da bcbb 3d77 913c
00000050: 7dbc d23b 4984 23bd 023d e03c 371d 8abc
00000060: 2220 323c 88ac e33c 1a1b 3fbc 2108 34bc
00000070: 4ffd d73c 3a00 d33c c2ca 213b f96d a5bc
00000080: a164 223b fc8c 93bc 0a6a d9bc 9b8f 09bc
00000090: 9780 95bb a3bb 123d 08a4 9abc a541 5f3b
000000a0: c3b4 86bc c1df 00bd 3ccb cbba 2bc5 8f3b
000000b0: 2fb6 f4bc 685d 90bb e4a3 83bc f596 82bb
000000c0: 153a 3dbd 5baa 20bd b9a1 8ebb 2de4 b33b
000000d0: f30e 60bc 2762 d2bc 3188 9e3c ff9c e6bb
000000e0: 4c11 313c 196c 053d 512f 07bb 6397 d23c
000000f0: 304f 1abb a79c 76bc c349 edbb db2b 963c
00000100: b4b4 043d 1ca3 92bb da3c 0fbc 379e 80bc
00000110: ff56 823c b0ca 253c 0ea2 123d 66a1 263c
00000120: d3ed 79bb c013 c0ba 7242 febc f588 8dbc
00000130: 01eb 2d3c f732 563a 9993 18bc 18a9 783c
00000140: bb7d b3bb da83 66bc ec20 be3b e9c5 b13b
00000150: 630d f53a 091b cabc 0337 ec3b f546 40bc
00000160: f392 65bb cbd0 aa3c bfdc 9a3c a56b 69bc
00000170: b5f3 abbc 301c 8cbc 3388 3d3c 1a58 f33b
00000180: ed5f 173c 1a2f 5cbd 0281 ef3b e333 bf3a
00000190: 02a2 0cbc e43d 0a3c 06ee 983b 7337 71bc
000001a0: 4b05 82bc 6864 423c 5542 643c 64ba 2dbc
000001b0: d4f9 463d 4ee4 303c 8d0a 82bc 4606 12bc
000001c0: 88f5 26bb 5616 1cbc ba72 e5bb 6ccd 873c
000001d0: 81b5 bb3b 9855 743c 0c28 90bc 6df3 313c
000001e0: c2fb 6dbb ee8a a5bc 7de4 9cbc 1ddd 86bc
000001f0: 8e4a b63c 3ef9 913c 8553 70bb 832a 353d
00000200: c0a5 07bd 1fe1 32bd 0352 c0bb 2316 ac3c
00000210: e6f2 b33c 37ef 2cbb 18d4 1f3c 9747 dc3c
00000220: 2fb8 933b 788a b5bc a7cd 8fbc 77d9 d7bb
00000230: f332 0d3d bb7a b4bc fb08 2c3c df7d 03bd
00000240: 9e4b a7bc 36de 85bc f260 cebb 9035 243b
00000250: 652b 683c 0a86 a4bb a513 8f3b bd6e dcbc
00000260: f2a1 8fbb f090 54b9 c2cb d13a f4f9 103c
00000270: b1ec 49bc 3d78 593a 5784 953c ec1a c4bc
00000280: d1f2 843c be39 873c 254e 75bc 6d8f 6abc
00000290: 5fff b23c e243 f03c 0970 0b3c b54c 4c3c
000002a0: 3329 6b3a c84a 623b bf77 b23c 0cdc 31bc
000002b0: f242 7cbc 0aa7 aa3b 1331 a83c 23c1 94bc
000002c0: d73b 05bd 9e15 38bc e37c 953c 073d ba3b
000002d0: 10e1 d8bb f7eb 5abc 4f53 fdbc 5349 0abc
000002e0: 0931 84bb 6c26 9fbb 14e0 40bc b8c8 b23b
000002f0: d0c6 e13b cfae 6b3a 38dd dc3c 9298 7b3c
00000300: cf48 58bb fb55 97ba e624 10bc e00c d1bb
00000310: 7a7b 35bb 787a 69bc faca 043a f137 c53a
00000320: 7827 733c 73a7 0eba a3ab 393c a42c 993b
00000330: 3fe4 aebc f324 f9bc 7338 d6bc 34ec 083d
00000340: 9a97 543c 6a82 583a f2a7 603c b24f f03b
00000350: 7b75 72bc 8b5f 1f3c 5dfd 87bc 9f9d 08bc
00000360: 7d47 5fbc 147b ad3c ae6d 283c e11c 1dbc
00000370: f433 223d 78db 9abc bfb0 acba 6eb3 2a3b
00000380: 14c0 9d38 c265 3cbc ca1b 05bc abfd 1ebb
00000390: 8b4a 0cbc 00bf d43b 6b0d edbc a8fd 4d3c
000003a0: ad1f 8e3b 02b9 d3bb 1957 a2bc 3c1f b53c
000003b0: 27f9 26bb c9f5 3cbc 458f bebc b327 b8b8
000003c0: a39e 31bc 571a aebb 9f96 7ebc 59e7 993b
000003d0: 8758 dfbc 159f 16bc 6a33 d73b ff1b 273d
000003e0: a079 03bc 7514 5d3c aeab 0cbd e3a9 d7bb
000003f0: 42e1 b2bc 3723 d33c 8424 01bd ef0a 16bb

network_body._body_endoder.seq_layers.0.bias f4 [128]
0.0 0.0 0.0 0.0 0.0 0.0 0.0 0.0
0.0 0.0 0.0 0.0 0.0 0.0 0.0 0.0
0.0 0.0 0.0 0.0 0.0 0.0 0.0 0.0
0.0 0.0 0.0 0.0 0.0 0.0 0.0 0.0
0.0 0.0 0.0 0.0 0.0 0.0 0.0 0.0
0.0 0.0 0.0 0.0 0.0 0.0 0.0 0.0
0.0 0.0 0.0 0.0 0.0 0.0 0.0 0.0
0.0 0.0 0.0 0.0 0.0 0.0 0.0 0.0
0.0 0.0 0.0 0.0 0.0 0.0 0.0 0.0
0.0 0.0 0.0 0.0 0.0 0.0 0.0 0.0
0.0 0.0 0.0 0.0 0.0 0.0 0.0 0.0
0.0 0.0 0.0 0.0 0.0 0.0 0.0 0.0
0.0 0.0 0.0 0.0 0.0 0.0 0.0 0.0
0.0 0.0 0.0 0.0 0.0 0.0 0.0 0.0
0.0 0.0 0.0 0.0 0.0 0.0 0.0 0.0
0.0 0.0 0.0 0.0 0.0 0.0 0.0 0.0
00000000: 0000 0000 0000 0000 0000 0000 0000 0000
00000010: 0000 0000 0000 0000 0000 0000 0000 0000
00000020: 0000 0000 0000 0000 0000 0000 0000 0000
00000030: 0000 0000 0000 0000 0000 0000 0000 0000
00000040: 0000 0000 0000 0000 0000 0000 0000 0000
00000050: 0000 0000 0000 0000 0000 0000 0000 0000
00000060: 0000 0000 0000 0000 0000 0000 0000 0000
00000070: 0000 0000 0000 0000 0000 0000 0000 0000
00000080: 0000 0000 0000 0000 0000 0000 0000 0000
00000090: 0000 0000 0000 0000 0000 0000 0000 0000
000000a0: 0000 0000 0000 0000 0000 0000 0000 0000
000000b0: 0000 0000 0000 0000 0000 0000 0000 0000
000000c0: 0000 0000 0000 0000 0000 0000 0000 0000
000000d0: 0000 0000 0000 0000 0000 0000 0000 0000
000000e0: 0000 0000 0000 0000 0000 0000 0000 0000
000000f0: 0000 0000 0000 0000 0000 0000 0000 0000
00000100: 0000 0000 0000 0000 0000 0000 0000 0000
00000110: 0000 0000 0000 0000 0000 0000 0000 0000
00000120: 0000 0000 0000 0000 0000 0000 0000 0000
00000130: 0000 0000 0000 0000 0000 0000 0000 0000
00000140: 0000 0000 0000 0000 0000 0000 0000 0000
00000150: 0000 0000 0000 0000 0000 0000 0000 0000
00000160: 0000 0000 0000 0000 0000 0000 0000 0000
00000170: 0000 0000 0000 0000 0000 0000 0000 0000
00000180: 0000 0000 0000 0000 0000 0000 0000 0000
00000190: 0000 0000 0000 0000 0000 0000 0000 0000
000001a0: 0000 0000 0000 0000 0000 0000 0000 0000
000001b0: 0000 0000 0000 0000 0000 0000 0000 0000
000001c0: 0000 0000 0000 0000 0000 0000 0000 0000
000001d0: 0000 0000 0000 0000 0000 0000 0000 0000
000001e0: 0000 0000 0000 0000 0000 0000 0000 0000
000001f0: 0000 0000 0000 0000 0000 0000 0000 0000

network_body._body_endoder.seq_layers.0.weight f4 [128, 6]
-0.26868463 -0.15382662 0.05261568 -0.51099944 0.09021038 0.057625715 -0.53017855 -0.3159204
-0.016351536 0.33883184 -0.31256744 -0.019716054 -0.23306167 -0.5860473 0.28100795 -0.55035424
0.27482545 -0.4307071 -0.39096877 0.022993142 0.6225511 -0.21850637 0.6238373 0.12660946
0.09733157 -0.37157923 0.5192026 0.82163846 -0.90722024 -0.46836436 0.51803416 -0.027885705
0.090399995 0.2791601 0.4639961 0.4224805 -0.2612905 -0.6165888 0.028637579 0.16861847
-0.36641157 -0.122465774 -1.1208739 0.1904407 0.23043709 0.07440242 0.8561387 -0.124890305
-0.84959096 0.5506653 -0.062441453 -0.6239178 -0.07017592 0.46475062 -0.015032628 -0.9099542
0.014907572 -0.043059886 -0.6272441 0.5589652 -0.50197095 0.5786334 0.12548411 -0.14826146
-0.5103805 0.16934875 0.25677228 -0.11693708 0.13775855 0.063149706 0.40298286 -0.24889708
0.049234044 0.30947298 0.18174316 -0.49096832 0.1999543 -0.2937735 0.35034433 0.75420976
0.19792832 0.4660955 -0.2669588 -0.38797745 0.42905733 0.8365146 -0.2339282 -0.57131666
-0.24701872 0.020597082 -0.02787772 -0.48908296 0.26620477 0.056504358 0.18709546 -0.12261026
0.735688 -0.23495747 -0.36819884 -0.45494315 0.22624272 -0.29979476 -0.12844324 -0.33244947
-0.16553058 0.510657 0.6705245 -0.21514404 -0.32029667 0.1415219 -0.21543151 -0.5592687
-0.31252238 -0.32447922 0.4621214 0.32478252 -0.39067394 0.09148514 -0.57004535 -0.6539167
-0.56482714 -0.48773813 -0.45231465 -0.23707075 0.07377331 -0.03264482 -0.12519799 0.14013942
-0.128171 0.43337533 0.046542756 -0.33321023 0.5463489 0.109144926 0.7418179 -0.06505479
0.1537362 0.1439355 0.777722 0.6722321 -0.47910696 0.1342267 -0.025312837 -0.45554692
-0.02552463 -0.43825015 0.92355424 0.46847194 0.17237708 0.4705698 -0.13109455 0.16933681
-0.51774836 -0.18583675 -0.09532243 -0.30788657 -0.17853768 0.29051974 0.17957215 -0.084500395
-0.6020058 -0.88746864 0.30042 0.12938556 -0.14421286 0.008372031 -0.30048573 -0.58079576
-0.41644797 0.18015157 0.19240819 -0.24945433 0.20676304 -0.013445544 0.5023895 0.34921807
0.35121384 1.1496495 -0.31121135 0.51861036 0.08064489 -0.07323003 -0.15493092 -0.4121152
0.010667618 -0.4958106 0.0940845 0.59680927 0.5501211 0.7038134 -0.33838362 0.09364798
-0.4187429 0.7424188 0.473375 -0.09859638 -0.21041664 0.07065768 -0.5565643 -0.24005991
0.27407303 -0.18174173 -0.54897225 0.28498736 -0.13220134 0.11598548 0.08481886 -0.33200863
-0.6616744 0.29791364 0.2614761 0.07861087 -0.66768557 0.07859912 -0.29636806 0.6551925
-0.4519187 0.13143608 -0.19957696 0.17296298 0.9113497 -0.05154071 -0.097487934 0.65536344
-1.2299085 -0.31267586 0.25929645 0.16478746 0.03418497 -0.51534885 -0.1871049 0.28934133
0.31034932 -0.96746033 -1.6277381 -0.0020902199 0.02869068 0.07317289 0.3177587 -0.35660514
0.5525792 -0.115166664 0.36365438 0.88592494 0.14565489 0.3010237 0.07089484 0.55229604
0.08612532 -0.33028978 0.19834666 0.17079452 0.20255375 0.27069506 -0.19049606 0.14733474
00000000: 0891 89be ba84 1dbe 8a83 573d dcd0 02bf
00000010: 38c0 b83d f108 6c3d c8b9 07bf 52c0 a1be
00000020: a8f3 85bc 5e7b ad3e d708 a0be 9083 a1bc
00000030: b8a7 6ebe 3207 16bf 46e0 8f3e 04e4 0cbf
00000040: ecb5 8c3e a485 dcbe 0f2d c8be 1d5c bc3c
00000050: 825f 1f3f 22c0 5fbe cdb3 1f3f e9a5 013e
00000060: c655 c73d a23f bebe 76ea 043f e656 523f
00000070: 963f 68bf 74cd efbe e39d 043f 9070 e4bc
00000080: a223 b93d 13ee 8e3e e690 ed3e 5d4f d83e
00000090: dec7 85be c3d8 1dbf 5b99 ea3c 52aa 2c3e
000000a0: 4c9a bbbe 56cf fabd cc78 8fbf e302 433e
000000b0: b3f7 6b3e 4c60 983d e82b 5b3f 7dc6 ffbd
000000c0: cb7e 59bf 67f8 0c3f 9cc2 7fbd 14b9 1fbf
000000d0: 65b8 8fbd cbf3 ed3e 694b 76bc c2f2 68bf
000000e0: e43e 743c 905f 30bd 1293 20bf 5818 0f3f
000000f0: 2b81 00bf 5221 143f e87e 003e dad1 17be
00000100: 4ca8 02bf c269 2d3e a877 833e b57c efbd
00000110: 9410 0d3e a254 813d c553 ce3e e0de 7ebe
00000120: a3a9 493d 3e73 9e3e e11a 3a3e 3360 fbbe
00000130: d2c0 4c3e 7b69 96be 5560 b33e e413 413f
00000140: b9ad 4a3e 12a4 ee3e d3ae 88be fba4 c6be
00000150: 67ad db3e d225 563f e08a 6fbe cf41 12bf
00000160: 7af2 7cbe 36bb a83c d15f e4bc 1569 fabe
00000170: fe4b 883e 1d71 673d f495 3f3e 171b fbbd
00000180: 0c56 3c3f b198 70be 8f84 bcbe 4fee e8be
00000190: 2cac 673e b37e 99be a086 03be d136 aabe
000001a0: d980 29be 6bba 023f 7ea7 2b3f b84e 5cbe
000001b0: edfd a3be 1eeb 103e 149a 5cbe 3c2c 0fbf
000001c0: ef02 a0be 2422 a6be 2d9b ec3e e549 a63e
000001d0: 6a06 c8be 905c bb3d 7eee 11bf 1667 27bf
000001e0: 8398 10bf d0b8 f9be c995 e7be adc2 72be
000001f0: 7616 973d 93b6 05bd e733 00be b580 0f3e
00000200: 423f 03be 5fe3 dd3e 9ea3 3e3d 889a aabe
00000210: 86dd 0b3f 6087 df3d c7e7 3d3f 723b 85bd
00000220: 066d 1d3e d463 133e ca18 473f 6717 2c3f
00000230: 824d f5be b972 093e de5c cfbc 723d e9be
00000240: 0719 d1bc 5362 e0be 0d6e 6c3f 8edb ef3e
00000250: 9e83 303e 86ee f03e a63d 06be a166 2d3e
00000260: 288b 04bf fd4b 3ebe 6838 c3bd 4fa3 9dbe
00000270: 95d2 36be 01bf 943e c3e1 373e 8b0e adbd
00000280: 0d1d 1abf 2531 63bf a6d0 993e a67d 043e
00000290: 89ac 13be d82a 093c 44d9 99be 08af 14bf
000002a0: ab38 d5be a779 383e a706 453e f570 7fbe
000002b0: b1b9 533e b34a 5cbc 999c 003f b6cc b23e
000002c0: 4dd2 b33e b727 933f 1857 9fbe a6c3 043f
000002d0: 2629 a53d a0f9 95bd 36a6 1ebe c300 d3be
000002e0: 3cc7 2e3c e3da fdbe 60af c03d 7ec8 183f
000002f0: bdd4 0c3f 1d2d 343f 9e40 adbe 83ca bf3d
00000300: 7865 d6be 290f 3e3f 355e f23e e6ec c9bd
00000310: 7677 57be f9b4 903d ff7a 0ebf 44d2 75be
00000320: 4d53 8c3e 811a 3abe 7289 0cbf dde9 913e
00000330: ca5f 07be cc89 ed3d 83b5 ad3d 09fd a9be
00000340: 7e63 29bf 2388 983e 32e0 853e bcfe a03d
00000350: 71ed 2abf 93f8 a03d 8ebd 97be b2ba 273f
00000360: e361 e7be 2e97 063e e75d 4cbe 351d 313e
00000370: 374e 693f 5a1c 53bd c1a7 c7bd e6c5 273f
00000380: a46d 9dbf 0d17 a0be 81c2 843e 0bbe 283e
00000390: 8a05 0c3d e7ed 03bf 6d98 3fbe 8c24 943e
000003a0: 1be6 9e3e 7bab 77bf b959 d0bf 12fc 08bb
000003b0: b808 eb3c abdb 953d 45b1 a23e f394 b6be
000003c0: d575 0d3f 80dc ebbd e830 ba3e facb 623f
000003d0: 8e26 153e c71f 9a3e 5031 913d 4663 0d3f
000003e0: 7962 b03d be1b a9be 631b 4b3e c2e4 2e3e
000003f0: 406a 4f3e 8b98 8a3e 6611 43be ebde 163e

network_body._body_endoder.seq_layers.2.bias f4 [128]
0.0 0.0 0.0 0.0 0.0 0.0 0.0 0.0
0.0 0.0 0.0 0.0 0.0 0.0 0.0 0.0
0.0 0.0 0.0 0.0 0.0 0.0 0.0 0.0
0.0 0.0 0.0 0.0 0.0 0.0 0.0 0.0
0.0 0.0 0.0 0.0 0.0 0.0 0.0 0.0
0.0 0.0 0.0 0.0 0.0 0.0 0.0 0.0
0.0 0.0 0.0 0.0 0.0 0.0 0.0 0.0
0.0 0.0 0.0 0.0 0.0 0.0 0.0 0.0
0.0 0.0 0.0 0.0 0.0 0.0 0.0 0.0
0.0 0.0 0.0 0.0 0.0 0.0 0.0 0.0
0.0 0.0 0.0 0.0 0.0 0.0 0.0 0.0
0.0 0.0 0.0 0.0 0.0 0.0 0.0 0.0
0.0 0.0 0.0 0.0 0.0 0.0 0.0 0.0
0.0 0.0 0.0 0.0 0.0 0.0 0.0 0.0
0.0 0.0 0.0 0.0 0.0 0.0 0.0 0.0
0.0 0.0 0.0 0.0 0.0 0.0 0.0 0.0
00000000: 0000 0000 0000 0000 0000 0000 0000 0000
00000010: 0000 0000 0000 0000 0000 0000 0000 0000
00000020: 0000 0000 0000 0000 0000 0000 0000 0000
00000030: 0000 0000 0000 0000 0000 0000 0000 0000
00000040: 0000 0000 0000 0000 0000 0000 0000 0000
00000050: 0000 0000 0000 0000 0000 0000 0000 0000
00000060: 0000 0000 0000 0000 0000 0000 0000 0000
00000070: 0000 0000 0000 0000 0000 0000 0000 0000
00000080: 0000 0000 0000 0000 0000 0000 0000 0000
00000090: 0000 0000 0000 0000 0000 0000 0000 0000
000000a0: 0000 0000 0000 0000 0000 0000 0000 0000
000000b0: 0000 0000 0000 0000 0000 0000 0000 0000
000000c0: 0000 0000 0000 0000 0000 0000 0000 0000
000000d0: 0000 0000 0000 0000 0000 0000 0000 0000
000000e0: 0000 0000 0000 0000 0000 0000 0000 0000
000000f0: 0000 0000 0000 0000 0000 0000 0000 0000
00000100: 0000 0000 0000 0000 0000 0000 0000 0000
00000110: 0000 0000 0000 0000 0000 0000 0000 0000
00000120: 0000 0000 0000 0000 0000 0000 0000 0000
00000130: 0000 0000 0000 0000 0000 0000 0000 0000
00000140: 0000 0000 0000 0000 0000 0000 0000 0000
00000150: 0000 0000 0000 0000 0000 0000 0000 0000
00000160: 0000 0000 0000 0000 0000 0000 0000 0000
00000170: 0000 0000 0000 0000 0000 0000 0000 0000
00000180: 0000 0000 0000 0000 0000 0000 0000 0000
00000190: 0000 0000 0000 0000 0000 0000 0000 0000
000001a0: 0000 0000 0000 0000 0000 0000 0000 0000
000001b0: 0000 0000 0000 0000 0000 0000 0000 0000
000001c0: 0000 0000 0000 0000 0000 0000 0000 0000
000001d0: 0000 0000 0000 0000 0000 0000 0000 0000
000001e0: 0000 0000 0000 0000 0000 0000 0000 0000
000001f0: 0000 0000 0000 0000 0000 0000 0000 0000

network_body._body_endoder.seq_layers.2.weight f4 [128, 128]
-0.18731087 0.21119337 0.053297356 -0.1253186 0.07486098 0.022676766 -0.06718863 0.14354283
-0.13546026 -0.0016949018 -0.059688523 -0.03712485 -0.07475439 -0.04404597 -0.10449022 -0.073123455
-0.080969036 0.018394308 -0.10022101 -0.021943001 -0.09294295 -0.010715136 0.03858806 0.21557389
0.10742791 -0.0808041 -0.051561914 0.093987554 0.09515947 0.08475194 -0.10286114 -0.002280595
0.02437344 -0.04259018 0.08637478 0.017050244 0.022813478 -0.04840518 0.10278636 -0.017107407
0.06813639 0.07434151 -0.08429504 -0.1075337 -0.042033676 0.10117872 0.074610755 0.005351099
-0.26244068 -0.01914305 0.17884485 0.018466134 0.06975366 -0.012403131 0.060076263 0.08346208
0.08551097 -0.16603369 0.06416368 -0.103874534 0.012100806 -0.025026487 0.010748384 0.0019132704
0.101099774 0.0028647215 0.1267066 0.17060065 -0.019913524 -0.024668423 -0.040131155 0.034561537
0.0014826922 0.0224672 0.08567364 -0.02766851 0.06266467 0.0025595203 -0.1048425 0.03352223
-0.013529778 0.036569998 0.077211894 0.09924435 0.048613608 0.0021239216 0.024763847 -0.0075695883
-0.012333793 -0.031986706 -0.10022462 -0.0877894 -0.0008234321 0.08270554 0.16775262 0.199605
-0.022334045 0.0459758 -0.027303068 0.02822121 -0.1530739 -0.055185445 0.0665608 0.23484059
-0.084240064 -0.1790225 -0.0053994115 0.06732059 -0.057501134 0.18643846 -0.10009569 -0.112417035
-0.0036955427 -0.1496295 -0.08131408 -0.052986864 0.07827516 -0.07147155 0.0050624413 0.26310104
0.12521085 -0.08402509 -0.13010752 0.050508313 0.084300555 -0.056924738 -0.0059802746 0.021924946
0.063662015 -0.043835375 -0.08398233 0.14814796 -0.022647046 -0.107685186 -0.11135259 -0.002206786
0.062011547 -0.059677847 -0.069753155 -0.12986791 0.040492117 0.09069821 -0.028617261 0.053474404
0.0867856 0.024292208 0.15098588 -0.027554274 -0.019513464 -0.06367012 0.048056148 0.01660045
0.11718034 -0.081224464 0.07602147 0.009848118 0.036417443 -0.06488186 -0.009640025 0.009771728
0.048669253 0.01580069 -0.045213357 0.27860346 -0.054360624 -0.0833167 0.10805122 -0.073676184
-0.045597725 -0.030440804 0.0022322193 -0.07661423 0.0633474 0.1304118 -0.109217055 -0.026160557
0.065004595 -0.10719678 0.016805705 -0.16148865 -0.056179356 -0.006880883 -0.09301725 0.022646412
0.057072096 0.0035729413 -0.24738297 -0.11451111 0.15874207 0.048510652 0.122566134 0.0028185458
-0.08475231 -0.008156426 0.12433155 0.10566119 -0.024491062 0.11089652 0.04443707 -0.056862757
0.21657842 0.05002806 -0.08221016 0.092716776 0.05802383 0.01865264 -0.26393116 -0.03723866
-0.041169025 0.1497234 -0.047021355 0.06840274 0.045614727 0.091991976 -0.011112157 -0.13135181
-0.047737926 -0.028568162 -0.041861326 -0.053183775 0.0360795 -0.1654568 0.033202503 0.03691597
0.034637794 -0.07526769 0.059890676 0.05540936 -0.024207745 0.0065327636 -0.051236864 -0.03445315
-0.042653702 0.010562542 0.10171368 0.02462457 0.08476027 -0.09369378 0.068380535 0.06287162
0.07555106 0.10851223 0.092817 0.06167374 0.030873286 0.05679279 -0.0019022549 0.13558269
-0.04891451 -0.0242917 0.10725122 -0.036170505 -0.12196342 -0.07631251 -0.07093244 -0.055108137
00000000: 6cce 3fbe 1343 583e 544e 5a3d 8553 00be
00000010: b750 993d a0c4 b93c 319a 89bd e4fc 123e
00000020: 18b6 0abe 7827 deba f47b 74bd 3a10 18bd
00000030: d418 99bd 8c69 34bd f8fe d5bd c0c1 95bd
00000040: 18d3 a5bd a9af 963c ac40 cdbd cfc1 b3bc
00000050: e058 bebd 8a8e 2fbc 830e 1e3d 67bf 5c3e
00000060: 2a03 dc3d 9f7c a5bd 9632 53bd 8c7c c03d
00000070: f8e2 c23d 6d92 ad3d dda8 d2bd 0976 15bb
00000080: cfaa c73c 0a73 2ebd 43e5 b03d f4ac 8b3c
00000090: 55e3 ba3c 8344 46bd a881 d23d d524 8cbc
000000a0: 178b 8b3d 5d40 983d e1a2 acbd a13a dcbd
000000b0: 812b 2cbd ca36 cf3d 86cd 983d 4658 af3b
000000c0: a05e 86be e3d1 9cbc 1b23 373e 4a46 973c
000000d0: 02db 8e3d 8136 4bbc 8712 763d 2bee aa3d
000000e0: 6020 af3d bc04 2abe 3f68 833d 2cbc d4bd
000000f0: 7642 463c 5904 cdbc fd19 303c b4c6 fa3a
00000100: 660d cf3d 0dbe 3b3b 60bf 013e f0b1 2e3e
00000110: b021 a3bc 6f15 cabc 9160 24bd 6690 0d3d
00000120: e556 c23a 220d b83c a975 af3d 12a9 e2bc
00000130: 5656 803d a0bd 273b aab7 d6bd 9b4e 093d
00000140: 01ac 5dbc 6cca 153d 4521 9e3d 9f40 cb3d
00000150: 101f 473d 7e31 0b3b 8ddd ca3c 4f0a f8bb
00000160: ad13 4abc 7e04 03bd 9142 cdbd eeca b3bd
00000170: 98db 57ba 8661 a93d 58c7 2b3e 4165 4c3e
00000180: e3f5 b6bc 1f51 3c3d afaa dfbc 2b30 e73c
00000190: 68bf 1cbe 220a 62bd 0751 883d 0d7a 703e
000001a0: 0e86 acbd ad51 37be 8ced b0bb 61df 893d
000001b0: 4f86 6bbd b9e9 3e3e f8fe ccbd e73a e6bd
000001c0: eb30 72bb 7a38 19be ff87 a6bd c108 59bd
000001d0: ba4e a03d ad5f 92bd d6e2 a53b 2eb5 863e
000001e0: 4637 003e 5915 acbd e83a 05be cee1 4e3d
000001f0: c5a5 ac3d ea29 69bd 2ef6 c3bb f29b b33c
00000200: 3b61 823d b98c 33bd eefe abbd 19b4 173e
00000210: 4c86 b9bc 0d8a dcbd d40c e4bd ba9f 10bb
00000220: d2ff 7d3d c270 74bd beda 8ebd 18fc 04be
00000230: 10db 253d fcbf b93d bf6e eabc fa07 5b3d
00000240: a6bc b13d 7400 c73c 0b9c 1a3e 80b9 e1bc
00000250: b3da 9fbc 7b65 82bd 86d6 443d abfd 873c
00000260: 3ffc ef3d 0359 a6bd 25b1 9b3d 005a 213c
00000270: 752a 153d c8e0 84bd 32f1 1dbc 9919 203c
00000280: 6959 473d 7370 813c a431 39bd 1da5 8e3e
00000290: 3fa9 5ebd f2a1 aabd f549 dd3d 8ae3 96bd
000002a0: aec4 3abd fe5e f9bc 6d4a 123b ece7 9cbd
000002b0: 48bc 813d ac8a 053e 31ad dfbd aa4e d6bc
000002c0: 2121 853d fc89 dbbd 1eac 893c 485d 25be
000002d0: 531c 66bd 0879 e1bb d47f bebd f884 b93c
000002e0: 6ec4 693d 0228 6a3b f651 7dbe cd84 eabd
000002f0: 488d 223e 1bb3 463d f403 fb3d 5ab7 383b
00000300: 9e92 adbd 88a2 05bc 8aa1 fe3d e564 d83d
00000310: 7ba1 c8bc b71d e33d a503 363d ece8 68bd
00000320: bcc6 5d3e 39ea 4c3d cd5d a8bd 4be2 bd3d
00000330: 65aa 6d3d 6ccd 983c fc21 87be 9187 18bd
00000340: daa0 28bd 1751 193e 7799 40bd bc16 8c3d
00000350: 82d6 3a3d 4a66 bc3d c40f 36bc 1781 06be
00000360: d888 43bd c707 eabc c876 2bbd 3bd7 59bd
00000370: 19c8 133d 826d 29be 59ff 073d 3335 173d
00000380: 5ce0 0d3d f225 9abd ed4f 753d edf4 623d
00000390: 524f c6bc cb10 d63b bfdd 51bd bf1e 0dbd
000003a0: a6b5 2ebd 830e 2d3c 434f d03d 77b9 c93c
000003b0: cb96 ad3d 86e2 bfbd 180b 8c3d d6c2 803d
000003c0: 84ba 9a3d a93b de3d d716 be3d 9b9d 7c3d
000003d0: f9e9 fc3c 8e9f 683d 1555 f9ba 30d6 0a3e
000003e0: 955a 48bd 63ff c6bc 87a6 db3d 8627 14bd
000003f0: f5c7 f9bd bc49 9cbd 0745 91bd 12b9 61bd
