results/ppo/MoveToGoal/MoveToGoal-0.onnx (onnx, 71782 bytes, 6 tensors)

action_model._discrete_distribution.branches.0.bias f4 [5]
0	0x00000000	0.0
1	0x00000000	0.0
2	0x00000000	0.0
3	0x00000000	0.0
4	0x00000000	0.0

action_model._discrete_distribution.branches.0.weight f4 [5, 128]
0	0xbab55cab	-0.0013836821
1	0x3bf46b08	0.007459048
2	0xbab65fe4	-0.0013914076
3	0xbc4728ed	-0.012155754
4	0xbacf049b	-0.0015794219
5	0xbbd38aef	-0.006455771
6	0x3bda07f2	0.006653779
7	0x39dcfdd3	0.00042150784
8	0xbbe9fb9a	-0.007140589
9	0x3b0ff6ab	0.0021967094
10	0x3c2c622f	0.010521456
11	0xbc31b79a	-0.010846997
12	0x3bac4da6	0.00525828
13	0x3b488808	0.003059866
14	0xbafa756d	-0.0019108482
15	0xbc32f5a3	-0.010922822
16	0xbc13d005	-0.009021764
17	0x3c2ea178	0.010658614
18	0x3c09175b	0.008367385
19	0xbc359bc6	-0.011084503
20	0x3bbfcc6d	0.005853227
21	0x3bede300	0.0072597265
22	0xbabc90f0	-0.0014386456
23	0xbc2644b1	-0.010148213
24	0x3c5934a3	0.0132571785
25	0x3bf30ddf	0.007417425
26	0x3af2070f	0.0018465238
27	0xbc006f45	-0.007839029
28	0x39b2c3de	0.00034096738
29	0x3b63afd0	0.0034742244
30	0x3cb0cfbc	0.02158343
31	0xbc0fa353	-0.008766967
32	0xbcb473f2	-0.022027943
33	0xbb782f10	-0.0037869848
34	0xbb974837	-0.004616763
35	0x3b86e64d	0.0041168095
36	0xbc0cfb2c	-0.008604806
37	0x3b9578f3	0.0045615374
38	0xbb216258	-0.0024625268
39	0xbc425dd7	-0.0118631935
40	0x3afb86da	0.0019189969
41	0xbc29b3a4	-0.010357771
42	0x3a701377	0.0009158174
43	0xbbfccf12	-0.0077151144
44	0x3b5d30df	0.0033751053
45	0xbbfb3de7	-0.0076672914
46	0xb7cb5236	-2.4237768e-05
47	0x3cab56a7	0.020915342
48	0x3c912b29	0.017720776
49	0xbb2d6e53	-0.0026463463
50	0x3a8656dd	0.0010249276
51	0xbbb1f41d	-0.005430712
52	0x3c9b92a7	0.018990828
53	0x3c09a8cf	0.0084020635
54	0xbbb6c90a	-0.005578165
55	0xbbbcb84c	-0.0057592746
56	0xbc38f53f	-0.01128894
57	0x3ac6e3f7	0.001517414
58	0xbc140e5f	-0.009036629
59	0x3bec9a8f	0.0072205733
60	0xba85cd23	-0.001020823
61	0xbbee4c85	-0.0072723054
62	0xbc12b79b	-0.008954908
63	0x3b81c282	0.0039599547
64	0xbc06064e	-0.008180214
65	0xbb1d02ba	-0.0023957924
66	0x3abd0f13	0.0014424048
67	0xbb471630	-0.0030378215
68	0xbc0e5f6a	-0.008689741
69	0xbc94d35f	-0.018167196
70	0xbc312e5c	-0.010814276
71	0x38884be3	6.49912e-05
72	0xbba2b704	-0.004965665
73	0xbb6e69fb	-0.0036379087
74	0xbb45946c	-0.003014828
75	0xbc09c096	-0.0084077325
76	0xba5c2f35	-0.00083993684
77	0xbb045654	-0.0020193057
78	0xbabe4066	-0.0014515042
79	0xbc851646	-0.016245972
80	0x3c5acaf8	0.013354056
81	0xbc88f9ff	-0.01672077
82	0xbc66057d	-0.014039394
83	0x3ad89a72	0.001652552
84	0x3b7d9622	0.0038694222
85	0x3b7f994f	0.003900129
86	0xbc17ae1f	-0.009257822
87	0xbc72c423	-0.01481727
88	0xbc35009d	-0.0110475095
89	0xbb955870	-0.0045576617
90	0xbc9f0883	-0.019413238
91	0xbc28d117	-0.010303757
92	0x3b900739	0.0043953923
93	0x3acb58b3	0.0015514105
94	0x3beffa6f	0.007323555
95	0xbbb719a8	-0.0055877753
96	0xba30b4c4	-0.00067408034
97	0xbb87ed89	-0.0041481894
98	0xbc0c39a5	-0.008558665
99	0x3bf89267	0.007585812
100	0x3a9ff2fb	0.0012203151
101	0xbc4d100b	-0.012516032
102	0x3bb325c3	0.005467148
103	0x3bf55a8d	0.007487601
104	0x3bec2b0d	0.0072072805
105	0x3a9e6185	0.0012083506
106	0x3c9445de	0.018099722
107	0xbbee5163	-0.0072728856
108	0x3bbf046b	0.005829384
109	0x3c218ae0	0.009859771
110	0xbc2aa92d	-0.010416311
111	0x3b88d514	0.0041757915
112	0x39bc7a11	0.000359491
113	0x3b299e95	0.0025881876
114	0x3bec64fd	0.007214187
115	0x3ae52818	0.0017483262
116	0x3c3f92d8	0.011692725
117	0x3be64613	0.0070273965
118	0x3c118798	0.008882426
119	0x3cc67eef	0.024230449
120	0xbaf26105	-0.0018492049
121	0x3c916624	0.0177489
122	0x3c19fdb0	0.009398863
123	0x3c48a72e	0.01224689
124	0x3b94f02b	0.004545232
125	0xbbaedb91	-0.005336233
126	0x3c392dd1	0.011302427
127	0x3ad54833	0.0016272127
128	0xbbaf9874	-0.00535875
129	0x3bd997f2	0.0066404277
130	0xbaf37a40	-0.0018575862
131	0xbca610d4	-0.020271696
132	0xbb9bbf3b	-0.004753021
133	0x3bd3c1ef	0.0064623277
134	0x3b3c1181	0.0028696957
135	0x3948f908	0.00019166258
136	0xbc4e4688	-0.012590058
137	0x3c0bba4a	0.0085283015
138	0x3b87207a	0.0041237446
139	0x3b7b99a0	0.0038391128
140	0x3b0258f4	0.0019889446
141	0x3c886e0b	0.016654035
142	0xbb5e8c08	-0.0033957977
143	0x3c9a4a92	0.018834386
144	0x3c3cc0d2	0.011520581
145	0x3c27ebcb	0.0102490885
146	0x3b5ff048	0.0034170318
147	0x3b02ab07	0.0019938366
148	0xbc234c5f	-0.009966939
149	0xbc6007e2	-0.013673754
150	0xbbe1bf12	-0.0068892324
151	0x3c164fa9	0.009174266
152	0xbbc18f9f	-0.0059070135
153	0xbc0dafc3	-0.008647862
154	0xbc0d3a20	-0.008619815
155	0xba089447	-0.00052100833
156	0x3c3cd5a8	0.011525549
157	0x3c1df490	0.009640828
158	0xb89aba55	-7.377999e-05
159	0xbc0bfdfd	-0.008544442
160	0x3c0e4e37	0.00868564
161	0x3b7b250a	0.0038321638
162	0x3a1ca6f8	0.0005975808
163	0xbb396ea7	-0.0028294714
164	0xbba03ff1	-0.004890435
165	0xbac86209	-0.0015288006
166	0x3ca43f12	0.020049606
167	0xbc81464c	-0.01578059
168	0x3c5ac485	0.013352518
169	0xbaab865c	-0.0013086307
170	0x3c2b0fbd	0.010440764
171	0xbc09a402	-0.008400919
172	0x3be032a8	0.006841976
173	0xbbba1484	-0.005678715
174	0xbac46e63	-0.0014986511
175	0xbc1ca029	-0.0095596695
176	0x3ba7a5e4	0.0051162113
177	0x3ca8943f	0.020578502
178	0xbcb42ed7	-0.021994991
179	0x3b6e0e2b	0.0036324363
180	0xbc8362ec	-0.01603838
181	0xbbcb4277	-0.0062029916
182	0xbb1e6be9	-0.0024173206
183	0xbb22b431	-0.002482664
184	0x3c2fd343	0.010731521
185	0x3c0d1b9e	0.0086125415
186	0x3c7d752a	0.015469829
187	0x3a189313	0.00058202556
188	0xbc2ce23f	-0.010551988
189	0x3a950863	0.0011370297
190	0xbbfe06c8	-0.007752273
191	0x3c133da3	0.008986863
192	0x3bc70d5d	0.006074591
193	0x3ad52723	0.0016262274
194	0xbbd350fa	-0.006448862
195	0x3bd53782	0.006506861
196	0xbb7a069b	-0.003815091
197	0xb902f130	-0.00012487615
198	0xbb28225d	-0.0025655248
199	0x3c2cea4b	0.010553907
200	0x3c07aad2	0.008280473
201	0xbc9b12c0	-0.01892984
202	0xbb8bdda0	-0.004268363
203	0x3add9b02	0.0016907158
204	0x3ac79cb0	0.0015229192
205	0x3b9bff3f	0.0047606523
206	0x3cad83dc	0.02118104
207	0xbbf87495	-0.007582257
208	0xbbd63df0	-0.0065381452
209	0xbc211ff9	-0.009834283
210	0x39ba574a	0.0003554172
211	0xbc71591f	-0.014730721
212	0xbc25987b	-0.010107155
213	0xbc0e283d	-0.008676586
214	0x3acc0ee0	0.0015568398
215	0x3c0af4a2	0.008481177
216	0x3c10f1f3	0.008846748
217	0x3bb6da5b	0.005580229
218	0x3c385280	0.011250138
219	0xbc4c3cc7	-0.012465662
220	0x3c39aecc	0.011333179
221	0xbbd1eeaf	-0.006406627
222	0xbc124fd1	-0.0089301625
223	0x3b0c8beb	0.0021445702
224	0xbca2ef7b	-0.019889584
225	0x37d9a8aa	2.5946956e-05
226	0x3c287b63	0.010283324
227	0xbaf9d462	-0.0019060487
228	0xbc2ea100	-0.010658503
229	0x3b860761	0.004090235
230	0xbb788482	-0.0037920778
231	0x3b0657cd	0.002049911
232	0x3c3b0ac2	0.011416139
233	0xbb3814bd	-0.0028088533
234	0x3b92491c	0.0044642817
235	0x3b122611	0.0022300521
236	0xbb476f58	-0.0030431356
237	0x3a9ebee6	0.0012111336
238	0x3c240a8b	0.010012279
239	0x3b603aa8	0.003421465
240	0xbc1abd85	-0.009444599
241	0x3c076d6a	0.008265832
242	0x3befb160	0.007314846
243	0xbb34077f	-0.0027470288
244	0x3c2ef52f	0.0106785735
245	0xbc293d5f	-0.010329573
246	0x3b9e5269	0.0048316014
247	0x3b343a36	0.0027500517
248	0x3bb6c5b7	0.0055777687
249	0x3b462a5d	0.0030237653
250	0x3caa2eec	0.020774327
251	0xba6af355	-0.0008962651
252	0xbbf71a00	-0.0075409412
253	0x3bb1aac3	0.0054219677
254	0x3a98a164	0.0011644778
255	0xba87cfb3	-0.0010361582

network_body._body_endoder.seq_layers.0.bias f4 [128]
0	0x00000000	0.0
1	0x00000000	0.0
2	0x00000000	0.0
3	0x00000000	0.0
4	0x00000000	0.0
5	0x00000000	0.0
6	0x00000000	0.0
7	0x00000000	0.0
8	0x00000000	0.0
9	0x00000000	0.0
10	0x00000000	0.0
11	0x00000000	0.0
12	0x00000000	0.0
13	0x00000000	0.0
14	0x00000000	0.0
15	0x00000000	0.0
16	0x00000000	0.0
17	0x00000000	0.0
18	0x00000000	0.0
19	0x00000000	0.0
20	0x00000000	0.0
21	0x00000000	0.0
22	0x00000000	0.0
23	0x00000000	0.0
24	0x00000000	0.0
25	0x00000000	0.0
26	0x00000000	0.0
27	0x00000000	0.0
28	0x00000000	0.0
29	0x00000000	0.0
30	0x00000000	0.0
31	0x00000000	0.0
32	0x00000000	0.0
33	0x00000000	0.0
34	0x00000000	0.0
35	0x00000000	0.0
36	0x00000000	0.0
37	0x00000000	0.0
38	0x00000000	0.0
39	0x00000000	0.0
40	0x00000000	0.0
41	0x00000000	0.0
42	0x00000000	0.0
43	0x00000000	0.0
44	0x00000000	0.0
45	0x00000000	0.0
46	0x00000000	0.0
47	0x00000000	0.0
48	0x00000000	0.0
49	0x00000000	0.0
50	0x00000000	0.0
51	0x00000000	0.0
52	0x00000000	0.0
53	0x00000000	0.0
54	0x00000000	0.0
55	0x00000000	0.0
56	0x00000000	0.0
57	0x00000000	0.0
58	0x00000000	0.0
59	0x00000000	0.0
60	0x00000000	0.0
61	0x00000000	0.0
62	0x00000000	0.0
63	0x00000000	0.0
64	0x00000000	0.0
65	0x00000000	0.0
66	0x00000000	0.0
67	0x00000000	0.0
68	0x00000000	0.0
69	0x00000000	0.0
70	0x00000000	0.0
71	0x00000000	0.0
72	0x00000000	0.0
73	0x00000000	0.0
74	0x00000000	0.0
75	0x00000000	0.0
76	0x00000000	0.0
77	0x00000000	0.0
78	0x00000000	0.0
79	0x00000000	0.0
80	0x00000000	0.0
81	0x00000000	0.0
82	0x00000000	0.0
83	0x00000000	0.0
84	0x00000000	0.0
85	0x00000000	0.0
86	0x00000000	0.0
87	0x00000000	0.0
88	0x00000000	0.0
89	0x00000000	0.0
90	0x00000000	0.0
91	0x00000000	0.0
92	0x00000000	0.0
93	0x00000000	0.0
94	0x00000000	0.0
95	0x00000000	0.0
96	0x00000000	0.0
97	0x00000000	0.0
98	0x00000000	0.0
99	0x00000000	0.0
100	0x00000000	0.0
101	0x00000000	0.0
102	0x00000000	0.0
103	0x00000000	0.0
104	0x00000000	0.0
105	0x00000000	0.0
106	0x00000000	0.0
107	0x00000000	0.0
108	0x00000000	0.0
109	0x00000000	0.0
110	0x00000000	0.0
111	0x00000000	0.0
112	0x00000000	0.0
113	0x00000000	0.0
114	0x00000000	0.0
115	0x00000000	0.0
116	0x00000000	0.0
117	0x00000000	0.0
118	0x00000000	0.0
119	0x00000000	0.0
120	0x00000000	0.0
121	0x00000000	0.0
122	0x00000000	0.0
123	0x00000000	0.0
124	0x00000000	0.0
125	0x00000000	0.0
126	0x00000000	0.0
127	0x00000000	0.0

network_body._body_endoder.seq_layers.0.weight f4 [128, 1]
0	0x3e582ce5	0.21110876
1	0xbe9cc384	-0.30617917
2	0x3f53815b	0.82619256
3	0xbda9ba8e	-0.082875356
4	0x3dc07713	0.093977116
5	0xbef5ce7c	-0.48009098
6	0xbff252ad	-1.8931481
7	0x3f32cdfc	0.6984556
8	0xbf800984	-1.0002904
9	0x3f8e18a1	1.1101266
10	0xbf24e989	-0.64418846
11	0x3e98d41c	0.29849327
12	0xbecdf30e	-0.402245
13	0x3ffca3be	1.973747
14	0x3f42f3f6	0.76153505
15	0xbf3c06c1	-0.73447806
16	0x3ec1e472	0.37869602
17	0x40580539	3.3753188
18	0x3fbacaa2	1.4593089
19	0xbfb8514b	-1.4399809
20	0x3fd4cf46	1.6625755
21	0xbf6b2442	-0.918522
22	0x3f33afdb	0.7019021
23	0x3e8a8fc9	0.27062824
24	0x3df5a926	0.11995153
25	0x3fc9be56	1.5761211
26	0xbf666cd1	-0.9000979
27	0xbf946238	-1.1592474
28	0xbe9e3923	-0.30902967
29	0x3f524ff3	0.8215324
30	0x3fcffd3b	1.6249155
31	0x401975a5	2.3978055
32	0xbe267264	-0.16254574
33	0x3d58fce7	0.05297556
34	0xbea2eb9d	-0.31820384
35	0xbf4d12e6	-0.8010696
36	0x400f24e0	2.2366257
37	0xbed2cfcd	-0.41174164
38	0x3f5afcd1	0.8554202
39	0x3f5821ac	0.8442638
40	0x3e8e76c7	0.27824995
41	0xbe59584a	-0.21225086
42	0xbf82eaef	-1.0227946
43	0xbf19e1d2	-0.601102
44	0xbf7f8c03	-0.99823016
45	0x3e4e755e	0.2016196
46	0x3f21752f	0.6306943
47	0x3f14e6f2	0.58164895
48	0x3f9c499d	1.2209965
49	0x3f0f729a	0.56034243
50	0x3f12b419	0.5730606
51	0xbf74d69e	-0.9563998
52	0x40486634	3.131238
53	0x3ea1f516	0.31632298
54	0x3ee25f9f	0.44213578
55	0xbf223172	-0.633567
56	0xbedacd03	-0.42734537
57	0x3e9d9d3e	0.3078403
58	0x3f9513cb	1.1646665
59	0xbf6c9ac0	-0.9242363
60	0x3f1966ad	0.59922296
61	0x3ec9188c	0.3927654
62	0xbf6e3502	-0.93049634
63	0x3f062b24	0.5240958
64	0x3f0ab085	0.541756
65	0x3ff83601	1.9391481
66	0xbf95b42d	-1.169561
67	0x3f687b06	0.9081272
68	0x3f982520	1.188633
69	0x401c75d0	2.4446907
70	0xc0286602	-2.631226
71	0xbd17e51e	-0.037083738
72	0xbf08eb2d	-0.5348385
73	0xbe8adc8f	-0.27121398
74	0x3e5e911d	0.21735044
75	0xbf2c80c2	-0.6738397
76	0x3fa8676b	1.3156561
77	0x3fa807f9	1.3127433
78	0x3f100871	0.5626288
79	0xbef398a5	-0.47577396
80	0xbf69c4d2	-0.9131595
81	0xbfe05848	-1.7526941
82	0xbf9dfe86	-1.2343299
83	0x3e93f602	0.28898627
84	0x3fbc4e28	1.4711351
85	0x3f5abc56	0.8544363
86	0x3f687aee	0.90812576
87	0xbe87d685	-0.26530853
88	0xbf92c31d	-1.1465794
89	0xbfa393d5	-1.277949
90	0x40045871	2.067898
91	0x3ef770ec	0.4832834
92	0x3ebceaf2	0.36898
93	0x3f1ac530	0.60457134
94	0xbe4c0283	-0.19922833
95	0xc0089e42	-2.1346593
96	0xbf33a87a	-0.7017895
97	0x3f5b4f4c	0.8566787
98	0x3ec43e58	0.38328815
99	0x3f9e8a54	1.2385964
100	0x3fb03e3c	1.3768992
101	0xbf8b2545	-1.0870749
102	0xbfebaf08	-1.841279
103	0xbfb79410	-1.434206
104	0xbf812272	-1.0088637
105	0x3e2ea2d6	0.17054304
106	0x3f671269	0.90262467
107	0xbeeba632	-0.46025234
108	0x3c78e8cc	0.015192222
109	0xbe261024	-0.16217095
110	0x3f8b38a6	1.0876663
111	0xbf04cc8d	-0.5187462
112	0xbf26a3fe	-0.6509398
113	0xc01fc586	-2.4964309
114	0x3f5f0b74	0.8712685
115	0xbf0fd735	-0.56187755
116	0xbed3e331	-0.4138427
117	0x3e2350a7	0.15948735
118	0xc021764e	-2.5228457
119	0xbed53576	-0.4164235
120	0xbe7f4460	-0.24928427
121	0x3f84f74c	1.0387969
122	0xbeca2231	-0.3947921
123	0xbf497f4d	-0.7870987
124	0x3ea37c04	0.31930554
125	0x3f084c27	0.532412
126	0x3eef2580	0.46708298
127	0xbe1d767d	-0.15377231

network_body._body_endoder.seq_layers.2.bias f4 [128]
0	0x00000000	0.0
1	0x00000000	0.0
2	0x00000000	0.0
3	0x00000000	0.0
4	0x00000000	0.0
5	0x00000000	0.0
6	0x00000000	0.0
7	0x00000000	0.0
8	0x00000000	0.0
9	0x00000000	0.0
10	0x00000000	0.0
11	0x00000000	0.0
12	0x00000000	0.0
13	0x00000000	0.0
14	0x00000000	0.0
15	0x00000000	0.0
16	0x00000000	0.0
17	0x00000000	0.0
18	0x00000000	0.0
19	0x00000000	0.0
20	0x00000000	0.0
21	0x00000000	0.0
22	0x00000000	0.0
23	0x00000000	0.0
24	0x00000000	0.0
25	0x00000000	0.0
26	0x00000000	0.0
27	0x00000000	0.0
28	0x00000000	0.0
29	0x00000000	0.0
30	0x00000000	0.0
31	0x00000000	0.0
32	0x00000000	0.0
33	0x00000000	0.0
34	0x00000000	0.0
35	0x00000000	0.0
36	0x00000000	0.0
37	0x00000000	0.0
38	0x00000000	0.0
39	0x00000000	0.0
40	0x00000000	0.0
41	0x00000000	0.0
42	0x00000000	0.0
43	0x00000000	0.0
44	0x00000000	0.0
45	0x00000000	0.0
46	0x00000000	0.0
47	0x00000000	0.0
48	0x00000000	0.0
49	0x00000000	0.0
50	0x00000000	0.0
51	0x00000000	0.0
52	0x00000000	0.0
53	0x00000000	0.0
54	0x00000000	0.0
55	0x00000000	0.0
56	0x00000000	0.0
57	0x00000000	0.0
58	0x00000000	0.0
59	0x00000000	0.0
60	0x00000000	0.0
61	0x00000000	0.0
62	0x00000000	0.0
63	0x00000000	0.0
64	0x00000000	0.0
65	0x00000000	0.0
66	0x00000000	0.0
67	0x00000000	0.0
68	0x00000000	0.0
69	0x00000000	0.0
70	0x00000000	0.0
71	0x00000000	0.0
72	0x00000000	0.0
73	0x00000000	0.0
74	0x00000000	0.0
75	0x00000000	0.0
76	0x00000000	0.0
77	0x00000000	0.0
78	0x00000000	0.0
79	0x00000000	0.0
80	0x00000000	0.0
81	0x00000000	0.0
82	0x00000000	0.0
83	0x00000000	0.0
84	0x00000000	0.0
85	0x00000000	0.0
86	0x00000000	0.0
87	0x00000000	0.0
88	0x00000000	0.0
89	0x00000000	0.0
90	0x00000000	0.0
91	0x00000000	0.0
92	0x00000000	0.0
93	0x00000000	0.0
94	0x00000000	0.0
95	0x00000000	0.0
96	0x00000000	0.0
97	0x00000000	0.0
98	0x00000000	0.0
99	0x00000000	0.0
100	0x00000000	0.0
101	0x00000000	0.0
102	0x00000000	0.0
103	0x00000000	0.0
104	0x00000000	0.0
105	0x00000000	0.0
106	0x00000000	0.0
107	0x00000000	0.0
108	0x00000000	0.0
109	0x00000000	0.0
110	0x00000000	0.0
111	0x00000000	0.0
112	0x00000000	0.0
113	0x00000000	0.0
114	0x00000000	0.0
115	0x00000000	0.0
116	0x00000000	0.0
117	0x00000000	0.0
118	0x00000000	0.0
119	0x00000000	0.0
120	0x00000000	0.0
121	0x00000000	0.0
122	0x00000000	0.0
123	0x00000000	0.0
124	0x00000000	0.0
125	0x00000000	0.0
126	0x00000000	0.0
127	0x00000000	0.0

network_body._body_endoder.seq_layers.2.weight f4 [128, 128]
0	0xbe3fce6c	-0.18731087
1	0x3e584313	0.21119337
2	0x3d5a4e54	0.053297356
3	0xbe005385	-0.1253186
4	0x3d9950b7	0.07486098
5	0x3cb9c4a0	0.022676766
6	0xbd899a31	-0.06718863
7	0x3e12fce4	0.14354283
8	0xbe0ab618	-0.13546026
9	0xbade2778	-0.0016949018
10	0xbd747bf4	-0.059688523
11	0xbd18103a	-0.03712485
12	0xbd9918d4	-0.07475439
13	0xbd34698c	-0.04404597
14	0xbdd5fef8	-0.10449022
15	0xbd95c1c0	-0.073123455
16	0xbda5d318	-0.080969036
17	0x3c96afa9	0.018394308
18	0xbdcd40ac	-0.10022101
19	0xbcb3c1cf	-0.021943001
20	0xbdbe58e0	-0.09294295
21	0xbc2f8e8a	-0.010715136
22	0x3d1e0e83	0.03858806
23	0x3e5cbf67	0.21557389
24	0x3ddc032a	0.10742791
25	0xbda57c9f	-0.0808041
26	0xbd533296	-0.051561914
27	0x3dc07c8c	0.093987554
28	0x3dc2e2f8	0.09515947
29	0x3dad926d	0.08475194
30	0xbdd2a8dd	-0.10286114
31	0xbb157609	-0.002280595
32	0x3cc7aacf	0.02437344
33	0xbd2e730a	-0.04259018
34	0x3db0e543	0.08637478
35	0x3c8bacf4	0.017050244
36	0x3cbae355	0.022813478
37	0xbd464483	-0.04840518
38	0x3dd281a8	0.10278636
39	0xbc8c24d5	-0.017107407
40	0x3d8b8b17	0.06813639
41	0x3d98405d	0.07434151
42	0xbdaca2e1	-0.08429504
43	0xbddc3aa1	-0.1075337
44	0xbd2c2b81	-0.042033676
45	0x3dcf36ca	0.10117872
46	0x3d98cd86	0.074610755
47	0x3baf5846	0.005351099
48	0xbe865ea0	-0.26244068
49	0xbc9cd1e3	-0.01914305
50	0x3e37231b	0.17884485
51	0x3c97464a	0.018466134
52	0x3d8edb02	0.06975366
53	0xbc4b3681	-0.012403131
54	0x3d761287	0.060076263
55	0x3daaee2b	0.08346208
56	0x3daf2060	0.08551097
57	0xbe2a04bc	-0.16603369
58	0x3d83683f	0.06416368
59	0xbdd4bc2c	-0.103874534
60	0x3c464276	0.012100806
61	0xbccd0459	-0.025026487
62	0x3c3019fd	0.010748384
63	0x3afac6b4	0.0019132704
64	0x3dcf0d66	0.101099774
65	0x3b3bbe0d	0.0028647215
66	0x3e01bf60	0.1267066
67	0x3e2eb1f0	0.17060065
68	0xbca321b0	-0.019913524
69	0xbcca156f	-0.024668423
70	0xbd246091	-0.040131155
71	0x3d0d9066	0.034561537
72	0x3ac256e5	0.0014826922
73	0x3cb80d22	0.0224672
74	0x3daf75a9	0.08567364
75	0xbce2a912	-0.02766851
76	0x3d805656	0.06266467
77	0x3b27bda0	0.0025595203
78	0xbdd6b7aa	-0.1048425
79	0x3d094e9b	0.03352223
80	0xbc5dac01	-0.013529778
81	0x3d15ca6c	0.036569998
82	0x3d9e2145	0.077211894
83	0x3dcb409f	0.09924435
84	0x3d471f10	0.048613608
85	0x3b0b317e	0.0021239216
86	0x3ccadd8d	0.024763847
87	0xbbf80a4f	-0.0075695883
88	0xbc4a13ad	-0.012333793
89	0xbd03047e	-0.031986706
90	0xbdcd4291	-0.10022462
91	0xbdb3caee	-0.0877894
92	0xba57db98	-0.0008234321
93	0x3da96186	0.08270554
94	0x3e2bc758	0.16775262
95	0x3e4c6541	0.199605
96	0xbcb6f5e3	-0.022334045
97	0x3d3c511f	0.0459758
98	0xbcdfaaaf	-0.027303068
99	0x3ce7302b	0.02822121
100	0xbe1cbf68	-0.1530739
101	0xbd620a22	-0.055185445
102	0x3d885107	0.0665608
103	0x3e707a0d	0.23484059
104	0xbdac860e	-0.084240064
105	0xbe3751ad	-0.1790225
106	0xbbb0ed8c	-0.0053994115
107	0x3d89df61	0.06732059
108	0xbd6b864f	-0.057501134
109	0x3e3ee9b9	0.18643846
110	0xbdccfef8	-0.10009569
111	0xbde63ae7	-0.112417035
112	0xbb7230eb	-0.0036955427
113	0xbe19387a	-0.1496295
114	0xbda687ff	-0.08131408
115	0xbd5908c1	-0.052986864
116	0x3da04eba	0.07827516
117	0xbd925fad	-0.07147155
118	0x3ba5e2d6	0.0050624413
119	0x3e86b52e	0.26310104
120	0x3e003746	0.12521085
121	0xbdac1559	-0.08402509
122	0xbe053ae8	-0.13010752
123	0x3d4ee1ce	0.050508313
124	0x3daca5c5	0.084300555
125	0xbd6929ea	-0.056924738
126	0xbbc3f62e	-0.0059802746
127	0x3cb39bf2	0.021924946
128	0x3d82613b	0.063662015
129	0xbd338cb9	-0.043835375
130	0xbdabfeee	-0.08398233
131	0x3e17b419	0.14814796
132	0xbcb9864c	-0.022647046
133	0xbddc8a0d	-0.107685186
134	0xbde40cd4	-0.11135259
135	0xbb109fba	-0.002206786
136	0x3d7dffd2	0.062011547
137	0xbd7470c2	-0.059677847
138	0xbd8edabe	-0.069753155
139	0xbe04fc18	-0.12986791
140	0x3d25db10	0.040492117
141	0x3db9bffc	0.09069821
142	0xbcea6ebf	-0.028617261
143	0x3d5b07fa	0.053474404
144	0x3db1bca6	0.0867856
145	0x3cc70074	0.024292208
146	0x3e1a9c0b	0.15098588
147	0xbce1b980	-0.027554274
148	0xbc9fdab3	-0.019513464
149	0xbd82657b	-0.06367012
150	0x3d44d686	0.048056148
151	0x3c87fdab	0.01660045
152	0x3deffc3f	0.11718034
153	0xbda65903	-0.081224464
154	0x3d9bb125	0.07602147
155	0x3c215a00	0.009848118
156	0x3d152a75	0.036417443
157	0xbd84e0c8	-0.06488186
158	0xbc1df132	-0.009640025
159	0x3c201999	0.009771728
160	0x3d475969	0.048669253
161	0x3c817073	0.01580069
162	0xbd3931a4	-0.045213357
163	0x3e8ea51d	0.27860346
164	0xbd5ea93f	-0.054360624
165	0xbdaaa1f2	-0.0833167
166	0x3ddd49f5	0.10805122
167	0xbd96e38a	-0.073676184
168	0xbd3ac4ae	-0.045597725
169	0xbcf95efe	-0.030440804
170	0x3b124a6d	0.0022322193
171	0xbd9ce7ec	-0.07661423
172	0x3d81bc48	0.0633474
173	0x3e058aac	0.1304118
174	0xbddfad31	-0.109217055
175	0xbcd64eaa	-0.026160557
176	0x3d852121	0.065004595
177	0xbddb89fc	-0.10719678
178	0x3c89ac1e	0.016805705
179	0xbe255d48	-0.16148865
180	0xbd661c53	-0.056179356
181	0xbbe17908	-0.006880883
182	0xbdbe7fd4	-0.09301725
183	0x3cb984f8	0.022646412
184	0x3d69c46e	0.057072096
185	0x3b6a2802	0.0035729413
186	0xbe7d51f6	-0.24738297
187	0xbdea84cd	-0.11451111
188	0x3e228d48	0.15874207
189	0x3d46b31b	0.048510652
190	0x3dfb03f4	0.122566134
191	0x3b38b75a	0.0028185458
192	0xbdad929e	-0.08475231
193	0xbc05a288	-0.008156426
194	0x3dfea18a	0.12433155
195	0x3dd864e5	0.10566119
196	0xbcc8a17b	-0.024491062
197	0x3de31db7	0.11089652
198	0x3d3603a5	0.04443707
199	0xbd68e8ec	-0.056862757
200	0x3e5dc6bc	0.21657842
201	0x3d4cea39	0.05002806
202	0xbda85dcd	-0.08221016
203	0x3dbde24b	0.092716776
204	0x3d6daa65	0.05802383
205	0x3c98cd6c	0.01865264
206	0xbe8721fc	-0.26393116
207	0xbd188791	-0.03723866
208	0xbd28a0da	-0.041169025
209	0x3e195117	0.1497234
210	0xbd409977	-0.047021355
211	0x3d8c16bc	0.06840274
212	0x3d3ad682	0.045614727
213	0x3dbc664a	0.091991976
214	0xbc360fc4	-0.011112157
215	0xbe068117	-0.13135181
216	0xbd4388d8	-0.047737926
217	0xbcea07c7	-0.028568162
218	0xbd2b76c8	-0.041861326
219	0xbd59d73b	-0.053183775
220	0x3d13c819	0.0360795
221	0xbe296d82	-0.1654568
222	0x3d07ff59	0.033202503
223	0x3d173533	0.03691597
224	0x3d0de05c	0.034637794
225	0xbd9a25f2	-0.07526769
226	0x3d754fed	0.059890676
227	0x3d62f4ed	0.05540936
228	0xbcc64f52	-0.024207745
229	0x3bd610cb	0.0065327636
230	0xbd51ddbf	-0.051236864
231	0xbd0d1ebf	-0.03445315
232	0xbd2eb5a6	-0.042653702
233	0x3c2d0e83	0.010562542
234	0x3dd04f43	0.10171368
235	0x3cc9b977	0.02462457
236	0x3dad96cb	0.08476027
237	0xbdbfe286	-0.09369378
238	0x3d8c0b18	0.068380535
239	0x3d80c2d6	0.06287162
240	0x3d9aba84	0.07555106
241	0x3dde3ba9	0.10851223
242	0x3dbe16d7	0.092817
243	0x3d7c9d9b	0.06167374
244	0x3cfce9f9	0.030873286
245	0x3d689f8e	0.05679279
246	0xbaf95515	-0.0019022549
247	0x3e0ad630	0.13558269
248	0xbd485a95	-0.04891451
249	0xbcc6ff63	-0.0242917
250	0x3ddba687	0.10725122
251	0xbd142786	-0.036170505
252	0xbdf9c7f5	-0.12196342
253	0xbd9c49bc	-0.07631251
254	0xbd914507	-0.07093244
255	0xbd61b912	-0.055108137
