results/SnakeAndBirdAgent/SnakeAndBirdAgent/SnakeAndBirdAgent-1000037.onnx (onnx, 103045 bytes, 6 tensors)

action_model._discrete_distribution.branches.0.bias f4 [3]
0	0x3c59cc41	0.013293327
1	0xbc451379	-0.012028568
2	0x3b5ba917	0.0033517533

action_model._discrete_distribution.branches.0.weight f4 [3, 128]
0	0xbd011062	-0.031509764
1	0xbcac9445	-0.021066794
2	0x3d2b3f75	0.041808564
3	0x3b4fc16a	0.0031700977
4	0xbccbd1e6	-0.02488036
5	0x3ccb6790	0.024829656
6	0x3cc3df6c	0.023910247
7	0x3b9f7a7c	0.004866896
8	0xbcb73d15	-0.022367993
9	0xbc88d5eb	-0.016703567
10	0x3ca41525	0.020029614
11	0xbd13285d	-0.035927165
12	0x3bfaccf9	0.007653829
13	0xbbdacaca	-0.0066770064
14	0xbd373013	-0.04472358
15	0x3d677e45	0.056516904
16	0xbd04fc80	-0.032467365
17	0xbb0f2e0e	-0.002184752
18	0x3c36de65	0.011161421
19	0xbc99d3f3	-0.018777823
20	0xbbf345c0	-0.0074240863
21	0xbb0751d4	-0.0020648139
22	0xbc9af08d	-0.018913532
23	0xba819bd2	-0.0009888357
24	0xbaccfb60	-0.001563888
25	0xbbb3b27f	-0.005483925
26	0x3d0b756d	0.034047533
27	0x3c260dce	0.010135127
28	0xbb9954ab	-0.0046792827
29	0xbb420224	-0.0029603327
30	0xbc172aae	-0.009226484
31	0x3c545742	0.012960257
32	0xbc636d3e	-0.013881026
33	0xbbb30d34	-0.0054642204
34	0xbb636366	-0.0034696697
35	0xbbd7f17c	-0.0065900665
36	0xbcad499b	-0.021153262
37	0xbcc35074	-0.023842074
38	0xbd027b1e	-0.031855695
39	0xbc8fa261	-0.017533483
40	0xbc2df797	-0.010618112
41	0xbd2c6002	-0.042083748
42	0xbcf7d622	-0.030253474
43	0xbc45b8e0	-0.012068003
44	0xbc4949a6	-0.012285626
45	0x3b9455af	0.004526816
46	0xbcd59739	-0.026073085
47	0xbc252c0a	-0.0100813005
48	0xbcf7d56c	-0.030253135
49	0xbd32dbc5	-0.04366662
50	0x3d74ebbf	0.059795137
51	0x3b69909a	0.0035639168
52	0x3a274af4	0.00063817133
53	0xbbc92d41	-0.006139428
54	0x3dce4c3e	0.10073136
55	0x3d622b71	0.05521721
56	0xbca693bc	-0.020334117
57	0xbcc7b313	-0.024377381
58	0x3c93b65c	0.018031292
59	0xbd233857	-0.03984865
60	0xbb5f2aa7	-0.0034052522
61	0xbd02332b	-0.03178708
62	0xbbf7fca1	-0.0075679575
63	0xbc6669e4	-0.014063332
64	0xbc9aa438	-0.018877134
65	0xbc5ea330	-0.013588712
66	0xbcfe5ba4	-0.031049557
67	0xbcc4a780	-0.024005651
68	0x38e1d916	0.000107692715
69	0x3d397412	0.04527671
70	0xbc42afe3	-0.011882755
71	0xbd056fe2	-0.032577403
72	0x3beed0fa	0.0072880955
73	0xbd00006e	-0.03125041
74	0x3d773a35	0.060358245
75	0xbb0cfc7f	-0.0021512804
76	0x3cbbce30	0.022925466
77	0xbc905982	-0.017620806
78	0xbbd6b489	-0.006552283
79	0xbcd45390	-0.025918752
80	0x39bde70f	0.0003622104
81	0xbc6b822e	-0.014374299
82	0xbc935f0f	-0.017989663
83	0xbca333f2	-0.01992223
84	0xbd586cec	-0.05283825
85	0x3cdc55c9	0.026896374
86	0xbcce902e	-0.025215235
87	0x3bd7f4ae	0.0065904474
88	0xbce324b8	-0.02772747
89	0x395c3065	0.00020998863
90	0xbb976067	-0.0046196464
91	0x3a74032c	0.0009308334
92	0xbca7d18e	-0.020485666
93	0x3cc51fcd	0.024063015
94	0xbca6063d	-0.020266647
95	0x3cbd97c5	0.023143658
96	0x3cd8117f	0.02637553
97	0xbc893b2f	-0.016751854
98	0x3c05e75a	0.008172834
99	0xbcb9f94b	-0.02270188
100	0xbc50dd0f	-0.012748017
101	0x3ac57e1c	0.0015067491
102	0xbce8c55d	-0.028414423
103	0xbc855cd4	-0.016279615
104	0xbcc99434	-0.024606802
105	0x3c34c877	0.011034123
106	0xbbd9ab63	-0.0066427453
107	0x3cc75191	0.024330886
108	0xbc8ae973	-0.01695702
109	0xbc7f8550	-0.015595749
110	0x3d1522dd	0.0364102
111	0xbc15ea77	-0.009150139
112	0xbc23ebcd	-0.01000495
113	0xbb3ab8f8	-0.0028491598
114	0x3c676c43	0.014124933
115	0x3d07a11c	0.03311263
116	0xbcd7b2c7	-0.026330365
117	0x3c30be4f	0.010787561
118	0x3c9f2d9f	0.019430934
119	0x3c912ea4	0.017722435
120	0xbb08e35a	-0.0020887465
121	0xbbed263a	-0.007237223
122	0xbc7f1ce5	-0.015570854
123	0xbd8e683d	-0.069534756
124	0x3c4a0a67	0.012331582
125	0xbd0715bb	-0.03297971
126	0x3b69a1b4	0.003564936
127	0xbc62891f	-0.0138266375
128	0x3c954ee1	0.018226089
129	0x3c9f2340	0.019425988
130	0xbd4b546e	-0.049641065
131	0xbc5e9ae3	-0.013586733
132	0x3cc022a3	0.023454016
133	0xbc37da22	-0.0112214405
134	0xbd4391cf	-0.047746476
135	0xbcac77ee	-0.02105328
136	0x3c005350	0.007832363
137	0xbc1aab8c	-0.009440314
138	0x3c493258	0.012280069
139	0x3c820b0e	0.015874412
140	0xbbf5eba9	-0.0075048995
141	0x3d25c3f1	0.040470067
142	0xbaa89723	-0.0012862425
143	0xbdf6ad5b	-0.12044784
144	0x3d4a9444	0.049457803
145	0x3cbc7b0b	0.02300789
146	0xbd3d7fcf	-0.046264466
147	0x3d1a7a8f	0.037714537
148	0x3c8f037d	0.017457718
149	0x3d071c63	0.032986056
150	0xbca38bbd	-0.019964093
151	0xbd2000b4	-0.03906317
152	0x3cff588d	0.031170154
153	0x3ce0a5d2	0.02742282
154	0xbd5a1db1	-0.053250972
155	0x3b98b900	0.0046607256
156	0xbcb122b8	-0.021623
157	0xbc81c3d2	-0.015840445
158	0xbbe872d8	-0.0070937686
159	0xbd0b6512	-0.034031935
160	0xbc39857d	-0.01132333
161	0x3d51f6fe	0.05126094
162	0xbb86398c	-0.0040962156
163	0xbc0a8612	-0.008454816
164	0xbd9d83da	-0.07691164
165	0x3c816399	0.015794562
166	0x3d2ee950	0.042702973
167	0xbd834015	-0.06408707
168	0x3c90a2e7	0.017655803
169	0x3d1b1259	0.037859295
170	0x3c91d93b	0.017803779
171	0xbd276584	-0.040868297
172	0xbd7d5f19	-0.06185827
173	0x3c9daffd	0.019248957
174	0xbc3c3768	-0.011487819
175	0xbc4d6ecc	-0.012538623
176	0x3d02eb78	0.03196284
177	0x3d32d9f8	0.043664902
178	0xbdb224f7	-0.08698457
179	0xbc61150b	-0.013737927
180	0x3c12f966	0.008970594
181	0x3c79ebaa	0.015253941
182	0xbddd24f3	-0.10798063
183	0xbd662e1a	-0.05619631
184	0xbad41d1b	-0.001618299
185	0x3cb6dea3	0.022322958
186	0x3be570ad	0.0070019574
187	0x3cd0410b	0.02542164
188	0xbc53725c	-0.012905683
189	0x3d23d628	0.039999157
190	0x3c118d56	0.008883795
191	0x3bf123e1	0.0073590134
192	0xbc668f6d	-0.014072281
193	0x3c8d946a	0.017282683
194	0x3beb28ef	0.0071765105
195	0x3d9225d8	0.07136124
196	0xbcf70262	-0.030152503
197	0x3d006c18	0.031353086
198	0xbb560121	-0.0032654481
199	0x3c977b78	0.018491492
200	0x3be1fbb8	0.0068964623
201	0x3c92f151	0.017937334
202	0xbd8b9d0b	-0.06817063
203	0x3b703c73	0.0036657124
204	0xbc80c05b	-0.015716722
205	0xbc129aaf	-0.008948012
206	0xbc014b1b	-0.007891442
207	0xbc953132	-0.018211935
208	0xbd105acb	-0.035242837
209	0xbb9d2497	-0.0047956216
210	0x3c90c4e1	0.017672004
211	0x3c7aecf7	0.015315286
212	0x3d35b632	0.044363208
213	0xbd6c7b97	-0.057735052
214	0x3c5ac08a	0.013351569
215	0xbc5eaefd	-0.013591525
216	0xbd03c699	-0.03217182
217	0x3c7f25de	0.015572993
218	0x3ba2f086	0.0049725203
219	0xbc959165	-0.018257806
220	0x3c355936	0.011068633
221	0xba98886d	-0.0011637338
222	0xbc58fdaa	-0.013244072
223	0xbd0c050a	-0.034184493
224	0xbc913cf3	-0.017729258
225	0x3d70a37d	0.058749665
226	0xbc1641aa	-0.009170929
227	0x3bd0ee12	0.0063760364
228	0xbd318eff	-0.043349262
229	0xbd336506	-0.043797515
230	0x3d30214e	0.04300051
231	0x3d13d12d	0.036088157
232	0x3cf046ee	0.029330697
233	0xbd82a888	-0.06379801
234	0x3b64d44e	0.0034916583
235	0xbcb89987	-0.022534145
236	0xbc617588	-0.013760932
237	0x3d081f4a	0.033232965
238	0x3c506247	0.012718744
239	0xbc4d9575	-0.01254784
240	0xbcccff5c	-0.025024109
241	0xbce45d31	-0.027876468
242	0x3c67dfe8	0.0141525045
243	0xbcfe910c	-0.031075023
244	0x3ccb9539	0.024851428
245	0xbd6529cc	-0.055948064
246	0xbc67b8f0	-0.014143214
247	0x3daf4af3	0.08559217
248	0x3d5ff73b	0.054679137
249	0xbbcd0d93	-0.0062577217
250	0x3d082e73	0.033247422
251	0x3d8dcbf6	0.06923668
252	0xbd018693	-0.03162248
253	0x3c1f26db	0.009713854
254	0x3d4932f2	0.04912085
255	0xbbb689a4	-0.0055706073

network_body._body_endoder.seq_layers.0.bias f4 [128]
0	0x3cd6a56b	0.026201924
1	0x3d00f57c	0.031484112
2	0x3c29ffcd	0.010375929
3	0xbb67d1a3	-0.0035372756
4	0x3ae6d625	0.0017611427
5	0x3d191050	0.037369072
6	0xbb11ac8c	-0.002222809
7	0x3c0bcd55	0.008532842
8	0x3d02514d	0.031815816
9	0x3b9a6881	0.004712165
10	0x3bb0afd6	0.005392055
11	0x3cc0e35c	0.023545913
12	0x3d056bd0	0.03257352
13	0xbc70999b	-0.01468506
14	0x3bd5eb95	0.0065283277
15	0xbc1bd791	-0.009511844
16	0x3d8db7a5	0.06919793
17	0x3d5d56a9	0.054037724
18	0xbcb36700	-0.0218997
19	0x3c8ca011	0.01716617
20	0x3d2e87bc	0.042609915
21	0xbc76c6b5	-0.015062024
22	0xbab024aa	-0.0013438661
23	0x3d534684	0.05158092
24	0xbd07531f	-0.033038255
25	0x3cadaf9b	0.0212019
26	0x3d755f1c	0.059905156
27	0x3c43372f	0.011915012
28	0x3aae67f0	0.0013306122
29	0x3c83ca36	0.016087633
30	0x3c28d735	0.010305216
31	0x3d48ce79	0.049025033
32	0xbc96d6a2	-0.018412892
33	0x3d7ab9cc	0.061212346
34	0xbd128a0c	-0.035776183
35	0x3b6c937e	0.0036098654
36	0x3c1ad6b9	0.009450608
37	0x3d0595f0	0.032613695
38	0x38db4971	0.00010456413
39	0x3d5c1d8f	0.053739127
40	0x3d72fc05	0.059322376
41	0x3d97f0f3	0.07419004
42	0xbc8f8d6d	-0.017523492
43	0xbca20ec9	-0.01978244
44	0x3d003629	0.03130165
45	0x3cb32da9	0.021872358
46	0x3c7a392f	0.015272423
47	0x3c196ca4	0.009364281
48	0x3ca5f811	0.020259889
49	0x3cad7587	0.021174205
50	0x3d312ece	0.043257527
51	0x3cd10585	0.025515327
52	0x3d0d2fab	0.034469288
53	0x3d399e94	0.045317248
54	0x3d1aa719	0.037757013
55	0x3c90c2d2	0.017671023
56	0x3c8948ad	0.016758287
57	0x3c06ce50	0.0082279
58	0x3ca71d48	0.020399705
59	0x3b52d0c1	0.0032167884
60	0xbc8d9e6b	-0.017287454
61	0x3cabd03c	0.020973317
62	0xb93e37bb	-0.00018140573
63	0x3d33baf1	0.043879453
64	0x3cb5e3d6	0.022203367
65	0xbce91812	-0.02845386
66	0xbd6d6e4f	-0.057966527
67	0x3b6f91da	0.003655544
68	0x3d5a60dd	0.053315032
69	0xbd0ffb6c	-0.035151884
70	0x3ba00d62	0.004884408
71	0x3cd0f6d4	0.025508322
72	0x3d10f4c0	0.03538966
73	0x3cf3ff89	0.029784935
74	0x3d88b861	0.066757925
75	0x3c946a5a	0.018117119
76	0x3d0c208e	0.034210734
77	0xbd0d3a77	-0.034479585
78	0xbcce063b	-0.025149455
79	0x3cf4f889	0.029903667
80	0xbc98bf79	-0.018645989
81	0xbca4960c	-0.02009108
82	0x3c4532e9	0.012036064
83	0x3c3ec53b	0.011643703
84	0x3d0260a4	0.031830445
85	0x3b10fee5	0.0022124585
86	0x3c0b6a26	0.0085091945
87	0x3ba8ca6a	0.0051510828
88	0xbce03011	-0.02736667
89	0x3bcb4259	0.0062029776
90	0x3c7ad88f	0.015310421
91	0xbc55e343	-0.013054672
92	0x3cba170d	0.02271607
93	0x3c00f096	0.00786986
94	0xbc2f59bf	-0.0107025495
95	0x3d132399	0.03592262
96	0x3cb1fe8d	0.021727825
97	0xbbe4d885	-0.006983819
98	0xbbb1cb4f	-0.0054258476
99	0x3c8585a1	0.01629907
100	0xbc2f16b7	-0.010686568
101	0x3cf0659a	0.029345322
102	0x3d25e344	0.04049994
103	0x3cfc3d39	0.030790912
104	0x3ce4d685	0.027934322
105	0xbc9e14b0	-0.019296974
106	0xbcd871ca	-0.026421446
107	0x3ccb9877	0.024852974
108	0x3c901e0c	0.017592452
109	0x3d12fae5	0.035883803
110	0x3ce38f61	0.02777833
111	0x3d5b13f8	0.05348584
112	0x3d6763f3	0.056491803
113	0x3c917342	0.017755155
114	0x3d61fb1f	0.05517113
115	0x3cd527f3	0.026020026
116	0xbbe76b78	-0.007062372
117	0x3d4bcf86	0.049758457
118	0x3d15f482	0.036610134
119	0x3b4e9b00	0.0031525493
120	0xbce12853	-0.027485048
121	0x3c57e9f4	0.013178337
122	0x3cb8c062	0.022552673
123	0xbc479ba3	-0.012183103
124	0x3c231b84	0.009955291
125	0xbb37e9ef	-0.002806302
126	0x3d8a4fa3	0.06753471
127	0xbc53c59c	-0.012925532

network_body._body_endoder.seq_layers.0.weight f4 [128, 64]
0	0x3dbd91be	0.09256314
1	0x3e1f7e99	0.15575637
2	0xbe92fc40	-0.28708076
3	0x3db2d1a3	0.08731391
4	0xbdee7d1e	-0.11644958
5	0xbd9ec4af	-0.07752358
6	0x3ea11c37	0.3146684
7	0xbd5c4001	-0.053771976
8	0x3e6c92d8	0.23102891
9	0x3da163ca	0.078803614
10	0x3c50712d	0.012722296
11	0xbd843aa7	-0.064564995
12	0xbe6e18e0	-0.23251677
13	0x3de4f128	0.111788094
14	0xbd4464e7	-0.04794779
15	0x3b986fc0	0.0046519935
16	0x3e0beda6	0.13664874
17	0xbe5c6cda	-0.21525899
18	0x3e1772e7	0.14789926
19	0x3e04b491	0.12959506
20	0xbe093032	-0.13397291
21	0xbeab0dc0	-0.33408928
22	0x3d2191bd	0.039445627
23	0xbcf240f8	-0.029571995
24	0xbddaea64	-0.10689238
25	0x3e07cce0	0.13261747
26	0xbea840a1	-0.32861808
27	0x3dfc2982	0.123126045
28	0xbd3052d4	-0.04304774
29	0xbe5eea3f	-0.21769045
30	0xbcc7c56a	-0.024386127
31	0x3d89dd0e	0.06731616
32	0x3e37fdfd	0.17967983
33	0xbe07e023	-0.13269095
34	0xbe05c58e	-0.13063642
35	0x3cf9c561	0.030489625
36	0xbdb1477a	-0.08656211
37	0xbe38af09	-0.1803552
38	0xbe818b5f	-0.25301644
39	0xbe03c268	-0.12867129
40	0xbe01fe2c	-0.12694615
41	0xbd7d83b4	-0.06189318
42	0x3d32f106	0.04368689
43	0xbd711801	-0.058860783
44	0xbe8a04bc	-0.26956737
45	0xbe7fc9af	-0.2497928
46	0xbd880520	-0.066416025
47	0x3d3c57f7	0.045982327
48	0xbce007ab	-0.027347406
49	0xbd76d04e	-0.06025725
50	0xbe43fcc7	-0.19139396
51	0x3d6fc2ad	0.058535267
52	0x3cf62f11	0.03005174
53	0xbe13c132	-0.14429167
54	0xbe8977d1	-0.26849225
55	0x3e7e9231	0.24860455
56	0x3de459d8	0.11149949
57	0xbe989c6e	-0.29806846
58	0x3d414436	0.04718419
59	0x3e005f72	0.1253641
60	0xbde20e4c	-0.11037883
61	0xbd225924	-0.039635792
62	0xbe4b1378	-0.19831645
63	0x3e8be20d	0.273209
64	0x3ea8067c	0.32817447
65	0x3cd326dc	0.025775366
66	0xbdc284c2	-0.09497978
67	0xbc929108	-0.017891422
68	0xbe104572	-0.14088991
69	0x3d90e344	0.070745975
70	0xbe9d16e4	-0.30681527
71	0x3cfef77e	0.031123873
72	0xbe0752ec	-0.13215226
73	0x3dc62ea5	0.096768655
74	0xba8100be	-0.000984214
75	0xbc1d7839	-0.009611183
76	0xbcac2ede	-0.021018442
77	0x3e6bfb9d	0.23045202
78	0x3da3926e	0.079869136
79	0x3c21b405	0.00986958
80	0xbe967737	-0.2938783
81	0xbe02077a	-0.12698165
82	0xbc3ec911	-0.011644618
83	0xbcafa0d6	-0.021438997
84	0x3d7cf1fc	0.06175421
85	0x3e41769c	0.18892902
86	0xbe1c7b65	-0.15281446
87	0xbdb830ed	-0.08993707
88	0x3e0d9523	0.13826422
89	0xbd2029c9	-0.03910235
90	0xbe0769f0	-0.13224006
91	0xbd7b79a8	-0.061395317
92	0x3cb12994	0.021626271
93	0xbdb61600	-0.08890915
94	0x3e377198	0.17914426
95	0x3dafd8ff	0.085863106
96	0xbe44d97c	-0.19223589
97	0xbd749fc1	-0.059722666
98	0xbcebdc8e	-0.028791692
99	0x3cdc6e7d	0.026908154
100	0x3c02d1f7	0.00798463
101	0x3e051b10	0.12998605
102	0x3d89f263	0.06735685
103	0x3e4f4fff	0.2024536
104	0x3db06355	0.08612696
105	0x3eb3ddc3	0.35130128
106	0xbd2b2c07	-0.041790035
107	0xbe26f39c	-0.16303867
108	0x3e17e6a9	0.14834084
109	0x3c08be63	0.008346173
110	0x3d504d8f	0.050855216
111	0x3d898ba9	0.06716091
112	0xbe050db7	-0.12993513
113	0xbe3456c1	-0.17611219
114	0x3dcfc1d5	0.101443924
115	0x3db1c057	0.08679264
116	0x3e353c8c	0.17698878
117	0x3dc91ce2	0.09819962
118	0x3e426f8d	0.18987866
119	0x3d919fc1	0.07110549
120	0xbac2d95f	-0.0014865807
121	0xbd9fce07	-0.078029685
122	0xbd5f2a6a	-0.05448381
123	0x3e2b818f	0.16748641
124	0x3ec14a24	0.37751877
125	0xbddc1bb8	-0.107474744
126	0x3d3133f6	0.043262444
127	0xbbe8603e	-0.007091551
128	0xbe17bb32	-0.14817503
129	0xbc915dbe	-0.017744895
130	0x3e5f7690	0.21822572
131	0xbe752d6c	-0.23943108
132	0xbe4e57f8	-0.20150745
133	0x3dc46473	0.09589472
134	0xbbd9eccc	-0.006650543
135	0x3ca5151e	0.020151671
136	0xbdae7700	-0.08518791
137	0x3e409738	0.18807685
138	0x3d484e83	0.048903
139	0x3d415bea	0.047206797
140	0x3d8060c7	0.06268459
141	0x3d0a47c2	0.03375984
142	0xbe99f5ee	-0.30070442
143	0x3e0a819f	0.13526009
144	0x3baa92a2	0.0052054683
145	0xbc246b40	-0.010035336
146	0xbe0307b4	-0.12795907
147	0xbdbfc99a	-0.09364624
148	0xbda5be2e	-0.080929145
149	0x3d0b7544	0.03404738
150	0xbe40576b	-0.18783347
151	0x3e68b1ff	0.2272415
152	0xbd3b3272	-0.045702405
153	0x3e5b3dc6	0.21410283
154	0x3b48b33c	0.003062441
155	0xbe1bc8f9	-0.15213384
156	0x3df1247b	0.11774536
157	0x3d51a6f5	0.051184613
158	0xbdaec940	-0.08534479
159	0x3d7977ce	0.06090527
160	0x3d859339	0.06522221
161	0x3d0fcd4e	0.035107903
162	0xbe0bee8e	-0.1366522
163	0xbce97051	-0.02849594
164	0xbc71bba0	-0.014754206
165	0x3d4423f6	0.047885858
166	0xbe81a2b5	-0.25319448
167	0x3bea6323	0.0071529313
168	0xbdbad158	-0.091219604
169	0xbca8e519	-0.020617055
170	0x3d602300	0.05472088
171	0xbdae5440	-0.08512163
172	0xbd0e6cb6	-0.034771644
173	0x3de1c9d5	0.110248245
174	0x3c68ce91	0.0142094055
175	0x3d949a6d	0.07256017
176	0x3db23741	0.08701945
177	0x3d9263f0	0.07147968
178	0x3e192c65	0.14958341
179	0xbcad51db	-0.021157196
180	0x3d58ab0c	0.052897498
181	0x3cf176b8	0.029475555
182	0x3bd423aa	0.006473978
183	0x3d7d9cc3	0.061917078
184	0xbe29118c	-0.165106
185	0x3de1f25d	0.11032555
186	0x3d206fb8	0.039169043
187	0xbe27edb6	-0.16399273
188	0xbe0475d3	-0.12935571
189	0xbe889c21	-0.26681617
190	0xbae9ff26	-0.0017852529
191	0x3da0b898	0.078477085
192	0x3d950f47	0.072783045
193	0xbe42bd84	-0.19017607
194	0xbc3cc886	-0.011522418
195	0x3d06adc4	0.03288056
196	0xbc931f16	-0.017959159
197	0x3d2c4732	0.042060085
198	0xbe3040c0	-0.172122
199	0xbd909fe5	-0.070617475
200	0x3d9e8c62	0.0774162
201	0x3d78a310	0.060702384
202	0x3dfeeb69	0.12447245
203	0xbe07af36	-0.13250431
204	0x3cadd716	0.021220725
205	0xbd3f5338	-0.046710223
206	0xbe70da34	-0.23520738
207	0xbd75b3c5	-0.059985895
208	0xbdb804ec	-0.08985314
209	0xbe2b8834	-0.16751176
210	0xbd918b88	-0.071066916
211	0xbde7cab2	-0.11317958
212	0xbde990ee	-0.11404596
213	0xbe36413c	-0.17798322
214	0xbe05da97	-0.13071667
215	0xbd605aea	-0.054774202
216	0x3d3f30ae	0.046677284
217	0xbcb5d2ed	-0.022195304
218	0xbe42fef5	-0.19042571
219	0x3e5e8e28	0.21733916
220	0x3e254346	0.16138944
221	0xbe3b5b69	-0.18296589
222	0x3c5b7b5b	0.013396109
223	0x3d8e3b89	0.06944949
224	0xbd21613d	-0.039399374
225	0x3e87f1a8	0.26551557
226	0xbe55b22c	-0.20868748
227	0x3e96be97	0.29442284
228	0xbe8b37c7	-0.27190992
229	0x3dc971c7	0.098361544
230	0xbdc79bb4	-0.09746495
231	0x3df14da1	0.11782385
232	0xbdf35765	-0.118819036
233	0x3d8b1871	0.06791771
234	0xbe35e448	-0.17762864
235	0xbc0643d6	-0.008194884
236	0xbc587c4f	-0.013213231
237	0x3de38a26	0.11110334
238	0x3c9f6e29	0.019461708
239	0xbd85828a	-0.06519039
240	0x3ce95c89	0.028486507
241	0xbe75ab65	-0.23991163
242	0xbb2f512f	-0.002675127
243	0x3d0d66f8	0.034522027
244	0xbe60b73a	-0.21944895
245	0x3ddca318	0.10773295
246	0xbd1cefe2	-0.038314708
247	0x3e4c4608	0.1994859
248	0xbd635364	-0.05549945
249	0xbdb78e42	-0.089626804
250	0x3cd9ea15	0.026600877
251	0xbdb36214	-0.08758941
252	0xbd615582	-0.055013187
253	0xbe0e13d4	-0.13874751
254	0xbe340bb0	-0.17582583
255	0x3dc8bb84	0.09801391

network_body._body_endoder.seq_layers.2.bias f4 [128]
0	0xbbc9473e	-0.006142526
1	0xbba6a3c1	-0.005085439
2	0x3d0f60f4	0.03500457
3	0x3aed42f7	0.0018101622
4	0x3c901f4a	0.017593045
5	0x3d3183d0	0.043338597
6	0x3d0ed39b	0.03486977
7	0x3b56236f	0.0032674929
8	0x3b714fb4	0.0036821188
9	0x3ccc37b3	0.024928903
10	0x3c5ab637	0.0133491075
11	0x3c7ee02b	0.0155563755
12	0xbc20168e	-0.009771002
13	0x3cdd7f65	0.027038286
14	0xb9249c1c	-0.00015698414
15	0x3d5aec28	0.053447872
16	0x3bdcf7bd	0.0067434
17	0xbcd7c416	-0.026338618
18	0x3d22d65b	0.039755207
19	0xbbbc3981	-0.0057441597
20	0x3ad5d7cb	0.0016314922
21	0x3b489b7d	0.0030610256
22	0x3a6a73ad	0.00089436286
23	0x3d3ff0b6	0.04686042
24	0x3c9d6a40	0.019215703
25	0xbcbc034f	-0.022950796
26	0x3cc351f3	0.023842787
27	0x3c85b165	0.01631994
28	0xbd5f4d91	-0.054517332
29	0x3c878c19	0.016546296
30	0x3c9170a1	0.017753901
31	0x3cb897d3	0.022533333
32	0xbc5519f0	-0.013006672
33	0xbca7acd9	-0.020468162
34	0x38392d7e	4.4149805e-05
35	0xbc6cd999	-0.014456176
36	0x3cdb510a	0.02677204
37	0xbc6bdd35	-0.014396002
38	0xba6fe9a7	-0.00091519434
39	0x3d7eef5d	0.062239993
40	0x3b895381	0.0041908626
41	0x3cac6779	0.021045433
42	0xbc52c24a	-0.012863705
43	0x3cdafb31	0.026731106
44	0x3d448f07	0.047987964
45	0xbc67f239	-0.0141568715
46	0x3cc8fc1d	0.02453428
47	0x3af1f940	0.0018461123
48	0x3c0bd2b8	0.008534126
49	0x3d780c22	0.060558446
50	0x3d7f3920	0.062310338
51	0xbcc20239	-0.0236827
52	0xbb8b938a	-0.0042595314
53	0x3ba66988	0.0050784983
54	0x3da5d489	0.080971785
55	0x3d27d8b4	0.04097815
56	0xbb9cb21d	-0.004781975
57	0xbbbe0c1b	-0.005799783
58	0x3b566bcd	0.0032718063
59	0x3c91f336	0.017816167
60	0x3a625916	0.00086344907
61	0x3ca8fa63	0.020627206
62	0xbc2a8dc8	-0.01040978
63	0xbce455c5	-0.02787293
64	0x3c226037	0.009910635
65	0xbc6a31b2	-0.014294075
66	0xbc081577	-0.008305899
67	0xbc6d854d	-0.014497113
68	0x3c344ade	0.011004178
69	0x3cd3deab	0.025863012
70	0x3c062ce8	0.008189417
71	0xb991dfa1	-0.00027823172
72	0xbc5624db	-0.0130703105
73	0x3c0d482b	0.008623163
74	0x3d3ea216	0.046541296
75	0xbccedb2f	-0.025251
76	0x3c882435	0.016618827
77	0x3ca8be13	0.020598447
78	0x3ade4247	0.0016957008
79	0x3d1befef	0.038070615
80	0x3c0105ab	0.0078748865
81	0x3c2f9e0f	0.010718836
82	0x3c1b8dd7	0.0094942665
83	0xbbf1fa78	-0.0073845945
84	0xbccdfa6a	-0.02514382
85	0x3d611e41	0.054960493
86	0x3bb3df52	0.0054892683
87	0x3ca900e2	0.020630304
88	0x3d32b3f3	0.043628644
89	0x3c33fdf9	0.010985845
90	0x3d05804f	0.032593068
91	0x3b11fa68	0.0022274498
92	0x3bd0f5a5	0.0063769394
93	0x3a62f2b0	0.0008657379
94	0x3bc880e8	0.0061188824
95	0x3ccdd8c6	0.02512778
96	0xbbf9b409	-0.007620339
97	0x3b5dc2c0	0.0033838004
98	0x3bd641d5	0.0065386095
99	0xbbd308ee	-0.0064402735
100	0x3c9e7ff8	0.01934813
101	0x3ce32f0c	0.027732395
102	0x3b6c7b83	0.003608436
103	0x3b878bbe	0.0041365316
104	0xbb8f8352	-0.0043796683
105	0x3d2d5757	0.042319622
106	0xbc658f7d	-0.014011261
107	0x3c86852c	0.016420923
108	0xbc990757	-0.018680258
109	0x3c520e04	0.012820724
110	0x3c698e36	0.014255097
111	0x3c764ff2	0.015033709
112	0x3bcad015	0.006189356
113	0x3c974f90	0.018470556
114	0xbbc8c7c6	-0.0061273305
115	0x3d2a9caf	0.04165333
116	0x3c10b107	0.008831269
117	0x3d0ef27b	0.034899216
118	0x3c634089	0.013870367
119	0x3baaaeca	0.0052088248
120	0x3b80875b	0.0039223856
121	0xbc17006d	-0.00921641
122	0xbb26f0c2	-0.0025473093
123	0x3d0e357b	0.03471897
124	0x3c9cf428	0.019159392
125	0x3ad68b6f	0.0016368459
126	0x3bb9aaea	0.0056661265
127	0xbaa9fa80	-0.0012968332

network_body._body_endoder.seq_layers.2.weight f4 [128, 128]
0	0xbcc8757e	-0.024470087
1	0x3e071cfd	0.13194652
2	0x3cd4615a	0.025925327
3	0x3c0b03ba	0.008484775
4	0xbd54a187	-0.051911857
5	0x3d099ffa	0.03359983
6	0x3d299bd5	0.04140838
7	0xbc237bcd	-0.009978247
8	0x3e194528	0.14967787
9	0xbb471c83	-0.0030381985
10	0xbc509db4	-0.012732912
11	0xbe269821	-0.1626897
12	0x3bf3836b	0.0074314377
13	0x3d4b0f90	0.04957539
14	0x3e42dbd3	0.19029169
15	0x3e024e4b	0.12725179
16	0xbe2e709a	-0.17035142
17	0x3dc1350f	0.09433948
18	0x3e3b1451	0.18269469
19	0x3d03f0d9	0.032212112
20	0x3ce63b28	0.02810438
21	0x3d528bfd	0.051403034
22	0xbd0a8666	-0.03381958
23	0xbd340605	-0.043951053
24	0x3e15d7f4	0.14633161
25	0xbdc9b1bc	-0.09848353
26	0xbcae1d95	-0.02125434
27	0xbce43177	-0.027855618
28	0x3e194800	0.14968872
29	0x3c516ee8	0.01278279
30	0x3e253082	0.16131786
31	0x3e58cb16	0.21171221
32	0xbd9d5889	-0.07682902
33	0xbb21c044	-0.002468125
34	0x3c847987	0.01617123
35	0xbd5922d5	-0.053011734
36	0xbd986787	-0.07441621
37	0x3d00905a	0.031387664
38	0x3e02dea2	0.1278024
39	0x3df02b8b	0.11727055
40	0xbda10c82	-0.07863714
41	0xbdcb7cb4	-0.099358946
42	0x3d3087e2	0.043098338
43	0xbe07d897	-0.13266216
44	0xbd11f4ae	-0.035633735
45	0xbdd7e973	-0.10542574
46	0xbcbe0ad4	-0.023198523
47	0xbdef8cce	-0.11696778
48	0x3dde4bef	0.10854327
49	0x3da81b63	0.082083486
50	0x3d543f20	0.051818013
51	0xbdc5bce8	-0.09655172
52	0xbdc2685d	-0.09492562
53	0xbd3e096a	-0.046395697
54	0xbd41d8f8	-0.04732606
55	0x3d195314	0.037432745
56	0xbc90b8ea	-0.017666299
57	0x3dcb38ef	0.099229686
58	0x3da7d58d	0.081950285
59	0x3e8d1834	0.27557528
60	0xbdf3d078	-0.11904997
61	0x3e1685fc	0.14699548
62	0x3d720788	0.059089214
63	0x3da3b9af	0.07994401
64	0xbcc083b4	-0.023500301
65	0x3d669b11	0.056300227
66	0xbd76bd63	-0.060239207
67	0x3e77e150	0.24207044
68	0xbe0d49c6	-0.13797674
69	0x3d977ade	0.07396482
70	0x3c9779d5	0.018490711
71	0xbcbb964b	-0.022898814
72	0x3e0d1767	0.13778459
73	0xbdd37309	-0.103246756
74	0xbcea395a	-0.0285918
75	0xbd4c1afc	-0.04983042
76	0xbd917f12	-0.07104315
77	0x3d9180bf	0.071046345
78	0x3d75d82f	0.060020622
79	0x3d20df98	0.039275736
80	0x3d39bb66	0.045344733
81	0xbc285334	-0.010273743
82	0x3d66e4f5	0.056370694
83	0x3df49f6a	0.11944468
84	0xbd9b9f01	-0.07598687
85	0xbccb78a4	-0.0248378
86	0x3c14d662	0.009084316
87	0x3d1d026c	0.038332388
88	0x3d9c5ebb	0.07635256
89	0x3d1c74e0	0.0381974
90	0xbd65b8e0	-0.056084514
91	0x3dc5a111	0.096498616
92	0x3de05cf3	0.10955229
93	0x3e28cff9	0.16485585
94	0xbcc789fa	-0.024357785
95	0x3ce0f1af	0.027458994
96	0xbd1b6979	-0.037942383
97	0x3e74a15a	0.23889676
98	0xbd7a98cb	-0.06118087
99	0x3be3ddbf	0.0069539244
100	0x3bffcfdf	0.0078067626
101	0xbb63df74	-0.003477064
102	0xbd992876	-0.074784204
103	0x3d0a4864	0.033760443
104	0xbd935cc3	-0.07195427
105	0xbd04f4da	-0.03246007
106	0x3e17acc2	0.14811996
107	0x3dbbbda8	0.091670334
108	0x3d616cdb	0.055035453
109	0x3dbbaace	0.09163438
110	0xbc591dbe	-0.01325172
111	0xbb8de7af	-0.0043305974
112	0xbd821faf	-0.063536994
113	0x3e73440f	0.23756431
114	0x3d6467fb	0.055763226
115	0x3d411232	0.047136493
116	0x3e34e5b7	0.17665754
117	0xbcf6a41d	-0.030107552
118	0xbde75b5f	-0.112967245
119	0xbb901293	-0.0043967455
120	0xbd45e2d1	-0.048312012
121	0xbd48c074	-0.049011663
122	0x3b1f9599	0.0024350642
123	0xbde466f8	-0.11152452
124	0x3d9be5cc	0.0761219
125	0x3b36612c	0.0027828915
126	0xbba3e45d	-0.0050015883
127	0xbe391e96	-0.18078074
128	0xbdc676ba	-0.09690614
129	0x3d44a7b3	0.048011493
130	0x3d381326	0.044940136
131	0xbc596243	-0.013268056
132	0x3d87bf61	0.066282995
133	0x3cb0222f	0.021500675
134	0xbe1ee438	-0.15516746
135	0xbd9cb1b5	-0.076510824
136	0xbcc3ae79	-0.023886906
137	0xbdd80f86	-0.10549836
138	0x3cd5770c	0.026057743
139	0x3dde579b	0.10856553
140	0x3db0d739	0.086348005
141	0x3e2286a5	0.15871675
142	0x3ddb591c	0.10710356
143	0x3df4d1ea	0.119541004
144	0xbb36e1bd	-0.0027905547
145	0x3de99ff6	0.11407463
146	0x3e04c867	0.12967072
147	0xbcf28f6f	-0.02960941
148	0xbcb81754	-0.022472061
149	0x3dbb9c4d	0.091606714
150	0xbdd1a51c	-0.1023657
151	0xbddc0feb	-0.107452236
152	0x3d579c4b	0.052639287
153	0x3c23fca7	0.0100089675
154	0xbc15feeb	-0.009155015
155	0xbd0bc44c	-0.03412275
156	0x3b645a07	0.00348437
157	0xbc92f919	-0.017941045
158	0xbd60f2ec	-0.05491917
159	0x3c2f02c1	0.010681809
160	0xbc82de82	-0.01597524
161	0x3cdba884	0.026813753
162	0xbd80f3dd	-0.06296513
163	0xbdb709eb	-0.089374386
164	0x3da264a2	0.079293504
165	0xbe311436	-0.17292866
166	0x3dc64891	0.0968181
167	0xbd9e55fb	-0.07731243
168	0x3a9ac155	0.0011806885
169	0xbe10d377	-0.14143167
170	0xbc636b71	-0.0138805965
171	0xbd57f163	-0.05272044
172	0xbd86cf94	-0.06582561
173	0x3bed55a4	0.007242875
174	0x3c8e24aa	0.017351467
175	0xbda0d602	-0.07853319
176	0x3da5ec41	0.081017025
177	0x3ca6251e	0.02028137
178	0xbd02be5c	-0.031919822
179	0xbd981415	-0.07425705
180	0xbda3e238	-0.08002132
181	0x3db0643a	0.08612867
182	0xbcfc9e48	-0.030837193
183	0xbd1e5449	-0.0386546
184	0x3ca6f951	0.020382555
185	0xbd8a5fc0	-0.06756544
186	0x3e299fdc	0.16564888
187	0xbd886ad2	-0.06660999
188	0x3dafb85d	0.085800864
189	0xbd01cac9	-0.03168753
190	0xbb5f8474	-0.0034106048
191	0xbd0df256	-0.034654938
192	0xbdacdeae	-0.0844091
193	0xbd390de1	-0.04517925
194	0x3c396839	0.0113163525
195	0xbc19294d	-0.009348226
196	0xbde3e04f	-0.11126768
197	0x3cf39114	0.029732265
198	0xbcbc69f0	-0.022999734
199	0x3e30b3d2	0.17256096
200	0xbdfadc99	-0.12249107
201	0x3e1d4eb2	0.15362051
202	0xbdaa54b2	-0.083169356
203	0x3ddcaa8e	0.10774718
204	0x3d5e1834	0.0542223
205	0xbcbfb0b9	-0.023399698
206	0x3d135e67	0.0359787
207	0xbcffd342	-0.031228665
208	0x3dff4357	0.12464016
209	0xbccd1fa9	-0.02503951
210	0xbdd8241c	-0.10553762
211	0xbd4f1fb4	-0.050567344
212	0xbd52f4c5	-0.05150296
213	0x3cc2a251	0.02375904
214	0x3bdc0343	0.006714256
215	0xbc9a09b3	-0.018803453
216	0x3dfa54b7	0.12223189
217	0xbdb1446a	-0.08655627
218	0xbdf8ba15	-0.12144867
219	0xbc7c5dce	-0.015403224
220	0x3e0e229a	0.13880387
221	0x3ba72bcc	0.0051016565
222	0x3d3ed1f5	0.04658695
223	0xbc303671	-0.010755167
224	0x3d2ec778	0.042670697
225	0x3d884271	0.06653298
226	0xbe1505ac	-0.14552945
227	0xbd574024	-0.052551404
228	0x3c435141	0.011921228
229	0x3dedf031	0.116180785
230	0x3d0f558e	0.0349937
231	0xbcc6cb9c	-0.02426701
232	0xbc82be8c	-0.01596
233	0x3de2b2cb	0.11069258
234	0xbcc19e8b	-0.02363517
235	0x3d776f22	0.06040872
236	0x3e43ea55	0.1913236
237	0x3c89ae4c	0.016806744
238	0x3dea6623	0.11445262
239	0x3dc3f145	0.09567503
240	0x3d28e727	0.04123607
241	0xbd99e6a6	-0.07514696
242	0x3e39c7a5	0.18142565
243	0xbd8c4337	-0.06848758
244	0x3e370ddc	0.1787638
245	0xbd159f42	-0.036528833
246	0x3db6dacc	0.08928451
247	0xbbda6900	-0.006665349
248	0xbc9f2f83	-0.019431835
249	0xbd1b418b	-0.037904304
250	0x3df8b190	0.12143242
251	0x3d9dcacf	0.07704698
252	0x3b00864e	0.0019611302
253	0x3d5b3009	0.053512607
254	0x3d0435df	0.032277938
255	0x3d709095	0.058731634
