results/SnakeAndBirdAgent/SnakeAndBirdAgent/SnakeAndBirdAgent-1499945.pt (torch, 618247 bytes, 33 tensors)

network_body._body_endoder.seq_layers.0.weight f4 [128, 64]
0.09998625 0.15548289 -0.29681933 0.07275866 -0.1249189 -0.06998098 0.31204847 -0.0581558
0.21954384 0.06866755 0.018314794 -0.06064881 -0.24542946 0.090562776 -0.054415457 0.0094125
0.1342664 -0.21720418 0.13890316 0.11766487 -0.12957564 -0.32817656 0.030373616 -0.04568291
-0.11104424 0.13587731 -0.32997146 0.122657076 -0.05122358 -0.23035422 -0.02140157 0.07358655
0.17063455 -0.13172987 -0.12830923 0.033051852 -0.08855747 -0.17985056 -0.2611632 -0.14134037
-0.12313902 -0.058427267 0.03645124 -0.05392423 -0.26288044 -0.24569818 -0.06891901 0.04661694
-0.03735212 -0.07330587 -0.18516262 0.058486264 0.027196568 -0.15091296 -0.25838092 0.2470007
0.11166435 -0.29866037 0.052263558 0.12534434 -0.12247752 -0.03742598 -0.19917037 0.27339143
0.3269618 0.026745165 -0.100773714 -0.006161855 -0.13359752 0.065471224 -0.30289763 0.028933758
-0.12085211 0.104026064 0.0022834088 -0.011246079 -0.029493114 0.24134211 0.08668271 0.0053736903
-0.29119095 -0.12792681 -0.0006439015 -0.013436496 0.064256355 0.18868192 -0.1595829 -0.081402645
0.14354172 -0.0427667 -0.13066876 -0.062366877 0.031725194 -0.080982625 0.17969921 0.08676568
-0.1946801 -0.055505153 -0.026372725 0.024959106 0.008927059 0.12885506 0.07559635 0.20933318
0.08886523 0.35141996 -0.042989317 -0.1648289 0.14898668 0.0061264373 0.050945476 0.066453435
-0.121888846 -0.16957983 0.09998629 0.08697314 0.17645493 0.10249155 0.18654332 0.072300225
-0.0016579081 -0.07990388 -0.05832036 0.16764499 0.3833018 -0.10271197 0.047353037 -0.008131754
-0.12858893 -0.035329495 0.2064413 -0.24630871 -0.1902904 0.1168602 -0.03435872 0.012571252
-0.09150629 0.19827606 0.05842957 0.05168681 0.046684917 0.02606493 -0.29321107 0.14968666
-0.018529508 -0.012767472 -0.13419382 -0.088150404 -0.076669335 0.053970125 -0.20819287 0.21894787
-0.04221187 0.22011004 -0.006801099 -0.15033261 0.11247768 0.05026598 -0.0824688 0.07959111
0.049238972 0.03276536 -0.13249701 -0.026317086 -0.016938237 0.05342049 -0.25861 0.001620953
-0.08606632 -0.009527772 0.039341025 -0.07977923 -0.027305676 0.11075356 0.016373415 0.07809114
0.08062931 0.06361414 0.15398116 -0.01706844 0.04770733 0.025588991 0.011610424 0.06990435
-0.16402762 0.12128378 0.047056332 -0.16287059 -0.13301179 -0.27140632 -0.006121828 0.0802978
0.079890564 -0.18925692 -0.021058405 0.017950883 -0.030408317 0.04873602 -0.17448959 -0.0761601
0.06503461 0.044660825 0.13227119 -0.12755896 0.005553782 -0.069998235 -0.24289307 -0.05449331
-0.092718415 -0.17082405 -0.08057905 -0.13070925 -0.105389036 -0.1718745 -0.1448349 -0.084193625
0.04265053 -0.017245566 -0.19135796 0.21457213 0.15249091 -0.1992464 0.019427141 0.07595059
-0.05315252 0.25725508 -0.20530458 0.2991968 -0.27136308 0.0961957 -0.10592931 0.10306432
-0.11386113 0.074307464 -0.1901767 -0.0040880395 -0.0046355594 0.11701431 0.018817304 -0.06685004
0.01863278 -0.25491735 0.00717542 0.037078477 -0.22374254 0.10175815 -0.023993064 0.19571999
-0.055379525 -0.09584837 0.03363185 -0.08733009 -0.07289935 -0.12813897 -0.17962196 0.10096658
00000000: 97c5 cc3d e836 1f3e b4f8 97be 7e02 953d
00000010: 7bd5 ffbd 3052 8fbd d1c4 9f3e c734 6ebd
00000020: 1ad0 603e 93a1 8c3d e808 963c e36a 78bd
00000030: dc51 7bbe fa78 b93d bee2 5ebd e336 1a3c
00000040: 227d 093e c66a 5ebe a13c 0e3e 48fa f03d
00000050: 7aaf 04be c206 a8be 17d2 f83c 011e 3bbd
00000060: 2a6b e3bd 6c23 0b3e 05f2 a8be a233 fb3d
00000070: d1cf 51bd fae1 6bbe 5852 afbc 8cb4 963d
00000080: d3ba 2e3e 32e4 06be 7f63 03be 6161 073d
00000090: 9e5d b5bd bf2a 38be 2fb7 85be 88bb 10be
000000a0: 4f30 fcbd 6e51 6fbd e54d 153d a7df 5cbd
000000b0: 4498 86be 4e98 7bbe 6925 8dbd 68f1 3e3d
000000c0: 89fe 18bd 6321 96bd 459b 3dbe 4b8f 6f3d
000000d0: 56cb de3c ed88 1abe 814a 84be c0ed 7c3e
000000e0: 47b0 e43d 03ea 98be 5012 563d 445a 003e
000000f0: 7ed5 fabd fc4b 19bd 51f3 4bbe f6f9 8b3e
00000100: 8967 a73e ad18 db3c 7362 cebd 63e9 c9bb
00000110: cacd 08be c715 863d 6615 9bbe 7d06 ed3c
00000120: 5081 f7bd 9e0b d53d 3ea5 153b 7941 38bc
00000130: 8b9b f1bc 6322 773e b486 b13d c815 b03b
00000140: fb16 95be 3fff 02be 80cb 28ba c024 5cbc
00000150: d698 833d d535 413e b369 23be 6eb6 a6bd
00000160: 9afc 123e 232c 2fbd 08ce 05be 6974 7fbd
00000170: 47f2 013d 38da a5bd 1203 383e 34b2 b13d
00000180: 385a 47be 5f59 63bd 9d0b d8bc 0a77 cc3c
00000190: cd42 123c 95f2 033e 42d2 9a3d 705b 563e
000001a0: f9fe b53d 51ed b33e 9115 30bd e8c8 28be
000001b0: f78f 183e 48c0 c83b 34ac 503d bd18 883d
000001c0: dca0 f9bd 56a6 2dbe 9dc5 cc3d f91e b23d
000001d0: 9ab0 343e 17e7 d13d 3605 3f3e 2412 943d
000001e0: 2a4e d9ba a5a4 a3bd 54e1 6ebd 21ab 2b3e
000001f0: 2240 c43e a75a d2bd 42f5 413d 0c3b 05bc
00000200: d1ac 03be a9b5 10bd 5965 533e 5a38 7cbe
00000210: 7ddb 42be 6754 ef3d bbbb 0cbd a7f7 4d3c
00000220: a667 bbbd e108 4b3e d853 6f3d 8cb5 533d
00000230: af38 3f3d 1f86 d53c c31f 96be 7647 193e
00000240: 32cb 97bc a92e 51bc 1b6a 09be 3388 b4bd
00000250: d004 9dbd c70f 5d3d 8330 55be df33 603e
00000260: 5be6 2cbd 8764 613e c1db debb cbf0 19be
00000270: b35a e63d b3e3 4d3d 67e5 a8bd aa00 a33d
00000280: ceae 493d f834 063d 4cad 07be ee96 d7bc
00000290: 0fc2 8abc 72cf 5a3d 8868 84be 2876 d43a
000002a0: 8a43 b0bd 5f1a 1cbc 0e24 213d 4b63 a3bd
000002b0: 27b0 dfbc c3d2 e23d 8a21 863c 3fee 9f3d
000002c0: fb20 a53d 2148 823d 3dad 1d3e 1dd3 8bbc
000002d0: c368 433d 01a0 d13c a639 3e3c 032a 8f3d
000002e0: dbf6 27be a163 f83d 24be 403d 8cc7 26be
000002f0: 3e34 08be c5f5 8abe 9e99 c8bb 2c73 a43d
00000300: aa9d a33d 91cc 41be ad82 acbc bb0d 933c
00000310: dd1a f9bc 6c9f 473d 66ad 32be d4f9 9bbd
00000320: de30 853d 45ee 363d 1972 073e d19e 02be
00000330: 80fc b53b 3c5b 8fbd f6b8 78be 6134 5fbd
00000340: 27e3 bdbd 80ec 2ebe a106 a5bd a5d8 05be
00000350: 35d6 d7bd deff 2fbe 9a4f 14be b56d acbd
00000360: 52b2 2e3d 9346 8dbc 57f3 43be ccb8 5b3e
00000370: 9426 1c3e 4007 4cbe ab25 9f3c fc8b 9b3d
00000380: 75b6 59bd f0b6 833e 5d3b 52be 5330 993e
00000390: 1af0 8abe 4002 c53d 77f1 d8bd 6313 d33d
000003a0: 0630 e9bd 832e 983d aebd 42be f6f4 85bb
000003b0: e4e5 97bb 33a5 ef3d bf26 9a3c ace8 88bd
000003c0: c6a3 983c 8784 82be c91f eb3b 9adf 173d
000003d0: c41c 65be 9466 d03d 1a8d c4bc d26a 483e
000003e0: a4d5 62bd 264c c4bd 8dc1 093d 1eda b2bd
000003f0: 414c 95bd dd36 03be d2ee 37be 91c7 ce3d

network_body._body_endoder.seq_layers.0.bias f4 [128]
0.025078611 0.03225457 0.012410006 -0.0027510885 0.0029069828 0.045563065 -0.003984203 0.013214158
0.037382837 0.0074027753 0.0071509783 0.023542304 0.034332473 -0.010291394 0.01394387 -0.008421093
0.070119485 0.054413244 -0.014151636 0.013141226 0.037837718 -0.012468147 -0.0024582595 0.051009517
-0.031754106 0.018412242 0.056420814 0.011890011 0.0027532796 0.014542973 0.014255852 0.04914541
-0.012858437 0.061134815 -0.03210004 0.015122201 0.012032345 0.032129783 -0.0011188388 0.05741033
0.058310878 0.07170132 -0.012814963 -0.018317042 0.035169244 0.024189308 0.016639622 0.014161318
0.026215728 0.030676102 0.041923806 0.026319193 0.035399377 0.04254917 0.033554066 0.02071292
0.023457613 0.015927838 0.023957554 0.00089730026 -0.015384583 0.021925442 0.0035523402 0.04938559
0.027543195 -0.029032055 -0.05158062 0.0077156406 0.052555773 -0.03402787 0.008128951 0.027855825
0.034728877 0.036402084 0.06853873 0.022470653 0.03506082 -0.031287666 -0.021023585 0.026623674
-0.018939694 -0.019260678 0.012945943 0.013905169 0.031676132 0.0055332417 0.008917303 0.007944911
-0.03122229 0.006079823 0.014008242 -0.011451791 0.022271615 0.008521536 -0.007971768 0.031244213
0.018142922 -0.011592267 0.0025778965 0.01724661 -0.0095382435 0.022305507 0.043984707 0.025734616
0.028322829 -0.024417521 -0.024726706 0.019027436 0.01265738 0.035495345 0.033672146 0.055502295
0.06416637 0.015445283 0.054135364 0.026676426 -0.0052676005 0.046642892 0.037226833 0.0037294095
-0.031728413 0.016023645 0.015390719 -0.003287806 0.0060021076 -0.0025397993 0.0667128 -0.004317531
00000000: a971 cd3c 5e1d 043d 5653 4b3c 9b4b 34bb
00000010: 1483 3e3b 56a0 3a3d eb8d 82bb 3280 583c
00000020: bf1e 193d fb92 f23b c152 ea3b cadb c03c
00000030: 35a0 0c3d 3c9d 28bc d474 643c a0f8 09bc
00000040: ce9a 8f3d 6ce0 5e3d 43dc 67bc 4c4e 573c
00000050: b9fb 1a3d 3347 4cbc c01a 21bb 5bef 503d
00000060: 9810 02bd 45d5 963c 8319 673d 52ce 423c
00000070: 5e70 343b a645 6e3c 6191 693c b34c 493d
00000080: 32ac 52bc 8068 7a3d 557b 03bd 1cc3 773c
00000090: 5023 453c 859a 033d 00a6 92ba 1827 6b3d
000000a0: 63d7 6e3d 24d8 923d daf5 51bc 9f0d 96bc
000000b0: a00d 103d a828 c63c d14f 883c df04 683c
000000c0: 5ec2 d63c 734c fb3c 4cb8 2b3d 599b d73c
000000d0: f0fe 103d 0a48 2e3d fd6f 093d 24ae a93c
000000e0: 2e2a c03c 197b 823c a242 c43c cd38 6b3a
000000f0: 9e0f 7cbc fc9c b33c 61ce 683b 8b48 4a3d
00000100: 44a2 e13c a2d4 edbc 3346 53bd 7cd3 fc3b
00000110: b944 573d cf60 0bbd 4b2f 053c e631 e43c
00000120: de3f 0e3d 5a1a 153d 095e 8c3d 6014 b83c
00000130: ef9b 0f3d 7f27 00bd a739 acbc e419 da3c
00000140: 6b27 9bbc 92c8 9dbc 381b 543c 82d2 633c
00000150: d5be 013d 3250 b53b e119 123c 5f2b 023c
00000160: e3c5 ffbc 4039 c73b d382 653c 4ba0 3bbc
00000170: f672 b63c ea9d 0b3c 059c 02bc ddf3 ff3c
00000180: 77a0 943c 7eed 3dbc edf1 283b c348 8d3c
00000190: 4b46 1cbc 0aba b63c 4f29 343d 67d1 d23c
000001a0: 4705 e83c 4107 c8bc a98f cabc 6ddf 9b3c
000001b0: e660 4f3c 9163 113d ceeb 093d 6056 633d
000001c0: a869 833d 360e 7d3c 0bbd 5d3d 8588 da3c
000001d0: d69b acbb 9e0c 3f3d 2a7b 183d 1c69 743b
000001e0: a7f5 01bd 0544 833c 5b29 7c3c 3b78 57bb
000001f0: 54ad c43b c372 26bb b8a0 883d 137a 8dbb

network_body._body_endoder.seq_layers.2.weight f4 [128, 128]
-0.02619488 0.12869424 0.024207773 0.004585843 -0.05225592 0.054671578 0.037814777 -0.013855406
0.14370479 -0.004036864 -0.0051996885 -0.16509958 0.011054198 0.053113595 0.20267214 0.13329116
-0.1606391 0.09868964 0.19400373 0.037717193 0.028921459 0.04625386 -0.034170702 -0.040674906
0.15116581 -0.09511452 -0.024514712 -0.025656512 0.1478157 0.009166891 0.16728479 0.21021606
-0.08789155 -0.0024066956 0.017528424 -0.04213462 -0.07032633 0.027263392 0.13554525 0.1227491
-0.08124995 -0.09050651 0.048540875 -0.13398534 -0.03429362 -0.1009359 -0.0260769 -0.12131283
0.106162116 0.086590014 0.049456418 -0.095566586 -0.09132146 -0.044332482 -0.05183406 0.03392463
-0.013139139 0.09656965 0.083139576 0.27492237 -0.12191313 0.14997812 0.058005985 0.069944695
-0.011980619 0.05434892 -0.061065026 0.2380993 -0.12972741 0.07967853 0.02224167 -0.03175472
0.13249747 -0.1003684 -0.026760297 -0.055258226 -0.06795529 0.070656665 0.0637417 0.033515003
0.042320266 -0.0031981678 0.061379306 0.12336137 -0.07443059 -0.02527086 0.0057692076 0.0477476
0.073650815 0.041174613 -0.05682115 0.095107585 0.11642475 0.1671666 -0.02247735 0.026300516
-0.039213393 0.23601109 -0.055352762 0.0047964356 0.0031529611 4.4637505e-05 -0.07009865 0.023675693
-0.07266538 -0.03127667 0.15150495 0.082700714 0.052473865 0.09007781 -0.01954219 -0.0052390704
-0.062766306 0.23833151 0.05037527 0.047616314 0.18333238 -0.036595173 -0.11262342 -0.004559621
-0.0424952 -0.049113147 -0.0013275292 -0.10358914 0.07179405 0.006378839 -0.0068451143 -0.17620999
-0.10007114 0.047356017 0.050074402 -0.017506389 0.06271714 0.037162438 -0.15805674 -0.081814244
-0.02829069 -0.10443597 0.032101132 0.10585334 0.09400323 0.16160896 0.11804852 0.12341088
0.005646205 0.114756875 0.13884415 -0.023250606 -0.022842849 0.08723655 -0.09811773 -0.10560003
0.056836423 0.012123832 -0.012947013 -0.027264113 -0.0009109628 -0.02582101 -0.051685743 0.0071964674
-0.02052451 0.025224721 -0.06148688 -0.08510838 0.0822377 -0.17423594 0.101867035 -0.07301608
0.005448251 -0.13388598 -0.009999307 -0.057037935 -0.062194537 0.013082664 0.014270101 -0.07972142
0.081054784 0.023269488 -0.035526026 -0.07576145 -0.07677392 0.08796611 -0.034945216 -0.042755645
0.02292363 -0.069173954 0.16959506 -0.06807697 0.085895844 -0.026662141 0.0036267014 -0.042776458
-0.073642254 -0.046876654 0.008999772 -0.013550587 -0.106379904 0.033545323 -0.020676928 0.16498637
-0.12195415 0.15513682 -0.08142168 0.106817275 0.055814393 -0.019449301 0.039156225 -0.037772242
0.119821005 -0.021412686 -0.10156153 -0.047430128 -0.05006123 0.030021809 0.0036317152 -0.011611296
0.1180766 -0.08510794 -0.12356106 -0.019720254 0.14533018 0.008159589 0.047638357 -0.008010497
0.03914413 0.062326424 -0.14048076 -0.05338224 0.007430863 0.119296044 0.0382962 -0.021949288
-0.015988015 0.111912444 -0.021241883 0.054209583 0.1890911 0.014278864 0.11171468 0.092878915
0.041253336 -0.076085515 0.1764018 -0.06841255 0.18407676 -0.043533675 0.09390601 -0.00926144
-0.014439798 -0.03833218 0.11996675 0.08375391 -0.0026456888 0.056594357 0.03106564 0.060650423
00000000: a596 d6bc 6cc8 033e 614f c63c d744 963b
00000010: 4e0a 56bd 4eef 5f3d abe3 1a3d c901 63bc
00000020: 5927 133e ab47 84bb 2662 aabb dd0f 29be
00000030: ab1c 353c a48d 593d 4989 4f3e 7a7d 083e
00000040: 947e 24be cb1d ca3d eaa8 463e 587d 1a3d
00000050: b2ec ec3c b074 3d3d 94f6 0bbd bb9a 26bd
00000060: 36cb 1a3e 67cb c2bd 14d3 c8bc 9b2d d2bc
00000070: 005d 173e ba30 163c b44c 2b3e e142 573e
00000080: 7c00 b4bd a7b9 1dbb c597 8f3c 5a95 2cbd
00000090: 4007 90bd 7a57 df3c 60cc 0a3e e163 fb3d
000000a0: 6066 a6bd 7a5b b9bd ccd2 463d 7433 09be
000000b0: 7877 0cbd 7bb7 cebd 399f d5bc dc72 f8bd
000000c0: 866b d93d 1b56 b13d d092 4a3d 6ab8 c3bd
000000d0: bf06 bbbd fa95 35bd f44f 54bd 8ef4 0a3d
000000e0: 8b45 57bc 4fc6 c53d 1545 aa3d a0c2 8c3e
000000f0: 97ad f9bd dd93 193e af97 6d3d 2a3f 8f3d
00000100: 5c4a 44bc f99c 5e3d 521f 7abd 4ed0 733e
00000110: 43d7 04be 7f2e a33d 2a34 b63c 3d11 02bd
00000120: 6bad 073e f38d cdbd 6938 dbbc 7356 62bd
00000130: 252c 8bbd 71b4 903d 028b 823d 0747 093d
00000140: 0458 2d3d 5a98 51bb de68 7b3d e3a4 fc3d
00000150: 116f 98bd d604 cfbc 9f0b bd3b fd92 433d
00000160: 3dd6 963d b6a6 283d 4bbd 68bd c4c7 c23d
00000170: 1970 ee3d b92d 2b3e 6b22 b8bc 2e74 d73c
00000180: 399e 20bd e4ac 713e 94b9 62bd 6b2b 9d3b
00000190: e9a1 4e3b 2839 3b38 e28f 8fbd 87f3 c13c
000001a0: 96d1 94bd f71b 00bd 1d24 1b3e fe5e a93d
000001b0: d6ee 563d b77a b83d f116 a0bc 82ac abbb
000001c0: 9f8b 80bd 2d0d 743e 4d56 4e3d 5309 433d
000001d0: 7cbb 3b3e d2e4 15bd 1ca7 e6bd e068 95bb
000001e0: 720f 2ebd de2a 49bd 7d00 aeba 8b26 d4bd
000001f0: c208 933d 9405 d13b fb4c e0bb 6470 34be
00000200: 19f2 ccbd 62f8 413d d11a 4d3d 8f69 8fbc
00000210: d871 803d a437 183d a0d9 21be 3a8e a7bd
00000220: e1c1 e7bc 87e2 d5bd 7a7c 033d a3c9 d83d
00000230: c484 c03d d27c 253e 6cc3 f13d d8be fc3d
00000240: cd03 b93b a705 eb3d 292d 0e3e 0e78 bebc
00000250: ed20 bbbc 14a9 b23d f3f1 c8bd d444 d8bd
00000260: 4fcd 683d 09a3 463c b51f 54bc fd58 dfbc
00000270: aecd 6eba 9586 d3bc 6eb4 53bd 58d0 eb3b
00000280: 0423 a8bc 13a4 ce3c abd9 7bbd 4d4d aebd
00000290: 3d6c a83d e86a 32be aa9f d03d 7489 95bd
000002a0: 3e87 b23b 6819 09be 22d4 23bc 9ca0 69bd
000002b0: b3bf 7ebd ac58 563c 24cd 693c fc44 a3bd
000002c0: 0d00 a63d a79f be3c bd83 11bd d228 9bbd
000002d0: a53b 9dbd 9327 b43d b722 0fbd 8b20 2fbd
000002e0: 56ca bb3c 13ab 8dbd 54aa 2d3e f06b 8bbd
000002f0: 29ea af3d 906a dabc f4ad 6d3b 5e36 2fbd
00000300: c0d1 96bd bc01 40bd c873 133c 4803 5ebc
00000310: b5dd d9bd d266 093d a962 a9bc 30f2 283e
00000320: 19c3 f9bd 30dc 1e3e 69c0 a6bd 04c3 da3d
00000330: a29d 643d 2454 9fbc 4762 203d 11b7 1abd
00000340: b764 f53d a869 afbc 7eff cfbd 1846 42bd
00000350: 010d 4dbd 4cf0 f53c 1202 6e3b 4e3d 3ebc
00000360: 25d2 f13d 124d aebd 950d fdbd 5f8c a1bc
00000370: 6fd1 143e ccaf 053c 7020 433d 763e 03bc
00000380: 9855 203d fe49 7f3d 30da 0fbe 56a7 5abd
00000390: 997e f33b 7c51 f43d 7adc 1c3d fece b3bc
000003a0: 4cf9 82bc 5a32 e53d 7503 aebc de0a 5e3d
000003b0: 19a1 413e e5f1 693c abca e43d 4d37 be3d
000003c0: 42f9 283d b9d2 9bbd aca2 343e e11b 8cbd
000003d0: 9e7e 3c3e 5e50 32bd cb51 c03d 4bbd 17bc
000003e0: e794 6cbc 3402 1dbd 21b1 f53d 2c87 ab3d
000003f0: 4b63 2dbb 7ccf 673d 5e7d fe3c 946c 783d

network_body._body_endoder.seq_layers.2.bias f4 [128]
-0.0063921954 -0.0053437958 0.03066233 0.0015100677 0.01733439 0.04358953 0.033921532 0.0046269526
0.0051770955 0.028957125 0.013245042 0.016478788 -0.009989403 0.029690616 0.0012888479 0.05385212
0.0016198972 -0.022768823 0.04035578 -0.006388184 0.00074667844 0.00073252193 0.003156718 0.047745798
0.020342084 -0.021538028 0.019510517 0.014038397 -0.053020332 0.018904377 0.018956233 0.023472646
-0.01232296 -0.020155612 2.269713e-05 -0.014480675 0.032254614 -0.014363647 0.004744103 0.06423946
0.00546836 0.018254964 -0.014629648 0.030612294 0.05127611 -0.015447064 0.025337558 0.0029440257
0.006769115 0.05715988 0.059018087 -0.01975542 -0.005537139 0.010588729 0.08127889 0.03990952
-0.0021213274 -0.0080202585 0.0033322673 0.015097537 0.0013582442 0.019634254 -0.011461342 -0.02120767
0.012223733 -0.011082426 -0.007275139 -0.016372092 0.011115795 0.026458584 0.010429915 -0.00051282125
-0.01662857 0.0070868377 0.04364957 -0.029459914 0.01652771 0.023816276 0.002170229 0.037455145
0.00881464 0.011989916 0.005353962 -0.008100203 -0.025432853 0.05566184 0.0050265845 0.021265743
0.045327563 0.011200864 0.03441654 0.0030640238 0.007003153 0.0017512074 0.0067863446 0.024923837
-0.00530081 0.002680119 0.009322547 -0.00412465 0.024911232 0.028533075 0.009863706 0.0035777413
-0.0040546237 0.046835367 -0.015908983 0.016608931 -0.01776549 0.0103126215 0.014158253 0.015631467
0.011788845 0.018477524 -0.009439418 0.040102843 0.008202592 0.03450324 0.014702959 0.009434864
0.0052035046 -0.009368365 0.001988543 0.032030057 0.019940292 0.0026599844 0.006213899 0.000644044
00000000: 9f75 d1bb 021b afbb 912f fb3c 77ed c53a
00000010: da00 8e3c ef8a 323d 4ef1 0a3d b19d 973b
00000020: a0a4 a93b 7e37 ed3c bc01 593c 86fe 863c
00000030: 98aa 23bc bc39 f33c 8fee a83a 0a94 5c3d
00000040: bb52 d43a af85 babc 1a4c 253d f953 d1bb
00000050: bebc 433a b706 403a f1e0 4e3b 1991 433d
00000060: 71a4 a63c 8570 b0bc 85d4 9f3c 4e01 663c
00000070: d92b 59bd 5add 9a3c 1a4a 9b3c b549 c03c
00000080: 3ee6 49bc 621d a5bc b765 be37 5a40 6dbc
00000090: 6a1d 043d 8155 6bbc 6c74 9b3b fa8f 833d
000000a0: ee2f b33b 6f8b 953c 31b1 6fbc a2c6 fa3c
000000b0: e606 523d af15 7dbc b690 cf3c 8ef0 403b
000000c0: 74cf dd3b 7a20 6a3d f3bc 713d 1ed6 a1bc
000000d0: e370 b5bb 597c 2d3c 8c75 a63d 2a78 233d
000000e0: f805 0bbb 6767 03bc 2b62 5a3b a95b 773c
000000f0: 1d07 b23a 04d8 a03c 5ac8 3bbc b5bb adbc
00000100: 0d46 483c 1093 35bc 4a64 eebb c41e 86bc
00000110: 061f 363c acbf d83c 3ce2 2a3c da6e 06ba
00000120: a438 88bc b438 e83b e4c9 323d eb55 f1bc
00000130: 1f65 873c 5a1a c33c 673a 0e3b 916a 193d
00000140: 486b 103c 5a71 443c 4a70 af3b b7b6 04bc
00000150: 8f58 d0bc abfd 633d 0cb6 a43b 7f35 ae3c
00000160: 65a9 393d d483 373c 5cf8 0c3d cacd 483b
00000170: b57a e53b c588 e53a fc5f de3b 132d cc3c
00000180: 6bb2 adbb efa4 2f3b 99bd 183c 1228 87bb
00000190: a412 cc3c 32be e93c 629b 213c 8a78 6a3b
000001a0: a6dc 84bb 71d6 3f3d 8e53 82bc 740f 883c
000001b0: ef88 91bc 45f6 283c 04f8 673c 900d 803c
000001c0: 0026 413c 2d5e 973c caa7 1abc e142 243d
000001d0: 2a64 063c 4553 0d3d aee4 703c b094 1a3c
000001e0: 2982 aa3b c57d 19bc 3752 023b f331 033d
000001f0: d359 a33c 2253 2e3b f69d cb3b 10d5 283a

action_model._discrete_distribution.branches.0.weight f4 [3, 128]
-0.034666486 -0.02192535 0.04188416 0.0051430743 -0.027542148 0.024984 0.024005912 0.0036353578
-0.024806585 -0.021223133 0.020436479 -0.038116693 0.0074766357 -0.007963913 -0.045908097 0.05683272
-0.03193755 -0.0047439514 0.0101403 -0.019456357 -0.0092015155 -0.0034161254 -0.02191331 -0.0028528261
-0.00028180215 -0.0039514047 0.03450423 0.008412526 -0.004773301 -0.003082271 -0.010842085 0.011479999
-0.015634628 -0.0050107464 -0.005824672 -0.0068700872 -0.026662223 -0.026045421 -0.03241875 -0.022664305
-0.0120444335 -0.04139914 -0.032224976 -0.015123917 -0.018157654 0.0030622166 -0.02912352 -0.01080567
-0.031297512 -0.04420723 0.06035109 0.00196335 0.0001645925 -0.006410218 0.10096737 0.055270854
-0.020640789 -0.025215868 0.018540844 -0.039201047 -0.006678419 -0.032584783 -0.0058329892 -0.017086627
-0.020148663 -0.012950392 -0.033947423 -0.023468146 0.00068952836 0.044410754 -0.014856263 -0.03521833
0.0069537605 -0.03304387 0.060538787 -0.0029410254 0.021816304 -0.02070932 -0.009104659 -0.030449511
-0.003202398 -0.016583469 -0.017034875 -0.021864848 -0.05250413 0.027551336 -0.02664336 0.0068987147
-0.030599594 -0.00081588526 -0.007557323 -0.0017906296 -0.023986636 0.02193348 -0.022203164 0.022898996
0.026874987 -0.016312232 0.0066326577 -0.025358213 -0.015653258 -0.0009182201 -0.031918533 -0.016675416
-0.02718279 0.008699997 -0.0068893167 0.023324493 -0.020822123 -0.017432822 0.03571907 -0.012011632
-0.014924539 -0.0038082476 0.011986017 0.0330145 -0.029381696 0.0092364205 0.019213319 0.014470782
-0.002644306 -0.009589508 -0.018656345 -0.07088318 0.011319949 -0.035193488 0.0023094092 -0.015926206
0.017544053 0.01894913 -0.04250622 -0.01725134 0.022269657 -0.012323183 -0.04819477 -0.024340702
0.008408418 -0.009691176 0.0124758 0.015844665 -0.0031171138 0.046951886 -0.004606754 -0.12105452
0.047132034 0.02665142 -0.043201447 0.039514106 0.0131009435 0.02975254 -0.020603344 -0.040743835
0.03352198 0.028532717 -0.05329575 0.0038458132 -0.025490219 -0.018500926 -0.008115942 -0.036019426
-0.01472373 0.050412174 -0.0060988003 -0.009990183 -0.08516985 0.01601158 0.049433548 -0.06818311
0.019294765 0.03297552 0.0140654575 -0.044529 -0.07185348 0.018523786 -0.013409739 -0.015054297
0.030020125 0.03955073 -0.0858778 -0.019690901 0.008177548 0.024601012 -0.1092204 -0.056616686
-0.0063481955 0.018244863 0.007826482 0.019965993 -0.010620166 0.038032845 0.0074650794 0.013208491
-0.016838808 0.016515305 0.0028851603 0.07026116 -0.030573566 0.03496987 -0.0051346202 0.020951714
0.0017638811 0.014864097 -0.06887816 -0.00042921377 -0.004203416 -0.013907261 -0.01389669 -0.017655687
-0.033229575 -0.008268364 0.0096724825 0.014531217 0.04395663 -0.0619193 0.012185291 -0.015057798
-0.03359576 0.018419972 0.0009194044 -0.021654975 0.0055006514 0.0087520005 -0.01651177 -0.030568866
-0.022907749 0.059715133 -0.00080137374 0.0108364355 -0.045412883 -0.04784845 0.049658917 0.037628744
0.034438375 -0.0676571 0.00014462008 -0.023469612 -0.016454352 0.03182985 0.017629093 -0.018425515
-0.028329598 -0.028362313 0.013506567 -0.029609472 0.020164274 -0.055177134 -0.014151854 0.09127878
0.059772525 -0.01135132 0.036560677 0.065302946 -0.03314139 0.007876635 0.054111306 -0.0050460203
00000000: 72fe 0dbd cb9c b3bc ba8e 2b3d 3c87 a83b
00000010: 12a0 e1bc 3fab cc3c 0ca8 c43c 2f3f 6e3b
00000020: 2e37 cbbc 23dc adbc 676a a73c 4020 1cbd
00000030: 91fe f43b 127b 02bc 210a 3cbd 6dc9 683d
00000040: f3d0 02bd 2673 9bbb 8023 263c f062 9fbc
00000050: f4c1 16bc 13e1 5fbb 8b83 b3bc 7bf6 3abb
00000060: d8be 93b9 c97a 81bb 4f54 0d3d b1d4 093c
00000070: 5a69 9cbb edff 49bb 00a3 31bc 9b16 3c3c
00000080: 3114 80bc 3031 a4bb e4dc bebb 781e e1bb
00000090: bc6a dabc 355d d5bc 86c9 04bd 7eaa b9bc
000000a0: 0456 45bc 2592 29bd 56fe 03bd 4eca 77bc
000000b0: 5cbf 94bc 78af 483b 7394 eebc 440a 31bc
000000c0: d231 00bd a412 35bd b432 773d 8cab 003b
000000d0: 7696 2c39 ce0c d2bb fbc7 ce3d b163 623d
000000e0: df16 a9bc 8291 cebc f8e2 973c 4791 20bd
000000f0: a4d6 dabb 9f77 05bd a922 bfbb 41f9 8bbc
00000100: cf0e a5bc e22d 54bc 740c 0bbd 4540 c0bc
00000110: 77c1 343a 0de8 353d af67 73bc 1841 10bd
00000120: 5fdc e33b 0259 07bd 85f7 773d 38be 40bb
00000130: 1bb8 b23c 98a6 a9bc b52b 15bc 4171 f9bc
00000140: 53df 51bb 0eda 87bc b98c 8bbc e91d b3bc
00000150: 920e 57bd 57b3 e13c 2d43 dabc 9d0e e23b
00000160: 00ac fabc 22e1 55ba 6ca3 f7bb 8fb3 eaba
00000170: 9f7f c4bc d7ad b33c 69e3 b5bc ad96 bb3c
00000180: ef28 dc3c 3ba1 85bc c456 d93b 07bc cfbc
00000190: 433b 80bc b5b4 70ba 02bd 02bd e29a 88bc
000001a0: 71ae debc 6f8a 0e3c c7bf e1bb 0213 bf3c
000001b0: 2893 aabc 47cf 8ebc 294e 123d 70cc 44bc
000001c0: 0e86 74bc cb93 79bb 0061 443c 363a 073d
000001d0: e2b1 f0bc 5b54 173c 4065 9d3c dc16 6d3c
000001e0: 184c 2dbb 501d 1dbc 31d5 98bc 332b 91bd
000001f0: 4f77 393c 0c27 10bd 7559 173b ad77 82bc
00000200: 8cb8 8f3c 353b 9b3c 011b 2ebd af52 8dbc
00000210: db6e b63c 2de7 49bc e167 45bd 2766 c7bc
00000220: 76c3 093c bdc7 1ebc 4c67 4c3c accc 813c
00000230: 7e48 4cbb 9f50 403d 41f4 96bb 6feb f7bd
00000240: 850d 413d 1454 da3c 00f4 30bd 8bd9 213d
00000250: 57a5 563c 99bb f33c 58c8 a8bc 02e3 26bd
00000260: 584e 093d 72bd e93c a54c 5abd 0a0a 7c3b
00000270: ddd0 d0bc 418f 97bc baf8 04bc 1b89 13bd
00000280: cd3b 71bc ff7c 4e3d 72d8 c7bb ddad 23bc
00000290: 886d aebd b82a 833c d57a 4a3d 96a3 8bbd
000002a0: 0e10 9e3c 5711 073d ce72 663c 0a64 36bd
000002b0: eb27 93bd 32bf 973c 86b4 5bbc 4ca6 76bc
000002c0: c4ec f53c f2ff 213d b3e0 afbd d04e a1bc
000002d0: 1ffb 053c 1088 c93c f2ae dfbd e6e6 67bd
000002e0: 8604 d0bb 4076 953c a53a 003c b98f a33c
000002f0: 3400 2ebc 54c8 1b3d a09d f43b 6d68 583c
00000300: 8af1 89bc 1b4b 873c f514 3d3b 15e5 8f3d
00000310: 6a75 fabc 913c 0f3d 5140 a8bb eea2 ab3c
00000320: 0732 e73a 8b88 733c fe0f 8dbd 1908 e1b9
00000330: cfbc 89bb 48db 63bc f1ae 63bc a9a2 90bc
00000340: bc1b 08bd 0878 07bc 5579 1e3c 5714 6e3c
00000350: de0b 343d 189f 7dbd d1a4 473c fbb4 76bc
00000360: b59b 09bd 7be5 963c 2f04 713a c665 b1bc
00000370: cf3e b43b 8d64 0f3c b143 87bc 8f6b fabc
00000380: 08a9 bbbc db97 743d 4813 52ba 4e8b 313c
00000390: dc02 3abd bcfc 43bd 2667 4b3d 9920 1a3d
000003a0: 410f 0d3d ce8f 8abd 28a5 1739 5843 c0bc
000003b0: 47cb 86bc 0460 023d e36a 903c 1bf1 96bc
000003c0: 7913 e8bc 1558 e8bc a64a 5d3c 908f f2bc
000003d0: 8c2f a53c 6b01 62bd 2edd 67bc 5ef0 ba3d
000003e0: 09d4 743d e3fa 39bc a6c0 153d 8dbd 853d
000003f0: 44bf 07bd 000d 013c d1a3 5d3d 1659 a5bb

action_model._discrete_distribution.branches.0.bias f4 [3]
0.0121424645 -0.012214533 0.004140864
00000000: 30f1 463c 771f 48bc 16b0 873b

exp_avg f4 [128, 64]
0.00020947515 7.2913834e-05 1.588099e-05 5.2987343e-09 0.00010699724 0.00019961495 2.9907858e-05 6.8711204e-05
4.1244952e-08 7.79163e-05 0.00014463461 1.5350691e-06 0.00015264426 -5.386328e-07 0.00014343337 0.00023025149
3.7195725e-05 3.090255e-05 -7.454367e-08 7.4393625e-05 0.00013953015 -0.00011087173 0.0002699559 -3.389859e-07
0.00013846873 0.0002686424 2.390112e-05 5.731313e-06 3.3473402e-10 9.018371e-05 9.086481e-06 -4.8633865e-05
0.00034342916 -5.6065032e-06 6.7847606e-05 0.00028044518 2.5070438e-05 -7.2407383e-06 3.4964212e-10 8.442353e-05
1.1982942e-05 2.3846056e-05 0.00029275686 -3.0375162e-05 5.9016216e-05 0.00029444983 2.546208e-05 -7.341023e-07
-2.4128347e-11 8.474531e-05 -1.0213847e-05 3.551571e-05 0.0002243675 -3.1197982e-05 2.686651e-05 -0.0017902845
0.0001491376 -0.00082502 -0.0014997703 0.0001491376 -4.5057095e-05 0.0010598021 -0.0052803387 0.0010163421
9.309944e-05 2.8562765e-05 2.0259069e-05 -1.535684e-08 6.645484e-05 0.00016565937 -2.3837345e-05 -4.36947e-08
1.2760619e-07 7.856448e-05 -5.4154175e-06 6.830511e-05 7.757033e-05 1.4459599e-06 1.3727548e-05 0.00016765021
-2.0019947e-05 -5.754943e-06 3.060423e-08 7.005396e-05 -6.1945466e-05 4.5822348e-05 0.0001588766 -8.4747586e-07
9.597647e-06 0.00015451576 -6.4250667e-06 -6.1846854e-06 -8.560137e-11 6.0587245e-05 -6.508151e-05 4.3291064e-05
0.00016277938 9.170138e-07 1.3528058e-05 0.00014578864 7.1668596e-06 -1.1049539e-05 -8.383613e-11 5.0262966e-05
-6.1987004e-05 2.4085877e-05 0.00018313764 -3.305099e-06 3.7538342e-05 0.0001701743 -1.3864672e-05 -2.9658608e-07
-1.9470522e-11 5.6231114e-05 -4.7761027e-05 3.1636494e-06 0.00013949299 2.882789e-05 6.908108e-05 0.0013960543
7.095296e-05 -0.00010990715 -0.0008981363 7.095296e-05 0.00019191879 0.0015123095 0.005077287 0.0015227891
8.255894e-05 -3.837347e-05 6.900598e-05 -3.4258683e-08 6.3738196e-05 0.00012620207 -7.125085e-05 5.714041e-05
1.0655612e-06 6.663907e-05 5.1691608e-05 -0.00011161076 0.00017119554 1.8810388e-06 7.17582e-05 0.00011255602
-4.6638297e-06 5.646245e-06 -3.8123594e-07 6.219778e-05 6.1493345e-05 -0.00019095917 0.00024268942 -6.620632e-08
8.192322e-05 0.00015059157 9.251298e-06 -4.6686022e-05 2.950482e-10 7.000101e-05 1.28712745e-05 -2.5140998e-05
0.00012638238 -9.553866e-07 4.6279638e-05 0.00016247835 3.0425358e-06 -5.2363845e-05 2.951115e-10 7.1523915e-05
-2.300339e-05 -2.1777989e-05 0.00015810161 -1.672663e-07 1.795728e-05 0.00014387854 9.566606e-06 1.679695e-06
-4.1550242e-11 6.755058e-05 -3.8810642e-05 4.6394962e-05 4.1853007e-05 -1.7065442e-05 -2.8369232e-05 5.9199854e-05
5.6578585e-05 -0.00017557005 -0.00014031654 5.6578585e-05 -0.0012772711 -0.0027992483 -8.6146814e-05 0.0019422055
0.00018068368 -1.4433528e-05 -5.326617e-06 1.4848183e-08 6.982543e-05 6.8515474e-05 1.5921265e-05 7.633026e-05
1.713796e-07 3.711531e-05 0.00011032782 -8.303287e-05 0.0001340052 -3.617303e-07 0.00012576106 0.000117183656
2.0131454e-05 2.3703808e-05 -8.055009e-08 5.53144e-05 0.00011219831 -0.00018137517 0.00023006769 4.757371e-08
8.6926826e-05 0.00014547927 1.0185428e-05 5.2734185e-06 2.4012403e-10 6.8414476e-05 6.5562745e-07 -0.0001234423
0.00029171607 -7.991004e-06 3.129178e-05 0.00015494502 1.5019572e-06 4.4911253e-06 2.425761e-10 6.573768e-05
-3.9451457e-05 -3.2899272e-05 0.000259064 -2.5861395e-05 -2.7695114e-05 0.00015411567 1.0841702e-06 -8.9476293e-07
-1.0770378e-10 6.262743e-05 -1.8115517e-05 5.0518865e-06 0.0001439062 -6.8062305e-05 -6.9017464e-05 -0.0005182982
8.046918e-05 -0.00049993035 -0.00020430707 8.046918e-05 0.00037141898 -0.00096122426 -0.0023973268 0.00086250884
00000000: 8fa6 5b39 51e9 9838 2b38 8537 2910 b631
00000010: b563 e038 bb4f 5139 a3e2 fa37 0c19 9038
00000020: 4e25 3133 ff66 a338 0fa9 1739 9308 ce35
00000030: 220f 2039 9096 10b5 9a66 1639 aa6f 7139
00000040: 9b02 1c38 5c9d 0138 d114 a0b3 c603 9c38
00000050: d74e 1239 cf83 e8b8 de88 8d39 defd b5b4
00000060: eb31 1139 93d8 8c39 447f c837 9b4f c036
00000070: a005 b82f 0321 bd38 2472 1837 37fc 4bb8
00000080: 480e b439 7f1f bcb6 6849 8e38 b708 9339
00000090: 5b4e d237 78f5 f2b6 c137 c02f 8a0c b138
000000a0: 580a 4937 0409 c837 297d 9939 2ace feb7
000000b0: 2e88 7738 6360 9a39 6797 d537 200f 45b5
000000c0: 353c d4ad 4bb9 b138 245c 2bb7 b4f6 1438
000000d0: 3144 6b39 94da 02b8 645f e137 fba7 eaba
000000e0: d261 1c39 2846 58ba f193 c4ba d261 1c39
000000f0: b0fb 3cb8 0fe9 8a3a b106 adbb c836 853a
00000100: 623e c338 129a ef37 05f2 a937 0cea 83b2
00000110: ac5d 8b38 d9b4 2d39 4ff6 c7b7 d5aa 3bb3
00000120: 1f04 0934 fcc2 a438 15b6 b5b6 073f 8f38
00000130: 41ad a238 ce12 c235 5f4f 6637 43cb 2f39
00000140: 82f0 a7b7 951a c1b6 b571 0333 efe9 9238
00000150: b8e8 81b8 5f31 4038 1d98 2639 197e 63b5
00000160: 9405 2137 8205 2239 e796 d7b6 0b86 cfb6
00000170: 4a3d bcae 0f1f 7e38 5f7c 88b8 6d93 3538
00000180: c2af 2a39 b528 7635 91f6 6237 d7de 1839
00000190: db7a f036 6961 39b7 8c5b b8ae 73d1 5238
000001a0: 05ff 81b8 070c ca37 a308 4039 2bcd 5db6
000001b0: 7d72 1d38 d170 3239 509c 68b7 7b3a 9fb4
000001c0: b843 abad b3d9 6b38 0353 48b8 154f 5436
000001d0: dd44 1239 6cd3 f137 9fdf 9038 cffb b63a
000001e0: 95cc 9438 f47d e6b8 e870 6bba 95cc 9438
000001f0: cf3d 4939 b038 c63a 5f5f a63b 5398 c73a
00000200: 7e23 ad38 33f3 20b8 4eb7 9038 d223 13b3
00000210: 2fab 8538 1c55 0439 826c 95b8 0caa 6f38
00000220: 6704 8f35 94c0 8b38 71cf 5838 9210 eab8
00000230: f482 3339 0078 fc35 e47c 9638 0e0c ec38
00000240: fe7d 9cb6 e074 bd36 abac ccb4 2e70 8238
00000250: fdf5 8038 363c 48b9 727a 7e39 4f2d 8eb3
00000260: 32ce ab38 1ee8 1d39 0636 1b37 bcd0 43b8
00000270: 5834 a22f 82cd 9238 b4f1 5737 e2e5 d2b7
00000280: 8385 0439 d53a 80b5 621c 4238 f35e 2a39
00000290: 5e2e 4c36 40a1 5bb8 403d a22f 1cff 9538
000002a0: 67f7 c0b7 e0af b6b7 14c8 2539 cf99 33b4
000002b0: f7a2 9637 1ade 1639 4380 2037 e171 e135
000002c0: 6abd 36ae f1a9 8d38 9cc8 22b8 3698 4238
000002d0: 538b 2f38 c227 8fb7 76fa edb7 5c4d 7838
000002e0: cb4e 6d38 3a19 38b9 ef21 13b9 cb4e 6d38
000002f0: 1b6a a7ba 9873 37bb b8a9 b4b8 9a91 fe3a
00000300: e875 3d39 8827 72b7 4bbb b2b6 0017 7f32
00000310: 3e6f 9238 f7af 8f38 a88e 8537 7f13 a038
00000320: 7704 3834 43ac 1b38 cc5f e738 ef21 aeb8
00000330: bf83 0c39 d533 c2b4 bade 0339 7fc0 f538
00000340: f8df a837 8ad7 c637 e1fa acb3 6201 6838
00000350: 024c eb38 872f 3eb9 533e 7139 d953 4c33
00000360: 7c4c b638 cb8b 1839 15e2 2a37 52f2 b036
00000370: 7402 842f be79 8f38 60fe 2f35 4a70 01b9
00000380: 78f1 9839 1a11 06b7 4b3f 0338 bd78 2239
00000390: db96 c935 79b2 9636 8d5b 852f a6dc 8938
000003a0: ae78 25b8 53fd 09b8 fbd2 8739 ecf0 d8b7
000003b0: ce52 e8b7 1c9a 2139 ce83 9135 a42f 70b5
000003c0: d7d7 ecae d856 8338 c7f6 97b7 6083 a936
000003d0: 87e5 1639 acbc 8eb8 78bd 90b8 67de 07ba
000003e0: 90c1 a838 c20d 03ba 433b 56b9 90c1 a838
000003f0: 03bb c239 abfa 7bba 781c 1dbb fd19 623a

exp_avg_sq f4 [128, 64]
2.8351712e-07 2.0471205e-07 8.8997275e-08 1.3575764e-08 9.0277744e-08 3.070966e-07 1.5548918e-07 1.2693586e-07
1.4013302e-08 7.841511e-08 2.5329828e-07 2.0437925e-07 1.0807883e-07 1.2469246e-08 9.723342e-08 3.2872768e-07
1.0327465e-07 1.4302117e-07 1.4183834e-08 6.318088e-08 2.5027748e-07 1.7162952e-07 2.126304e-07 1.2108704e-08
1.0682011e-07 3.4113285e-07 6.4648674e-08 1.5841077e-07 1.647314e-08 5.6731828e-08 2.367654e-07 8.856937e-08
2.4859727e-07 1.13582574e-08 1.2521011e-07 3.5416315e-07 2.964869e-08 1.849823e-07 1.8631317e-08 5.668164e-08
2.1709032e-07 8.766805e-08 3.2496362e-07 1.8789255e-08 1.5129386e-07 3.562765e-07 2.1983562e-08 2.0793811e-07
1.6811917e-08 5.6691903e-08 1.3982067e-07 5.6133015e-08 2.7559605e-07 1.23680985e-08 1.2319092e-07 2.5097339e-05
5.116707e-06 9.4961115e-06 1.9341445e-05 4.78304e-06 6.5990953e-06 8.50826e-05 0.0001790101 6.1296414e-05
8.3191765e-08 6.220262e-08 1.948172e-08 3.466736e-09 2.4185761e-08 9.062472e-08 4.972157e-08 2.6079523e-08
3.3979703e-09 2.2440242e-08 7.867076e-08 6.3649836e-08 2.2321089e-08 3.5379777e-09 2.6803459e-08 9.5738805e-08
4.4150525e-08 3.5740552e-08 3.3946839e-09 2.0103585e-08 7.3179244e-08 5.9698216e-08 2.9754794e-08 3.4667498e-09
2.9614538e-08 9.892211e-08 3.188735e-08 3.89198e-08 3.727441e-09 1.974137e-08 7.54652e-08 4.3400945e-08
4.2991815e-08 3.2904066e-09 3.414042e-08 1.00728485e-07 1.6504332e-08 4.0392674e-08 3.795452e-09 2.0796712e-08
7.040417e-08 3.7160078e-08 6.9684425e-08 3.4101875e-09 3.7746496e-08 9.8534706e-08 9.499429e-09 5.0287852e-08
3.5175047e-09 2.0757476e-08 5.449538e-08 1.8871699e-08 7.483206e-08 4.17972e-09 3.6234667e-08 5.8050687e-06
1.3315963e-06 1.6926398e-06 4.2483307e-06 1.340392e-06 1.8039226e-06 3.501028e-05 5.0798622e-05 1.4129425e-05
7.8287634e-08 3.5748688e-08 4.771158e-08 2.5333708e-09 2.2502546e-08 9.71419e-08 2.9330899e-08 3.72553e-08
2.4284115e-09 2.278977e-08 6.764237e-08 3.8648547e-08 5.5429215e-08 2.2358235e-09 2.2949257e-08 1.126973e-07
1.7519923e-08 3.048877e-08 2.3031927e-09 2.2712427e-08 7.3847175e-08 4.4448765e-08 5.694624e-08 2.2886162e-09
3.0278038e-08 1.2284964e-07 9.447924e-09 2.6640524e-08 2.162074e-09 2.2384905e-08 7.120844e-08 3.5538157e-08
5.84564e-08 2.0291435e-09 3.386449e-08 1.3226344e-07 6.169958e-09 2.2266777e-08 1.9202737e-09 2.231474e-08
6.729314e-08 2.1520874e-08 6.756533e-08 2.0580677e-09 3.595022e-08 1.3533261e-07 4.04461e-09 1.4353408e-08
1.260104e-09 2.21212e-08 4.8878263e-08 1.0966287e-08 4.7298993e-08 1.845051e-09 2.7334702e-08 3.748334e-06
6.5326304e-08 3.468062e-06 4.041997e-06 7.9168e-08 3.030022e-06 8.574797e-05 0.00010201978 9.765919e-06
2.9193953e-07 3.7362252e-08 5.174757e-08 1.1017099e-08 4.8612293e-08 3.070643e-07 2.2192975e-08 5.5537882e-08
1.1779118e-08 3.9288217e-08 2.6952387e-07 5.423691e-08 5.5066426e-08 1.0400862e-08 6.285437e-08 3.1360895e-07
1.3397316e-08 5.5757248e-08 1.30449616e-08 3.304862e-08 2.6299998e-07 6.798134e-08 7.7435175e-08 5.8328213e-09
7.439229e-08 3.166281e-07 8.137076e-09 4.8505477e-08 1.3924856e-08 3.141769e-08 2.462831e-07 5.4044463e-08
8.606788e-08 4.1817674e-09 9.475906e-08 3.218655e-07 7.603372e-09 4.4945537e-08 1.5786831e-08 3.18195e-08
2.1402391e-07 5.198089e-08 1.03598914e-07 1.8497616e-08 1.323546e-07 3.23041e-07 7.523691e-09 4.019406e-08
1.5270052e-08 3.1746627e-08 1.339254e-07 3.681289e-08 8.14917e-08 1.8176085e-08 1.2071716e-07 2.8166587e-05
6.1298914e-07 5.431268e-06 9.230186e-06 1.1409745e-06 5.9842696e-06 3.6604906e-05 0.00017974812 5.4420856e-05
00000000: 4c36 9834 d2ce 5b34 c51e bf33 d73a 6932
00000010: b7de c133 09df a434 8af4 2634 dd4b 0834
00000020: 27bf 7032 2a65 a833 0dfd 8734 5773 5b34
00000030: f718 e833 5338 5632 a3ce d033 fd7b b034
00000040: d7c7 dd33 5c91 1934 29ad 7332 0eae 8733
00000050: e05d 8634 2a49 3834 664f 6434 a506 5032
00000060: fa64 e533 f124 b734 fcd4 8a33 9f17 2a34
00000070: d180 8d32 4ea9 7333 9439 7e34 8733 be33
00000080: f376 8534 2522 4332 7e71 0634 d023 be34
00000090: 29ae fe32 8c9f 4634 b30a a032 1f72 7333
000000a0: 5519 6934 0544 bc33 a976 ae34 0266 a132
000000b0: 5773 2234 4546 bf34 5dd6 bc32 9845 5f34
000000c0: cc69 9032 687d 7333 9d21 1634 e716 7133
000000d0: a2f5 9334 797b 5432 7646 0434 2088 d237
000000e0: 2eb0 ab36 7d51 1f37 703f a237 007e a036
000000f0: cc6d dd36 606e b238 a8b4 3b39 438c 8038
00000100: 28a7 b233 4194 8533 c158 a732 773b 6e31
00000110: 0dc1 cf32 779d c233 728d 5533 7a05 e032
00000120: ba81 6931 9dc2 c032 b5f1 a833 deaf 8833
00000130: 98bc bf32 c320 7331 6e3d e632 f798 cd33
00000140: 04a0 3d33 2781 1933 e947 6931 40b0 ac32
00000150: b726 9d33 7133 8033 7c97 ff32 b53b 6e31
00000160: 0f63 fe32 016f d433 83f4 0833 c628 2733
00000170: eb12 8031 bb93 a932 6f0f a233 d867 3a33
00000180: 00a6 3833 721d 6231 caa1 1233 1250 d833
00000190: 69c5 8d32 377c 2d33 2669 8231 74a4 b232
000001a0: 1a31 9733 f099 1f33 6ba5 9533 a758 6a31
000001b0: b61e 2233 079a d333 ee32 2332 14fc 5733
000001c0: 99b8 7131 2c4e b232 4e0e 6a33 4e1b a232
000001d0: 5cb3 a033 359d 8f31 70a0 1b33 29c9 c236
000001e0: 4db9 b235 a92e e335 e28c 8e36 85e7 b335
000001f0: 4f1e f235 00d8 1238 9b10 5538 6b0d 6d37
00000200: 151f a833 198a 1933 70eb 4c33 8817 2e31
00000210: 9f4b c132 539c d033 54f3 fb32 a302 2033
00000220: 11e1 2631 3cc3 c332 c942 9133 87fe 2533
00000230: 1111 6e33 06a5 1931 f321 c532 ff03 f233
00000240: b87e 9632 c2f2 0233 3246 1e31 2819 c332
00000250: ea95 9e33 efe7 3e33 0e95 7433 c345 1d31
00000260: 0e0b 0233 a7e8 0334 6950 2232 22d7 e432
00000270: 9c93 1431 ed48 c032 41eb 9833 9ea2 1833
00000280: 7e11 7b33 1271 0b31 6772 1133 4c04 0e34
00000290: 86ff d331 2945 bf32 d0f5 0331 a2ae bf32
000002a0: cc82 9033 e7dc b832 6f18 9133 e96d 0d31
000002b0: af67 1a33 f24f 1134 c4f8 8a31 f596 7632
000002c0: f82f ad30 0905 be32 38ee 5133 3e66 3c32
000002d0: cb25 4b33 f694 fd30 a5cd ea32 e38b 7b36
000002e0: 8449 8c33 dabc 6836 7da0 8736 1103 aa33
000002f0: 6257 4b36 97d3 b338 74f3 d538 4dd8 2337
00000300: ddbb 9c34 3b78 2033 0e41 5e33 b745 3d32
00000310: c8c9 5033 99da a434 dea2 be32 8c88 6e33
00000320: 1c5d 4a32 dabd 2833 14b3 9034 1df2 6833
00000330: 2d82 6c33 7aaf 3232 8efa 8633 165e a834
00000340: 052a 6632 be79 6f33 591c 6032 58f1 0d33
00000350: 7132 8d34 23fd 9133 704a a633 0a6a c831
00000360: 98c1 9f33 09fd a934 3dcb 0b32 5654 5033
00000370: 2a3a 6f32 1ef0 0633 e438 8434 841e 6833
00000380: 51d4 b833 37af 8f31 587e cb33 dccc ac34
00000390: fc9f 0232 240a 4133 9c9b 8732 e9a9 0833
000003a0: 72ce 6534 9841 5f33 1b7a de33 b0e4 9e32
000003b0: 5b1d 0e34 6b6e ad34 8b41 0132 d6a1 2c33
000003c0: 332b 8332 c959 0833 22cd 0f34 331c 1e33
000003d0: 8900 af33 a221 9c32 7b9e 0134 4947 ec37
000003e0: 4b8c 2435 3d3e b636 59db 1a37 9623 9935
000003f0: 7ccc c836 3888 1938 c57a 3c39 f341 6438

exp_avg f4 [128]
0.00029826778 0.00014192247 0.000113146445 0.00016093024 0.0013528921 -0.0009379061 0.00021916762 0.00051115477
0.0008733769 0.00028826782 -0.001245895 0.00081924966 0.00043881495 7.376156e-05 -0.0019642669 -0.00016480175
-7.67181e-05 0.00012794959 -0.0005731795 -0.0001567334 -0.00039201757 0.0003501517 -0.00018811763 0.00029897215
-0.0006176319 0.00033585442 -4.3837124e-05 2.6297179e-05 0.0003075097 -8.26038e-06 -0.0006237142 -0.0005970187
0.0006303814 0.0011220336 0.0001113734 -0.00062730897 -0.00045313788 0.00035141874 -0.0007299319 -0.00022593049
-0.000337148 -3.7176622e-05 -0.00015303971 0.00059058383 -4.8476693e-05 -0.00016124982 0.0007819578 0.00043401687
0.00045249556 -0.00019694917 -0.0003143167 3.5886624e-05 -0.00085981714 0.0006550425 -0.0007030294 0.00020342683
0.00021787628 0.0003088048 0.0005175111 -0.0003194647 -0.00028438758 -7.564163e-05 -1.7779415e-05 0.00056121394
-0.0014777455 -3.9637453e-05 0.00038719835 0.00021373227 0.0013253916 -0.0009430776 -0.00014082089 0.00021898551
-0.00029992717 -4.972963e-05 -0.00014773339 0.0007885394 -0.00032391673 2.9762747e-05 5.5694993e-05 -1.4532915e-05
-0.00040582466 -0.00072533265 -8.0201906e-05 0.00022473904 0.00048893393 0.00022119282 0.00019829875 -0.00051046856
5.48587e-05 0.00056709535 0.000120614925 0.000921087 -0.00047567594 -0.00034459512 0.0002609145 -0.0006863245
0.0003892298 -0.00013959235 -0.00026116645 -1.4670028e-05 -0.00059052167 0.0001519748 -0.0009837629 9.436344e-05
0.0007033696 0.0004048719 -9.415247e-06 -0.0006044204 -0.000550089 -5.142293e-05 0.0005818205 -0.0003560684
0.0007225573 -0.00013353146 -0.0002629709 0.0011237123 -0.0001534372 -0.000248104 -0.0005168748 -0.00069277105
-0.00015292123 -0.00040892453 -5.070179e-05 -0.0012207434 -4.0321072e-05 -3.7748467e-07 -3.6010482e-05 -0.00010704943
00000000: d360 9c39 06d1 1439 0949 ed38 62bf 2839
00000010: 8753 b13a d0dd 75ba 5cd0 6539 04ff 053a
00000020: 55f3 643a a722 9739 4d4d a3ba eac2 563a
00000030: bf10 e639 70b0 9a38 eeba 00bb a2ce 2cb9
00000040: b7e3 a0b8 352a 0639 6d41 16ba cd58 24b9
00000050: b587 cdb9 9194 b739 7141 45b9 5dbf 9c39
00000060: 93e8 21ba 9e15 b039 c1dd 37b8 c398 dc37
00000070: 4139 a139 1096 0ab7 c080 23ba 3f81 1cba
00000080: 2e40 253a 3311 933a 2491 e938 fe71 24ba
00000090: 2393 edb9 a03e b839 e758 3fba c1e7 6cb9
000000a0: 3dc3 b0b9 18ee 1bb8 4979 20b9 69d1 1a3a
000000b0: 7453 4bb8 2b15 29b9 4dfc 4c3a c28c e339
000000c0: ed3c ed39 2484 4eb9 e0ca a4b9 f884 1638
000000d0: 5a65 61ba 28b7 2b3a 814b 38ba f94e 5539
000000e0: b875 6439 14e7 a139 95a9 073a d47d a7b9
000000f0: db19 95b9 caa1 9eb8 0125 95b7 6e1e 133a
00000100: e9b0 c1ba 6440 26b8 e200 cb39 521d 6039
00000110: c3b8 ad3a de38 77ba 52a9 13b9 7a9f 6539
00000120: 8b3f 9db9 c994 50b8 e1e8 1ab9 fcb5 4e3a
00000130: 5ed3 a9b9 03ab f937 0b9a 6938 65d2 73b7
00000140: ddc4 d4b9 4024 3eba 1232 a8b8 eda7 6b39
00000150: cd2b 003a ffef 6739 6aee 4f39 f7d0 05ba
00000160: 1518 6638 20a9 143a a5f2 fc38 1a75 713a
00000170: 2564 f9b9 c6aa b4b9 5acb 8839 75ea 33ba
00000180: 8a11 cc39 895f 12b9 2bed 88b9 4a1f 76b7
00000190: 3dcd 1aba 6d5b 1f39 9bf1 80ba fce4 c538
000001a0: 5662 383a fd44 d439 2ef6 1db7 f771 1eba
000001b0: d933 10ba f3ae 57b8 5085 183a b1ae bab9
000001c0: 006a 3d3a 9404 0cb9 5bdf 89b9 8749 933a
000001d0: fce3 20b9 f513 82b9 e17e 07ba 149b 35ba
000001e0: 7b59 20b9 ec64 d6b9 a2a8 54b8 5a01 a0ba
000001f0: 6c1e 29b8 19a9 cab4 f609 17b8 ba7f e0b8

exp_avg_sq f4 [128]
6.117593e-07 1.7186564e-07 1.609726e-07 3.911843e-07 5.6752365e-06 2.0981788e-06 6.0220594e-07 2.1104058e-06
1.8477078e-06 2.0978206e-07 2.3529165e-06 1.6146661e-06 4.646613e-06 1.5319262e-07 8.747814e-06 1.3312936e-07
1.3265645e-06 1.0954828e-06 6.445196e-07 1.524645e-07 1.952637e-06 2.6281618e-06 2.897384e-07 1.1691644e-07
1.0533233e-06 1.2462439e-07 1.8423557e-07 3.1145743e-07 1.3399293e-06 1.5256286e-07 1.067905e-06 1.4808872e-06
4.825586e-07 4.4294216e-06 7.692522e-07 5.008968e-07 3.7261967e-07 1.6034866e-07 1.0405646e-06 2.7318774e-07
1.2159273e-06 1.2588575e-06 6.6204215e-08 4.9376263e-06 2.518462e-07 1.4692624e-07 1.2754406e-06 3.0008698e-06
2.0118946e-06 1.14306204e-07 2.4831088e-06 5.265462e-07 1.1185392e-06 8.438272e-07 3.9613337e-06 2.8913507e-07
4.5953342e-08 2.1952863e-07 1.7210097e-06 1.4911054e-06 1.7236212e-07 1.5539933e-07 5.936146e-08 1.0444458e-06
3.5252583e-06 1.7301848e-07 1.8463808e-06 1.2265626e-06 4.508192e-06 1.0416153e-06 1.3274008e-07 2.5084182e-07
2.2582644e-06 7.448681e-07 3.88643e-07 7.25436e-07 4.2147232e-07 4.079864e-08 9.0704056e-08 8.473078e-08
9.995509e-07 1.0448882e-06 3.0868527e-08 1.622349e-07 5.714278e-07 5.276171e-07 4.5746617e-07 1.8508051e-06
4.7308964e-07 5.3618896e-07 4.9950523e-07 6.031605e-06 1.2589076e-06 2.267985e-06 8.944526e-08 3.3264548e-06
2.0849058e-07 4.5640093e-07 2.5583532e-07 1.6803152e-07 1.7376069e-06 6.163195e-08 4.1773615e-06 7.0266464e-07
1.0406009e-06 2.2206609e-07 9.451545e-08 3.6750284e-06 2.878715e-06 5.0238685e-07 8.7989434e-07 3.463178e-07
5.3383235e-07 2.9068428e-07 1.112367e-06 1.2426211e-06 1.4219445e-07 1.3552695e-06 1.4828374e-06 1.8238753e-06
4.8508266e-08 4.8291236e-07 1.5675721e-07 2.1587157e-06 3.802174e-07 4.8288744e-08 2.2879638e-07 9.1459476e-08
00000000: c737 2435 118a 3834 d0d7 2c34 f603 d234
00000010: e96d be36 70ce 0c36 47a7 2135 7fa0 0d36
00000020: c2fe f735 7440 6134 cce6 1d36 81b7 d835
00000030: 1aea 9b36 447d 2434 93c3 1237 52f2 0e34
00000040: 690c b235 8108 9335 0d03 2d35 1fb5 2334
00000050: 0c0a 0336 7a5f 3036 588d 9b34 7e13 fb33
00000060: ea5f 8d35 7ed0 0534 4ad2 4534 6236 a734
00000070: 9fd7 b335 29d0 2334 f054 8f35 e6c2 c635
00000080: 2d89 0135 71a0 9436 9c7e 4e35 5e75 0635
00000090: 750c c834 4e2c 2c34 87a9 8b35 a3aa 9234
000000a0: f232 a335 04f6 a835 272c 8e33 e3ad a536
000000b0: 7a35 8734 c7c2 1d34 ce2f ab35 8d62 4936
000000c0: 1604 0736 8078 f533 7ca3 2636 fb57 0d35
000000d0: b720 9635 5d83 6235 99eb 8436 6c3a 9b34
000000e0: 3c5e 4533 92b7 6b34 71fd e635 fe21 c835
000000f0: 8a12 3934 d8db 2634 9ef4 7e33 e22e 8c35
00000100: 7a93 6c36 f5c6 3934 29d1 f735 5fa0 a435
00000110: 1345 9736 a1cd 8b35 5187 0e34 70ab 8634
00000120: b08c 1736 f2f2 4735 b0a6 d034 95bb 4235
00000130: b746 e234 943a 2f33 15c9 c233 3df5 b533
00000140: 4f28 8635 163e 8c35 4e94 0433 ca32 2e34
00000150: 3864 1935 92a1 0d35 ac99 f534 2e69 f835
00000160: f2fc fd34 a0ee 0f35 bd15 0635 1863 ca36
00000170: bcf7 a835 b033 1836 0d15 c033 0f3c 5f36
00000180: 74dd 5f34 4407 f534 bd59 8934 276c 3434
00000190: b837 e935 865a 8433 432b 8c36 bf9e 3c35
000001a0: c6aa 8b35 1071 6e34 6bf8 ca33 82a0 7636
000001b0: f22f 4136 c3db 0635 e131 6c35 8eed b934
000001c0: ae4c 0f35 580f 9c34 a44c 9535 23c8 a635
000001d0: 1dae 1834 b5e6 b535 e805 c735 e1cb f435
000001e0: 6757 5033 7ca1 0135 1851 2834 74de 1036
000001f0: ae20 cc34 0966 4f33 12ab 7534 6168 c433
