results/SnakeWithBirdAgent/SnakeWithBirdAgent/SnakeWithBirdAgent-1499983.onnx (onnx, 103045 bytes, 6 tensors)

action_model._discrete_distribution.branches.0.bias f4 [3]
0	0xbc22193a	-0.00989371
1	0xbc3dbea4	-0.011581097
2	0x3cb0d96f	0.021588055

action_model._discrete_distribution.branches.0.weight f4 [3, 128]
0	0x3baa5b4c	0.0051988717
1	0xbc32fae7	-0.010924078
2	0x3c4fd5f8	0.0126852915
3	0x3be51d73	0.006992036
4	0xbc88e7b1	-0.016712042
5	0x3ccd1f3f	0.025039313
6	0x3d07636b	0.033053797
7	0x3cfe6476	0.031053763
8	0xbc2b3000	-0.010448456
9	0xbd2c18f4	-0.042015985
10	0x3dac0f75	0.08401386
11	0x3c535128	0.012897767
12	0xbb978071	-0.0046234657
13	0x3ce982f2	0.028504822
14	0xbcf9af3e	-0.03047907
15	0x3d2984b6	0.04138633
16	0x3cb4a5db	0.022051742
17	0x3d1bd47c	0.038044438
18	0xbc825fdc	-0.01591485
19	0x3a74c8b6	0.00093377696
20	0x3c1648de	0.009172646
21	0x3d147cfa	0.036252
22	0x3d158450	0.036503136
23	0xbcb63fce	-0.022247221
24	0xbd870a08	-0.0659371
25	0x3d2250c6	0.039627813
26	0x3b8c4d29	0.004281659
27	0xbc1d2673	-0.009591687
28	0xba2c8532	-0.0006581127
29	0x3d420bca	0.047374524
30	0xbd8ba7a9	-0.06819088
31	0x3d93a7b4	0.07209721
32	0x3cb79e45	0.022414336
33	0xbdca7bb3	-0.09886875
34	0x3cdeb09e	0.027183827
35	0x3d81a66c	0.063305706
36	0xbd172cdd	-0.03690802
37	0xbb9bd42e	-0.0047555184
38	0x3d8b0afb	0.06789204
39	0xbda98e0a	-0.08279045
40	0x3d296c3c	0.041362986
41	0xbcb5c4bf	-0.022188542
42	0x3cef76f7	0.029231532
43	0xbc8360b4	-0.016037323
44	0xbbb0b158	-0.005392235
45	0x3b5072b2	0.0031806645
46	0xbc40474e	-0.01173575
47	0xbbd0e628	-0.006375093
48	0x3c749ec5	0.014930432
49	0xbd65068d	-0.05591445
50	0x3d211707	0.0393286
51	0x3a2785d2	0.0006390485
52	0x3cc07548	0.023493424
53	0x3cdd59c8	0.02702035
54	0x3b3c4c2f	0.0028731932
55	0xbd2af471	-0.041737024
56	0x3c85db0e	0.016339805
57	0x3bb1daab	0.0054276786
58	0xba4f648d	-0.00079114066
59	0xbcfe3e9e	-0.031035718
60	0x3d0e538d	0.03474765
61	0x3c3b9cb2	0.011450933
62	0x3d4f8e6d	0.050672937
63	0x3d591d71	0.053006593
64	0x3d4ab1c3	0.049485933
65	0xbc6d44bc	-0.01448172
66	0x3c9a7fed	0.018859828
67	0xbd063187	-0.032762077
68	0xbd4c18fa	-0.049828507
69	0x3d34b0d0	0.044113934
70	0x3d72e454	0.059299782
71	0x3bbf9cda	0.0058475556
72	0xbc0b76f8	-0.008512251
73	0x3d20059d	0.039067853
74	0x3d49dc61	0.049282435
75	0x3ca7a6af	0.020465223
76	0xbd9a35e9	-0.07529814
77	0x3bf9ab3c	0.0076192897
78	0x3c3bf5d1	0.011472181
79	0x3cc1ba0d	0.023648286
80	0x3c1d2fd3	0.009593922
81	0xbd9a1c10	-0.07524884
82	0xbd005809	-0.031333957
83	0xbd2a5dc2	-0.04159332
84	0x3d011b1e	0.03152
85	0x3c9148f0	0.017734975
86	0xbd788434	-0.060672954
87	0x3ca7c4ea	0.020479638
88	0xbb0e459a	-0.0021708966
89	0xbcad07d3	-0.021121895
90	0x3b3f6f45	0.002921061
91	0xbc9e6ead	-0.019339884
92	0x39325fba	0.00017011064
93	0x3c124882	0.00892842
94	0xbc0b1c30	-0.008490607
95	0xba1c2940	-0.00059570745
96	0xbc20af14	-0.009807367
97	0x3c33e1f7	0.010979167
98	0x3a1d5114	0.0006001156
99	0x3c110463	0.0088511435
100	0x3d0f1627	0.034933235
101	0xbcc738db	-0.024319103
102	0xbd07aec7	-0.033125665
103	0xbccebe62	-0.025237266
104	0x3d210663	0.03931273
105	0x3d245bd6	0.040126644
106	0xbb9004d8	-0.0043951087
107	0x3d12ef46	0.03587272
108	0x3b353301	0.002764881
109	0x3cf631fa	0.030053128
110	0xbd492406	-0.04910662
111	0x3b3bf767	0.0028681399
112	0x3d20a3e9	0.039218817
113	0x3caf5eaf	0.021407453
114	0x3c859c1a	0.016309787
115	0x3d9beb2a	0.07613213
116	0xbd16c910	-0.036812842
117	0x3c6f2a0c	0.014597427
118	0xbca5d1d8	-0.020241663
119	0x3c8c8a4c	0.017155789
120	0x3d37341a	0.044727422
121	0xbd71ff24	-0.05908121
122	0x3b33dfa6	0.0027446537
123	0x3c6e7fe3	0.014556858
124	0xbd174d7e	-0.036939137
125	0xbd7d62d0	-0.061861813
126	0x3ca3056a	0.019900043
127	0xbcc9a8a8	-0.024616554
128	0x3de78d46	0.11306243
129	0xbcd13867	-0.02553959
130	0xbd23a68b	-0.03995375
131	0xbc3f3a7b	-0.011671658
132	0xbd03ec2f	-0.032207664
133	0xbd91f21c	-0.07126257
134	0x3d35b883	0.044365417
135	0xbc34da55	-0.011038383
136	0xbc2fd037	-0.010730795
137	0x3d0a3e67	0.033750918
138	0x3ca74fe8	0.020423844
139	0xbd6f45d9	-0.05841622
140	0xbd5d6ad7	-0.05405697
141	0xbdd2ce21	-0.10293222
142	0x3d731ca3	0.059353482
143	0xbd041612	-0.03224761
144	0x3dab4a61	0.08363796
145	0xbd87cd32	-0.06630935
146	0x3c215ab9	0.00984829
147	0x3d0b1bcd	0.03396206
148	0x3c616305	0.013756518
149	0xbe25df58	-0.1619848
150	0x3b7c17db	0.0038466367
151	0x3dfed996	0.12443845
152	0x3de8ae5f	0.11361384
153	0x3d72a0aa	0.059235252
154	0xbdc76ab0	-0.09737146
155	0x3d000a8d	0.031260062
156	0x3cd3ded7	0.025863094
157	0xbe2b13d4	-0.16706783
158	0x3d823c82	0.06359197
159	0xbe084602	-0.13307956
160	0xbd80c4d1	-0.0628754
161	0x3e242db6	0.16033062
162	0xbcc02b49	-0.02345814
163	0xbe2c4792	-0.16824177
164	0x3dd2f3c7	0.10300403
165	0xb9cb6c6f	-0.00038799967
166	0xbe4b207f	-0.19836615
167	0x3e12fca8	0.14354193
168	0xbcd15ff7	-0.025558455
169	0x3db0b015	0.08627335
170	0xbdab9578	-0.08378118
171	0x398a27eb	0.00026351152
172	0x3a3c6a6a	0.0007187488
173	0xbc8d5102	-0.017250542
174	0x3c392ffc	0.011302944
175	0xbc9c2f7b	-0.01906561
176	0x3d550029	0.052002106
177	0xbcfed768	-0.031108573
178	0xbdc24699	-0.09486122
179	0x3ca80c04	0.020513542
180	0x3c9cd98b	0.019146701
181	0xbc84afe7	-0.016197158
182	0x3cd4d8c6	0.025982272
183	0xbccb1634	-0.02479086
184	0xbc7ebb96	-0.015547654
185	0x3d8c9594	0.06864467
186	0xbc3a2278	-0.011360757
187	0xbd5c3dee	-0.05377
188	0x3d657a5f	0.056024905
189	0xbd6cb262	-0.057787307
190	0xbbf3c284	-0.0074389596
191	0xbe540ae2	-0.20707276
192	0xbca3a3ca	-0.019975562
193	0x3b78b34d	0.0037948668
194	0x3ca08163	0.019592946
195	0xbd4331dd	-0.047654975
196	0x3d3ab3c7	0.045581605
197	0xbe21e3ac	-0.15809506
198	0xbdfe6067	-0.12420731
199	0xbd72ed52	-0.059308358
200	0x3bd53395	0.006506393
201	0xbe12c755	-0.14333852
202	0x3d4e3e7e	0.050352566
203	0xbdd4d47e	-0.10392092
204	0x3deda507	0.11603742
205	0x3c43b1af	0.011944219
206	0x3d37f2e5	0.044909377
207	0xbd9ba21d	-0.0759928
208	0x3d08a79d	0.033362973
209	0x3cb6fdbc	0.022337787
210	0x3c899f71	0.01679966
211	0x3dee2714	0.11628547
212	0xba8bafbc	-0.0010657231
213	0x3d03db16	0.03219136
214	0xbbb68845	-0.005570444
215	0xbd329012	-0.043594427
216	0x3d814328	0.06311637
217	0x3dc30eae	0.09524284
218	0x3c754291	0.014969484
219	0xbd086e97	-0.03330859
220	0x3cbd992f	0.023144333
221	0xbd5721d5	-0.0525225
222	0xbdef2b06	-0.11678128
223	0x3d0b18e4	0.033959284
224	0x3d2e0079	0.04248092
225	0xbd54b441	-0.051929716
226	0x3d1e878f	0.038703497
227	0x3ca037f4	0.01955793
228	0xbd4f1fcb	-0.05056743
229	0x3da8f8e5	0.08250598
230	0x3d908240	0.07056093
231	0xbdae17a3	-0.08500602
232	0xbdbf28ea	-0.093339756
233	0xbdf9de02	-0.12200548
234	0xbd9a1692	-0.07523836
235	0xbd223f82	-0.039611347
236	0x3c393c1e	0.011305837
237	0x3d2acdfd	0.041700352
238	0x3e05a69c	0.13051838
239	0xbd5b068e	-0.053473048
240	0xbdd00147	-0.10156494
241	0xbca81a9e	-0.020520505
242	0xbb41b8c3	-0.002955959
243	0x3d7d1ec8	0.061796933
244	0x3cd49b08	0.02595283
245	0xbc3b46f7	-0.011430494
246	0x3d227faf	0.03967255
247	0xbdbf23af	-0.09332978
248	0x3ca5fca9	0.02026208
249	0xbd466078	-0.048431844
250	0x3c8631a4	0.016381092
251	0x3d60386e	0.054741316
252	0xbc989675	-0.018626431
253	0x3e02abf3	0.12760906
254	0x3d7eced1	0.062208954
255	0x3df75b46	0.12077956

network_body._body_endoder.seq_layers.0.bias f4 [128]
0	0x3c8521ce	0.01625147
1	0x3d895efe	0.067075714
2	0x3cc0c638	0.023532018
3	0xbd107757	-0.03527006
4	0x3d81583f	0.0631566
5	0x3cacf813	0.021114385
6	0x3d4844f9	0.048893902
7	0xbcc44e20	-0.023963034
8	0x3d9ee347	0.077581935
9	0x3cbd74ac	0.023126923
10	0x3d598a1a	0.05311022
11	0x3cd7fd95	0.026366035
12	0xbccfc5c5	-0.025362859
13	0x3ada8270	0.0016670953
14	0xbd0b53f8	-0.034015626
15	0x3da3647a	0.07978149
16	0x3b3ab964	0.002849185
17	0x3c9f5588	0.019449964
18	0x3c34f7d4	0.011045415
19	0x3c2101f5	0.009827127
20	0x3cc31489	0.023813503
21	0x3d4781f8	0.048707932
22	0x3a91a944	0.0011113067
23	0x3c73413d	0.014847097
24	0xbd37e02e	-0.04489153
25	0x3c0714f6	0.008244744
26	0xbca44384	-0.020051725
27	0x3c15dc10	0.009146705
28	0x3cd4d6a0	0.025981247
29	0xbd058d52	-0.032605477
30	0xbcf5e422	-0.030016009
31	0x3c175939	0.009237581
32	0x3bff05a7	0.0077826562
33	0x3c995958	0.01871936
34	0x3c56ac52	0.013102608
35	0x3c849995	0.016186515
36	0xbc727a07	-0.014799601
37	0xbc616b31	-0.013758467
38	0xbd282cf6	-0.041058503
39	0x3ca5c57f	0.020235775
40	0x3d79988d	0.0609365
41	0x3d0cfc69	0.034420405
42	0x3d2b8882	0.04187823
43	0x3cb1e7f8	0.021717057
44	0x3d1478fd	0.036248196
45	0x3d9c2103	0.07623484
46	0x3d80bca0	0.06285977
47	0xbc73afc6	-0.014873451
48	0x3c5cea94	0.013483662
49	0xbb63e83c	-0.0034775874
50	0xbbdcbd52	-0.006736436
51	0x3de64813	0.11244216
52	0x3d38f2f8	0.045153588
53	0xbc5184f1	-0.012788043
54	0xbd1fdf1b	-0.03903113
55	0xbc2e422c	-0.010635894
56	0x3be7a493	0.0070691793
57	0x3d87a300	0.06622887
58	0x3d1becf0	0.038067758
59	0x3d5c4c62	0.05378378
60	0x3de5c5ad	0.11219344
61	0x3d15027d	0.036379326
62	0x3d39f08b	0.045395415
63	0x3d07931d	0.033099283
64	0x3da1e7b2	0.079055205
65	0x3d920717	0.071302585
66	0x3d061d4f	0.032742795
67	0xbd4325ad	-0.047643352
68	0x3d4017c3	0.04689766
69	0x3d06e74c	0.032935426
70	0x3a9538c3	0.0011384714
71	0xbd1d32c3	-0.03837849
72	0x3cbe78c5	0.023250947
73	0x3d5bcf21	0.05366433
74	0xbbd49036	-0.006486918
75	0x3d935a1e	0.07194923
76	0x3d618abf	0.05506396
77	0x3cbc20c0	0.022964835
78	0x3db2309f	0.0870068
79	0x3d9a624c	0.0753828
80	0x3d0d8ac1	0.034556154
81	0xbc6473e9	-0.013943651
82	0xbc474371	-0.012162075
83	0x3d251ad4	0.04030879
84	0x3b75d19b	0.0037508968
85	0x3d9051ae	0.07046829
86	0x3d029209	0.03187755
87	0x3b181bcc	0.0023209928
88	0x3c503352	0.012707548
89	0x3bd62d3c	0.006536154
90	0x3d3bfb76	0.04589411
91	0x3c6ae01b	0.0143356575
92	0xbd2944a3	-0.041325223
93	0x3da58937	0.08082812
94	0x399b9ef3	0.0002968233
95	0x3d6e41b8	0.058168143
96	0xbca879f7	-0.02056597
97	0x3cd1c5e6	0.02560706
98	0xbcdb660e	-0.026782062
99	0x3dc8e5fa	0.098094895
100	0x3a1ec00e	0.000605584
101	0x3c9a2c41	0.01881993
102	0x3ce31aa5	0.027722666
103	0x3d576f11	0.052596156
104	0x3d6cf931	0.057854835
105	0x3cb9b7f5	0.022670725
106	0x3d0f8b93	0.035045218
107	0x3c4a42dd	0.012345043
108	0x3d766511	0.06015498
109	0x3cd3b682	0.025843862
110	0x3c9a116e	0.01880714
111	0x3d829461	0.06375957
112	0x3d8a2b2c	0.06746516
113	0xbb9a1cd0	-0.0047031417
114	0x3d158325	0.036502022
115	0x3da39fb6	0.07989447
116	0x3c87e46c	0.016588412
117	0x3c99836b	0.018739423
118	0x3d710499	0.058842275
119	0xbd00e559	-0.031468723
120	0x3bf0644d	0.0073361755
121	0x3cf95a5e	0.030438598
122	0x3c5459a1	0.012960822
123	0xbc93ba89	-0.018033283
124	0x3c28d4ac	0.010304611
125	0x3d4c1e3b	0.049833518
126	0x3d78d96f	0.060754236
127	0x3c21a7fe	0.009866713

network_body._body_endoder.seq_layers.0.weight f4 [128, 64]
0	0xbcf40445	-0.029787192
1	0x3d8ace86	0.067776725
2	0x3e1f74ad	0.15571852
3	0xba616ed4	-0.00085995835
4	0xbe42d142	-0.19025138
5	0x3da88054	0.08227602
6	0xbdc204d7	-0.094735794
7	0xbd1d8b94	-0.03846319
8	0x3dbfc729	0.09364159
9	0xbdbdba7e	-0.09264086
10	0x3d8fe498	0.07026023
11	0x3de4f09b	0.11178704
12	0x3e07ca7b	0.13260834
13	0x3e3f57d2	0.18685845
14	0xbd0e2cfe	-0.034710877
15	0xbc77bafe	-0.015120266
16	0xbc719cd2	-0.0147468615
17	0x3e4f52ab	0.20246379
18	0xbe71f3b0	-0.23628116
19	0xbe331969	-0.17490162
20	0xbe135be5	-0.14390524
21	0x3d1e698f	0.038674887
22	0xbe712128	-0.23547804
23	0x3d834c96	0.06411092
24	0x3da6aa2c	0.081379265
25	0x3dc58517	0.096445255
26	0x3dd22611	0.10261167
27	0xbc7bed11	-0.015376345
28	0x3e2e57ea	0.17025724
29	0xbe86b2d7	-0.2630832
30	0xbdb733cb	-0.089454256
31	0x3ee261c0	0.44215202
32	0xbdf9dad2	-0.1219994
33	0x3e4d92c0	0.20075512
34	0x3d1da851	0.038490597
35	0x3e15bc4a	0.14622608
36	0x3d144420	0.03619778
37	0xbdd044d5	-0.10169379
38	0xbdeee94b	-0.11665591
39	0xbd9a040a	-0.07520302
40	0xbdbfcc4d	-0.09365139
41	0x3d8e1bda	0.06938906
42	0xbd8ab3a7	-0.06772547
43	0xbd6e0f59	-0.058120105
44	0xbceabcd9	-0.028654503
45	0xbe4fe40b	-0.20301835
46	0xbcc91919	-0.0245481
47	0x3dbb3976	0.09141819
48	0xbd91f85e	-0.071274504
49	0x3e25b4e1	0.16182281
50	0x3d3b02ae	0.045656852
51	0xbcc095bb	-0.023508897
52	0xbdcb3781	-0.09922696
53	0xbe1508e9	-0.1455418
54	0xbd220515	-0.039555628
55	0xbe856ce2	-0.26059633
56	0xbd1014da	-0.035176136
57	0x3e5c93a9	0.21540703
58	0x3d1a1407	0.037616756
59	0x3e5f3db2	0.21800879
60	0x3d6c7e68	0.057737738
61	0x3e180630	0.1484611
62	0xbc6483bb	-0.013947423
63	0xbd5b6f3d	-0.053572882
64	0xbe960a70	-0.29304838
65	0x3e5cb6c8	0.215541
66	0xbdac387f	-0.08409213
67	0xbe129a8b	-0.14316766
68	0xbe6c8ad1	-0.2309983
69	0xbdd92e6f	-0.1060456
70	0x3e0a8eb4	0.13531
71	0x3d8b0052	0.067871705
72	0x3d38e47c	0.045139775
73	0x3e862fa7	0.2620823
74	0x3d97b0d7	0.074067764
75	0x3d973be2	0.073844686
76	0x3d8e0f86	0.069365546
77	0xbcac5aee	-0.021039452
78	0x3e4acf65	0.19805677
79	0xbcb3854b	-0.021914145
80	0x3e47290d	0.19449253
81	0xbdcd7637	-0.10032313
82	0x3dce3013	0.10067763
83	0x3e0bc410	0.1364901
84	0x3e030c6b	0.12797706
85	0x3df03d3a	0.11730428
86	0x3db4b2b5	0.08823148
87	0x3db16db8	0.08663505
88	0x3c0cc38c	0.008591544
89	0x3d00a25a	0.03140483
90	0x3d1c0e81	0.03809977
91	0x3aeaba98	0.0017908392
92	0xbe6a5821	-0.22885181
93	0x3e05df31	0.13073422
94	0x3d178272	0.036989637
95	0xbd3d333f	-0.04619145
96	0x3e68d2d1	0.2273667
97	0x3e3cf10b	0.18451326
98	0x3e0cca83	0.13749127
99	0xbe495c84	-0.19664198
100	0xbd687f59	-0.056762073
101	0xbd705846	-0.058677934
102	0x3e24aeb3	0.16082267
103	0x3ca47588	0.020075575
104	0x3cf02de0	0.02931875
105	0xbe497766	-0.19674453
106	0x3e6d0778	0.2314738
107	0xbe18dc23	-0.14927725
108	0x3deb21f1	0.11481083
109	0xbe00432c	-0.12525624
110	0x3e1e5f5c	0.15466064
111	0x3e560382	0.20899776
112	0xbd3f9a2c	-0.04677789
113	0xbe8bcc55	-0.2730433
114	0xbe4f2a1b	-0.20230906
115	0x3e5399a0	0.20664072
116	0x3e01e387	0.12684451
117	0x3d620f90	0.055190623
118	0xbd1b65cc	-0.037938878
119	0x3db30364	0.08740881
120	0x3e1db5f8	0.15401447
121	0xbe045d46	-0.12926206
122	0x3dbfcf75	0.09365741
123	0x3e8037ff	0.25042722
124	0xbd91341e	-0.07090019
125	0xbb739047	-0.0037164853
126	0xbd96b30e	-0.07358371
127	0xbda61d1a	-0.081110194
128	0xbcacc3e4	-0.021089502
129	0xbcb9e4d3	-0.02269212
130	0x3d05714a	0.032578744
131	0x3d442a80	0.047892094
132	0x3d96c897	0.07362478
133	0x3c060ee7	0.008182264
134	0xbe9722ba	-0.29518682
135	0xbd064a11	-0.03278548
136	0x3e17dc3e	0.1483011
137	0xbd250543	-0.04028822
138	0x3dee7cf2	0.11644925
139	0x3e12653f	0.14296435
140	0x3daf0b6c	0.085471004
141	0xbd1d9a00	-0.038476944
142	0xbd1d8217	-0.03845414
143	0x3e5bc6b0	0.21462512
144	0xbe32b7ca	-0.17452922
145	0x3d380d9d	0.044934858
146	0x3e24b16a	0.16083303
147	0x3d749e09	0.059721027
148	0xbd9dc74b	-0.07704028
149	0x3e160f08	0.14654171
150	0x3e63a3a5	0.22230394
151	0xbd3e328d	-0.046434928
152	0xbc566e5f	-0.013087838
153	0x3d85c3a0	0.06531453
154	0xbb7859fb	-0.003789543
155	0x3dd67811	0.104721196
156	0x3dd678bf	0.10472249
157	0xbd2fc10a	-0.042908706
158	0x3cc433f5	0.023950556
159	0x3e6d6dd4	0.23186427
160	0xbddfbd60	-0.10924792
161	0xbe77d81f	-0.24203537
162	0xbb3f8706	-0.0029224767
163	0xbd4b61ef	-0.049653944
164	0xbc837298	-0.016045853
165	0x3cbfd09d	0.023414904
166	0x3d10afaf	0.035323795
167	0x3ec5e4a8	0.38651013
168	0x3dcaab2b	0.09895929
169	0x3eac8e41	0.3370228
170	0x3c803567	0.015650464
171	0x3e87c132	0.26514584
172	0x3ca07c9f	0.019590674
173	0x3dde3ca4	0.1085141
174	0x3db25665	0.08707885
175	0xbe858944	-0.26081288
176	0xbe50e2c8	-0.2039901
177	0xbd922d5c	-0.07137558
178	0x3df03f0a	0.11730774
179	0x3e4c4302	0.19947436
180	0x3e620e99	0.22075881
181	0xbe98d429	-0.29849365
182	0x3e59cc5d	0.21269365
183	0xbe20d2af	-0.1570537
184	0xbe0e4180	-0.13892174
185	0xbd40e123	-0.047089707
186	0xbe49b94c	-0.19699591
187	0xbe4ba8a2	-0.19888547
188	0x3dca94da	0.098916724
189	0x3e4cedc7	0.2001258
190	0xbd3be28f	-0.04587036
191	0x3e308f7d	0.17242236
192	0x3e7501c4	0.23926455
193	0xbd910846	-0.07081656
194	0xbd8349d4	-0.06410566
195	0x3c92de4f	0.01792827
196	0xbe0d33a4	-0.1378923
197	0xbd83359c	-0.064067096
198	0x3e21f475	0.15815909
199	0x3dc05911	0.09391988
200	0x3db8c5b2	0.090220824
201	0xbdecfe2f	-0.11571919
202	0xbe64861a	-0.2231678
203	0xbcb91596	-0.0225933
204	0x3bf82c4c	0.00757364
205	0x3e56d157	0.20978294
206	0xbd44d2d5	-0.048052628
207	0xbdf08b04	-0.11745265
208	0xbc9719eb	-0.018444976
209	0xbcd64f79	-0.026160942
210	0x3dce072e	0.10059963
211	0x3d081c42	0.033230074
212	0x3b50ff03	0.003189028
213	0xbd5a9f6d	-0.053374697
214	0xbdaba4dc	-0.08381054
215	0x3e0307c6	0.12795934
216	0xbd839053	-0.06424012
217	0xbe10bb43	-0.14133935
218	0x3ca50c80	0.020147562
219	0xbdc8b3b5	-0.097999014
220	0x3dead57c	0.114665
221	0x3d9a3b57	0.075308494
222	0x3ce1c5bc	0.027560107
223	0xbe063642	-0.13106635
224	0xbe6eaf27	-0.23309003
225	0xbe069c0e	-0.13145468
226	0xbe2b0134	-0.16699678
227	0xbe0d043b	-0.13771145
228	0x3dc7d667	0.09757691
229	0x3d1490a9	0.03627077
230	0xbd1d5435	-0.038410384
231	0xbd1524d6	-0.036412083
232	0xbe653c76	-0.22386345
233	0xb905c019	-0.0001275543
234	0x3e13aaf9	0.1442069
235	0x3e916d04	0.28403485
236	0x3d9368db	0.07197734
237	0x3da08d9b	0.07839509
238	0x3ed319e9	0.41230705
239	0xbe0fe2d4	-0.14051372
240	0x3e6c719f	0.23090218
241	0x3e55d170	0.20880675
242	0xbe022589	-0.12709631
243	0xbda449a4	-0.08021858
244	0xb979883c	-0.00023797242
245	0x3d7e27e4	0.06204976
246	0x3d95ef2a	0.073210075
247	0xbeac4b62	-0.33651263
248	0xbde05348	-0.10953385
249	0x3dd82e55	0.10555712
250	0xbd0f766e	-0.035025053
251	0x3c7c0d21	0.01538399
252	0xbd9d75fa	-0.07688518
253	0x3d420584	0.04736854
254	0x3d9a4377	0.07532399
255	0x3e58ca53	0.2117093

network_body._body_endoder.seq_layers.2.bias f4 [128]
0	0x3cedd932	0.02903423
1	0x3c88bc18	0.016691253
2	0x3cf06d2e	0.029348936
3	0xbc27d383	-0.010243299
4	0x3c68f0cb	0.014217566
5	0x3d46aa37	0.048502173
6	0x3cd9f84b	0.026607653
7	0x3acbd051	0.0015549754
8	0x3caa11d3	0.020760452
9	0x3cb73779	0.022365319
10	0x3cfa6e6a	0.030570228
11	0x3c4bbca7	0.012435115
12	0x3d16f315	0.036852915
13	0x3d9d3112	0.07675375
14	0x3c724a8a	0.014788279
15	0x3bc128a9	0.0058947396
16	0x3bee8963	0.0072795614
17	0x3c2ce503	0.0105526475
18	0xbd15b7ca	-0.036552228
19	0xbc606125	-0.013695036
20	0xbce08cae	-0.027410831
21	0x3dbda74a	0.092604235
22	0xbcc35540	-0.023844361
23	0xbaeb6c83	-0.0017961416
24	0x3cd7445d	0.026277715
25	0xbbf95b49	-0.007609759
26	0x3dc263b4	0.09491673
27	0x3947af58	0.0001904344
28	0xbc8fe04d	-0.01756301
29	0x3d86376c	0.0655354
30	0x3c8902b5	0.016724924
31	0x3d48ea86	0.049051784
32	0x3d2e64ba	0.04257653
33	0x3cd35806	0.025798809
34	0xbaba10dc	-0.0014195698
35	0x3d699eb9	0.057036135
36	0x3cd2aee0	0.025718153
37	0x3cfc169d	0.030772502
38	0x3dae9592	0.08524622
39	0x3d163c53	0.036678623
40	0x3c70ea16	0.014704248
41	0x3ce17aaa	0.027524311
42	0x3d05f208	0.032701522
43	0x3d38e06d	0.045135904
44	0x3b0139b0	0.0019718222
45	0x3cc8cbd3	0.024511253
46	0x3ab3d791	0.001372086
47	0x3c92b224	0.01790721
48	0xbbfd60a7	-0.007732469
49	0x3d2e53c0	0.04256034
50	0x3d8a0abc	0.06740329
51	0x3bd75ea9	0.0065725637
52	0xbca0fdb5	-0.019652227
53	0x3c18225f	0.009285538
54	0xbbfd5642	-0.00773123
55	0x3d7cfa96	0.061762415
56	0x3c6bc10e	0.01438929
57	0x3abe4793	0.001451718
58	0x3bda8eac	0.00666984
59	0x3d2e5e6b	0.042570513
60	0xbbcdc989	-0.0062801284
61	0x3d0c66b5	0.034277637
62	0xbc33620a	-0.010948667
63	0x3d8afd47	0.0678659
64	0xbc6940b0	-0.014236614
65	0x3cbfc015	0.023407022
66	0x3bbf9110	0.00584615
67	0x3c312ce3	0.0108139245
68	0x3cf19701	0.02949095
69	0x3d0eed5d	0.034894336
70	0x3d37ca60	0.044870734
71	0x3cfb1f27	0.030654503
72	0x3c647bc0	0.01394552
73	0x3d87b899	0.06627006
74	0xbba4f554	-0.005034128
75	0x3d2291a5	0.03968968
76	0x3c8ab9c3	0.016934281
77	0xbcd6bdb6	-0.026213508
78	0xbb9740a7	-0.0046158615
79	0x3d38da47	0.04513004
80	0xbc79d886	-0.015249377
81	0xbbb10726	-0.0054024635
82	0x3bf3b61e	0.0074374815
83	0x3cfe515d	0.031044656
84	0xbc63fbc4	-0.013915006
85	0xbcce5f6c	-0.025191985
86	0x3d0534f8	0.032521218
87	0x3cc6d483	0.024271255
88	0x3c1927bb	0.009347851
89	0x3bbe5676	0.005808647
90	0xbc7678f7	-0.015043489
91	0x3c58055b	0.013184871
92	0x3c818ce6	0.015814256
93	0x3d06e89b	0.032936674
94	0xbc46351c	-0.012097623
95	0xbc4e7c8e	-0.012602938
96	0x3c2d86e0	0.010591239
97	0x3d098e5f	0.03358304
98	0xbc7598f1	-0.014990077
99	0xbd16b8d1	-0.03679735
100	0x3c4faedc	0.012675967
101	0x3d04dd7e	0.032437794
102	0xbcb32ec7	-0.021872891
103	0x3d2e257a	0.04251621
104	0xbc0fbae0	-0.008772582
105	0x3da39ddb	0.07989093
106	0x3cdddf4e	0.027084019
107	0x3c9022d1	0.017594727
108	0xbbe6a9f0	-0.007039301
109	0x3c570785	0.013124351
110	0xbb79b2f5	-0.0038101051
111	0x3ce47362	0.02788705
112	0x3d636009	0.055511508
113	0x3c591926	0.013250625
114	0xbaeb41f0	-0.0017948728
115	0xbbcd7c31	-0.0062709083
116	0x3c616f89	0.013759502
117	0xbc8b4394	-0.016999997
118	0x3be6842f	0.0070348005
119	0x3d9744e8	0.0738619
120	0xbc707284	-0.01467574
121	0x3d193238	0.037401408
122	0x3c1cec10	0.009577766
123	0xbc84acfc	-0.016195767
124	0x3caea57e	0.021319147
125	0x3cf61325	0.030038426
126	0x3c63636e	0.013878686
127	0x3b9625f4	0.004582161

network_body._body_endoder.seq_layers.2.weight f4 [128, 128]
0	0xbd44dd3c	-0.048062548
1	0xbdf55c98	-0.119805515
2	0xbdb731f1	-0.089450724
3	0x3d2b3dba	0.041806914
4	0xbc52f0b8	-0.012874775
5	0x3e2c1c53	0.1680768
6	0xbdb2bd24	-0.08727482
7	0xbd68a0df	-0.056794044
8	0x3dac034b	0.083990656
9	0x3e420668	0.18947756
10	0x3d85855b	0.06519576
11	0xbdbf8ab1	-0.09352625
12	0x3e969cf7	0.2941663
13	0xbd5dcd84	-0.054151073
14	0xbd2944e2	-0.041325457
15	0x3e88539b	0.26626286
16	0x3d677b72	0.05651421
17	0x3b25f857	0.0025325024
18	0x3db7c551	0.08973182
19	0xbd95a82f	-0.07307469
20	0xbd9c2b3c	-0.07625434
21	0xbe85cde9	-0.2613366
22	0x3dadf9b3	0.08494892
23	0x3e03974b	0.12850682
24	0x3d987884	0.074448615
25	0xbe0987ca	-0.13430706
26	0xbd12ca6d	-0.03583758
27	0xbd08f06d	-0.033432413
28	0xbe6c5a56	-0.23081335
29	0x3d5bdd16	0.05367764
30	0x3e00ccef	0.12578176
31	0x3e6f8b57	0.23392998
32	0x3cd3f0d5	0.025871674
33	0x3e1f9251	0.15583159
34	0x3dbc0b09	0.09181792
35	0x3dc83dfb	0.09777447
36	0xbd528f53	-0.051406216
37	0x3d0c7a0f	0.03429609
38	0x3bcd1f77	0.0062598544
39	0x3e2a1bde	0.16612193
40	0x3d8d870b	0.06910523
41	0x3d892eb5	0.06698362
42	0xb9003a00	-0.00012228638
43	0xbe125f31	-0.14294125
44	0xbe92466a	-0.28569347
45	0x3dcb598b	0.09929188
46	0xbcd5ac63	-0.026083177
47	0x3cd58009	0.026062028
48	0xbd83c3c4	-0.06433824
49	0x3c59e46f	0.013299092
50	0xbd91729c	-0.07101938
51	0xbdfd4f9b	-0.12368699
52	0xbe035754	-0.12826282
53	0x3e1d7f3f	0.15380572
54	0xbde12495	-0.109933056
55	0x3e4500cd	0.19238587
56	0x3e2bd4c3	0.16780381
57	0xbded94c5	-0.11600641
58	0x3d1ca0f5	0.038239438
59	0x3cd81a8a	0.026379842
60	0xbd4d39e6	-0.050104044
61	0x3c830d34	0.015997507
62	0x3c6e93c1	0.014561594
63	0xbda0461b	-0.078258716
64	0x3bc49557	0.005999248
65	0xbd03f490	-0.032215655
66	0x3de65bc3	0.11247971
67	0x3dfed3d6	0.12442748
68	0x3e0870ca	0.13324276
69	0x3d55df46	0.052214883
70	0x3d44eca7	0.04807725
71	0x3cacb663	0.021083063
72	0x3cf077f6	0.029354077
73	0xbdc6afc2	-0.09701492
74	0xbe187f70	-0.14892364
75	0xbd8bc623	-0.06824901
76	0x3e1ca5a5	0.15297563
77	0x3d35e0ba	0.04440377
78	0xbd55648a	-0.052097835
79	0x3d876220	0.06610513
80	0xbdbb53a9	-0.09146816
81	0xbe3642bb	-0.17798893
82	0xbd7c7acb	-0.061640542
83	0xbe230dd0	-0.15923238
84	0x3d9df9f7	0.07713693
85	0x3e1d4550	0.15358472
86	0xbe454e0e	-0.19268057
87	0x3e178597	0.14797054
88	0xba9e1bc2	-0.0012062716
89	0x3cbeed25	0.023306439
90	0x3dfc3ec1	0.12316657
91	0x3c434b55	0.011919816
92	0xbd49026e	-0.049074583
93	0x3ce2bbfa	0.027677525
94	0x3bb52785	0.0055283927
95	0x3e1a6f50	0.15081525
96	0x3dd05a8f	0.10173523
97	0x3de39015	0.11111466
98	0x3cd73e48	0.026274815
99	0x3e72040a	0.23634353
100	0x3d2609eb	0.040536802
101	0x3d4b999b	0.049707036
102	0xbc64525d	-0.013935653
103	0x3e0fdfd2	0.14050224
104	0x3e1655d6	0.14681181
105	0x3e49a36a	0.19691244
106	0x3c3ec1b4	0.011642862
107	0x39f53e06	0.00046776253
108	0xbd88c644	-0.06678441
109	0x3db63792	0.08897318
110	0x3e235b1b	0.15952723
111	0x3e2803f2	0.16407755
112	0x3cf87bcb	0.030332467
113	0xbe0d38bf	-0.13791178
114	0x3dd2189f	0.10258602
115	0x3da6fcc7	0.08153682
116	0xbd95eff9	-0.07321162
117	0xbdaef347	-0.08542495
118	0x3d044fb0	0.03230256
119	0x3e32d66c	0.17464608
120	0x3e07c1df	0.1325755
121	0xbcf4168f	-0.029795913
122	0xbc1a23de	-0.0094079655
123	0x3d9a0993	0.075213574
124	0xbd6d5a2e	-0.05794733
125	0xbcac4103	-0.021027094
126	0x3cf5c0cd	0.029999161
127	0x3d829a4e	0.063770875
128	0x3d000c27	0.03126159
129	0xbe135bb8	-0.14390457
130	0x3d5276a6	0.051382683
131	0xbca00fea	-0.019538838
132	0x3db3b8e5	0.087755
133	0x3cd82b4c	0.026387833
134	0xbd21e03f	-0.0395205
135	0xbd55d923	-0.05220903
136	0x3c4a9e89	0.012366899
137	0xbcf80f26	-0.03028066
138	0xbdd530e9	-0.104097195
139	0x3c93debd	0.018050546
140	0xbd3ae2b7	-0.04562637
141	0x3e2fd4cf	0.17171024
142	0xbddf1926	-0.108934686
143	0x3e0b5d1d	0.13609739
144	0x3db6ccb7	0.08925765
145	0xbdca1129	-0.09866554
146	0x3d8aee79	0.06783766
147	0x3bd30738	0.0064400695
148	0x3ba510d3	0.005037406
149	0x3dea4b19	0.11440105
150	0xbe1a3953	-0.1506093
151	0x3b43ad3c	0.0029857894
152	0x3d17975f	0.037009593
153	0xbd67238e	-0.056430392
154	0x3dd9a314	0.10626808
155	0x3d8a3772	0.067488566
156	0xbd0f28ad	-0.0349509
157	0xbdb87944	-0.090075046
158	0xbc8f5d3e	-0.017500516
159	0x3c3c50da	0.011493886
160	0xbcb5ae81	-0.022177937
161	0xbd12b21b	-0.035814386
162	0xbe649872	-0.22323778
163	0xbc27afb4	-0.010234762
164	0x3e20f52b	0.15718524
165	0xbe08a8ed	-0.1334569
166	0xbdc3fa0f	-0.09569179
167	0xbe127bcb	-0.14305036
168	0x3e3a8a7b	0.18216889
169	0x3b3d87f9	0.0028920157
170	0xbc2fd81c	-0.010732677
171	0x3dc9e55a	0.098581985
172	0x3e47cae0	0.19510984
173	0x3d176b66	0.036967658
174	0xbe13deb2	-0.1444042
175	0x3e1e320c	0.15448779
176	0x3d23dd19	0.040005777
177	0xbe1a95e9	-0.15096249
178	0x3d3500c0	0.04419017
179	0x3da93f43	0.08264019
180	0x3d0a76b4	0.03380461
181	0x3c4effc8	0.012634225
182	0x3dd2200d	0.102600195
183	0xbd825c08	-0.0636521
184	0xbcc96112	-0.02458242
185	0xbd515e17	-0.05111512
186	0xbe41d513	-0.18928938
187	0x3de938d3	0.113877915
188	0x3d90aaee	0.07063852
189	0x3dfea84a	0.12434442
190	0xbb488138	-0.0030594599
191	0xbe12dbff	-0.14341734
192	0xbd724440	-0.05914712
193	0x3dbda621	0.09260202
194	0x3e09d6b1	0.13460805
195	0xbb9ab453	-0.0047212034
196	0xbd554b6b	-0.052073877
197	0x3cf85183	0.030312305
198	0x3d15df58	0.03658995
199	0x3dc21b0e	0.094778165
200	0xbe1847f0	-0.14871192
201	0xbd132fa0	-0.03593409
202	0xbc9459f5	-0.018109301
203	0x3c8ced5b	0.017203024
204	0xbcd607a3	-0.026126688
205	0x3de0bac9	0.109731264
206	0x3c972a21	0.018452706
207	0xbd07edff	-0.033185955
208	0x3dcd3f51	0.10021842
209	0xbd16b1fe	-0.03679084
210	0x3e0db64c	0.13839072
211	0x3e593efd	0.21215434
212	0xbda9cf07	-0.082914405
213	0x3e403f4b	0.18774144
214	0xbc5d1f04	-0.013496164
215	0xbdc981ba	-0.098391965
216	0xbd4798ae	-0.04872959
217	0x3bd98dd8	0.0066392235
218	0xbdbbef28	-0.09176475
219	0xbdd11dc7	-0.10210758
220	0x3dc938fe	0.098253235
221	0xbd38f665	-0.045156855
222	0xbe0fc288	-0.14039052
223	0xbc2c06cb	-0.010499666
224	0xbdd45a50	-0.10368788
225	0x3c1ca3db	0.009560551
226	0xbda66d1a	-0.08126278
227	0x3e271ec3	0.16320328
228	0xbd40860d	-0.04700284
229	0x3bd8c4dc	0.0066152643
230	0x3dbeb837	0.0931248
231	0xbdeff77c	-0.11717126
232	0xbd098efd	-0.03358363
233	0xbd4bfbd3	-0.049800705
234	0x3ca82b2c	0.020528398
235	0x3e01fe74	0.12694722
236	0xbb9f950e	-0.0048700636
237	0xbe37bf8c	-0.17944163
238	0x3cf6051e	0.030031737
239	0x3e3793b1	0.17927434
240	0x3c9b9bb5	0.018995145
241	0x3d220e44	0.039564386
242	0x3d933e48	0.071896136
243	0xbdcd5cea	-0.100274876
244	0xbd08af6e	-0.033370428
245	0x3d38823f	0.045046087
246	0x3d15a20c	0.036531493
247	0xbd9d3c2b	-0.07677492
248	0xbb59dad0	-0.0033241995
249	0xbcbe0134	-0.023193933
250	0xbdb02391	-0.08600534
251	0x3bb74099	0.0055924174
252	0x3b51b8f0	0.00320011
253	0xbde9b4a7	-0.1141141
254	0xbcb0e2a4	-0.021592446
255	0xbdca3e0a	-0.09875114
