results/NewBirdAgent2/BirdAgent/BirdAgent-1203.onnx (onnx, 103045 bytes, 6 tensors)

action_model._discrete_distribution.branches.0.bias f4 [3]
000000 d7 40 8f 3c e0 9a 45 bc 97 b2 80 bc
       0.017486973 -0.012060851 -0.015710158

action_model._discrete_distribution.branches.0.weight f4 [3, 128]
000000 18 59 06 3d 4c d5 e1 3c db 47 c6 bc d3 11 be bd
       0.03279981 0.027567528 -0.024204185 -0.092807434
000010 23 50 a9 3c 00 30 d1 3c ba 3d ab bc a6 01 78 bd
       0.020668095 0.025535583 -0.020903457 -0.060548447
000020 8e f7 a9 bd 03 00 99 3c 05 11 08 3d 39 1f 21 bd
       -0.082991704 0.018676763 0.033219356 -0.039336417
000030 dd ae 7e 3d f2 af 8b bd c7 99 eb 3c db fa 58 3d
       0.06217848 -0.06820668 0.02875985 0.05297361
000040 48 14 e1 3c 2d a6 8e 3c 88 9b cb 3c fe 01 7d bc
       0.027475491 0.017413223 0.024854437 -0.0154423695
000050 7f 27 c6 3c b4 cf dc 3d be 27 8b bd 2c a3 9a bd
       0.024188755 0.10781804 -0.067946896 -0.07550654
000060 6d e4 7b bc fd f4 76 3d 4c 48 a0 3d a7 92 77 3a
       -0.015374285 0.060292233 0.078262895 0.0009444155
000070 bd 1c 04 3d 30 05 ac bd d3 21 d1 bc f2 85 81 3d
       0.03225397 -0.08399427 -0.025528824 0.06324376
000080 c2 f4 14 3d d2 1c b5 bc f8 42 26 bd f4 cf 03 bc
       0.03636623 -0.02210847 -0.04059121 -0.008045185
000090 ea 22 b8 bd d6 b9 cb 3c b7 01 05 bd 4b 09 bb bd
       -0.08991034 0.024868887 -0.03247234 -0.09132632
0000a0 7d b3 af 3c 73 c6 52 bd 5b 42 c5 3b 77 0d 8a bd
       0.021447891 -0.051458787 0.006019873 -0.067408495
0000b0 fb 8e 14 bd 56 5d bf 3d 6f 60 c0 bd d2 81 da 3d
       -0.03626917 0.09343974 -0.09393393 0.106692925
0000c0 f5 59 21 bb bf ed d6 bc 4a 72 87 bc e2 8a 15 bb
       -0.002462027 -0.026236413 -0.01653399 -0.0022818376
0000d0 db d0 93 3d d4 30 15 3d 88 df 86 3c 9c 55 23 3d
       0.072175704 0.03642352 0.01646401 0.039876565
0000e0 cf 77 a0 bd cc 14 cc bb 10 0c ac bd 67 93 d2 bc
       -0.07835352 -0.006228065 -0.08400738 -0.025705053
0000f0 3a 0c 43 3d fb 0f e7 3c 34 5e 05 bd 4b 74 7a bd
       0.047619082 0.028205862 -0.032560542 -0.061146062
000100 52 64 8d bb 32 b9 a8 bd 34 32 b2 bd c2 91 a9 3d
       -0.0043149376 -0.08238448 -0.08700982 0.08279754
000110 60 69 9b 3d 44 72 b8 bc 1c c3 b8 bd ab d8 34 3d
       0.07588458 -0.022515424 -0.09021589 0.044151943
000120 e1 04 ca b6 1c b8 88 3d fe dc c2 3d 4b 58 99 bd
       -6.020637e-06 0.06675741 0.09514807 -0.07487544
000130 78 4a d8 bc 5a fa 44 3d ab 74 48 3c 67 a0 a6 bd
       -0.026402697 0.048090316 0.012234847 -0.08136063
000140 4b 4e 4c bd 07 aa b7 bd d1 df f8 3c c1 a6 f1 bc
       -0.049879353 -0.08967977 0.030380161 -0.02949846
000150 b0 aa 03 bd bc 9a f2 bc fd c3 2c bd 8c 69 a7 bc
       -0.032145202 -0.029614799 -0.042179096 -0.02043607
000160 62 34 d7 3d 4e c3 f8 bc e4 70 be 3c 5c 4d 84 3c
       0.10508038 -0.030366566 0.02324719 0.01615017
000170 fa e2 bf 3d f3 58 20 bd b0 2d 2f bd c6 03 a5 bd
       0.09369464 -0.03914733 -0.04276818 -0.0805736
000180 f0 70 a7 3c 69 51 d2 bc b4 11 27 bd 4a f7 c4 3c
       0.020439595 -0.025673585 -0.040788367 0.024043698
000190 a7 91 34 bd 23 3a 09 3d b1 31 a0 bc 55 ca 9c 3c
       -0.044084217 0.03350271 -0.019554945 0.019139448
0001a0 54 00 0f 3c 2a 1a c2 bc d1 b3 c0 3c 8f d6 70 bd
       0.008728106 -0.023694117 0.023523243 -0.05879837
0001b0 47 d7 c7 bd 90 d3 ef bc fd 2b 0a bd df e5 bd 3c
       -0.09757858 -0.029275686 -0.033733357 0.0231809
0001c0 20 e8 13 3c 97 8e a9 bc ef 9c fe bc 71 69 a6 bd
       0.009027511 -0.020697875 -0.031080691 -0.0812558
0001d0 19 63 a9 3d 07 51 aa bb 60 01 3a 3d bb 47 a1 bc
       0.082708545 -0.0051976475 0.045411468 -0.019687524
0001e0 c2 98 c0 bc 7c f5 12 bc 36 c5 b9 bc dc 62 f2 bc
       -0.02351034 -0.008969661 -0.022677045 -0.029588155
0001f0 44 e4 20 3d b5 9e 8b bb a3 a3 00 bd 9c c5 86 bc
       0.03928019 -0.0042608627 -0.031406056 -0.01645165
000200 5b 8c 03 bd 37 ab 84 bb 91 92 03 3d b3 be c0 3d
       -0.032116275 -0.0040487307 0.0321222 0.09411373
000210 24 4b 3d bc cb 4c bc bc 1b f1 31 3d b6 cc 5f 3d
       -0.011553559 -0.022985836 0.043442827 0.054638587
000220 9a 13 bc 3d 66 41 98 3c a8 02 c2 ba 0f 14 10 3d
       0.09183426 0.018585872 -0.0014801817 0.03517538
000230 68 dc 72 bd a3 88 99 3d 85 fa b2 bc 57 1f 56 bd
       -0.059292227 0.074967645 -0.021847973 -0.05227598
000240 cd 04 0d bd 5d 70 ba bc 20 6d b4 bc 0f 15 0a 3d
       -0.034428407 -0.022758657 -0.022024691 0.03371149
000250 1a 8e 1f bb d6 3e d8 bd 0b ac 7a 3d 51 71 a0 3d
       -0.0024346174 -0.1055886 0.06119923 0.078341134
000260 1a 78 e9 3c 5f 42 8e bd 71 be a3 bd a8 0a c7 3c
       0.028499652 -0.06946253 -0.07995308 0.024297073
000270 49 71 00 bd 26 a6 a9 3d 5d f8 1d 3d 0a d2 6e bd
       -0.031358037 0.082836434 0.038566936 -0.058305778
000280 93 51 87 bd 94 a4 b1 3c 1d 2f 88 3d 92 4a 11 3c
       -0.06607356 0.021684922 0.06649611 0.008867877
000290 3e 80 c0 3d d2 5d 1f bd f8 46 34 3d 35 c0 b9 3d
       0.0939946 -0.038907833 0.044012994 0.09069864
0002a0 6e e4 09 bd ba 73 68 3d 7f b9 3d ba a8 22 95 3d
       -0.033665113 0.05675099 -0.0007237419 0.07282001
0002b0 e0 ee 3a 3d a5 29 e2 bd 25 de 73 3d 4f 19 e5 bd
       0.045637965 -0.11043099 0.059538025 -0.11186468
0002c0 24 83 85 bc 5d aa 66 3c e3 53 26 3c a6 ad a2 b9
       -0.016297884 0.014078704 0.010151836 -0.00031028426
0002d0 8a c0 5c bd 11 89 15 bd f7 64 21 3c 1e 4c 6f bc
       -0.053894557 -0.03650767 0.009850732 -0.01460555
0002e0 1c d9 c8 3d 00 06 bc bc d0 97 a6 3d 5c fc 29 3b
       0.09807035 -0.02295208 0.08134425 0.0025937771
0002f0 24 da 08 bd 63 3a 5b bd b4 4e c5 3c c7 79 84 3d
       -0.03341116 -0.05352248 0.02408538 0.0646854
000300 cb e7 c4 3b 29 3a b0 3d b1 df c3 3d 08 69 ad bd
       0.006009077 0.08604843 0.0956415 -0.08467299
000310 05 e4 91 bd 22 34 3d 3d 67 93 8f 3d f4 e5 3e bd
       -0.071235694 0.046192296 0.07010537 -0.04660602
000320 e6 80 e4 3b cc 2b 9f bd d9 84 aa bd 63 00 ae 3d
       0.0069733737 -0.077720255 -0.0832612 0.084961675
000330 89 8e 0c 3d c6 90 8f bd 49 6a 88 3c 9c 30 b4 3d
       0.03431562 -0.07010035 0.016652243 0.08798334
000340 2d e9 4b 3d 00 da bc 3d 5e 18 b2 39 f6 5a 0e 3d
       0.04978292 0.09221268 0.0003396896 0.034754716
000350 43 fc ac 3b af 7f b8 3c e4 03 51 3d c7 db d1 3c
       0.0052790954 0.022521822 0.0510291 0.025617493
000360 70 83 f7 bd 82 86 83 3c c2 55 07 bd a1 cb ee ba
       -0.120856166 0.01605535 -0.03304077 -0.0018218645
000370 02 a3 d3 bd 91 5f 04 3c d9 4e 72 3d 28 2c a7 3d
       -0.10333826 0.008079425 0.059157226 0.08162719
000380 20 33 9e bc cb 93 b7 3c fa 0f 0c 3d b6 52 bd bb
       -0.019311488 0.02240934 0.034194924 -0.005777682
000390 dc 5e fc 3c d4 b1 33 bd bb 3e 9a 3b d4 92 5f 3b
       0.030806951 -0.043870762 0.004707185 0.0034114616
0003a0 29 37 cd bc 44 8c 30 3d 4b 21 20 ba b7 15 96 3d
       -0.025050716 0.043102518 -0.00061084767 0.073283605
0003b0 a0 26 c9 3d 41 92 df 3c 25 e2 26 3d 6f 98 ee bc
       0.0982182 0.027291419 0.040743012 -0.02912542
0003c0 6c 73 f0 3c d0 c9 cf 3c 40 af 09 3d ff cb 9b 3d
       0.029351912 0.025364786 0.033614397 0.076072685
0003d0 a5 d4 c6 bd c4 78 0f bd ec 23 44 bd 0d 68 0f 3c
       -0.097085275 -0.03502728 -0.04788582 0.008752835
0003e0 db 09 06 3d d2 f0 ad 3b 86 f5 e1 3b 8a 5d 06 3d
       0.032724243 0.005308249 0.0068957238 0.03280405
0003f0 04 e2 48 bd a9 99 8b ba ee 08 84 3c a8 e1 66 bc
       -0.04904367 -0.0010650653 0.01611754 -0.014091887

network_body._body_endoder.seq_layers.0.bias f4 [128]
000000 35 a3 8b 3b a2 a2 28 bd 49 a7 94 bb b7 d4 92 3d
       0.004261399 -0.041170724 -0.0045365435 0.071694784
000010 0c 3a 84 bc 3a 9f 5c 3d b6 37 0f 3d 8e a1 72 3d
       -0.01614096 0.053862788 0.03496524 0.0592361
000020 f6 5b 25 3d 09 9f 01 3d 11 f0 89 3d 91 23 5d 3b
       0.040370904 0.03164581 0.06735242 0.0033743123
000030 6a 7f 87 3c 0d 9e 6c 3d 25 3e 6a 3b 01 c2 aa ba
       0.016540248 0.057767916 0.0035742607 -0.0013027788
000040 07 42 46 3d 2e 6a d4 3c f7 bb e2 3c 01 47 3f 3b
       0.048402812 0.025929537 0.02767752 0.0029186609
000050 d8 eb c3 3d aa 5a 32 3d 38 15 08 3c 0c 0e 1b bd
       0.09566468 0.043543495 0.00830584 -0.037855193
000060 3e 27 bc bc 16 bd 3c 3c cd fa bb 3d 66 d6 6e 3d
       -0.02296793 0.011519691 0.09178696 0.058309935
000070 c3 e6 f3 3d bd 3e be 3d f0 aa bb bb a5 a8 94 bc
       0.11909249 0.0928931 -0.0057271644 -0.018146822
000080 37 5a 80 3b a8 aa 84 3d 1a ad bb bc 14 9d 01 3d
       0.0039170044 0.064778626 -0.02290969 0.031643942
000090 e7 5f db 3c 50 ef c7 3d 41 19 a9 bc 2d 31 f7 3c
       0.026779128 0.09762442 -0.020641925 0.030174816
0000a0 72 3b 25 bd 91 a1 17 bc 7c 55 4b 3c 3f be 70 3c
       -0.040339895 -0.009254829 0.012410518 0.014693796
0000b0 45 dd 4a 3d 99 3b 9b bc 4f 4b 54 3d 27 9e 92 39
       0.049527425 -0.018949317 0.051829632 0.00027965123
0000c0 c3 aa 9e bb 75 fb 5d bc 4e fe cc bc e0 cc c6 3c
       -0.0048421337 -0.013548722 -0.025023606 0.024267614
0000d0 de 18 62 3c d0 21 de bb f7 1c b0 3c d5 bc 75 bc
       0.013799874 -0.006778933 0.021498187 -0.014998634
0000e0 43 d0 1a 3d 2f a7 e1 bc 4a 49 96 3c f5 7a 39 bc
       0.03779627 -0.02754554 0.018345494 -0.011320819
0000f0 40 c4 96 bc b3 22 c7 3a c6 7b e4 3c c9 3b 91 bc
       -0.018404126 0.0015192836 0.027891051 -0.017728703
000100 f9 a3 15 bc ee c5 1f 3b 3b ee bb 3c 9c 1a 83 bb
       -0.009133332 0.002437945 0.022940746 -0.004000975
000110 42 c3 52 3b d5 06 f8 3c 1e 6c 91 bb b8 f3 07 bb
       0.003215984 0.030276695 -0.0044379374 -0.0020744633
000120 68 98 c4 bc c8 fc 61 bc 3d 1d 6e 3d 78 78 4a 3d
       -0.023998454 -0.013793178 0.058133353 0.049431294
000130 60 34 06 bc 06 40 3a ba 33 a9 02 3d 71 79 ba 3c
       -0.008191198 -0.0007104877 0.031899642 0.022762986
000140 af 32 9f 3a 0f 11 85 bc e6 b3 c5 bc 69 31 e1 bc
       0.0012145842 -0.016243486 -0.024133634 -0.02748938
000150 5a 6c 06 3c 16 67 85 3d a2 9c 3a 3d 6b e5 48 3d
       0.008204544 0.06513803 0.045559533 0.049046915
000160 a6 10 d3 3d e7 51 90 bb 30 6f 95 3c 0e e5 6f 3d
       0.1030591 -0.004404295 0.018241495 0.058568053
000170 20 85 fd 3c 1b 64 43 3d 7b b9 51 3c fc 4c 6c bc
       0.030947268 0.04770289 0.01280057 -0.014422651
000180 59 19 32 3d 95 37 51 3d 1d 72 47 3d 59 eb ae 3c
       0.043481205 0.051078398 0.04869281 0.021352457
000190 92 cb 05 bc 46 cf d1 bb 90 e0 28 3d 4e 97 0d bc
       -0.008166211 -0.0064028827 0.041229784 -0.008642031
0001a0 70 4f 10 3d 3a 59 0e ba d1 9a 47 3d 5f 02 b0 3d
       0.035232008 -0.0005430166 0.04873163 0.08594202
0001b0 dd 81 e7 3b 35 b5 85 3a 75 35 6b bc 9a 53 17 3d
       0.0070650415 0.0010201099 -0.014356007 0.036944963
0001c0 7d 5f 16 3d 8c 89 33 3d 0b 9d 12 3d 21 96 0e 3c
       0.03671216 0.043832347 0.0357943 0.008702786
0001d0 8b 04 25 3d d7 a3 b5 bc 39 e1 f0 3b ad d7 1d 3a
       0.040287536 -0.022172851 0.0073510674 0.0006021213
0001e0 5f 8e 92 3d 28 a9 d1 3c c1 8e 3d 3d 8a 8f db 3d
       0.071560614 0.025593355 0.04627872 0.10720737
0001f0 b1 06 20 3d 90 3c 86 3d 87 df bf bb 67 c8 0f bc
       0.03906888 0.0655452 -0.005855504 -0.008775807

network_body._body_endoder.seq_layers.0.weight f4 [128, 64]
000000 bf 14 21 3e 6c d1 03 be 8b b9 9b bd 77 5a 89 bd
       0.1573057 -0.12872857 -0.07603749 -0.06706708
000010 7d 77 9b bd a9 05 f2 bd 60 a7 eb 3d 74 ff 2b be
       -0.0759115 -0.11817486 0.115065336 -0.16796666
000020 26 c4 cd bd 49 01 3b be e5 62 b3 bd d1 d3 d3 3d
       -0.10047178 -0.18262209 -0.08759097 0.10343135
000030 e5 b9 81 3c e7 e3 35 3e b0 95 6d be ff e1 e6 3d
       0.015835712 0.17762719 -0.23201632 0.11273574
000040 09 50 65 3d 29 73 75 3d 0a 3b 67 be 0a 35 3a 3d
       0.05598453 0.05992428 -0.22581115 0.04546074
000050 36 0b 55 3d 7d 3f 03 be e1 87 29 3c 63 18 5c be
       0.052012645 -0.12817188 0.010347337 -0.21493678
000060 17 95 82 be c2 d6 16 3d d9 c0 ca bc 02 79 e5 3d
       -0.25504372 0.036825903 -0.02475016 0.11204721
000070 6b 73 ea 3d 7b 5c e3 bd 19 e7 47 3e 44 79 a1 3d
       0.114477955 -0.111016236 0.1952175 0.07884458
000080 50 8d c3 3d 34 58 1a 3e a9 1e f7 3d c3 1e d2 3d
       0.095484376 0.1507271 0.12066395 0.102597736
000090 16 41 b5 be 4c f5 9f bd 2a 36 d3 3d e4 f3 ff bd
       -0.3540122 -0.078104585 0.10313065 -0.1249769
0000a0 53 c4 98 bd 6e 5a 0f bd 66 ef 69 3d 2e ad aa bd
       -0.07459321 -0.03499835 0.057113074 -0.08333813
0000b0 80 ed b6 3b 75 9c 35 3e b3 f3 08 be 5d 2d 0b be
       0.0055825114 0.17735465 -0.13374214 -0.13591523
0000c0 73 7e 99 bd 61 af b8 3c 0e a4 2b 3e 3a 88 95 3c
       -0.074948214 0.022544565 0.167618 0.018253434
0000d0 a9 23 35 ba a0 9a be 3d d5 a3 9d be 34 1b de 3d
       -0.0006909916 0.09306836 -0.30789056 0.10845032
0000e0 5f 5e af 3b 2f f4 8a bd b3 4b 23 3e 74 ec f9 3d
       0.005351826 -0.067848556 0.15946846 0.12203303
0000f0 58 6c ed 3d ea c6 cb 3d a0 3c 38 3e b4 74 51 bd
       0.115929306 0.09950049 0.17991877 -0.051136687
000100 f4 4e dd 3d 27 59 2e be f0 8b 98 3d 05 fd 6b 3e
       0.10806075 -0.17026196 0.07448566 0.23045738
000110 b0 0f 32 bd 86 70 15 3e c5 a9 b9 bb ed 8c 52 bd
       -0.043471992 0.14593706 -0.00566599 -0.05140393
000120 fd 89 bb bd 6c 04 6d 3e 34 34 7d bd 5e d6 76 bc
       -0.091571786 0.23146218 -0.061817363 -0.015065758
000130 af e7 04 be 05 60 ed bd b3 c1 05 3e df ce ce bd
       -0.12979005 -0.1159058 0.13062172 -0.10098051
000140 1d 79 b4 bd 4d 5b 95 3b 2a 1a 16 bd 83 50 83 3d
       -0.08812163 0.004558003 -0.036646046 0.06411841
000150 e0 63 49 bd 4f 90 9c 3c 12 73 4c 3d 59 29 c0 bd
       -0.049167514 0.01911178 0.049914427 -0.093828864
000160 e5 42 ae bd 10 d2 d3 bd 8c af b6 bd 81 f6 a0 bd
       -0.08508853 -0.103428006 -0.08920202 -0.07859517
000170 9a 4c 16 3e bf 1a 75 3d 23 cf 08 3e 3b f4 52 3e
       0.14677659 0.05983996 0.13360266 0.20600979
000180 bc 76 3b 3e f1 8f 28 bd b1 3c 3e be 0e c5 2b be
       0.18307012 -0.0411529 -0.1857784 -0.16774389
000190 c8 f9 c4 3c 16 f6 07 bc 87 9a cb 3a b0 72 44 3e
       0.024044886 -0.008298418 0.0015533724 0.19184375
0001a0 af 75 19 3d 76 94 b3 3c 11 0f 23 3e e4 82 c3 bd
       0.037465747 0.021921378 0.15923716 -0.0954645
0001b0 ee 0f 65 3d c7 aa c9 bc 79 40 b7 bb bf c9 9d 3d
       0.055923395 -0.024617566 -0.0055924025 0.07704496
0001c0 b9 4d e0 3d bc bf 5c be dd e9 31 bd e8 90 0d 3e
       0.109523244 -0.21557516 -0.04343592 0.13824809
0001d0 49 18 50 bd 8b f0 51 bd 3b bb 6e 3b 84 ef fd bd
       -0.05080441 -0.05125479 0.0036427516 -0.123991996
0001e0 da a4 43 be 7e f6 c4 bd bb 98 2b be 04 eb 19 3c
       -0.19105855 -0.09617327 -0.16757481 0.009394411
0001f0 72 98 96 3c fa a9 37 bd b8 1f c6 bc a8 a6 0e 3d
       0.018383238 -0.044839837 -0.024185047 0.034826905
000200 2e 28 7b 3d 8c 4e 29 3d 17 04 af bc d8 a4 93 bb
       0.061317615 0.041334674 -0.021364255 -0.004505735
000210 9a b8 cc 3d 70 47 03 be 9b 2d f6 bd ce 6c 00 3e
       0.099961475 -0.1282022 -0.12020417 0.12541506
000220 d3 e5 00 be b6 75 ad 3d 63 5d 06 3e 42 ae 32 bd
       -0.12587671 0.08469717 0.13121562 -0.043623216
000230 61 fc 83 3c 5a 50 31 bd 8c a9 97 bd 24 61 39 3c
       0.016111555 -0.04328952 -0.074053854 0.011314664
000240 2d eb b8 3c f4 73 e9 bd 99 50 d7 3d 32 52 2a be
       0.022573078 -0.113990694 0.1051342 -0.16632918
000250 27 6b 00 3e 74 85 a2 bd 53 5e 75 bd 12 35 26 bb
       0.12540875 -0.079356104 -0.059904408 -0.0025361222
000260 c2 e3 11 be 2f 2b 9f 3d e0 e4 43 3d e3 98 bb 3e
       -0.14247039 0.077719085 0.047825694 0.3664008
000270 88 31 fb bc ca 7e 53 be 81 f9 41 3d 58 df 7c 3d
       -0.030663267 -0.20653835 0.047357086 0.061736435
000280 2b f7 8e bd a0 65 95 3a 7e 79 b9 bd c7 fe 63 3d
       -0.06980737 0.0011398084 -0.09056376 0.055662896
000290 49 be e9 3d 14 75 30 bd 96 34 fd 3c 1e 8b 03 3d
       0.11413247 -0.043080404 0.030908864 0.032115094
0002a0 bb 7e 37 3d 90 6e 10 3d fa 47 12 3c 3e 27 63 be
       0.044798594 0.03526169 0.008928293 -0.22182938
0002b0 cc 3a 21 be 89 08 1b 3e 58 3e 18 3e 20 4e 84 3e
       -0.15745085 0.15139975 0.14867532 0.25840855
0002c0 cc 49 67 3e 05 2e a1 bd 74 d5 8a 3d aa 5b 0a 3d
       0.22586745 -0.07870106 0.06778994 0.033778824
0002d0 48 16 38 3d 4d b2 85 bd 78 9f a0 bb 23 63 94 bd
       0.044943124 -0.06528149 -0.0049018227 -0.07245471
0002e0 7c 92 be bd 28 e6 19 3e e8 59 bd bd 3a ee fb 3c
       -0.093052834 0.15029204 -0.09245664 0.030753244
0002f0 de d0 1a 3d af c0 3a be 00 23 35 3e 71 90 0c 3e
       0.037796848 -0.18237565 0.17689133 0.13726975
000300 e8 ab bb 3d 31 36 2f 3e 85 29 f4 3c 24 09 ce 3d
       0.09163648 0.17110516 0.029804954 0.10060337
000310 c0 ab cf bc 43 9b e5 bd 9b 5a 0e 3d 0b 32 94 3e
       -0.025350451 -0.112112544 0.034754377 0.2894443
000320 97 59 e8 3d 05 e6 a6 3c a4 62 ae bd 72 c6 00 3b
       0.11345213 0.020373354 -0.08514908 0.0019649533
000330 22 4d 22 3e dd 35 63 be 74 c1 8c 3e 51 68 3a 3d
       0.15849736 -0.22188516 0.27491343 0.04550964
000340 54 ac 80 3c 25 a3 3e 3e ce fb 54 3e 26 5a 8a 3c
       0.015707172 0.18616922 0.20799181 0.01688869
000350 fe 67 27 be e1 79 23 3e fe 0a 26 3d d5 bb 29 be
       -0.16348264 0.15964462 0.040537827 -0.16575558
000360 2b 5a 13 3d b7 c5 c6 3d 7d 63 36 bc dd 35 57 3e
       0.035974663 0.0970568 -0.011132118 0.21016641
000370 d4 75 0a be 1d 5b d2 3d 94 c3 81 3d 41 95 9d 3d
       -0.1352151 0.10271285 0.06336132 0.076944835
000380 6a 34 1d be 9c 05 a6 bd 34 72 e6 3c 76 23 3e bd
       -0.15352026 -0.08106539 0.028130628 -0.046420537
000390 1f 14 b8 bd 14 cf 6c 3e 74 ef fd 3d 16 43 07 be
       -0.08988213 0.23125869 0.12399188 -0.13209185
0003a0 d5 5b 26 be a6 24 55 bd 27 f3 03 3e 2d b4 c9 be
       -0.16245969 -0.052036904 0.12885724 -0.39395276
0003b0 e5 6c 31 bd ef f4 4e 3d 27 f6 12 3d 0e b1 19 3e
       -0.04331674 0.050526556 0.03587928 0.15008947
0003c0 ad 7c 11 be 00 af 73 3e 3f cf 8b bd bc 8e 16 3e
       -0.14207716 0.23797226 -0.068266384 0.14702886
0003d0 0f 9d 70 3c 31 82 90 bd 37 b5 88 3d cb 43 f3 3d
       0.014685883 -0.07056082 0.06675189 0.11878165
0003e0 0d ed 6d 3c c0 68 17 3e 1f e5 3b 3d c8 24 cd 3d
       0.014521849 0.14786053 0.045872804 0.10016781
0003f0 62 e7 0a be 28 84 e5 bc 3b c4 29 be 2a fe b8 3d
       -0.13564828 -0.028017119 -0.16578762 0.09032853

network_body._body_endoder.seq_layers.2.bias f4 [128]
000000 9b e7 d6 3c d2 44 c3 3c 16 82 53 bc d7 25 ca bb
       0.026233485 0.023836527 -0.012909433 -0.0061690616
000010 b4 e7 e9 3c 3c a7 e2 3c 71 10 c9 b9 2e a0 4a bc
       0.028552867 0.027667634 -0.00038349957 -0.012367291
000020 95 43 89 bc 32 15 80 3c dd 8f c6 3c f8 4f 13 bb
       -0.016755858 0.015635107 0.024238521 -0.0022478085
000030 1b 9e 34 3d 61 99 3f bb 0b c9 d4 3c 98 44 36 3d
       0.044096094 -0.0029235708 0.025974771 0.04449901
000040 47 f3 11 3d 06 9a 96 3c c7 af e0 3c 5c ea 3d 3b
       0.035632398 0.018383991 0.027427567 0.00289788
000050 95 e6 1c 3d 79 ea 36 3d fe 58 2f bc 1c 8f 95 bc
       0.038305838 0.044657204 -0.01070237 -0.018256716
000060 5c 5f a5 bc b7 e2 41 3d e6 c7 4b 3d 05 7b 64 3c
       -0.020187072 0.047335353 0.049751185 0.013945346
000070 d1 34 01 3d 8e 36 5f bc d8 c1 9d bb cf 0c 48 3d
       0.03154451 -0.013623847 -0.0048143677 0.04884034
000080 d0 2c 02 3d 08 0c 15 3c 9b 65 e7 bb ff 18 5b bb
       0.031781018 0.009097107 -0.007061673 -0.0033431647
000090 57 ce f8 ba 56 9b e6 3c 8a 31 58 3c 95 26 44 bc
       -0.0018982393 0.028150242 0.013195405 -0.011972089
0000a0 d0 8b bc 3c e7 a5 52 bc b2 b0 e0 3c 28 4d 37 3b
       0.023015887 -0.012856937 0.027428005 0.0027969573
0000b0 7b 76 14 bc 36 e1 7d 3d fb 6b 57 bc 69 8d 86 3d
       -0.009061451 0.061982356 -0.013148303 0.065699406
0000c0 f2 70 c0 bb 38 a3 5c bc 4b 94 49 3c 91 86 05 bc
       -0.005872839 -0.013466649 0.012303422 -0.008149759
0000d0 4f a2 02 3d 02 fd c3 3c df e3 c9 3c 07 1f d2 3c
       0.03189307 0.023924354 0.02464479 0.02564956
0000e0 d2 5b 02 bb 97 a3 fe ba 9a f3 28 3b 36 50 eb bb
       -0.0019891155 -0.0019427416 0.0025779963 -0.0071811927
0000f0 75 b0 0b 3d 78 ac 08 3d a6 26 71 3a bf cd 07 bc
       0.03410383 0.033367604 0.00091991795 -0.0082888
000100 5a 27 e0 bb e1 cc 05 3c d0 60 b3 bb 37 88 88 3d
       -0.0068406286 0.008166523 -0.0054741874 0.06666606
000110 37 ad 60 3d e8 43 2a bb 69 95 86 bc 77 f2 16 3d
       0.05485269 -0.0025980417 -0.016428666 0.036852326
000120 ab 76 b1 3c 11 f3 52 3d 1d 87 57 3d 39 b8 54 b9
       0.02166303 0.051501337 0.05261909 -0.00020286524
000130 9e f6 82 3b 56 8d 2a 3d 7b dd 53 3d 87 f3 31 3c
       0.003996684 0.041638695 0.051724892 0.010861284
000140 f8 b9 61 bb 2f 66 b2 bc 95 5c ab 3c 94 27 5b 3c
       -0.0034443121 -0.02177724 0.02091817 0.013376135
000150 6c e4 18 bc 72 5e 5e 3c 72 77 c1 bb cc f5 4d bb
       -0.009331804 0.013572322 -0.0059041316 -0.0031427024
000160 6e 3f 89 3d 4a c8 d6 ba 18 82 d8 3c 5d 3c f1 3c
       0.067015514 -0.0016386595 0.026429221 0.029447729
000170 eb 4c 62 3d 24 2f 24 bc a8 e0 d9 bb 17 54 80 bc
       0.055249136 -0.010021005 -0.0066490956 -0.015665097
000180 6e ef f1 3c 21 44 55 bc a9 fa fd 3b a4 99 cf 3c
       0.029533114 -0.0130167315 0.0077508283 0.025341816
000190 87 20 55 3b 5d 75 ff 3c 2b 20 41 bc 1c 47 f8 3c
       0.0032520609 0.031183893 -0.011787455 0.030307345
0001a0 b6 61 88 3a 92 f4 b4 3c 4b 95 c4 3c bd 6d 8d bb
       0.0010405097 0.022089276 0.02399697 -0.0043160603
0001b0 d1 9f 6e bc 24 c9 ba ba 7a 7f 65 3c 17 2b d4 3c
       -0.01456447 -0.0014250618 0.014007444 0.025899453
0001c0 0d 0e 87 3c e7 05 b0 ba 15 c7 d8 3b b5 b8 2a bc
       0.016486192 -0.0013429493 0.0066155293 -0.010420014
0001d0 b2 5b 77 3d 4c 43 8b bc d4 f6 18 3d 82 d2 1c bc
       0.06039018 -0.016999863 0.03734477 -0.009571673
0001e0 63 08 30 bb 11 f2 50 bc 65 c5 8b bc 40 75 91 3b
       -0.0026860468 -0.012753026 -0.017061898 0.004439026
0001f0 c3 69 29 3d eb cc 3f 3c 16 43 19 bc 09 03 d7 bb
       0.041360628 0.011706571 -0.009354373 -0.006561641

network_body._body_endoder.seq_layers.2.weight f4 [128, 128]
000000 a0 7f fc bd dc 6b 68 bd 37 94 e4 bd 5d 32 c0 bc
       -0.1232903 -0.056743488 -0.11161082 -0.023461515
000010 6f 32 20 be 9e e4 b1 3d 75 d5 15 3e 73 03 79 bd
       -0.15644239 0.086861834 0.14632209 -0.060794305
000020 24 2b 15 bd 54 30 ea bd ae 58 53 bd 09 bc 06 3e
       -0.036418095 -0.11434999 -0.051598243 0.13157667
000030 39 b1 09 be 28 d0 35 3d 4c ec 1f 3d f6 1b 0a 3e
       -0.13446511 0.044387966 0.03904371 0.13487229
000040 e1 22 d8 3d 68 7b 29 be b8 94 67 3d df ea 9d 3b
       0.105535276 -0.16550982 0.056538314 0.0048192586
000050 e9 ff dc bc 43 46 80 3d 1c 9e 38 be 21 5e 15 be
       -0.026977496 0.06263401 -0.18029064 -0.14586689
000060 8b 8e 6c 3c 23 da 9e 3d a2 c8 1b 3e 77 d5 84 bc
       0.014438282 0.0775645 0.15213254 -0.01621507
000070 3f 8f 5e 3b d1 c8 14 3c 87 ea e1 3c c4 59 95 bd
       0.0033959893 0.0090810815 0.027577652 -0.07292512
000080 ab 3d a3 3d 0e 53 41 bd fb 9a 0c bd 27 73 00 bd
       0.079707466 -0.047198348 -0.03432749 -0.031359818
000090 6a c4 d0 3d 87 37 75 bc 12 c0 26 3d 5a ac 6e 3d
       0.10193713 -0.014966852 0.040710516 0.058269836
0000a0 7b 85 d0 3c b4 9b 8a bc 34 44 b2 bc 51 22 16 bd
       0.025454273 -0.016919948 -0.021761037 -0.03665382
0000b0 ea 2b 00 3e cb 4a 8e bc 3e dc da 3c 76 fc d9 3d
       0.12516752 -0.017369648 0.026716348 0.10643856
0000c0 bd 42 2f 3d 35 f2 97 bd a0 05 f0 3c 92 1b 26 be
       0.042788256 -0.07419244 0.029299557 -0.16221455
0000d0 5e c2 e6 3d 11 9f fb 3c 32 2e f5 ba 3e 5b 0a bd
       0.11267541 0.030715497 -0.0018705784 -0.03377842
0000e0 ae ba ba 3d 62 f1 4e 3d 43 11 84 3d a7 a0 17 3d
       0.091176376 0.05052317 0.06448605 0.037018444
0000f0 bf eb 8c bd 24 19 f5 bd 5f a6 fd bd aa f2 d9 3c
       -0.068809025 -0.11967686 -0.123852484 0.026604969
000100 c1 ae b2 bd 2c 84 d1 3c 73 c5 19 bd c7 08 41 bd
       -0.08724738 0.02557572 -0.037541818 -0.04712751
000110 9b 27 b8 3d 70 a4 87 3d 75 a7 f7 3c ff fa bd 3b
       0.08991929 0.06623161 0.030231217 0.0057977433
000120 ab 9f 0e 3d a9 8f 01 3b 98 31 e9 bb 21 37 72 3c
       0.03482024 0.0019769466 -0.0071165077 0.014783652
000130 f2 31 38 3d b0 26 04 bb 8a 7c be 3d 65 88 7a 3d
       0.044969507 -0.002016466 0.09301098 0.061165232
000140 64 f3 ae bc 96 cb b7 bc c0 e1 75 bd b7 e2 22 3d
       -0.021356292 -0.022435945 -0.060029745 0.039766993
000150 b2 85 66 bd ab 1f 3d be 59 16 18 3e ce e0 05 3d
       -0.056279846 -0.18469112 0.14852275 0.032685094
000160 44 ab 27 3d 25 ed fc bd cf d0 e8 bd cd 2f 21 3d
       0.040934816 -0.12349919 -0.11367952 0.039352227
000170 62 78 f3 3c cb 71 18 3d 1e 82 a1 bd 8d 92 13 be
       0.029720489 0.037217896 -0.07886146 -0.14411373
000180 b6 ba c2 3d a2 f8 95 3e d8 91 9d 3d d6 52 2f be
       0.095082685 0.29291254 0.07693833 -0.17121443
000190 cc 75 d5 bd d7 78 e6 bc e5 69 84 bd e6 05 0a be
       -0.104228586 -0.028133793 -0.0646551 -0.13478813
0001a0 6d d8 b4 3d f3 84 47 be f8 c7 cc 3c fc df 02 3e
       0.088303424 -0.1948431 0.024997696 0.12780756
0001b0 6a 3a b6 bd 59 22 63 3b 27 32 11 be e0 82 09 bd
       -0.0889786 0.0034657924 -0.14179288 -0.033572078
0001c0 51 48 1f 3e e6 0d d0 bb cb 59 38 3d 47 62 8d 3c
       0.1555493 -0.006349313 0.04500751 0.017258776
0001d0 78 3e ec bd 33 f5 e0 3c ad 0a 4d 3d 89 ef 47 3d
       -0.115353525 0.02746067 0.05005901 0.048812423
0001e0 7e 17 20 3e ad ec c0 3d 5e 0e 07 3d 11 96 d6 bd
       0.15633962 0.09420142 0.032972686 -0.10477842
0001f0 c5 dd ce bc b5 e5 ad ba 92 45 f0 bc 53 b7 11 3e
       -0.025252232 -0.001326731 -0.029330049 0.14230089
000200 00 f5 d6 3d 70 83 c6 bd e5 1a 10 bd e9 8f 87 bc
       0.10495949 -0.096930385 -0.0351819 -0.016548114
000210 bc c9 8f 3d 0c b9 26 3e c3 cf e9 3b 25 8c cf bd
       0.070209 0.16281527 0.007135363 -0.10134152
000220 b1 ce 8b 3d 69 ef 2b be 4b 0a 37 be 73 90 0c 3e
       0.06826533 -0.16790546 -0.1787502 0.13726978
000230 e6 8b 3a 3d b0 99 31 bd 4d c1 5d bd 3c 69 28 be
       0.045543574 -0.04335946 -0.054139424 -0.16446394
000240 32 08 01 3e b7 eb 24 be 25 1f ca bd 11 cf 3d 3d
       0.12600783 -0.16105543 -0.098692216 0.046340052
000250 2c f4 8e 3b f5 6b f1 bd 62 52 27 be a1 c4 06 be
       0.0043626036 -0.11788169 -0.1634002 -0.13160945
000260 96 c6 b7 bd 5e 99 8c 3b e6 4a 12 3e 05 ab 95 3d
       -0.08973424 0.0042907437 0.14286384 0.0730801
000270 6e 27 a0 3c e0 aa 84 bd 4b 68 df 3c 10 cc e0 3d
       0.019550052 -0.06477904 0.02727141 0.10976422
000280 89 d1 74 3e ab 86 26 3d c8 89 38 3d ea c3 1d bc
       0.23908056 0.040655773 0.045053273 -0.009629229
000290 37 b0 66 3d d2 52 aa bd 2c 16 80 bd ca 71 fc 3d
       0.056320395 -0.08316578 -0.06254229 0.12326391
0002a0 d5 ba 4c 3d 71 4c 7d 3c 57 ad 21 3d f3 fd 15 bd
       0.049982864 0.01546012 0.03947195 -0.036619138
0002b0 15 ee 50 3d 5c ff a9 3d 68 8f dd 3c 57 41 4d bd
       0.051008303 0.08300659 0.02704592 -0.05011114
0002c0 f9 5b 0d 3e 68 af 5c be d4 b4 0a 3c 64 61 3c be
       0.13804616 -0.21551287 0.008465964 -0.18396527
0002d0 c2 b3 27 3e bf 75 88 bc 2d 87 06 3d 47 8c b8 be
       0.16377166 -0.016657708 0.032843757 -0.36044523
0002e0 07 a0 43 3e 8b 1d 89 3c 76 25 1b 3d b7 17 9a bd
       0.19104014 0.01673772 0.037877522 -0.075240545
0002f0 fd d6 a2 bc 73 af 22 bd 0a cb 1f be 80 83 a2 bd
       -0.019877905 -0.039718103 -0.15604797 -0.07935238
000300 db cc 6a 3d 81 40 df bb 37 60 5e 3e b1 45 7d bd
       0.05732427 -0.0068131094 0.2171639 -0.06183404
000310 b9 7a 2e 3e 5b 46 2d bd 9d 18 0f be 18 af 56 3d
       0.17039002 -0.042303424 -0.13974233 0.052413076
000320 70 0f c5 3d fe a1 75 bd 63 ae 8a 3d 59 5f db bd
       0.09622085 -0.05996894 0.06771543 -0.107115455
000330 de ee 15 be 61 d3 ad 3d c8 8e 36 3e ee ab 6d 3c
       -0.14641902 0.08487583 0.17827904 0.014506323
000340 22 c8 00 bd 94 3e 51 bd b2 7c c7 ba cc b4 20 be
       -0.03144086 -0.05108507 -0.0015219657 -0.15693969
000350 ec c7 10 be c5 7b ce 3d 5d cb c3 bc eb 0d b0 3d
       -0.14138764 0.10082201 -0.023900682 0.08596405
000360 3f 7f cd bd 82 6c ca 3d 1b a6 96 ba 25 9e 0f bd
       -0.10034036 0.098839775 -0.0011493595 -0.035062928
000370 e2 e0 28 bd bd 8d 5e bd 4c 15 8f 3d 6f 08 93 bd
       -0.04123009 -0.05433439 0.06986484 -0.07179343
000380 0b 2e 49 3c 69 cd 4a be 56 a8 a8 3d e4 09 c4 bb
       0.012279044 -0.1980492 0.082352325 -0.0059826244
000390 24 8c 7d bc f8 23 e6 bd 2c cd e6 3c 3c d7 3e be
       -0.015475307 -0.11237329 0.028174005 -0.18636793
0003a0 2b 31 af bd 47 06 86 3c 96 6c fa 3c 80 6a 98 bb
       -0.085543 0.016360415 0.030569356 -0.0046513677
0003b0 4b e0 fc bb df 91 a4 3d 91 7d 0d bd b7 d3 95 bc
       -0.0077171675 0.08035635 -0.034543578 -0.01828943
0003c0 fe 2e 01 bc 40 3f 99 3e 47 31 2d 3e 3d 4d dc 3d
       -0.007884739 0.29931068 0.16913329 0.107569195
0003d0 a5 97 0c 3d 97 c8 a9 3d 40 ad e7 3c a0 22 a4 bd
       0.034324307 0.082902126 0.028280854 -0.08014417
0003e0 ef cb a5 3d a7 4a 97 3d 8d 4b c2 3d 97 39 ea 3d
       0.08095538 0.07387286 0.094870664 0.11436766
0003f0 0c bd 95 bd ec 89 9b 3c ac c8 85 bd d4 8d 47 bb
       -0.073114485 0.018986665 -0.06532416 -0.0030449526
