results/SnakeImitation2/SnakeAgent/SnakeAgent-12789.onnx (onnx, 101509 bytes, 6 tensors)

action_model._discrete_distribution.branches.0.bias f4 [3]
0	0x3da4ff8a	0.08056553
1	0xbc492fc8	-0.012279458
2	0xbdc1b37d	-0.09458063

action_model._discrete_distribution.branches.0.weight f4 [3, 128]
0	0xbe74bcc5	-0.23900135
1	0x3d0b72e1	0.034045104
2	0xbe4da377	-0.20081888
3	0x3da6160f	0.08109676
4	0xbddf65dc	-0.109081
5	0xbec6eb14	-0.38851225
6	0x39ca31bb	0.00038565494
7	0x3e0d2985	0.1378537
8	0xbddf5942	-0.109056965
9	0x3e6fdf50	0.2342503
10	0xbe820b03	-0.25399026
11	0xbed3332e	-0.41249985
12	0xbd6043d0	-0.05475217
13	0x3bae0822	0.005311028
14	0x3d96f98d	0.07371817
15	0xbe998a58	-0.2998836
16	0x3d9e76bb	0.0773749
17	0x3d643da4	0.055722848
18	0x3d3a62dc	0.045504436
19	0xbd4f1d48	-0.050565034
20	0x3e5f0fd9	0.21783389
21	0xbe7e26e2	-0.2481952
22	0x3d68c275	0.056826074
23	0xbcce0125	-0.02514703
24	0x3c2fa0a7	0.010719455
25	0x3eb5b828	0.35492063
26	0x3db36fed	0.087615825
27	0x3c8f0a9b	0.017461112
28	0xbe68f373	-0.22749119
29	0x3dcb58f4	0.09929076
30	0xba1d4690	-0.00059995893
31	0xbda62587	-0.081126265
32	0xbe8e061a	-0.2773903
33	0xbbf730d7	-0.007543664
34	0x3d848d3d	0.064722516
35	0x3d77a5ff	0.06046104
36	0xbe86ef4a	-0.26354438
37	0xbe0da220	-0.13831377
38	0xbe4fc442	-0.2028971
39	0x3df372a7	0.118871026
40	0x3da2c7c6	0.0794826
41	0x3de4c998	0.111712635
42	0x3e137af7	0.14402376
43	0x3e08f7c1	0.1337576
44	0x3dccc4be	0.09998463
45	0xbe6bf946	-0.23044309
46	0xbe9a17ac	-0.30096185
47	0x3d87cb16	0.066305324
48	0xbe1a88fe	-0.15091321
49	0x3d7d15de	0.061788432
50	0xbeba29ae	-0.36359924
51	0x3db8e7d2	0.09028591
52	0xbe09b630	-0.13448405
53	0x3dda4c23	0.10659053
54	0x3dad01cd	0.08447609
55	0x3db94ba2	0.09047629
56	0x3d664510	0.056218207
57	0x3d3effbe	0.046630614
58	0xbeac5ebd	-0.3366603
59	0x3d38fdcc	0.045163915
60	0x3dd04e41	0.10171176
61	0x3a00edfb	0.00049182744
62	0xbe34773f	-0.17623614
63	0x3e3e051e	0.1855664
64	0xbeb19b62	-0.3468886
65	0x3c85f0a4	0.016350098
66	0x3dd198dd	0.102342345
67	0xbe520737	-0.20510565
68	0x3d596f15	0.05308445
69	0x3d4ed2c5	0.050493974
70	0xbd9787a6	-0.0739892
71	0x3db88ca7	0.09011202
72	0xbe22d089	-0.15899862
73	0xbe63202f	-0.22180246
74	0x3e4ee736	0.20205387
75	0x3da0d642	0.078533664
76	0x3e622b4a	0.22086826
77	0x3db3226e	0.08746801
78	0xbe86037b	-0.2617453
79	0xbd81d25d	-0.06338952
80	0xbe39e4b6	-0.18153653
81	0xbdc31c93	-0.095269345
82	0xbe07f3b9	-0.13276567
83	0xbdfa3860	-0.12217784
84	0x3c9266a3	0.017871207
85	0x3c9308a3	0.017948454
86	0x3e429c06	0.1900483
87	0xbe513077	-0.20428644
88	0xbe92d62a	-0.2867902
89	0x3d875f25	0.06609944
90	0x3e1a5bc2	0.15074065
91	0xbc3123b1	-0.010811732
92	0xbb3e096d	-0.0028997317
93	0xbc81bc1b	-0.015836766
94	0x3dff6a51	0.1247145
95	0x3dc40203	0.09570696
96	0xbde9d87a	-0.11418243
97	0xbd0a43e5	-0.033756156
98	0x3d3c1585	0.04591896
99	0xbe109eac	-0.14123029
100	0x3de4b3e5	0.11167125
101	0x3e1bd836	0.15219197
102	0xbe860753	-0.26177463
103	0xbda8d40a	-0.08243568
104	0x3e3327f0	0.17495704
105	0xbd94c3cd	-0.072639085
106	0x3c6bd5c4	0.014394227
107	0x3e0c6ac0	0.13712597
108	0xbd91a914	-0.07112327
109	0x3d052818	0.03250894
110	0x3e542ea1	0.20720913
111	0xbe778fb9	-0.2417592
112	0x3ba2c983	0.0049678697
113	0x3d6e68e9	0.05820552
114	0x3e76b6c4	0.24093157
115	0x3d2cfa5d	0.042230953
116	0xbe08c474	-0.13356191
117	0x3dde5a70	0.10857093
118	0x3d9e0404	0.0771561
119	0x3e16e23a	0.14734736
120	0x3d993b95	0.074820675
121	0x3d9233f1	0.07138813
122	0xbd7f5193	-0.062333655
123	0xbdef7f40	-0.11694193
124	0xbd9e2878	-0.077225626
125	0xbd9b8707	-0.07594114
126	0xbef90b5e	-0.48641485
127	0xbe4f5566	-0.2024742
128	0xbc2c278f	-0.010507478
129	0x3dcfdc5f	0.10149454
130	0xbd1fbb9f	-0.03899729
131	0xbe0d8a0e	-0.13822195
132	0xbdbeae94	-0.09310642
133	0x3eb3f7a0	0.3514986
134	0x3d57318b	0.052537482
135	0xbd6d85ab	-0.057988804
136	0x3e295a91	0.16538455
137	0xbe5fb61f	-0.21846817
138	0x3ec00a85	0.37508026
139	0x3d62f84e	0.055412583
140	0xbe1329d6	-0.14371428
141	0x3ddad968	0.10685998
142	0xbd938ce8	-0.0720461
143	0x3dd042ff	0.101690285
144	0x3d19b320	0.037524343
145	0xbe46917b	-0.19391434
146	0xbe7d72f9	-0.2475089
147	0xbe1a556f	-0.15071653
148	0xbe4ff99c	-0.20310062
149	0x3e1ef45f	0.15522908
150	0xbe37babd	-0.17942329
151	0x3dff5799	0.1246788
152	0xbe795fdb	-0.24352972
153	0xbef811c4	-0.48451054
154	0xbe293840	-0.16525364
155	0xbe245200	-0.16046906
156	0xb9cdc5d2	-0.00039248035
157	0xbc9a9097	-0.018867774
158	0xbea9d863	-0.33172902
159	0x3c71d02a	0.014759103
160	0x3e44b68d	0.19210263
161	0x3e3a7628	0.18209136
162	0xbe2753d3	-0.1634057
163	0x3d8f6fda	0.07003756
164	0xbde4d28b	-0.111729704
165	0x3e7146c9	0.23562159
166	0x3ca1ae19	0.019736337
167	0xbdd4a51d	-0.10383055
168	0x3d96c77e	0.07362269
169	0x3cebcd32	0.028784368
170	0xbe54361b	-0.20723765
171	0xbc226606	-0.00991202
172	0x3c6a79ec	0.014311295
173	0x3f00d064	0.5031798
174	0x3e5eafe1	0.2174678
175	0xbe3698ff	-0.17831801
176	0xbe2e1b60	-0.1700263
177	0x3d883372	0.066504374
178	0x3ddcc4bf	0.10779714
179	0xbe9e9f50	-0.3098092
180	0xbc134fad	-0.008991164
181	0xbccc10ee	-0.024910416
182	0x3da46b07	0.08028226
183	0xbc491050	-0.012271956
184	0x3d449e35	0.04800244
185	0xbe0e19c1	-0.13877012
186	0x3daeb736	0.085310385
187	0xbcb17e06	-0.021666538
188	0xbeb2df5c	-0.34936035
189	0xbe7bf817	-0.24606358
190	0x3e5ee610	0.2176745
191	0xbe8191e7	-0.25306627
192	0x3d7760be	0.060394995
193	0xbe7bc40c	-0.24586505
194	0xbc40b1a5	-0.011761104
195	0x3da29c1f	0.07939934
196	0xbbe0c792	-0.006859728
197	0xbe857186	-0.26063174
198	0x3e624207	0.220955
199	0xbd3b4f48	-0.045729905
200	0x3d9cadd6	0.07650344
201	0x3d82be52	0.06383957
202	0xbd48e12e	-0.049042873
203	0xbdb264ae	-0.087106094
204	0xbdc24088	-0.094849646
205	0xbdc26057	-0.094910316
206	0x3e922f54	0.28551733
207	0x3db3cd3b	0.08779379
208	0x3df5fa5b	0.12010642
209	0xbdb18b24	-0.08669117
210	0x3e3c926a	0.18415228
211	0xbe3c8810	-0.18411279
212	0x3d4edc7b	0.050503235
213	0x3dacea88	0.08443171
214	0xbdc69640	-0.09696627
215	0x3e095039	0.13409509
216	0x3dd35a1d	0.10319922
217	0x3d371c88	0.044704944
218	0xbe4f2105	-0.2022744
219	0x3df6462d	0.12025104
220	0x3e088ee3	0.13335757
221	0x3e3a6634	0.1820305
222	0xbd00ff42	-0.031493433
223	0xbdd22a90	-0.102620244
224	0xbd889544	-0.06669095
225	0x3e313af2	0.17307642
226	0x3d9f3c8e	0.07775222
227	0xbe155fa6	-0.14587268
228	0xbe0bb568	-0.1364342
229	0xbdfc425d	-0.12317345
230	0xbe0ebaae	-0.139384
231	0x3e8d3c1f	0.2758493
232	0xbe6cc647	-0.23122512
233	0xbe5d2e31	-0.21599652
234	0x3dcc7797	0.099837475
235	0xbc0aa661	-0.008462519
236	0x3e65c5cc	0.22438735
237	0xbe0e67a0	-0.13906717
238	0xbdcae61b	-0.099071704
239	0x3d1fb577	0.038991418
240	0x3d7f2089	0.062286887
241	0x3e462b73	0.19352512
242	0xbe543c04	-0.20726019
243	0xbe305c4b	-0.17222707
244	0xbe0d0cd7	-0.1377443
245	0xbe0db3b6	-0.13838086
246	0xbd32284e	-0.04349547
247	0xbe4a992b	-0.19784991
248	0x3a5c8cdb	0.0008413323
249	0xbdf2ad68	-0.11849481
250	0x3e81c156	0.25342816
251	0x3cdc0509	0.02685787
252	0xbe1747b1	-0.14773442
253	0xbd8a9b59	-0.067679115
254	0x3f257379	0.6462932
255	0xbe6189ad	-0.22025175

network_body._body_endoder.seq_layers.0.bias f4 [128]
0	0x3cf25efd	0.02958631
1	0xbd9d8280	-0.076909065
2	0x3d93139c	0.071814746
3	0x3d3cfd63	0.046140086
4	0x3c1f5209	0.009724149
5	0x3c57ae3c	0.013164099
6	0xbd67b8a9	-0.05657259
7	0x3d1b5106	0.037919067
8	0x3d514fc7	0.051101472
9	0x3d5d6204	0.054048553
10	0x3bcb95b3	0.006212914
11	0x3d1ba7d3	0.038001847
12	0x3cb57c6e	0.02215406
13	0x3d12dbde	0.035854213
14	0x3ca990a8	0.02069886
15	0x3d05a51e	0.03262817
16	0x3e091e26	0.13390407
17	0xbc5bc854	-0.013414461
18	0xbca74f6a	-0.02042361
19	0xbb16e5fc	-0.0023025265
20	0x3ada1e50	0.0016641114
21	0x3d703020	0.058639646
22	0xbd21f995	-0.03954466
23	0xbd96b9dd	-0.07359669
24	0xbc6ecd6a	-0.014575342
25	0x3d12e084	0.035858646
26	0x3cce2723	0.025165146
27	0xbd303086	-0.043015026
28	0xbcc28f6a	-0.023750026
29	0xbd09f4c2	-0.033680685
30	0xbc8174ac	-0.015802704
31	0x3c19ff6c	0.009399276
32	0xbcf48b5c	-0.029851608
33	0xbc572a95	-0.013132711
34	0x3d9197fb	0.07109066
35	0x3d24f160	0.040269256
36	0x3d7ff70d	0.062491465
37	0x3d15c35d	0.036563266
38	0x3c307f41	0.010772527
39	0x3d2a018b	0.041505378
40	0xbd94fd30	-0.07274854
41	0x3c97198a	0.018444795
42	0x3dee8fb4	0.11648503
43	0x3de913ef	0.11380755
44	0x3e0183cc	0.12647933
45	0x3d7827ce	0.060584836
46	0xbd8cccb9	-0.06874985
47	0x3d47839e	0.048709504
48	0x3c982bff	0.018575666
49	0x3c8adb76	0.01695035
50	0x3c3f5c0e	0.011679662
51	0xbd14db06	-0.03634169
52	0x3dd8053c	0.105478734
53	0xbb444694	-0.0029949294
54	0x3b1d7b35	0.0024029736
55	0x3cd04f3a	0.025428403
56	0x3d82f92b	0.06395181
57	0x3d3d1e31	0.04617137
58	0xbd161511	-0.036641184
59	0xbb898147	-0.0041963193
60	0x3d3fdabe	0.04683947
61	0xbb984e1d	-0.0046479837
62	0x3d131d75	0.035916764
63	0xbca11dac	-0.019667469
64	0xba912a5f	-0.001107525
65	0xbce6fe21	-0.02819735
66	0x3c934150	0.01797548
67	0x3e053dda	0.13011876
68	0x3cfd2fc7	0.030906571
69	0xbc8529a7	-0.016255213
70	0x3d16e324	0.036837712
71	0x3be6abe6	0.007039535
72	0x3d709ed4	0.05874522
73	0xbcf29dd6	-0.029616278
74	0x3c839d46	0.016066205
75	0x3bfe8ee6	0.0077684997
76	0x3cdd4310	0.027009517
77	0x3cdb3f7d	0.026763672
78	0x3c37fb06	0.011229282
79	0xbc73d1c0	-0.014881551
80	0x3d5e7229	0.05430809
81	0x3c14c8b4	0.0090810545
82	0x3d9827ae	0.07429443
83	0xbc953f4f	-0.018218664
84	0xbab4cd35	-0.0013794067
85	0xbc64d0a0	-0.013965756
86	0x3d356b8a	0.04429201
87	0x3d179bbe	0.03701376
88	0x3d7cf229	0.06175438
89	0x3d95cff0	0.073150516
90	0x3d899eaf	0.067197196
91	0x3c8aa199	0.016922759
92	0xbd0f7bc0	-0.035030127
93	0x3c13a165	0.009010647
94	0xbd02ea76	-0.03196188
95	0xbd05599f	-0.032556172
96	0x3c1aebe7	0.009455658
97	0x3d3e871c	0.04651557
98	0xbc956488	-0.018236414
99	0x3db93a60	0.09044337
100	0x3d05c56b	0.032658976
101	0x3ca44d8f	0.020056514
102	0xbca59c51	-0.020216139
103	0xbd329cb8	-0.04360649
104	0xbc9a8b12	-0.018865142
105	0x3d072b6c	0.033000395
106	0xbc404ce6	-0.011737084
107	0x3d4e0a21	0.05030263
108	0xbc8497ac	-0.016185604
109	0x3d8f2c2a	0.069908455
110	0xbd32d719	-0.043662164
111	0x3d256f23	0.04038919
112	0x3d2bff91	0.041991774
113	0x3d51a129	0.051179085
114	0x3d293110	0.041306555
115	0x3dbd0f9c	0.09231493
116	0xbd0706a3	-0.032965314
117	0x3cac0d81	0.021002533
118	0xbcf6e54d	-0.030138636
119	0x3e05808f	0.13037322
120	0x3899ce0a	7.333986e-05
121	0xbb4d35e0	-0.003131263
122	0x3d8f7baa	0.07006009
123	0xbcf03fc8	-0.029327288
124	0x3c12ad3a	0.008952433
125	0x3db71722	0.08939959
126	0x3d8c0034	0.06835976
127	0xbccc8456	-0.024965446

network_body._body_endoder.seq_layers.0.weight f4 [128, 61]
0	0xbe3bb324	-0.18330055
1	0x3e0b04ab	0.13576
2	0x3d756989	0.0599151
3	0x3ee0308f	0.43787047
4	0x3e045854	0.1292432
5	0x3ef2efa4	0.47448456
6	0xbea6481e	-0.32476896
7	0x3e1344a3	0.14381652
8	0xbe039c1d	-0.12852521
9	0x3ec9c2a1	0.39406303
10	0x3dd9b7ce	0.10630761
11	0xbda59ecb	-0.08086928
12	0xbc0f63f3	-0.008751857
13	0xbdd10d86	-0.102076575
14	0x3e1bd361	0.15217353
15	0x3e4773ec	0.19477814
16	0xbe1a9692	-0.150965
17	0x3cae0216	0.021241229
18	0xbdb73e01	-0.08947373
19	0xbc6b87a6	-0.014375603
20	0xbd592091	-0.053009573
21	0x3eb321d4	0.34986746
22	0x3e09f455	0.13472112
23	0xbeb33de7	-0.35008165
24	0x3e092971	0.13394715
25	0x3e055207	0.13019572
26	0xbea87750	-0.32903528
27	0x3dde36a9	0.10850269
28	0xbea07b2c	-0.31343973
29	0xbdf72c52	-0.12069
30	0x3d27437f	0.040835854
31	0xbe7e54e9	-0.24837078
32	0xbd0c5709	-0.03426269
33	0x3c0ae057	0.008476338
34	0xbd56f3cd	-0.0524786
35	0xbe2f4bcb	-0.17118756
36	0x3df164e0	0.117868185
37	0xbcd6bc66	-0.026212882
38	0x3e2a7613	0.16646604
39	0x3d2b0279	0.041750405
40	0xbca62680	-0.02028203
41	0xbe00c7ff	-0.12576292
42	0xbd95e499	-0.07318992
43	0x3e2b208d	0.16711636
44	0xbe442780	-0.19155693
45	0xbe229173	-0.15875797
46	0x3effb019	0.4993904
47	0x3e2e529a	0.17023697
48	0xbeeab687	-0.45842382
49	0xbd05adda	-0.0326365
50	0x3da83be8	0.08214551
51	0x3da914ce	0.08255921
52	0x3b7ccef9	0.0038575514
53	0xbda20264	-0.07910612
54	0x3e0f0a05	0.13968666
55	0xbd10d569	-0.035359774
56	0x3d47d2ae	0.048784904
57	0xbe02a6b3	-0.12758903
58	0xbd9a3de1	-0.07531334
59	0x3e10c99e	0.14139411
60	0xbe340376	-0.17579445
61	0x3dfe0b79	0.12404532
62	0xbe80cc24	-0.25155747
63	0xbdafa55f	-0.08576464
64	0x3e95e9d2	0.29279953
65	0x3c961204	0.018319137
66	0x3d626b60	0.055278182
67	0x3914dc4c	0.00014196447
68	0x3eb3ee2a	0.35142642
69	0xbe92a635	-0.2864243
70	0xbe13748d	-0.1439993
71	0xbd65484e	-0.05597716
72	0x3edf6319	0.43630293
73	0x3c259151	0.010105447
74	0x3e9b530a	0.3033679
75	0xbe1451a7	-0.14484273
76	0xbc0e6701	-0.00869155
77	0xbd6a07a5	-0.057136197
78	0xbde5db3d	-0.11223457
79	0xbd69fc2a	-0.057125248
80	0xbeaa81c2	-0.33302122
81	0x3de6b1c9	0.112643786
82	0xbe989032	-0.29797512
83	0x3ef37772	0.47552067
84	0xbea5dffd	-0.32397452
85	0xbdf42356	-0.11920802
86	0x3c07ec93	0.00829615
87	0xbda37f1f	-0.07983231
88	0xbeafc596	-0.34330434
89	0xbf12ec94	-0.5739224
90	0x3e2974b2	0.16548422
91	0x3e6cd432	0.23127821
92	0xbeaab29a	-0.33339387
93	0xbebae875	-0.36505476
94	0xbe1dd173	-0.1541193
95	0xbdd4bbb5	-0.10387365
96	0x3d4cbb10	0.049983084
97	0x3c6dfcd6	0.014525613
98	0xbd732afa	-0.059367158
99	0xbd1b6722	-0.037940152
100	0xbea8be81	-0.32957843
101	0x3dea552b	0.11442026
102	0xbec4861c	-0.38383567
103	0x3e23b4cf	0.15986942
104	0xbe27dbf7	-0.16392504
105	0xbe0d38a9	-0.13791145
106	0xbdb261cc	-0.087100595
107	0xbda2a2b6	-0.07941191
108	0xbe7582d5	-0.2397569
109	0xbda3c63a	-0.07996793
110	0x3d8a40fb	0.06750675
111	0x3d3356c6	0.043783925
112	0xbefa9926	-0.48944968
113	0xbe962b4b	-0.29329905
114	0x3d501fc2	0.050811537
115	0x3e5d86b4	0.21633416
116	0xbe9638a1	-0.2934008
117	0xbea3bd64	-0.3198043
118	0x3da0d8d3	0.07853856
119	0xbe0c4cd6	-0.13701186
120	0xbea60ced	-0.32431737
121	0x3d73c859	0.05951724
122	0xbeb0b71d	-0.34514704
123	0x3e62c5bf	0.22145747
124	0xbe99c8ae	-0.3003592
125	0xbed4f61c	-0.41594017
126	0xbe6cb578	-0.231161
127	0x3e3cfc28	0.18455565
128	0x3d0270c0	0.031845808
129	0xbe94925a	-0.29017907
130	0x3e1d6d5f	0.15373753
131	0xbe15ebc9	-0.14640726
132	0x3df15a28	0.11784774
133	0xbe67feed	-0.2265584
134	0xbea3393d	-0.31879607
135	0x3d56dacc	0.052454755
136	0xbe3f06f8	-0.18655002
137	0xbe2fbd30	-0.17162013
138	0xbe0f34e4	-0.1398502
139	0xbd4685f1	-0.04846758
140	0x3ca8b980	0.020596266
141	0xbd87ab2b	-0.066244446
142	0xbc12253b	-0.008920009
143	0x3cf3b39f	0.029748736
144	0x3c69ef55	0.014278253
145	0xbc16b3d5	-0.009198149
146	0x3a2675f2	0.00063499727
147	0xbd37a837	-0.044838157
148	0xbe3594f4	-0.17732602
149	0x3e90d417	0.28286812
150	0x3c845f6a	0.016158778
151	0x3df67d9f	0.12035679
152	0xbe224804	-0.15847784
153	0xbb5d6dca	-0.0033787363
154	0xbecff353	-0.4061533
155	0x3b08caf2	0.0020872918
156	0x3e060c63	0.13090663
157	0xbd51279e	-0.051063173
158	0x3ebe22c4	0.371359
159	0xbcd568b8	-0.02605091
160	0xbd0e5042	-0.03474451
161	0xbd4b0bd0	-0.049571812
162	0xbe5757b1	-0.21029545
163	0xbcd36a60	-0.02580756
164	0x3e487f90	0.19579911
165	0x3eac2423	0.3362132
166	0x3e53f56a	0.20699087
167	0x3ee36b7d	0.44417945
168	0xbefdc971	-0.4956775
169	0xbd6ecc3b	-0.058300238
170	0x3cb439d3	0.022000229
171	0x3d05c062	0.032654174
172	0xbe1065f7	-0.14101397
173	0x3defafba	0.11703439
174	0x3e3ef2fc	0.18647379
175	0x3ea40607	0.32035848
176	0x3d95d2b6	0.073155805
177	0xbbc79795	-0.006091068
178	0x3d0f422a	0.03497521
179	0x3e1236d8	0.14278734
180	0xbd150b26	-0.036387585
181	0x3e164427	0.14674436
182	0x3e878b3c	0.26473415
183	0xbe8b29ae	-0.27180237
184	0x3e9777c7	0.2958357
185	0xbe37c1a8	-0.17944968
186	0x3de07afe	0.10960959
187	0x3e490b7f	0.19633292
188	0xbe605131	-0.21905972
189	0x3dfa5d60	0.12224841
190	0xbed26da6	-0.4109928
191	0xbead5a4a	-0.33857948
192	0x3dc7c081	0.09753514
193	0xbe642f2a	-0.22283617
194	0x3f0d35e2	0.55160344
195	0x3e1e2f6d	0.15447779
196	0x3ee313f7	0.4435117
197	0x3e8cd08a	0.27502853
198	0x3e348493	0.17628698
199	0x3eac85f1	0.3369594
200	0x3e060dbd	0.13091178
201	0xbeabf302	-0.33583838
202	0x3e2a7f04	0.16650015
203	0xbe9c6d6a	-0.30552226
204	0xbd7ba2e4	-0.06143464
205	0x3d888be3	0.06667306
206	0x3e0aff8f	0.1357405
207	0x3ed94ee2	0.42442995
208	0xbe348211	-0.17627741
209	0x3e11f29d	0.14252706
210	0xbe6907a6	-0.22756824
211	0x3dbee8e2	0.093217626
212	0x3cb014a0	0.02149421
213	0xbd4c26dc	-0.049841747
214	0x3d0c69b0	0.03428048
215	0xbdac4b75	-0.0841283
216	0x3d528996	0.051400743
217	0x3f012993	0.5045406
218	0x3e0fb05c	0.1403212
219	0xbd2e10ea	-0.0424966
220	0xbd949974	-0.07255831
221	0xbeae44c9	-0.34036854
222	0xbe84f362	-0.25966936
223	0xbd35c0d8	-0.044373363
224	0x3df2fcf5	0.11864654
225	0xbda1a5ed	-0.07892976
226	0x3e8cbbeb	0.2748712
227	0x3e835678	0.25651908
228	0x3eb4fe67	0.35350344
229	0xbedaebe9	-0.4275811
230	0xbdb543f1	-0.088508494
231	0xbcd5e045	-0.026107917
232	0xbe8851e7	-0.26624987
233	0x3e9ec08f	0.31006286
234	0xbe9c63df	-0.30544946
235	0xbcc2560f	-0.023722677
236	0x3d2fe935	0.042947013
237	0x3d31d146	0.04341247
238	0x3ba30e94	0.004976103
239	0xbcd6452e	-0.026156034
240	0xbe574dbe	-0.2102575
241	0x3de92d98	0.113856494
242	0x3da89324	0.0823119
243	0xbeb4c205	-0.35304275
244	0xbdb9f4fe	-0.09079932
245	0xbce38848	-0.027774945
246	0xbddd61f2	-0.10809697
247	0x3d3566ad	0.044287372
248	0x3e077c07	0.13230906
249	0xbe05f380	-0.13081169
250	0x3d2ffe84	0.042967334
251	0xbeab2d0c	-0.33432806
252	0x3ea3ae44	0.31968892
253	0xbe1ce854	-0.15323001
254	0xbe2bafab	-0.16766231
255	0x3ebae33a	0.36501485

network_body._body_endoder.seq_layers.2.bias f4 [128]
0	0xbcb23317	-0.021752877
1	0x3dc5fd23	0.096674226
2	0xbc41521f	-0.011799364
3	0xbbd03c7a	-0.0063548656
4	0x3b437554	0.0029824572
5	0xbc9fe19a	-0.019516755
6	0x3d38c610	0.045110762
7	0x3d541b82	0.051784046
8	0xbcb35dac	-0.021895252
9	0x3d3994fd	0.045308102
10	0xbd2996b5	-0.04140349
11	0x3cf66078	0.030075297
12	0x3c342b52	0.0109966565
13	0x3d2a6171	0.041596834
14	0x3d959f91	0.073058255
15	0xbcced587	-0.025248302
16	0x3d9928ec	0.07478508
17	0xbbaf40a2	-0.005348281
18	0xbc77b99b	-0.015119935
19	0xbcf001e4	-0.029297777
20	0x3dc954ef	0.09830653
21	0xbcf5edc8	-0.03002061
22	0xbd439ca1	-0.047756795
23	0x3c1846d2	0.009294229
24	0xbcd3a762	-0.02583665
25	0x3dbf3584	0.09336379
26	0x3cf02e6c	0.02931901
27	0xbc796d47	-0.015223808
28	0xbd943c1b	-0.07238027
29	0x3d41e561	0.047337893
30	0xbd1dcbce	-0.03852444
31	0xbdadc574	-0.08484927
32	0x3d91ae91	0.07113374
33	0x3dcee84a	0.101028994
34	0x3c95aae0	0.018269956
35	0x3dbeca25	0.093159
36	0xbcfa2c6d	-0.030538762
37	0x3c14e8e5	0.0090887295
38	0x3ca6a85c	0.020343952
39	0xbb9b9f7a	-0.0047492357
40	0x3dd2b8be	0.10289143
41	0x3dc0ab8f	0.09407722
42	0x3d8f19f9	0.06987376
43	0x3de6924c	0.11258373
44	0x3d3b1e90	0.045683444
45	0x3cd31504	0.025766857
46	0xbce64e29	-0.028113442
47	0x3ba8f10a	0.005155687
48	0x3ab74912	0.0013983569
49	0x3d68731f	0.056750413
50	0xbd32e3ca	-0.043674268
51	0x3d1c506c	0.038162634
52	0xbd7be69b	-0.06149922
53	0x3d9577d8	0.07298249
54	0x3d94f059	0.07272405
55	0x3d163c9e	0.036678903
56	0x3d79ef82	0.061019428
57	0x3cdfcf43	0.02732051
58	0xbd1f9c84	-0.038967624
59	0x3cfc911b	0.03083091
60	0xbbf27fc6	-0.0074004857
61	0xbc966fac	-0.018363796
62	0xbccd19e0	-0.025036752
63	0x3d67eaeb	0.05662052
64	0xbdc948e8	-0.09828359
65	0x3d1f4e9c	0.038893327
66	0x3db2ef40	0.087370396
67	0x3c5b40ce	0.01338215
68	0x3d0c288e	0.034218363
69	0xbd8e616e	-0.06952177
70	0x3cc1dc7c	0.023664705
71	0x3dc1f769	0.09471018
72	0xbcd516c3	-0.02601183
73	0xbd0f9ac4	-0.035059705
74	0x3dbd5bd5	0.09246031
75	0x3d20f1c6	0.039293073
76	0x3d11d5b7	0.035604205
77	0x3d9e817c	0.07739541
78	0x3c3c83ea	0.01150606
79	0xbd4bb6ec	-0.049734995
80	0xbd146c50	-0.036236107
81	0xbd8d3d03	-0.06896403
82	0xbc12b124	-0.008953366
83	0x3cc28b34	0.023748018
84	0x3c7e1b7f	0.015509485
85	0x3d0f273b	0.034949522
86	0x3d1fc940	0.039010286
87	0x3b31d1c0	0.0027133077
88	0x3cde42d7	0.027131481
89	0x3d4253f7	0.047443356
90	0x3d408bdf	0.04700839
91	0xbb260598	-0.0025332924
92	0x3d87e342	0.06635143
93	0x3c3ed17f	0.011646627
94	0x3dac69f5	0.08418647
95	0x3db62769	0.08894236
96	0xbc25c045	-0.010116641
97	0x3c797110	0.01522471
98	0x3da29e99	0.07940406
99	0xbd975743	-0.07389691
100	0x3bb1d230	0.0054266676
101	0x3ca86d00	0.020559788
102	0xbd58d32a	-0.052935757
103	0x3d38654e	0.045018487
104	0x3db90210	0.090335965
105	0x3b6a2a34	0.0035730721
106	0x3da39842	0.07988025
107	0x3de9eb8f	0.11421882
108	0x3d192040	0.03738427
109	0x3ce24595	0.02762107
110	0x3ce25ac5	0.027631173
111	0xbd14e37d	-0.036349762
112	0x3d359db0	0.044339836
113	0x3c20e44e	0.009820057
114	0x3d74c49d	0.059757818
115	0xbd24b870	-0.040214956
116	0xbcd0d527	-0.025492264
117	0x3c31cfd8	0.0108527765
118	0x3d827577	0.06370061
119	0x3d4e8ede	0.050429218
120	0x3d89a55b	0.06720992
121	0xbd11b1e9	-0.03557006
122	0x3d13c40e	0.036075644
123	0xbd196e09	-0.037458453
124	0xbcf63420	-0.030054152
125	0xbd561670	-0.05226749
126	0x3d82d9d2	0.06389202
127	0xbcb19a24	-0.021679945

network_body._body_endoder.seq_layers.2.weight f4 [128, 128]
0	0x3af56530	0.0018722173
1	0xbd123df7	-0.035703626
2	0x3df137cf	0.11778223
3	0x3dd6c128	0.104860604
4	0xbe2a70aa	-0.1664454
5	0x3dcb6e1b	0.0993311
6	0xbe6d3714	-0.23165542
7	0x3d6870b0	0.056748092
8	0xbe39c20c	-0.1814043
9	0x3dce9cd9	0.1008851
10	0x3c9d22ab	0.01918157
11	0x3d8683f5	0.065681376
12	0xbda0bcde	-0.078485236
13	0xbdc15901	-0.09440804
14	0x3e04466a	0.12917486
15	0xbdaef9c2	-0.08543731
16	0xbe9d4863	-0.3071929
17	0xbd8ecc7c	-0.06972596
18	0x3dbdf8b5	0.09275953
19	0xbe3da192	-0.18518665
20	0x3eb506e7	0.3535683
21	0x3e8a57b3	0.27020034
22	0xbe1b36d7	-0.15157638
23	0x3c8c1999	0.01710205
24	0xbdf689ba	-0.12037988
25	0x3e401dec	0.18761414
26	0x3e1da3ce	0.15394518
27	0xbda9c6cb	-0.0828987
28	0x3e444578	0.19167125
29	0x3d07317c	0.033006176
30	0x3dccd33c	0.10001227
31	0xbd6e4ede	-0.058180682
32	0x3cb95403	0.022623068
33	0xbe41f69a	-0.18941727
34	0xbddec929	-0.10878212
35	0x3dbd235e	0.092352614
36	0xbdaeb2a7	-0.08530169
37	0x3dad51c2	0.0846286
38	0x3e2222a6	0.1583353
39	0xbea0ac72	-0.31381565
40	0x3d3d4153	0.046204876
41	0xbbaa99ad	-0.005206308
42	0xbd1dbf47	-0.038512494
43	0xba2a151a	-0.000648813
44	0x3e10f94a	0.14157596
45	0xbe032f55	-0.12811024
46	0xbe39cbbe	-0.18144128
47	0x3cc8a816	0.024494212
48	0xbbb9e869	-0.0056734574
49	0xba884863	-0.001039755
50	0x3e063f86	0.1311017
51	0x3e801ecc	0.25023496
52	0xbd77f006	-0.06053164
53	0xbd1add94	-0.03780897
54	0x3e724ed9	0.2366289
55	0x3ddd6cef	0.10811793
56	0xbe6125c6	-0.21987066
57	0xbe15921b	-0.14606516
58	0x3d2fc038	0.042907923
59	0x3e0eea00	0.13956451
60	0xbd877e24	-0.06615856
61	0xbdfa5cfb	-0.12224766
62	0x3e4a7c16	0.19773898
63	0xbe6666e6	-0.2250019
64	0xbd2c47bb	-0.042060595
65	0x3cbe9048	0.023262158
66	0x3e63e835	0.22256549
67	0x3e28a8cb	0.1647064
68	0x3bd1db21	0.006404296
69	0x3e2b16fe	0.1670799
70	0x3cb503da	0.022096563
71	0x3e07d460	0.13264608
72	0xbe747119	-0.23871268
73	0x3c1ab555	0.009442647
74	0xbdadf4b6	-0.084939405
75	0xbe834fc8	-0.25646806
76	0x3daead7f	0.085291855
77	0x3df05b89	0.11736209
78	0x3e2bf6a4	0.16793305
79	0x3d943e2c	0.07238421
80	0xbdba0cae	-0.0908445
81	0xbe1a0244	-0.15039927
82	0xbdd06aa9	-0.10176594
83	0x3ce5399f	0.027981577
84	0x3dc3445c	0.09534523
85	0x3d450f4f	0.048110303
86	0x3de1f122	0.110323206
87	0x3b5d8225	0.0033799496
88	0xbe84f3ef	-0.25967357
89	0xbe186995	-0.14884026
90	0xbec74e2e	-0.38926834
91	0xbe0e00d5	-0.13867505
92	0xbb982902	-0.0046435604
93	0x3d9cea4d	0.07661877
94	0xbda3e520	-0.080026865
95	0x3e4bd15d	0.19904085
96	0x3e059ca2	0.13048032
97	0xbe3aaee7	-0.18230782
98	0xbe560dd3	-0.20903711
99	0x3e58ba43	0.21164803
100	0x3c97b337	0.018518073
101	0x3d6b3ba1	0.057429913
102	0xbd45779b	-0.048209768
103	0xbddb5159	-0.10708875
104	0x3e2e9da6	0.17052326
105	0x3da5242b	0.08063539
106	0xbc3518f4	-0.011053313
107	0x3cbeab39	0.023275005
108	0x3be84f35	0.0070895203
109	0x3cfb6cee	0.03069159
110	0xbe659a8b	-0.22422235
111	0xbd5e177f	-0.054221626
112	0xbf158e02	-0.5841981
113	0xbe020b74	-0.12699682
114	0xbde7d4db	-0.11319896
115	0x3c47fe01	0.012206555
116	0x3da1f795	0.07908551
117	0x3d979bf4	0.074027926
118	0xbcf05865	-0.029339025
119	0xbcadcfdc	-0.02121728
120	0xbd56e4d0	-0.052464306
121	0xbccb4e6a	-0.024817664
122	0x3d9f7c74	0.077874094
123	0xbc6dbb31	-0.014509962
124	0x3d885938	0.06657642
125	0x3ca065f1	0.01957986
126	0xbdc80bfd	-0.097679116
127	0xbd162028	-0.03665176
128	0x3e2777d6	0.16354308
129	0x3d88e9d0	0.06685221
130	0xbcbd43db	-0.023103645
131	0x3d97d60f	0.07413875
132	0x3dd906e8	0.105970204
133	0x3c4b864f	0.012422158
134	0x3dc7911e	0.09744476
135	0x3e01c8c3	0.12674241
136	0x3c017161	0.007900567
137	0xbdb62dfd	-0.0889549
138	0x3d7ca68b	0.061682265
139	0x3dba1c0e	0.09087382
140	0xbd87b03d	-0.06625412
141	0x3de909ab	0.11378797
142	0x3d92478e	0.07142554
143	0x3e064b97	0.13114773
144	0x3dcd9813	0.100387715
145	0x3e8074b8	0.2508905
146	0xbdac832f	-0.08423459
147	0x3d7911e8	0.060808092
148	0x3d1cc00c	0.038269088
149	0x3bde7d72	0.0067898566
150	0xbe7c238b	-0.24622934
151	0xbd41c6e2	-0.04730881
152	0x3d87ddc0	0.06634092
153	0xbe066d65	-0.13127668
154	0xbd7f6cc8	-0.0623596
155	0xbe57c927	-0.21072827
156	0xbdd120c4	-0.10211328
157	0xbd7a86f2	-0.06116385
158	0xbdaf430e	-0.085577115
159	0xbd8715a8	-0.065959275
160	0x3b960679	0.0045784083
161	0x3e710e37	0.23540579
162	0x3e89e2eb	0.26930937
163	0xbd7d8f6f	-0.061904367
164	0x3de3f3ea	0.11130507
165	0xbd329f59	-0.043608997
166	0xbd4bd48c	-0.049763247
167	0x3d42a5f4	0.047521546
168	0x3e04b14a	0.12958255
169	0x3d511540	0.051045656
170	0x3db22fad	0.087005
171	0x3d8318c6	0.064012095
172	0x3e38616f	0.18005918
173	0xbe00d8c3	-0.12582688
174	0x3d3ddfe3	0.046356093
175	0x3d31b9a0	0.043389916
176	0x3d9400e2	0.07226731
177	0x3c5aba5d	0.0133500965
178	0xbd4f71ca	-0.050645627
179	0xbdc4d33b	-0.096106015
180	0x3d3ae930	0.04563254
181	0xbd340e48	-0.043958932
182	0xbe018ab5	-0.12650569
183	0xbdb9c2a9	-0.090703316
184	0x3e0243b9	0.12721147
185	0x3d57d700	0.052695274
186	0x3e47d4e9	0.19514813
187	0xbe06b5de	-0.13155314
188	0x3c7af018	0.015316032
189	0xbdacc02f	-0.084350936
190	0xbd292ae4	-0.04130067
191	0xbd7bb4ff	-0.06145191
192	0x3e160c28	0.14653075
193	0xbdb46456	-0.088082
194	0x3db5414e	0.088503465
195	0x3e4342de	0.19068477
196	0x3e1fb3f1	0.15595986
197	0xbd0d0012	-0.034423895
198	0xbc4454d7	-0.011983118
199	0xbe2689fb	-0.16263573
200	0x3cc2961f	0.023753224
201	0x3cc59480	0.024118662
202	0x3d92ed58	0.07174176
203	0x3d3f1f00	0.046660423
204	0x3d3d8a18	0.046274275
205	0x3d202b75	0.039103944
206	0xbc209144	-0.009800259
207	0x3d638e1a	0.05555544
208	0x3e3e282b	0.1857001
209	0x3d94757b	0.0724897
210	0x3e378c6f	0.17924665
211	0xbdc7ea13	-0.09761443
212	0x3d855f2d	0.06512294
213	0x3df572a2	0.11984755
214	0xbda4b2ae	-0.08041893
215	0xbe236dec	-0.159599
216	0x3d0d6265	0.034517664
217	0x3e0f3614	0.13985473
218	0x3e0da63c	0.13832945
219	0x3c2e4b4f	0.010638072
220	0x3db6006e	0.08886801
221	0x3c780ba6	0.015139496
222	0x3d0848b1	0.03327245
223	0x3d604ed9	0.054762695
224	0x3e3b0b8a	0.1826612
225	0x3ccd3921	0.025051655
226	0x3e36d38c	0.17854136
227	0x3d4e09ca	0.050302304
228	0x3c020b14	0.007937212
229	0x3e22f561	0.15913917
230	0x3de6a054	0.11261049
231	0xbc3e83fe	-0.011628149
232	0xbe2f1794	-0.17098838
233	0xbd1f2c36	-0.038860522
234	0xbd8cfdfd	-0.06884382
235	0x3deb2d81	0.114832886
236	0x3d3602dc	0.04443632
237	0xbb46df8a	-0.0030345642
238	0x3c632259	0.01386317
239	0x3dde48c1	0.108537205
240	0x3cb03cd0	0.021513373
241	0xbe1539de	-0.14572856
242	0xbe01115e	-0.12604281
243	0x3e597362	0.21235421
244	0x3aa996df	0.001293864
245	0xbd2ec7d3	-0.042671036
246	0xbe523c71	-0.20530869
247	0x3dc17bb3	0.09447422
248	0x3d0c68ef	0.03427976
249	0xbdd0cc98	-0.10195273
250	0x3e33edd5	0.17571194
251	0x3da98ed3	0.08279195
252	0x3e38abaa	0.18034235
253	0x3d4cc0c5	0.049988527
254	0x3df8ee49	0.12154824
255	0x3e459c15	0.19297822
