results/NewBirdAgent7/BirdAgent/BirdAgent-531834.pt (torch, 618247 bytes, 33 tensors)

network_body._body_endoder.seq_layers.0.weight f4 [128, 64]
00000000: c765 98bd 1001 fb3d 0013 3b3e 4ee3 c73d
00000010: f7b0 6c3d 3021 95bd ffff 08be 521f 863c
00000020: ec96 0fbe 9fe1 8abb a015 3bbe f5cb a03d
00000030: dca6 c6bc 2a71 f43c a789 b4bd 7cd2 51bd
00000040: 72dc 4b3e 4e7e 70bd 54b8 54bd 2258 a83d
00000050: 64a8 093e c8a4 273e 9dd0 1bbd 6dae b03d
00000060: 6e3c 6c3e b5be 94bd d082 193e a827 8b3e
00000070: b5b9 413a a16a 173d e65b 9abd 869e cebd
00000080: 784a 7ebd 7c51 e03c a578 593d ce63 ef3b
00000090: f539 1dbd d8db bebd 6cd8 fabc b2b7 89be
000000a0: 64ce be3d e912 71be 6763 6e3d df85 a3bd
000000b0: bcf9 31bd f496 b63c 049a bdbc bf56 513d
000000c0: 4795 18bd 998e 0dbe cf9a 1c3e ea33 a23d
000000d0: 3c52 16bd 2436 1d3e b8c5 393e 9720 acbd
000000e0: b8a5 26be 3c89 70bc 37b7 fc3d 8aa6 46be
000000f0: 3d50 ee3d c5a8 443d 23c5 253e 0c48 c63b
00000100: e278 e13d 69f2 cd3c 7d7e 6ebd 0e4d 043e
00000110: 56ed d7bd 524a 573e 86fc b2bd 66f7 dfbc
00000120: 9934 6abe df30 99be adb3 e5bd 6170 d63d
00000130: 6694 e3be cdbd 46be 5663 0ebd 6956 d4bd
00000140: 3afb 2f3d b9e5 533e 895b cabd 84be 053e
00000150: 7223 0fbc 5d6d 373d fdf0 983d 7d38 21bd
00000160: 8a4d 99bc dba5 a3bb 0c7f dc3d 9787 a0bd
00000170: 3940 3dbe 23ec 7abd 14dd 993d 793b 573d
00000180: 3a80 e23c feff 223d b59d 67bd cb7a c73a
00000190: 1dbd ee3d c853 af3c a79e c43d fb68 5fbd
000001a0: 8f9a 223e 6b72 0f3e cd9a 0a3e d697 20be
000001b0: 223d 11be b790 4d3e 4d1f 4e3e 40f3 41bd
000001c0: e37e 4b3e 84e1 57bc a727 e7bd db18 bebd
000001d0: 78e7 453d a697 24bd 1c22 263e 4faa 6ebe
000001e0: 097b e7bc 91dd 07be 2783 e53d ff30 863c
000001f0: 1887 203e e6ed dcbd 18d8 afbc 57b8 513d
00000200: 8d5c efbd 9a5b ff3d da39 c83d 0ec4 41bd
00000210: 0949 14be 4c6c d53b 5001 c7bb 91fd bb3b
00000220: fcd2 90bd 2c34 a039 b129 a6bd c0cc 8cbd
00000230: 1387 2a3c c5c5 983e babc 9dbe 2dd9 1fbb
00000240: b4f0 3c3d 9043 41be f97f 8b3d 7baf 873d
00000250: 742e a53d b91d 17be ebd0 d8bc 3507 ecbc
00000260: b613 1dbe bfe0 003d 956c 3d3c 5133 9fbc
00000270: 0c2e d73e 3042 09be b998 09bd 50df dabd
00000280: 93c6 243b 3865 b1be 280b c13d 85c9 453d
00000290: 43f3 08be f663 573d 896d f4bd 6556 c03c
000002a0: 3bef 4b3d 8cf4 dd3d 718f ba3d a7d6 da3c
000002b0: 6ca9 5abb 4655 1dbe 408b f53d eeee d0bd
000002c0: 2c18 d53d f881 673d b2b3 2d3d 9f77 f93c
000002d0: 7e1a 423d 9001 8d3d a332 b43d 28f2 a9bd
000002e0: 8639 b4bd b464 053d 71b9 0e3e 56e1 153c
000002f0: f4b4 38be 3492 10bd 6142 c63c 876c bc3d
00000300: 92c0 f7bc 18cb 59be 071a fabc 6947 00be
00000310: 48ba 783d 7542 40be b49d 73be 9664 0abe
00000320: 6cf8 b23a 1c6a 093d 6669 f33d 7bda a4bc
00000330: e011 d03b 379a 4b3e 6416 bf3d 07b7 963d
00000340: 4c74 723d dc4c 0fbe 4b9a 473e c43e 16bd
00000350: 2f0b 18be aa52 77be 6965 293e e039 d2bd
00000360: ed35 973b 0c7e 9dbd d74f cfbd 780e ddbc
00000370: 802a 043e 252c 6c3c b6f9 213c 8624 33bc
00000380: a22b c03c 0585 c13d 288b ecbd 4386 6abc
00000390: 8bd6 5bbe f256 ebbd 703d 313d fbe4 5cbc
000003a0: c420 9cbd 0615 f0bd ba32 153d 25fa 093e
000003b0: c7a1 83bc af02 22be ba09 50be 23eb 053e
000003c0: 1861 473e 7823 7b3e 1668 043e 7db1 2a3e
000003d0: 1aec fc3c 44c1 473d 9329 493e 9d89 e4bb
000003e0: 4884 38be 896b bcbc 9293 a83d bf7b 0dbe
000003f0: 2887 cbbd 8bf8 8e3d 4ac0 74bd bfda 18bd
-0.074412875 0.12256062 0.18268967 0.09760152 0.057785954 -0.07281721 -0.13378905 0.016372357
-0.14022416 -0.004238322 -0.18269968 0.07851402 -0.024249487 0.029839117 -0.088153176 -0.051226124
0.19908312 -0.058714204 -0.0519336 0.08219935 0.13443142 0.16371453 -0.038040746 0.08627019
0.23069927 -0.07262937 0.14991307 0.27178693 0.0007390038 0.036966924 -0.075370595 -0.1008883
-0.062082738 0.027382605 0.05309357 0.007305599 -0.03838535 -0.093192756 -0.030620776 -0.2689796
0.0931671 -0.2354237 0.058200266 -0.07984518 -0.043451056 0.022288777 -0.02314473 0.05110812
-0.037251737 -0.13823928 0.1529343 0.07920058 -0.03669952 0.15352684 0.1814183 -0.084046535
-0.16274154 -0.014681157 0.12339633 -0.19399467 0.11636398 0.048012514 0.16188483 0.006051069
0.11009385 0.025140004 -0.058226097 0.12920019 -0.10543315 0.21024445 -0.08739571 -0.027339648
-0.22871627 -0.29920098 -0.11215911 0.10470653 -0.44449157 -0.19408341 -0.034762703 -0.10368044
0.042964198 0.20693101 -0.0988074 0.13060957 -0.008736478 0.04478203 0.0746784 -0.039360512
-0.018713731 -0.0049941367 0.1076642 -0.07838362 -0.1848153 -0.061260354 0.075128704 0.052546952
0.027649034 0.039794914 -0.056546886 0.001521909 0.11657164 0.021402255 0.09600573 -0.054543477
0.15879272 0.1400849 0.13535614 -0.15682921 -0.14183477 0.20074736 0.20129128 -0.047351122
0.19872622 -0.013176326 -0.1128686 -0.092820846 0.04831645 -0.040183686 0.16223949 -0.23307155
-0.02825691 -0.13268115 0.11206656 0.016380785 0.15676534 -0.10787563 -0.021465346 0.05120119
-0.116875745 0.124686435 0.09776659 -0.047306113 -0.14480986 0.006513154 -0.0060731545 0.0057370146
-0.07071492 0.0003055645 -0.08113421 -0.068749905 0.010408181 0.29838386 -0.3080805 -0.0024390921
0.04612799 -0.1887343 0.06811518 0.06625267 0.08065501 -0.14757432 -0.026466807 -0.02881203
-0.1533955 0.031464335 0.0115615325 -0.01943365 0.42027318 -0.13404155 -0.033592913 -0.10687125
0.0025142774 -0.34647536 0.09425956 0.048287887 -0.13374047 0.052585565 -0.11934955 0.023478696
0.049788695 0.10837659 0.091093905 0.026713682 -0.0033365143 -0.1536456 0.119894505 -0.10201822
0.10405001 0.056520432 0.0424077 0.030452548 0.047388546 0.06885064 0.08798721 -0.08298141
-0.08800034 0.03256674 0.13937928 0.009147963 -0.18037778 -0.03529568 0.024201574 0.092003874
-0.030243192 -0.2126888 -0.030529989 -0.12527241 0.060724527 -0.18775351 -0.23790628 -0.13514933
0.0013654358 0.03354846 0.118853375 -0.02012371 0.006349787 0.19883047 0.093304425 0.073591284
0.05919294 -0.13994163 0.19492452 -0.03668095 -0.14848016 -0.24152628 0.16542591 -0.10264945
0.0046145828 -0.07690057 -0.1012265 -0.026984438 0.12906837 0.014414822 0.009886196 -0.010934001
0.023458306 0.094491996 -0.115499794 -0.014314237 -0.2146856 -0.11491193 0.043271482 -0.013482328
-0.07623437 -0.1172276 0.03642533 0.13474329 -0.016068352 -0.15821336 -0.2031621 0.13077979
0.19470632 0.24525249 0.1293033 0.16669269 0.0308743 0.048768297 0.19644766 -0.0069744126
-0.18019211 -0.023000496 0.08231272 -0.13816737 -0.099378884 0.069809996 -0.059753694 -0.037317988

network_body._body_endoder.seq_layers.0.bias f4 [128]
00000000: b015 2abc 204b 183d 2195 32bc 36d5 2d3c
00000010: 4292 fe3c 8d73 7f3c e991 be3c 3000 333d
00000020: 7ebe 783c 4d62 25bd 69b9 93bc c8de 76ba
00000030: 1029 103d 836b b93c 3bf1 d63c eaa7 3cba
00000040: a7fa 21bd 38e9 b13c feb1 043a f2b7 17bc
00000050: 7856 f23b 30fb c73b 5203 3d3c 2cca 823c
00000060: 59a1 db3c 0c58 79bb 8ac4 0d3d 5d8e 233d
00000070: f25a 06bd 51a2 f53b 2bdb bc3c f005 70bc
00000080: 030b 073d 5b37 10bc 31bb cc3c a834 823c
00000090: 0fcd 36bc 3167 55bd 03e3 64bb 1eea 00bd
000000a0: a0a9 8aba 0f00 c83c 287a 183c 8149 0abd
000000b0: 9847 f6bb 9265 fa3c 6d29 933c c76c 0c3d
000000c0: e0ea b73c 9405 b03c a33d 063d 93a3 c23c
000000d0: 006b 40ba a593 d33c f128 c53b 780e 573c
000000e0: 4f09 b83c 99f9 06bd 79d6 84bc 5c4a 9cbc
000000f0: 85c5 c83c dd48 1e3d d4b8 0b3d 7691 85bb
00000100: 66f8 053c 3f71 a43b 5b1c 2dbc 7320 0bbc
00000110: cda3 ecbc 896c 5c3b 5923 c13c 1e40 b33c
00000120: 9daa 3abd a86f 393d 3961 8a3c 16ad bb3c
00000130: e975 07bd 23ec 143c e66e 1a3d ba1c c5bc
00000140: 2a47 f63b f4db ba3c b5a3 183d d318 393d
00000150: 3a5d 0a3c ea40 973d 30ba 42bc 0bbf afbc
00000160: 3c73 113c b433 7ebb 7fd3 ca3b 403a 313b
00000170: e156 d83c 9afb 5c3c efff b5bc ee40 72ba
00000180: f62d 1f3d 3dd8 343d 4736 003d e1f7 4c3d
00000190: 897c 063c b9c8 ebbb cc0f 1b3d 9fd2 7d3c
000001a0: ce5f 48ba 1483 74bc 0feb 713c a49a 08bd
000001b0: 72f6 0a3d fe90 f03c 7b34 d2bc a13e 5c3c
000001c0: aaca b13c d510 723d 0a37 0b3d 33d9 ff3c
000001d0: 616d b0bc b46a 2abc 3a07 623d 6426 c7bc
000001e0: c032 193d 3b3a 5d3d 22ed 843c dd70 e2bc
000001f0: c9f8 a53c 6c93 fc3b 89a1 023d db3b e5bb
-0.010381147 0.03718102 -0.010899813 0.0106099155 0.0310756 0.015591514 0.023262935 0.04370135
0.015182136 -0.04037695 -0.018032746 -0.0009417352 0.03519541 0.022634273 0.026238075 -0.0007196652
-0.03954568 0.021717653 0.00050619233 -0.009260165 0.007395562 0.006102942 0.011536436 0.015965544
0.026810335 -0.0038046865 0.034611262 0.03993069 -0.032801576 0.0074961563 0.023053726 -0.014649853
0.032969486 -0.00880226 0.024991604 0.01589425 -0.011157288 -0.052100364 -0.0034925349 -0.03147327
-0.0010579117 0.02441409 0.009306468 -0.033761505 -0.007515859 0.03056601 0.01796409 0.034283426
0.022450864 0.021487035 0.032773625 0.023759639 -0.0007340163 0.025827238 0.0060168435 0.013126008
0.022465376 -0.03295288 -0.01621555 -0.019078426 0.024508247 0.038643707 0.034111813 -0.004076178
0.008176899 0.005018383 -0.0105658425 -0.008491623 -0.0288867 0.0033634028 0.023576425 0.02188116
-0.045572866 0.0452725 0.016892063 0.022909682 -0.033071432 0.0090895025 0.037703417 -0.02406155
0.0075158076 0.02280996 0.0372655 0.04518969 0.0084450785 0.07385428 -0.011885211 -0.021453401
0.008877572 -0.0038788142 0.006189763 0.0027042776 0.026408615 0.013487721 -0.022216765 -0.00092412427
0.03886219 0.044151533 0.031301763 0.050041083 0.008208402 -0.007195559 0.037856862 0.0154921105
-0.00076436705 -0.01492383 0.014765515 -0.0333506 0.033926435 0.029366013 -0.02565979 0.013442666
0.021703083 0.059098084 0.033988036 0.031231498 -0.02153653 -0.010401417 0.055182673 -0.024310298
0.037401915 0.05401061 0.016226355 -0.027641708 0.020260232 0.0077080037 0.031892333 -0.0069956607

network_body._body_endoder.seq_layers.2.weight f4 [128, 128]
00000000: 5d67 1dbe b921 5dbc 5903 203e e558 d63d
00000010: dd9c dd3d cfc2 303d e81b f83c 075e adbd
00000020: 55c1 773d db00 ecbd 2ad7 f93c 6f51 02bd
00000030: e0e0 a8bb fe8c c53d 2982 ba3c da1f 07be
00000040: 2b58 5ebc b998 b6bd 5ef7 91bd 9ec9 57bd
00000050: e19a 79bc ac0b 9fbc ac55 2dbc 493c 043d
00000060: 2a5c 1c3d 02b0 c6bd 3c61 d3bc d601 ba3d
00000070: dcc6 c3bc 3a95 0dbe f4b1 7bbd fc78 6a3e
00000080: 8f14 3cbc 7c89 813d db61 8f3d 3c7b 68bd
00000090: a898 3b3d 7abc 113e 1351 bcbd f1dc 53bd
000000a0: 7bd0 75bd 7364 67be e4e9 76bd 63d6 613e
000000b0: 3bdb 55be 6dc7 cbbc b876 87bc 48f1 073e
000000c0: 2483 d53c 2cca 40bd eea6 a9bd 19e3 34be
000000d0: 1ce2 00bd a5eb fb3d 0554 dcbc 358a 33bc
000000e0: 7056 903d d5d6 a73d 71de 5d3d dcf0 e83d
000000f0: 072f a6bd 2e67 41be b498 e8bd 1df0 d33b
00000100: 4806 2fbc cdd8 233d e136 fd3c 19fd 20be
00000110: dd9e 713c 81ec 5ebc 0182 fc3d 0e6c 2a3d
00000120: 97eb 933c aa4f ebbc f3ba 253e 3f68 b5bc
00000130: 2648 dcbd 5e9d 05bb 211b 83be 26e8 763d
00000140: 6922 193b 6e43 533d ac7e 07bc 9268 16be
00000150: bf72 433e 3fec 8dbc 1575 143e 6cf8 903d
00000160: 967e 3b3d 156f 9e3d 8b69 e4bc 5a5b c03d
00000170: 0807 80bd 158b aabd 49ab 08be 0304 9c3d
00000180: 9d94 8a3d 59ab 093e 7772 86bc cc97 8f3d
00000190: 6792 483d f053 703c 7b2c fbbc c11e c73d
000001a0: 16bc dcbd a193 163d 91fa 30bc 6857 7e3c
000001b0: bdd1 603d 7368 ab3c fb0b 293d a22b ff3d
000001c0: 7c23 1f3e a65d 103b 57df d4bd 2b94 093d
000001d0: 5be7 bd3c cb25 2c3e ae85 4d3e 2c53 b4bd
000001e0: 5eee 243c 6eee ecbd 49c4 033e 7f8f 163e
000001f0: 2b52 b4bd 97a1 b43c 3d66 4e3e cf4b ce3d
00000200: d5b5 c0bc 7b7e c7bd e9d6 7a3c af50 ddbd
00000210: 4fac 89bd 828e 42be b2b8 933d d645 9d3c
00000220: f76f 7abb 83ac 6d3d 4e26 9f3c a972 d5bd
00000230: eae4 83bd 22aa b83d 66e8 2d3e e9d9 3c3d
00000240: 80c9 493c 4e15 49bb 9b88 8cbd 0b70 4b3d
00000250: d87e 003e d7a0 c73d 4ecd 7abe 1031 8f3e
00000260: e1f5 70bc 72f1 59bd 9533 6cbd 5f05 dfbd
00000270: 1c0c 03bd d705 1cbd cb5d d63d 01da d23d
00000280: 31c5 26be dd65 343d 494c 4dbe 2ef7 f5bd
00000290: 6f96 7fbd c28c 95bd 3275 073c 5df1 353d
000002a0: 59ce 90be 3c7a c6bc 6a48 1fbd 097e ba3d
000002b0: 5f57 793c a181 bf3d 4743 6e3d 18a2 b8bd
000002c0: 3306 383e 9495 2abd 7265 8a3b e709 dabd
000002d0: c4af dd3d 4c6c 32bd 53fe da3d 5a5f 63bd
000002e0: 365d 20bd c6ef 31be c665 963d 983d 2b3d
000002f0: 9ab1 56be 7744 3f3d aca2 b3bc a20e c03d
00000300: afc4 0abc bdc5 45bd b1c4 3bbd 9234 f43d
00000310: e993 893c 1c2d a63c f722 113e 8463 cf3d
00000320: 0ce1 b0bd 967d 163e 7ce2 d43d 899f 023c
00000330: 4711 28bc 54d6 883d d9f4 393c 5ad6 533d
00000340: b04f 083d 7723 43bb 3c03 1c3e f890 47bc
00000350: f7f5 43bc 9276 7ebd 00a2 9bbb 9ecc 11be
00000360: 3b2b 8d3e 0f29 803d 2229 5a3e ed64 d13d
00000370: 1790 123d 7a41 3d3e 6db7 2dbe 46f0 c73c
00000380: f546 443d 8ebe 493d 2429 a0bd 2c65 b1bb
00000390: 2e0c 2e3d 7ac5 913d 9321 4abd d1a9 193e
000003a0: 1327 d6bd fda0 a93d dabd 8a3d be4e 403d
000003b0: 72c2 1e3e e02d 103e fa76 d0bd 8ee5 58be
000003c0: db67 10bb ffa3 853b 4a30 40be 6fb1 06bd
000003d0: 1f03 2d3c 88d6 e73c ae87 09be 8e51 2dbe
000003e0: 4035 dfbc bd98 fabc bf3e 613e f1fb 173d
000003f0: bb75 99bb cd48 283e 25a1 7abe 8ae5 e4bd
-0.15371461 -0.01349681 0.15626277 0.10466174 0.10820935 0.043154534 0.030286744 -0.084652
0.06048711 -0.11523601 0.030498106 -0.031815942 -0.0051537603 0.09646033 0.022767143 -0.13195744
-0.013570826 -0.08915848 -0.0712726 -0.05268251 -0.01523468 -0.019414745 -0.010579508 0.032284055
0.038173832 -0.097015396 -0.0258032 0.090823814 -0.023898534 -0.13826457 -0.061449006 0.22897714
-0.011479511 0.06325051 0.07001086 -0.05675815 0.04579988 0.14232054 -0.09195151 -0.051724378
-0.060013276 -0.22596912 -0.06028165 0.22054438 -0.20884411 -0.024875367 -0.016536102 0.13275635
0.02606351 -0.047067806 -0.082837924 -0.17664756 -0.031465635 0.12300805 -0.026895532 -0.010958244
0.07047737 0.08195273 0.054167215 0.11374065 -0.081144385 -0.18887016 -0.11357251 0.0064678327
-0.01068265 0.04000168 0.030909957 -0.15721549 0.014747349 -0.013606192 0.12329484 0.041606955
0.018056674 -0.02872451 0.16184597 -0.022144435 -0.10755949 -0.0020387988 -0.25606635 0.060279988
0.0023366457 0.051577978 -0.008269947 -0.14688328 0.19086741 -0.017324565 0.14497788 0.07078633
0.04577502 0.07736031 -0.027882358 0.09392424 -0.06251341 -0.08327309 -0.1334659 0.07617953
0.06766627 0.1344427 -0.016412003 0.07011375 0.048967745 0.01466845 -0.030660858 0.09722663
-0.10778062 0.036761884 -0.010801927 0.015523769 0.054887522 0.020923829 0.04127119 0.12459494
0.1554088 0.0022028475 -0.10394161 0.03358857 0.023181608 0.16811292 0.20070526 -0.08804926
0.010066597 -0.11568914 0.12867846 0.14703177 -0.08804735 0.022049708 0.20156188 0.10073053
-0.023524204 -0.09740921 0.015310028 -0.10806405 -0.067223184 -0.18999675 0.07212962 0.01919834
-0.003821371 0.058025848 0.019427445 -0.1042226 -0.06440146 0.09016825 0.16983184 0.046106253
0.012316108 -0.0030682865 -0.06861993 0.0496674 0.12548387 0.09747475 -0.2449238 0.2796712
-0.01470706 -0.053208776 -0.05766638 -0.10889696 -0.03199397 -0.038091507 0.10467108 0.10295487
-0.1628616 0.044042457 -0.20048632 -0.120100364 -0.062399324 -0.07302238 0.008267688 0.044419635
-0.2828243 -0.024228208 -0.03888742 0.091060705 0.015218585 0.093508966 0.05816963 -0.09015292
0.17971115 -0.041646555 0.004223519 -0.1064642 0.1082454 -0.04356031 0.1069304 -0.055510856
-0.039151393 -0.17376623 0.073436305 0.041806787 -0.20966187 0.046696153 -0.021928154 0.09377791
-0.008469745 -0.04828428 -0.045841876 0.119240895 0.016794162 0.020285182 0.14173494 0.10126403
-0.08636674 0.14696345 0.10394761 0.007972606 -0.0102580255 0.06681505 0.01134988 0.051718093
0.03327912 -0.0029775777 0.15235609 -0.012180559 -0.011960498 -0.062124796 -0.0047495365 -0.14238212
0.27572045 0.06257831 0.21304753 0.10224328 0.035781946 0.18482009 -0.16964503 0.024406563
0.047919232 0.049253993 -0.07820347 -0.005413672 0.042492084 0.07117744 -0.049348425 0.15006186
-0.104566716 0.08282659 0.067744926 0.046950094 0.15503863 0.1408 -0.10178943 -0.21181318
-0.002203456 0.0040783877 -0.18768421 -0.032884058 0.010559826 0.028300539 -0.13430664 -0.16925642
-0.027247071 -0.03059041 0.21996592 0.037105504 -0.004683224 0.16434021 -0.24475534 -0.111765936

network_body._body_endoder.seq_layers.2.bias f4 [128]
00000000: 2991 853a bc25 d939 475f a63b 22ed 16bc
00000010: 5f25 2e3b 5f02 a43b 3b07 25bb 58f7 f33c
00000020: bffb 043d 5e39 a03c c6d7 0e3c 3a00 353c
00000030: 4a30 ffb9 026c 083d 730e c13c d717 433c
00000040: 59b5 d23c d6af 0abb 28e7 423c db31 ce3c
00000050: 9794 daba 2688 e23c ee71 5c3c 7e62 c33b
00000060: c866 113c 58dd b63c d645 d53c 740e 023b
00000070: 7f81 86bb af38 243d fdc9 1ebc c446 be3b
00000080: 112b e73b ded2 2d3d f697 e33c bacd bcbb
00000090: 761f 9fbb 2875 323b 9671 e7bb b4aa fabb
000000a0: ba55 9f3a f45a 18bc ecf5 053d b159 74bb
000000b0: ba20 11bd 513e d03c 5862 233d 2379 593c
000000c0: 9c70 fa3b 6ad1 313d b5e0 80bb 98ac a73c
000000d0: a0d7 e13c c011 4dbc 9c07 ec3c c997 10bc
000000e0: 4c7b 1e3d 44df 55bc 1e76 683c c392 3e3c
000000f0: 9e4b 7fbc 2d29 b53c 363f e73c f286 92bb
00000100: d148 123c 7408 503c ff18 563c 446a 003d
00000110: 7140 20bc 8431 edba 30a4 b93c efb9 76bb
00000120: 48d4 c33c 2396 2f3d 7836 8b3c 9e3e ca3a
00000130: 68c3 833b 62ff 083d 5c16 893c 7a18 473c
00000140: abe7 223c 9e56 cc3a b550 ecbb b39e be3c
00000150: 55b2 633c 1261 0b3d ddb3 323d 5911 d53c
00000160: c897 e93c bfae 093d b791 bdbb 8d78 04bd
00000170: dec6 423c 078d 0f3d 064a e73c a1d4 c33c
00000180: 1b23 1a3c 52d8 543c c45f 4a3c e952 6a3c
00000190: 65ca 323c 514f d03c f2b8 e83a b115 0abc
000001a0: 6bc1 fb3c cf49 fc3c 328c 823b e9d1 40bb
000001b0: ddfb eb3b ba5d da3c 1e79 8e3c 36cf b83c
000001c0: 300c 06bc 3102 0f3c 77d0 fc3c fbad 3c3c
000001d0: 9ff8 cb3c 3d28 6f3c 05c6 073d dba5 d83b
000001e0: 8bd8 bf3c c0b7 ddbb 21ad 093d 4d9c c63c
000001f0: b3eb 3b3c ee2a d2bb c28f e43c 9828 903c
0.0010190356 0.0004141758 0.005077276 -0.00921181 0.0026572568 0.0050051655 -0.0025181312 0.029781029
0.032466646 0.019558605 0.008718437 0.011047417 -0.00048673368 0.03330613 0.02356646 0.011907539
0.025721239 -0.0021161935 0.011895932 0.025170257 -0.0016676363 0.027652811 0.013454897 0.005962669
0.008874603 0.022322342 0.026034277 0.001984504 -0.0041047926 0.04009312 -0.009691712 0.0058067758
0.0070546945 0.042437427 0.027782422 -0.005761829 -0.0048560454 0.0027230475 -0.007063101 -0.007649744
0.0012156286 -0.009299029 0.032705233 -0.0037284906 -0.0354316 0.02542034 0.03988871 0.01327351
0.0076428186 0.043412603 -0.003933037 0.020468041 0.027568638 -0.012516439 0.028812222 -0.008825251
0.038691804 -0.013053719 0.014188318 0.01163167 -0.015581993 0.02211436 0.028228384 -0.004471653
0.008928494 0.012697328 0.013067483 0.031351343 -0.009780989 -0.0018096422 0.022661299 -0.0037647446
0.023904935 0.04286779 0.016993746 0.0015430038 0.004021097 0.033446677 0.016734295 0.012151832
0.009942929 0.0015589779 -0.0072117695 0.023269033 0.013897498 0.03402812 0.043628562 0.026009249
0.028514758 0.033613916 -0.005785193 -0.03234153 0.011888234 0.035046604 0.02823354 0.0239051
0.009407784 0.012991028 0.012351934 0.014301994 0.010912512 0.025428446 0.0017755313 -0.008428023
0.030731877 0.030796913 0.0039839977 -0.0029421991 0.0072016553 0.02665602 0.017391738 0.022559743
-0.008181617 0.00872855 0.030861123 0.01151609 0.024898825 0.014596996 0.03314783 0.0066115684
0.023418685 -0.0067662895 0.033612374 0.024244452 0.011469769 -0.006413809 0.02790058 0.017597482

action_model._discrete_distribution.branches.0.weight f4 [3, 128]
00000000: d582 4e3c 5044 f1bb 2d75 1fbd cfd2 2c3c
00000010: 3de7 e7bc 11c0 5cbc e236 193b a80c 65bd
00000020: 844a 2c3d 7fe7 873c 5c82 a1bc e67a f23c
00000030: 6fc9 133b b2b0 78bc 108d e93c f9ab c4bc
00000040: 334d 223d a9b5 133c 8373 033c d5c5 313d
00000050: e32e 723c 0c46 073d d783 553a 0950 003c
00000060: 6d16 a83b c9d7 a13c 3c1c 8bbc 570e b93c
00000070: fbef ee3c 0489 12bd 94f8 83bc 7ae5 fb3c
00000080: 8635 20bd 21a3 01bd 33e0 33bd 64ff 1bbc
00000090: 603a 8cbc f124 bf3c 534b bf3b 2d2b 85bc
000000a0: cfd8 82bb d6e4 203b 0fb9 b33c d19f 4abc
000000b0: 87b0 053c 1919 d33c 5a01 45bd 87d5 773c
000000c0: 8b38 ddbb 96c5 7f3b e2c0 e23c 3db0 f9bc
000000d0: 1470 373d 0fd0 fc3b 586a 39bd 0ac0 8d3b
000000e0: 8e1b cb3c d9c5 fa3b 28b8 e73c a8c8 143d
000000f0: 2cdf 02bc 79ed 6cbd fd3b 4cbd dc14 283c
00000100: 7ebb ab3c 903a 923c 554f b03c 900a c13c
00000110: c3a1 833c 5e76 3e3d bbf1 a73c 0d92 d9bb
00000120: 1e39 ea3c b8fb 63bd 8275 ee3a 589a 063c
00000130: 2a24 dd3b 3bb9 2c3d 5fe6 9c3c ce97 c3bc
00000140: 3e88 c13c 8f83 a33b ec77 103b ccb1 0c3d
00000150: 3ef5 223d 988f 323d 3fb7 8dbd 48be 81bd
00000160: ced6 043d 1bdc da3c 7aa0 a7bc 6562 4ebc
00000170: a309 b6bb 3a27 e6bc 2e2f 1c3d cfa1 093d
00000180: bfc0 a93b b080 f7bc 8de7 b2bc a43c 77bb
00000190: c8aa 95bb decd fa3c 4293 2e3c 5ebc 013d
000001a0: e977 5b3c 864b 203d f50e b2ba d043 1f3c
000001b0: d96b 7b3c 4797 183d 1ddf babc 2acc 0e3d
000001c0: a760 a33b b4bf f6bc 963e 7dbd b417 38bd
000001d0: 58e5 f0bc 8946 1d3d 693f 45bd 2470 d33c
000001e0: 58bb a03c 253a 06bc e008 68bd 39e6 3cbd
000001f0: 8cc6 363d 7d53 783c 080e a33c 8c9e 073d
00000200: 1324 c7bb 4185 1c3d 5e38 4e3d 763d 523c
00000210: 8ea3 273c f5f4 6c3c 4f9f 093c ab6e a73d
00000220: d8f5 a9bd 0912 9abc b922 213d 9c09 f7bc
00000230: d50e 27bc da6a 793d 8ba6 86bd 17ac 553d
00000240: 634d 74bd 098a 9a3c 285d b5bc 6205 8cbd
00000250: 2ce7 86bc 0970 4ebd 035f 393d 50ce 29bc
00000260: e688 fe3c d3e7 22bd f27f 383d 10ea 1cbd
00000270: 173b e4bb 662c a33d a4ad b33c 6cfd f3bc
00000280: 78a4 7e3c 401b a43d 874d 7c3d 13b1 a63c
00000290: b6ba a83b a9e5 a4bc 4a06 053c 6af1 5c3c
000002a0: 46cc 03bc 903a b1b9 7578 9dbd cd19 8abb
000002b0: 22e9 9b3c dc1e 64bd e6e4 803d 698e 50bd
000002c0: cefa f13c ceaa fabc 21cc f5bb c6ea 6a3d
000002d0: 70d8 81bd 0aa6 c63c 8ca2 803d 3eb0 3a3c
000002e0: 046a 3bbd f0d2 5dbc a403 2ebd 3371 0ebd
000002f0: 5f45 a13c 1156 893d a0e0 5d3d dd15 ec3c
00000300: 0fed 9ebc 3e44 5abd 1233 8dbc 4f6f 55bd
00000310: f4e3 4739 4c62 07bd 26eb f7bc b7ee e13c
00000320: b673 65bd 0514 aa3d 7adf 18bd b228 c9bb
00000330: c066 183d 4c30 88bd a083 e7bc 27ec 663d
00000340: ed79 3ebd 6991 b43b 7e05 b93c dfa3 95bd
00000350: 39bc adbc 0fe9 8abd d776 823d 1c87 a63d
00000360: 2e20 85bd 84de b5bd 9fe0 db3b 9d29 133d
00000370: 7d3c 503d 07fe 743d 6117 8abd caf8 85bd
00000380: dda5 a5bb 9f61 9a3d 737e 303d 063b e0bc
00000390: 07c5 8f3c f4a0 68bd c14b c2bb 0b42 97bc
000003a0: d0a1 e6bc 1f16 67bd 7c2d 333a 5ac9 603c
000003b0: 82e5 53bc 8ab0 78bd 6365 413d 941c 6fbd
000003c0: 6434 dbbb d54e 683d dc3c 983d 70c8 823d
000003d0: 8c0e 7d3d b9bf 50bd a980 863d 48c7 00bc
000003e0: 83f7 7abd 9977 fe3c 1ca2 a73d b6fc 383d
000003f0: 8b11 20bd a1f6 35bc 8b42 27bd 1897 4ebd
0.012604435 -0.00736288 -0.038930107 0.010548308 -0.028308505 -0.013473527 0.002337866 -0.055920273
0.04206325 0.016589878 -0.01971548 0.029599618 0.0022550484 -0.015178846 0.028509647 -0.024007784
0.039624404 0.009015479 0.008023146 0.043401558 0.0147816865 0.033025786 0.0008144951 0.007831582
0.0051296265 0.019756215 -0.016981237 0.022589846 0.029167166 -0.0357752 -0.016109742 0.030749071
-0.039113544 -0.031649712 -0.043914985 -0.009521339 -0.01711768 0.023333045 0.005837837 -0.01625594
-0.0039931308 0.002455046 0.021938829 -0.012367205 0.008159763 0.025768803 -0.048096992 0.0151265925
-0.006751125 0.0039027683 0.027679864 -0.030479545 0.04478462 0.007715232 -0.045267433 0.0043258714
0.024793413 0.00765298 0.028286055 0.036324173 -0.007987779 -0.05784366 -0.049861897 0.0102588795
0.020963427 0.01785019 0.021522203 0.023564607 0.016068345 0.046499602 0.020501008 -0.006639725
0.028591689 -0.05565998 0.0018192979 0.008215509 0.006748696 0.042168837 0.019152818 -0.023876097
0.023624536 0.0049900482 0.0022044135 0.034349248 0.039784662 0.043593973 -0.06919717 -0.063351214
0.032431416 0.026716283 -0.020462263 -0.012596701 -0.005555348 -0.028094877 0.03813093 0.03360158
0.005180448 -0.03021273 -0.021838928 -0.0037725354 -0.004567478 0.030615743 0.010655226 0.03167378
0.013395288 0.039134525 -0.001358478 0.009720758 0.015345537 0.037253644 -0.022811467 0.034862675
0.004985887 -0.030120708 -0.061827265 -0.04494448 -0.029406235 0.038397346 -0.048156176 0.025810309
0.019620582 -0.008192574 -0.05664909 -0.046117995 0.044622943 0.015156624 0.019904152 0.033110186
-0.0060772984 0.03821302 0.050346725 0.012832036 0.010231866 0.014462699 0.008399799 0.08175405
-0.08298844 -0.018807428 0.039339755 -0.03015595 -0.010196407 0.060892917 -0.06574734 0.05216607
-0.059644114 0.018864648 -0.022139147 -0.06836964 -0.016467653 -0.050399814 0.045256626 -0.01036413
0.031071138 -0.039771866 0.045043893 -0.038309157 -0.006965052 0.07967453 0.021933384 -0.029783927
0.015542142 0.0801301 0.061597373 0.020348107 0.005149211 -0.020129042 0.008119175 0.013485292
-0.008044308 -0.00033803703 -0.07688991 -0.0042145015 0.019032065 -0.055693492 0.06293659 -0.050917063
0.029538538 -0.030599024 -0.0075011407 0.057352804 -0.0634011 0.024249095 0.06281003 0.0113945585
-0.0457554 -0.013539061 -0.04248394 -0.034775924 0.019686399 0.06705869 0.054169297 0.028819019
-0.019400148 -0.053287737 -0.017236266 -0.052108105 0.00019063038 -0.033052728 -0.030263495 0.027579648
-0.056018554 0.083046 -0.0373225 -0.0061388845 0.037207365 -0.06649837 -0.028261006 0.056377556
-0.046502996 0.0055104983 0.022585627 -0.073066466 -0.021207916 -0.06782734 0.06370323 0.08131239
-0.065002784 -0.08880332 0.0067101265 0.035928357 0.050838936 0.05981257 -0.067427404 -0.065415934
-0.005055173 0.07538151 0.04308934 -0.027371895 0.017550005 -0.05679412 -0.0059294407 -0.018464109
-0.02815333 -0.05641758 0.0006835086 0.013719881 -0.012933137 -0.060715236 0.04721583 -0.058376864
-0.006689595 0.056715805 0.07433483 0.06385887 0.06178145 -0.05096409 0.06567509 -0.007860012
-0.0612712 0.031062888 0.08185217 0.04516288 -0.03907923 -0.011106164 -0.040834945 -0.050437063

action_model._discrete_distribution.branches.0.bias f4 [3]
00000000: 8649 003c 2b04 30bc edba 193c
0.007830029 -0.010743181 0.0093829455

exp_avg f4 [128, 64]
00000000: 0000 0000 796e 1ab8 e9f9 9a36 05ae 2eb5
00000010: ba01 68b7 0000 0000 1814 28b7 c404 55b7
00000020: 0400 0080 9fb1 1fb7 0000 0000 0572 07b8
00000030: 626e 2436 0400 0080 02d2 51b7 0000 0000
00000040: ba05 ee33 f517 c9b7 0400 0080 5907 04b7
00000050: 0000 0000 ffc0 0cb8 884d 7a36 0400 0000
00000060: 9fb6 3db7 0000 0000 3b92 a437 94c1 beb7
00000070: 09e1 8688 7b08 b5b6 0000 0000 7674 3d37
00000080: d117 2cb8 0400 0000 4d51 49b7 0000 0000
00000090: 3a6a 4136 fb84 9eb6 eb4e aead acf8 11b6
000000a0: 0000 0000 64f0 49b7 c199 95b7 0400 0000
000000b0: 15b0 e8b6 0000 0000 f2ff 9b37 a368 28b6
000000c0: eb4e aead 697f 8ab5 0000 0000 e6ba c4b7
000000d0: 397c c1b6 0400 0000 e4cb 0db7 0000 0000
000000e0: 0fd6 c4b8 0000 0000 e287 d9b9 5337 e8b8
000000f0: 0000 0000 b69c 25b7 19c6 efb9 3c1a d6b9
00000100: 0000 0000 31c0 22ba 48cb 2a37 53e1 1736
00000110: b09d d4b8 0000 0000 d625 0bba aa55 81b8
00000120: 0400 0080 b921 9fb8 0000 0000 14ac 20ba
00000130: 5628 2437 0400 0080 b1d9 eeb8 0000 0000
00000140: 3d44 b0b9 4c58 87b9 0400 0080 e038 a3b8
00000150: 0000 0000 f33c 40ba d12a 0939 0400 0080
00000160: 67eb e1b8 0000 0000 385d c0b9 907f 4ab9
00000170: b31d 350c d7e2 e9b7 0000 0000 a319 e6b9
00000180: b178 2bb9 0f00 0080 e2c3 12b9 0000 0000
00000190: 74aa 70b9 18e0 abb9 3a9d 4e31 36b6 01b8
000001a0: 0000 0000 cf88 e5b9 7d85 2cb9 0f00 0080
000001b0: b515 45b9 0000 0000 74a7 40b9 6123 bdb9
000001c0: 3a9d 4e31 a4fb 2db8 0000 0000 dc51 8cb9
000001d0: 6205 bbb9 0f00 0080 81eb 6bb9 0000 0000
000001e0: f164 daba 0000 0000 4370 85bb c6c8 56bb
000001f0: 0000 0000 ffe6 37b9 ffb4 b43b e145 8fbb
00000200: 0000 0000 292d 1cb9 33b5 c636 4017 4835
00000210: a941 cfb7 0000 0000 7d19 f8b8 5ccb 89b7
00000220: 0400 0000 c9b5 9eb7 0000 0000 f04e 22b9
00000230: 1552 6f37 0400 0080 c8a6 dfb7 0000 0000
00000240: 28f1 a4b8 a3aa 6fb8 0400 0000 8053 bdb7
00000250: 0000 0000 01b9 44b9 a080 4138 0400 0080
00000260: 963d a8b7 0000 0000 60f3 97b8 4f09 38b8
00000270: 113b 8209 71c3 57b7 0000 0000 9f28 dab8
00000280: 4834 1fb8 3700 0000 77e3 dfb7 0000 0000
00000290: fcdd 78b8 f44d 5fb8 0252 162f 0338 30b7
000002a0: 0000 0000 2f57 e0b8 4a9c 0fb8 3700 0000
000002b0: d569 0fb8 0000 0000 6813 5fb8 c262 84b8
000002c0: 0252 162f 4b62 60b7 0000 0000 eebb b1b8
000002d0: 96ea 7bb8 3700 0000 e95e 30b8 0000 0000
000002e0: 01b6 f1b9 0000 0000 4d80 98ba 2f1b 3bba
000002f0: 0000 0000 7a8b 4bb8 9137 3f3a 48d7 9dba
00000300: 0000 0000 1e1e 0ab7 4fe1 a8b4 65db 49b5
00000310: aa3c 29b7 0000 0000 0a08 e2b6 9c1b d8b5
00000320: 0400 0000 fc40 d1b6 0000 0000 86ff edb6
00000330: dc11 ddb5 0400 0000 47ca 17b7 0000 0000
00000340: 6bf4 b636 a4b4 69b7 0400 0000 7dca 8535
00000350: 0000 0000 4da5 0438 2d91 29b8 0400 0000
00000360: 1b23 41b7 0000 0000 026f 6837 ba47 a7b7
00000370: 92cf 288c b28c bb35 0000 0000 c48e a137
00000380: 73b4 eab7 0400 0080 5e63 3eb7 0000 0000
00000390: 8d65 9536 4eb7 3fb7 70cf 1ab1 40cc 1036
000003a0: 0000 0000 e9c6 1837 942c 97b7 0400 0080
000003b0: e7af 23b7 0000 0000 3727 af36 297a 10b7
000003c0: 70cf 1ab1 5426 2236 0000 0000 7928 5db5
000003d0: 3274 3fb6 0400 0080 7913 d9b6 0000 0000
000003e0: 7dfa ac37 0000 0000 d252 12b9 6f4e 1437
000003f0: 0000 0000 e840 1236 c02c 8238 93ea 18b9
0.0 -3.6819347e-05 4.618651e-06 -6.5073283e-07 -1.382868e-05 0.0 -1.0018259e-05 -1.2696899e-05
-6e-45 -9.518494e-06 0.0 -3.2292697e-05 2.4502156e-06 -6e-45 -1.2506267e-05 0.0
1.108378e-07 -2.3972223e-05 -6e-45 -7.869524e-06 0.0 -3.3558343e-05 3.7298032e-06 6e-45
-1.1307798e-05 0.0 1.9618417e-05 -2.2739907e-05 -8.117737e-34 -5.3952076e-06 0.0 1.12923935e-05
-4.1030176e-05 6e-45 -1.1999463e-05 0.0 2.8821073e-06 -4.724248e-06 -1.9816556e-11 -2.175143e-06
0.0 -1.2036504e-05 -1.7833781e-05 6e-45 -6.9346374e-06 0.0 1.8596624e-05 -2.5094857e-06
-1.9816556e-11 -1.0318882e-06 0.0 -2.3452052e-05 -5.7663096e-06 6e-45 -8.451727e-06 0.0
-9.38588e-05 0.0 -0.00041490706 -0.00011072927 0.0 -9.8712535e-06 -0.00045733227 -0.00040836807
0.0 -0.00062084483 1.018012e-05 2.263191e-06 -0.00010138319 0.0 -0.0005308067 -6.1671555e-05
-6e-45 -7.587992e-05 0.0 -0.0006129157 9.784553e-06 -6e-45 -0.000113892725 0.0
-0.00033620177 -0.00025814993 -6e-45 -7.7830395e-05 0.0 -0.0007333301 0.00013081288 -6e-45
-0.00010772683 0.0 -0.00036690547 -0.00019311742 1.395267e-31 -2.7881395e-05 0.0 -0.0004388812
-0.00016352792 -2.1e-44 -0.00013996617 0.0 -0.00022951682 -0.00032782624 3.0066318e-09 -3.0925694e-05
0.0 -0.00043780214 -0.00016452927 -2.1e-44 -0.0001879547 0.0 -0.00018372928 -0.00036075248
3.0066318e-09 -4.1480773e-05 0.0 -0.0002676387 -0.0003567143 -2.1e-44 -0.00022499078 0.0
-0.0016662163 0.0 -0.0040722205 -0.003277348 0.0 -0.00017538293 0.0055147405 -0.004372344
0.0 -0.00014894143 5.921954e-06 7.453964e-07 -2.4706898e-05 0.0 -0.00011830309 -1.642637e-05
6e-45 -1.8919718e-05 0.0 -0.0001547893 1.4264621e-05 -6e-45 -2.6661335e-05 0.0
-7.865048e-05 -5.714096e-05 6e-45 -2.2569438e-05 0.0 -0.00018760936 4.6134577e-05 -6e-45
-2.0055839e-05 0.0 -7.245573e-05 -4.3877688e-05 3.1351907e-33 -1.2860503e-05 0.0 -0.00010402616
-3.7957245e-05 7.7e-44 -2.6689593e-05 0.0 -5.9334547e-05 -5.3239943e-05 1.3671556e-10 -1.0503459e-05
0.0 -0.000106973916 -3.4239412e-05 7.7e-44 -3.419242e-05 0.0 -5.3185417e-05 -6.3126456e-05
1.3671556e-10 -1.3374326e-05 0.0 -8.475022e-05 -6.006154e-05 7.7e-44 -4.2050062e-05 0.0
-0.00046102706 0.0 -0.0011634916 -0.00071375346 0.0 -4.852887e-05 0.0007294352 -0.0012042308
0.0 -8.232453e-06 -3.1456372e-07 -7.5197596e-07 -1.0087309e-05 0.0 -6.7362607e-06 -1.610129e-06
6e-45 -6.2362506e-06 0.0 -7.0928972e-06 -1.6470981e-06 6e-45 -9.047398e-06 0.0
5.4524767e-06 -1.3929941e-05 6e-45 9.968204e-07 0.0 3.16252e-05 -4.0427945e-05 6e-45
-1.151187e-05 0.0 1.3854124e-05 -1.9941352e-05 -1.3004713e-31 1.3973533e-06 0.0 1.9259176e-05
-2.7979002e-05 -6e-45 -1.1348018e-05 0.0 4.452368e-06 -1.1427166e-05 -2.2527864e-09 2.1576561e-06
0.0 9.106218e-06 -1.8021361e-05 -6e-45 -9.756513e-06 0.0 5.2199716e-06 -8.6115115e-06
-2.2527864e-09 2.416219e-06 0.0 -8.238781e-07 -2.8528852e-06 -6e-45 -6.469371e-06 0.0
2.062064e-05 0.0 -0.00013954498 8.839749e-06 0.0 2.1793476e-06 6.2072184e-05 -0.00014583235

exp_avg_sq f4 [128, 64]
00000000: 0000 0000 3bb9 8533 9e37 062f b89e ad2f
00000010: 98a9 fe31 0000 0000 c140 5533 c315 1132
00000020: 926f 392c 3428 ca31 0000 0000 e25b 8533
00000030: bbee 4330 637f 152a 2cc4 0732 0000 0000
00000040: 0321 d732 b9c8 e832 91da b32c b692 7631
00000050: 0000 0000 8ba3 5133 8ff5 1432 9e31 0b2c
00000060: 9d40 0632 0000 0000 8d7b 9132 805c 1c33
00000070: 0997 652d 8596 2531 0000 0000 a2fb f932
00000080: c2f5 e732 ac52 6e2d 7911 fb31 0000 0000
00000090: 1f75 4432 d383 2e33 bd80 902d b790 0831
000000a0: 0000 0000 5671 af32 0558 2433 20d5 bf2d
000000b0: 0099 e431 0000 0000 e52d bd31 e88e 4133
000000c0: 56c7 9c2d cb6c 0a31 0000 0000 4a2e 9f32
000000d0: 6d19 3233 2a7f cc2d cf77 ee31 0000 0000
000000e0: 83c2 4f35 0000 0000 10f8 ac36 1586 a035
000000f0: 0000 0000 7756 1332 519c b236 f2d2 b036
00000100: 0000 0000 16a4 1536 da6e a932 3f1e bd30
00000110: f33c 7e34 0000 0000 7d4c f135 04ef 9934
00000120: f23c 6b2d 3fae 4134 0000 0000 ce60 1736
00000130: 9666 9432 c6c8 392b a5d2 8a34 0000 0000
00000140: cfe3 9535 3be1 6235 6eab 4631 b2c7 f933
00000150: 0000 0000 5a97 ed35 af5d 9b34 b658 aa2c
00000160: e8b2 8d34 0000 0000 42a3 8635 74dd 8335
00000170: 0e88 dc31 3911 b433 0000 0000 ed5b 9f35
00000180: da00 5735 f401 9430 bf2f 8434 0000 0000
00000190: fd0a 6035 7558 9835 0bd8 3632 a074 ac33
000001a0: 0000 0000 6381 8235 efce 9235 241e 6a2f
000001b0: c0d0 7534 0000 0000 9336 1635 4248 be35
000001c0: b686 7e32 5505 c033 0000 0000 5c8a 2a35
000001d0: 62f5 bd35 c369 9f2e 9a24 8c34 0000 0000
000001e0: 5371 ef37 0000 0000 83be 0a39 b576 4238
000001f0: 0000 0000 42cd a934 08a8 7039 3d18 1139
00000200: 0000 0000 c5b1 0434 039c 2b31 37f2 d82e
00000210: 0d87 ad32 0000 0000 8289 ce33 f2dd c732
00000220: fbb0 812d b8de 9232 0000 0000 ddd4 f233
00000230: 11c3 2c32 eb0a 042d 1633 a632 0000 0000
00000240: a491 5b33 bef2 8033 0930 962f 56f7 5132
00000250: 0000 0000 f038 a833 10ac 2433 8592 9f2e
00000260: b0d3 9b32 0000 0000 8c46 2433 a1fe 9d33
00000270: 9140 4e30 9210 1f32 0000 0000 ba91 4933
00000280: d037 9533 ee30 2930 3fbc 9032 0000 0000
00000290: b49c 0833 7da7 af33 c92d 9830 cc10 0c32
000002a0: 0000 0000 81ad 2b33 ed09 a933 db86 ab30
000002b0: ab73 8132 0000 0000 bd6b ec32 e0b4 b433
000002c0: 897e c730 6833 0d32 0000 0000 5702 2733
000002d0: fe57 a533 97cd bf30 7b3b 8232 0000 0000
000002e0: 5343 1c36 0000 0000 9870 3337 0482 3236
000002f0: 0000 0000 b1a0 dd32 1dcd 1b37 44be 3c37
00000300: 0000 0000 24c9 5233 b217 c232 1ca9 a430
00000310: fc6f 8c32 0000 0000 78f6 ce32 2ed1 3a33
00000320: bd90 a02e bae0 5c32 0000 0000 55e6 8633
00000330: 2252 a932 731d 3629 e5ea 9532 0000 0000
00000340: a7c6 1132 8cbb 7c33 0037 a331 8f73 4632
00000350: 0000 0000 f596 3d33 8367 0d33 734d 162a
00000360: 0546 9d32 0000 0000 4c9d da31 d1d6 6433
00000370: a769 2232 5dc0 6632 0000 0000 fdf7 af32
00000380: c32f 3633 344a f430 e7b6 9932 0000 0000
00000390: 3160 e731 6536 5533 1e65 8132 3602 9a32
000003a0: 0000 0000 470a 8032 7bea 5d33 dc1d fb2f
000003b0: ef1a 7a32 0000 0000 4b6a c131 160c 4433
000003c0: 2a75 b532 1ce3 c832 0000 0000 942f 4d32
000003d0: 9351 6433 ce61 df2e 5325 8f32 0000 0000
000003e0: 7f5f 4935 0000 0000 534d 1637 cc4b 0336
000003f0: 0000 0000 05ce 0e32 3ab6 ae37 0011 3337
0.0 6.226988e-08 1.2206988e-10 3.1581293e-10 7.4116535e-09 0.0 4.965182e-08 8.445059e-09
2.6352015e-12 5.8835443e-09 0.0 6.2100085e-08 7.1279843e-10 1.3278055e-13 7.9026385e-09 0.0
2.5044306e-08 2.7099633e-08 5.1117517e-12 3.5881107e-09 0.0 4.8810346e-08 8.670567e-09 1.9780631e-12
7.814518e-09 0.0 1.6936406e-08 3.640571e-08 1.30506795e-11 2.409622e-09 0.0 2.9101844e-08
2.7003697e-08 1.35470905e-11 7.307048e-09 0.0 1.1435332e-08 4.0632425e-08 1.6428076e-11 1.9872866e-09
0.0 2.042422e-08 3.826428e-08 2.1808833e-11 6.6530674e-09 0.0 5.5058416e-09 4.5066287e-08
1.782367e-11 2.0143485e-09 0.0 1.8531086e-08 4.146698e-08 2.3248587e-11 6.9403323e-09 0.0
7.739656e-07 0.0 5.1548777e-06 1.1959952e-06 0.0 8.576186e-09 5.323011e-06 5.269766e-06
0.0 2.229824e-06 1.9724599e-08 1.3760156e-09 2.3677767e-07 0.0 1.797816e-06 2.8672378e-07
1.3371736e-11 1.8037916e-07 0.0 2.2557101e-06 1.7276118e-08 6.600383e-13 2.5857767e-07 0.0
1.1167666e-06 8.4519314e-07 2.8910239e-09 1.16312904e-07 0.0 1.7701925e-06 2.8939164e-07 4.8415395e-12
2.6393468e-07 0.0 1.0031292e-06 9.824712e-07 6.4183103e-09 8.385036e-08 0.0 1.1873177e-06
8.009498e-07 1.0768972e-09 2.4621656e-07 0.0 8.346249e-07 1.1350627e-06 1.0642917e-08 8.030588e-08
0.0 9.723411e-07 1.0938073e-06 2.1292884e-10 2.2893346e-07 0.0 5.595877e-07 1.4177133e-06
1.4815376e-08 8.9416666e-08 0.0 6.3531274e-07 1.4153013e-06 7.24927e-11 2.6103663e-07 0.0
2.854379e-05 0.0 0.00013231677 4.636376e-05 0.0 3.1628048e-07 0.0002295078 0.00013837307
0.0 1.235813e-07 2.4972457e-09 9.865569e-11 2.0201265e-08 0.0 9.617635e-08 2.3267578e-08
1.4744197e-11 1.7097918e-08 0.0 1.1307723e-07 1.0056071e-08 7.5057556e-12 1.9348175e-08 0.0
5.112237e-08 6.004619e-08 2.7318972e-10 1.2221639e-08 0.0 7.8334665e-08 3.8340715e-08 7.25651e-11
1.814064e-08 0.0 3.8248388e-08 7.357199e-08 7.503412e-10 9.258786e-09 0.0 4.6931497e-08
6.9485054e-08 6.1551375e-10 1.684941e-08 0.0 3.1807488e-08 8.1795385e-08 1.1072468e-09 8.152892e-09
0.0 3.997184e-08 7.871481e-08 1.2480216e-09 1.5070176e-08 0.0 2.752301e-08 8.414804e-08
1.4515119e-09 8.218969e-09 0.0 3.8884846e-08 7.699417e-08 1.3955511e-09 1.516104e-08 0.0
2.3285e-06 0.0 1.0695447e-05 2.6599746e-06 0.0 2.580086e-08 9.286477e-06 1.1249973e-05
0.0 4.907737e-08 2.2595348e-08 1.1980634e-09 1.634907e-08 0.0 2.4093637e-08 4.3496748e-08
7.301668e-11 1.2856782e-08 0.0 6.2817584e-08 1.9711539e-08 4.043766e-14 1.74527e-08 0.0
8.485279e-09 5.8843895e-08 4.750177e-09 1.1551392e-08 0.0 4.4142286e-08 3.2923264e-08 1.3349547e-13
1.8309047e-08 0.0 6.3625176e-09 5.328076e-08 9.453664e-09 1.34315e-08 0.0 2.0485453e-08
4.2418616e-08 1.7774426e-09 1.7894719e-08 0.0 6.7339205e-09 4.96424e-08 1.506356e-08 1.7928965e-08
0.0 1.4905835e-08 5.166883e-08 4.567785e-10 1.4558039e-08 0.0 5.6291234e-09 4.56458e-08
2.1124453e-08 2.3386342e-08 0.0 1.19433885e-08 5.3159578e-08 1.01582395e-10 1.6664364e-08 0.0
7.50173e-07 0.0 8.9587e-06 1.956464e-06 0.0 8.312331e-09 2.0827272e-05 1.06731895e-05

exp_avg f4 [128]
00000000: 8155 fab7 dc29 1eba 965d 12b9 66ae 13b7
00000010: b59d 0c38 5dcf 20ba c267 8bb7 1ac8 c139
00000020: b112 2a37 417a 2837 0580 27b9 7a68 a0b7
00000030: 9bca 713a 9f48 5d39 b6f7 4d3a 0e03 11b9
00000040: 1196 ebb7 67f3 d739 207b fdb9 e94b 6238
00000050: bb12 ceb8 9d8b be38 4969 55ba 1d29 c438
00000060: 1471 82b7 ec48 99b7 fa69 84ba 20bb d8b9
00000070: 42fa a635 ca37 8439 0424 a7b8 f5a3 a6b8
00000080: bdf6 5eb8 50ca d6b8 bf52 1cba 8713 8137
00000090: a37b 2a38 f70f cfb7 cffd 3eb8 b34c cd37
000000a0: a54a 8bb7 54bd 063a f164 dab9 1978 09b8
000000b0: d843 a6b7 4d27 34b8 4f8d 8739 dccc df39
000000c0: e355 b938 58fa 653a f480 9239 f3a0 8dba
000000d0: 2bc5 81b8 ba7e 69b8 8a0f 6837 19f5 2c3a
000000e0: a0ba 283a 392b 3537 073e 48b9 aafc b8b8
000000f0: 6628 6a39 4cc4 7eba 05f3 3fba eda8 0038
00000100: d29a 9fb7 0ea9 4736 3a1a 3339 e534 9837
00000110: 61a9 3937 ef30 5c38 8fda 8239 3050 6639
00000120: 81ab b937 e820 843a 8420 5139 d881 783a
00000130: 9709 b637 0d08 3cb8 9c8a 67ba 1c5e a3b8
00000140: 8d1a e7b7 0e27 823a 331d 6fb9 cc49 bf39
00000150: ca84 90b8 efb3 55ba 81a4 fdb6 94fb 4237
00000160: 154a e3b7 e652 9bb8 dc23 bdb7 4f85 4d39
00000170: 87e6 6b39 fd8f f1b9 1466 9d36 eee5 bdb7
00000180: 1dbc 1239 85fb aab8 181f 83b9 4c04 81b9
00000190: 362e 1eba 8e06 7ab8 1909 ff39 14e5 3eb9
000001a0: c666 3d37 6148 a5b7 3500 04ba 41da 41b7
000001b0: 0601 50ba 7fb7 7cb8 6b2a b0b9 4d6e 99b9
000001c0: 98d1 39b7 40cb 8b39 2449 2b3a a67c 0e3a
000001d0: ecef ee37 c9cd 0837 9d99 6538 1fd7 9b39
000001e0: 744d 50ba 05fb 14b8 109b cf38 e4c3 3b36
000001f0: d8bc 17b6 4ab1 7036 00fd cab9 6620 8038
-2.9842138e-05 -0.0006033459 -0.00013958508 -8.802488e-06 3.3525477e-05 -0.0006134415 -1.6618407e-05 0.00036960916
1.01371415e-05 1.0042045e-05 -0.00015974052 -1.9122137e-05 0.0009223611 0.00021103256 0.0007857041 -0.00013829416
-2.8084063e-05 0.00041189344 -0.00048347656 5.3953296e-05 -9.826334e-05 9.085911e-05 -0.0008140994 9.353666e-05
-1.5549864e-05 -1.8272978e-05 -0.0010102384 -0.0004133815 1.2440798e-06 0.00025218568 -7.969889e-05 -7.946036e-05
-5.3158717e-05 -0.00010241999 -0.0005963258 1.5387091e-05 4.0646304e-05 -2.4683757e-05 -4.5535908e-05 2.447362e-05
-1.660485e-05 0.00051399064 -0.00041655407 -3.2775195e-05 -1.9820334e-05 -4.2951946e-05 0.0002585449 0.00042686507
8.837485e-05 0.0008772961 0.00027943368 -0.0010805413 -6.187925e-05 -5.5669552e-05 1.3831896e-05 0.00065978017
0.00064365007 1.0798504e-05 -0.00019096593 -8.820866e-05 0.00022331029 -0.00097185816 -0.00073222845 3.0674903e-05
-1.902637e-05 2.9751714e-06 0.0001708054 1.8144443e-05 1.1066296e-05 5.249766e-05 0.0002495837 0.00021964381
2.2133581e-05 0.0010080608 0.00019943906 0.00094797974 2.1700556e-05 -4.483019e-05 -0.0008832605 -7.789975e-05
-2.754971e-05 0.0009929852 -0.00022803694 0.00036485342 -6.891189e-05 -0.00081521174 -7.5591383e-06 1.1621876e-05
-2.7095006e-05 -7.406417e-05 -2.2547254e-05 0.00019599985 0.00022497225 -0.00046074382 4.690848e-06 -2.2637625e-05
0.00013993723 -8.153081e-05 -0.00025009434 -0.00024608 -0.00060341076 -5.961075e-05 0.00048644168 -0.0001820515
1.1289207e-05 -1.9703237e-05 -0.0005035431 -1.1554513e-05 -0.0007934723 -6.0252376e-05 -0.0003360094 -0.00029264615
-1.1075659e-05 0.0002666358 0.0006534031 0.0005435444 2.8483533e-05 8.154145e-06 5.4740918e-05 0.00029724182
-0.0007946112 -3.551973e-05 9.899412e-05 2.7979195e-06 -2.2610675e-06 3.5865983e-06 -0.00038716942 6.10955e-05

exp_avg_sq f4 [128]
00000000: 7253 8733 1630 1936 966c 0c34 21a2 af33
00000010: 6008 3c34 3e6a 0d36 db40 0c31 4ee6 8a35
00000020: e2db 2a32 06f9 8030 5bfd 1834 4e8d f332
00000030: 5546 0037 7e02 1e35 71df 8936 f17b 8034
00000040: 169a 8333 2c98 ce35 ee8f 8c35 ca29 0334
00000050: c896 0035 1e04 8f33 af06 8836 2856 d133
00000060: 4100 f333 2f7e 7e34 0f48 d836 4eb2 9a35
00000070: 05dc 0e32 27bc c534 3321 a733 ee8c b433
00000080: e669 fe33 73da 9c32 3604 0f36 9453 8f34
00000090: 09ff aa33 4dbb 9031 159a 6634 fb6a 8f31
000000a0: 1113 f632 f6a1 0436 aee7 1f35 b404 8632
000000b0: 1f4c 2d33 80ac a334 8da0 fd34 4463 f635
000000c0: 937a 1c35 e458 cb36 e21b 5d35 a0f3 0b37
000000d0: fd6a 9533 aadf 9433 0d8b ab31 f698 7436
000000e0: 77d5 7e36 a119 1732 ec5b 2434 6ca3 ad33
000000f0: 80c9 0b35 c784 bc36 cb58 4836 ac26 0e33
00000100: 6d77 9330 6183 7331 650c af34 e842 3a34
00000110: 6c7e 3531 defa 8e33 cb0b 2a35 11a1 da34
00000120: 1375 a733 147f c836 e242 d034 e5b1 ff36
00000130: ef3d 0431 45bd f134 aab1 8b36 46e1 d433
00000140: 65a7 9e33 5fbe 0537 0ec7 2435 6271 e735
00000150: 9fc7 ab33 b537 4d36 5851 0c34 5341 9232
00000160: f3c8 5034 e8f2 ba34 21af 2633 9283 1435
00000170: c4d8 3335 64b5 b735 6048 2931 0091 c432
00000180: d846 7634 b260 0034 18e8 b934 98ed d134
00000190: a9fe 3336 e9aa c333 5f97 e635 3091 de33
000001a0: febe db2f a345 9833 70cc 1336 45df 9832
000001b0: 01d6 3b36 7fc2 2935 ccc7 c334 5cca e034
000001c0: 7f1f 5e31 8108 5c35 6d5a 7636 3bf4 1836
000001d0: 31b1 4e31 135a 6b31 930f 5f33 6f9b 5135
000001e0: 06e2 4336 71cb 4933 2586 9833 8355 5c32
000001f0: 4360 0330 24a8 d02f de0d 4635 cfe0 3234
6.301606e-08 2.2826766e-06 1.307802e-07 8.1785636e-08 1.7511911e-07 2.1072478e-06 2.0409547e-09 1.0348829e-06
9.945298e-09 9.384002e-10 1.4248273e-07 2.8353181e-08 7.64577e-06 5.8863213e-07 4.10893e-06 2.3932037e-07
6.128191e-08 1.5392484e-06 1.0472702e-06 1.2215528e-07 4.790313e-07 6.659705e-08 4.053894e-06 9.7479926e-08
1.13156155e-07 2.3701499e-07 6.4456904e-06 1.1525788e-06 8.3155145e-09 3.6831008e-07 7.7825824e-08 8.407538e-08
1.18470595e-07 1.826013e-08 2.1311112e-06 2.6696637e-07 7.9626325e-08 4.212245e-09 2.1476474e-07 4.17401e-09
2.864684e-08 1.9763806e-06 5.9569254e-07 1.5601792e-08 4.0348933e-08 3.0486626e-07 4.7241738e-07 1.8357318e-06
5.82929e-07 6.0602197e-06 8.236949e-07 8.341769e-06 6.957814e-08 6.932471e-08 4.9925633e-09 3.6447868e-06
3.7973202e-06 8.795184e-09 1.5307131e-07 8.0856665e-08 5.2074756e-07 5.618294e-06 2.9854007e-06 3.3097123e-08
1.07296e-09 3.5435834e-09 3.2605308e-07 1.734694e-07 2.641083e-09 6.658023e-08 6.3347096e-07 4.0722855e-07
7.797839e-08 5.9752583e-06 3.8791683e-07 7.620302e-06 1.9243733e-09 4.502746e-07 4.1632056e-06 9.912996e-08
7.387897e-08 7.971742e-06 6.1384424e-07 1.724384e-06 7.999119e-08 3.0579806e-06 1.3068109e-07 1.7026343e-08
1.9444614e-07 3.4821937e-07 3.8809166e-08 5.5325756e-07 6.699813e-07 1.3687354e-06 2.4633877e-09 2.2883341e-08
2.2936308e-07 1.1956107e-07 3.4627806e-07 3.9102156e-07 2.682131e-06 9.1114835e-08 1.718039e-06 1.036409e-07
3.9971576e-10 7.0907184e-08 2.2023705e-06 1.779666e-08 2.7989738e-06 6.3240435e-07 3.6466952e-07 4.1870487e-07
3.2323155e-09 8.196876e-07 3.6709491e-06 2.2791926e-06 3.0077667e-09 3.4248202e-09 5.1935398e-08 7.8084753e-07
2.9188827e-06 4.698399e-08 7.102452e-08 1.28251285e-08 4.779432e-10 3.795445e-10 7.378093e-07 1.6659327e-07
