results/NewBirdAgent7/BirdAgent/BirdAgent-531834.onnx (onnx, 103045 bytes, 6 tensors)

action_model._discrete_distribution.branches.0.bias f4 [3]
0	0x3c004986	0.007830029
1	0xbc30042b	-0.010743181
2	0x3c19baed	0.0093829455

action_model._discrete_distribution.branches.0.weight f4 [3, 128]
0	0x3c4e82d5	0.012604435
1	0xbbf14450	-0.00736288
2	0xbd1f752d	-0.038930107
3	0x3c2cd2cf	0.010548308
4	0xbce7e73d	-0.028308505
5	0xbc5cc011	-0.013473527
6	0x3b1936e2	0.002337866
7	0xbd650ca8	-0.055920273
8	0x3d2c4a84	0.04206325
9	0x3c87e77f	0.016589878
10	0xbca1825c	-0.01971548
11	0x3cf27ae6	0.029599618
12	0x3b13c96f	0.0022550484
13	0xbc78b0b2	-0.015178846
14	0x3ce98d10	0.028509647
15	0xbcc4abf9	-0.024007784
16	0x3d224d33	0.039624404
17	0x3c13b5a9	0.009015479
18	0x3c037383	0.008023146
19	0x3d31c5d5	0.043401558
20	0x3c722ee3	0.0147816865
21	0x3d07460c	0.033025786
22	0x3a5583d7	0.0008144951
23	0x3c005009	0.007831582
24	0x3ba8166d	0.0051296265
25	0x3ca1d7c9	0.019756215
26	0xbc8b1c3c	-0.016981237
27	0x3cb90e57	0.022589846
28	0x3ceeeffb	0.029167166
29	0xbd128904	-0.0357752
30	0xbc83f894	-0.016109742
31	0x3cfbe57a	0.030749071
32	0xbd203586	-0.039113544
33	0xbd01a321	-0.031649712
34	0xbd33e033	-0.043914985
35	0xbc1bff64	-0.009521339
36	0xbc8c3a60	-0.01711768
37	0x3cbf24f1	0.023333045
38	0x3bbf4b53	0.005837837
39	0xbc852b2d	-0.01625594
40	0xbb82d8cf	-0.0039931308
41	0x3b20e4d6	0.002455046
42	0x3cb3b90f	0.021938829
43	0xbc4a9fd1	-0.012367205
44	0x3c05b087	0.008159763
45	0x3cd31919	0.025768803
46	0xbd45015a	-0.048096992
47	0x3c77d587	0.0151265925
48	0xbbdd388b	-0.006751125
49	0x3b7fc596	0.0039027683
50	0x3ce2c0e2	0.027679864
51	0xbcf9b03d	-0.030479545
52	0x3d377014	0.04478462
53	0x3bfcd00f	0.007715232
54	0xbd396a58	-0.045267433
55	0x3b8dc00a	0.0043258714
56	0x3ccb1b8e	0.024793413
57	0x3bfac5d9	0.00765298
58	0x3ce7b828	0.028286055
59	0x3d14c8a8	0.036324173
60	0xbc02df2c	-0.007987779
61	0xbd6ced79	-0.05784366
62	0xbd4c3bfd	-0.049861897
63	0x3c2814dc	0.0102588795
64	0x3cabbb7e	0.020963427
65	0x3c923a90	0.01785019
66	0x3cb04f55	0.021522203
67	0x3cc10a90	0.023564607
68	0x3c83a1c3	0.016068345
69	0x3d3e765e	0.046499602
70	0x3ca7f1bb	0.020501008
71	0xbbd9920d	-0.006639725
72	0x3cea391e	0.028591689
73	0xbd63fbb8	-0.05565998
74	0x3aee7582	0.0018192979
75	0x3c069a58	0.008215509
76	0x3bdd242a	0.006748696
77	0x3d2cb93b	0.042168837
78	0x3c9ce65f	0.019152818
79	0xbcc397ce	-0.023876097
80	0x3cc1883e	0.023624536
81	0x3ba3838f	0.0049900482
82	0x3b1077ec	0.0022044135
83	0x3d0cb1cc	0.034349248
84	0x3d22f53e	0.039784662
85	0x3d328f98	0.043593973
86	0xbd8db73f	-0.06919717
87	0xbd81be48	-0.063351214
88	0x3d04d6ce	0.032431416
89	0x3cdadc1b	0.026716283
90	0xbca7a07a	-0.020462263
91	0xbc4e6265	-0.012596701
92	0xbbb609a3	-0.005555348
93	0xbce6273a	-0.028094877
94	0x3d1c2f2e	0.03813093
95	0x3d09a1cf	0.03360158
96	0x3ba9c0bf	0.005180448
97	0xbcf780b0	-0.03021273
98	0xbcb2e78d	-0.021838928
99	0xbb773ca4	-0.0037725354
100	0xbb95aac8	-0.004567478
101	0x3cfacdde	0.030615743
102	0x3c2e9342	0.010655226
103	0x3d01bc5e	0.03167378
104	0x3c5b77e9	0.013395288
105	0x3d204b86	0.039134525
106	0xbab20ef5	-0.001358478
107	0x3c1f43d0	0.009720758
108	0x3c7b6bd9	0.015345537
109	0x3d189747	0.037253644
110	0xbcbadf1d	-0.022811467
111	0x3d0ecc2a	0.034862675
112	0x3ba360a7	0.004985887
113	0xbcf6bfb4	-0.030120708
114	0xbd7d3e96	-0.061827265
115	0xbd3817b4	-0.04494448
116	0xbcf0e558	-0.029406235
117	0x3d1d4689	0.038397346
118	0xbd453f69	-0.048156176
119	0x3cd37024	0.025810309
120	0x3ca0bb58	0.019620582
121	0xbc063a25	-0.008192574
122	0xbd6808e0	-0.05664909
123	0xbd3ce639	-0.046117995
124	0x3d36c68c	0.044622943
125	0x3c78537d	0.015156624
126	0x3ca30e08	0.019904152
127	0x3d079e8c	0.033110186
128	0xbbc72413	-0.0060772984
129	0x3d1c8541	0.03821302
130	0x3d4e385e	0.050346725
131	0x3c523d76	0.012832036
132	0x3c27a38e	0.010231866
133	0x3c6cf4f5	0.014462699
134	0x3c099f4f	0.008399799
135	0x3da76eab	0.08175405
136	0xbda9f5d8	-0.08298844
137	0xbc9a1209	-0.018807428
138	0x3d2122b9	0.039339755
139	0xbcf7099c	-0.03015595
140	0xbc270ed5	-0.010196407
141	0x3d796ada	0.060892917
142	0xbd86a68b	-0.06574734
143	0x3d55ac17	0.05216607
144	0xbd744d63	-0.059644114
145	0x3c9a8a09	0.018864648
146	0xbcb55d28	-0.022139147
147	0xbd8c0562	-0.06836964
148	0xbc86e72c	-0.016467653
149	0xbd4e7009	-0.050399814
150	0x3d395f03	0.045256626
151	0xbc29ce50	-0.01036413
152	0x3cfe88e6	0.031071138
153	0xbd22e7d3	-0.039771866
154	0x3d387ff2	0.045043893
155	0xbd1cea10	-0.038309157
156	0xbbe43b17	-0.006965052
157	0x3da32c66	0.07967453
158	0x3cb3ada4	0.021933384
159	0xbcf3fd6c	-0.029783927
160	0x3c7ea478	0.015542142
161	0x3da41b40	0.0801301
162	0x3d7c4d87	0.061597373
163	0x3ca6b113	0.020348107
164	0x3ba8bab6	0.005149211
165	0xbca4e5a9	-0.020129042
166	0x3c05064a	0.008119175
167	0x3c5cf16a	0.013485292
168	0xbc03cc46	-0.008044308
169	0xb9b13a90	-0.00033803703
170	0xbd9d7875	-0.07688991
171	0xbb8a19cd	-0.0042145015
172	0x3c9be922	0.019032065
173	0xbd641edc	-0.055693492
174	0x3d80e4e6	0.06293659
175	0xbd508e69	-0.050917063
176	0x3cf1face	0.029538538
177	0xbcfaaace	-0.030599024
178	0xbbf5cc21	-0.0075011407
179	0x3d6aeac6	0.057352804
180	0xbd81d870	-0.0634011
181	0x3cc6a60a	0.024249095
182	0x3d80a28c	0.06281003
183	0x3c3ab03e	0.0113945585
184	0xbd3b6a04	-0.0457554
185	0xbc5dd2f0	-0.013539061
186	0xbd2e03a4	-0.04248394
187	0xbd0e7133	-0.034775924
188	0x3ca1455f	0.019686399
189	0x3d895611	0.06705869
190	0x3d5de0a0	0.054169297
191	0x3cec15dd	0.028819019
192	0xbc9eed0f	-0.019400148
193	0xbd5a443e	-0.053287737
194	0xbc8d3312	-0.017236266
195	0xbd556f4f	-0.052108105
196	0x3947e3f4	0.00019063038
197	0xbd07624c	-0.033052728
198	0xbcf7eb26	-0.030263495
199	0x3ce1eeb7	0.027579648
200	0xbd6573b6	-0.056018554
201	0x3daa1405	0.083046
202	0xbd18df7a	-0.0373225
203	0xbbc928b2	-0.0061388845
204	0x3d1866c0	0.037207365
205	0xbd88304c	-0.06649837
206	0xbce783a0	-0.028261006
207	0x3d66ec27	0.056377556
208	0xbd3e79ed	-0.046502996
209	0x3bb49169	0.0055104983
210	0x3cb9057e	0.022585627
211	0xbd95a3df	-0.073066466
212	0xbcadbc39	-0.021207916
213	0xbd8ae90f	-0.06782734
214	0x3d8276d7	0.06370323
215	0x3da6871c	0.08131239
216	0xbd85202e	-0.065002784
217	0xbdb5de84	-0.08880332
218	0x3bdbe09f	0.0067101265
219	0x3d13299d	0.035928357
220	0x3d503c7d	0.050838936
221	0x3d74fe07	0.05981257
222	0xbd8a1761	-0.067427404
223	0xbd85f8ca	-0.065415934
224	0xbba5a5dd	-0.005055173
225	0x3d9a619f	0.07538151
226	0x3d307e73	0.04308934
227	0xbce03b06	-0.027371895
228	0x3c8fc507	0.017550005
229	0xbd68a0f4	-0.05679412
230	0xbbc24bc1	-0.0059294407
231	0xbc97420b	-0.018464109
232	0xbce6a1d0	-0.02815333
233	0xbd67161f	-0.05641758
234	0x3a332d7c	0.0006835086
235	0x3c60c95a	0.013719881
236	0xbc53e582	-0.012933137
237	0xbd78b08a	-0.060715236
238	0x3d416563	0.04721583
239	0xbd6f1c94	-0.058376864
240	0xbbdb3464	-0.006689595
241	0x3d684ed5	0.056715805
242	0x3d983cdc	0.07433483
243	0x3d82c870	0.06385887
244	0x3d7d0e8c	0.06178145
245	0xbd50bfb9	-0.05096409
246	0x3d8680a9	0.06567509
247	0xbc00c748	-0.007860012
248	0xbd7af783	-0.0612712
249	0x3cfe7799	0.031062888
250	0x3da7a21c	0.08185217
251	0x3d38fcb6	0.04516288
252	0xbd20118b	-0.03907923
253	0xbc35f6a1	-0.011106164
254	0xbd27428b	-0.040834945
255	0xbd4e9718	-0.050437063

network_body._body_endoder.seq_layers.0.bias f4 [128]
0	0xbc2a15b0	-0.010381147
1	0x3d184b20	0.03718102
2	0xbc329521	-0.010899813
3	0x3c2dd536	0.0106099155
4	0x3cfe9242	0.0310756
5	0x3c7f738d	0.015591514
6	0x3cbe91e9	0.023262935
7	0x3d330030	0.04370135
8	0x3c78be7e	0.015182136
9	0xbd25624d	-0.04037695
10	0xbc93b969	-0.018032746
11	0xba76dec8	-0.0009417352
12	0x3d102910	0.03519541
13	0x3cb96b83	0.022634273
14	0x3cd6f13b	0.026238075
15	0xba3ca7ea	-0.0007196652
16	0xbd21faa7	-0.03954568
17	0x3cb1e938	0.021717653
18	0x3a04b1fe	0.00050619233
19	0xbc17b7f2	-0.009260165
20	0x3bf25678	0.007395562
21	0x3bc7fb30	0.006102942
22	0x3c3d0352	0.011536436
23	0x3c82ca2c	0.015965544
24	0x3cdba159	0.026810335
25	0xbb79580c	-0.0038046865
26	0x3d0dc48a	0.034611262
27	0x3d238e5d	0.03993069
28	0xbd065af2	-0.032801576
29	0x3bf5a251	0.0074961563
30	0x3cbcdb2b	0.023053726
31	0xbc7005f0	-0.014649853
32	0x3d070b03	0.032969486
33	0xbc10375b	-0.00880226
34	0x3cccbb31	0.024991604
35	0x3c8234a8	0.01589425
36	0xbc36cd0f	-0.011157288
37	0xbd556731	-0.052100364
38	0xbb64e303	-0.0034925349
39	0xbd00ea1e	-0.03147327
40	0xba8aa9a0	-0.0010579117
41	0x3cc8000f	0.02441409
42	0x3c187a28	0.009306468
43	0xbd0a4981	-0.033761505
44	0xbbf64798	-0.007515859
45	0x3cfa6592	0.03056601
46	0x3c93296d	0.01796409
47	0x3d0c6cc7	0.034283426
48	0x3cb7eae0	0.022450864
49	0x3cb00594	0.021487035
50	0x3d063da3	0.032773625
51	0x3cc2a393	0.023759639
52	0xba406b00	-0.0007340163
53	0x3cd393a5	0.025827238
54	0x3bc528f1	0.0060168435
55	0x3c570e78	0.013126008
56	0x3cb8094f	0.022465376
57	0xbd06f999	-0.03295288
58	0xbc84d679	-0.01621555
59	0xbc9c4a5c	-0.019078426
60	0x3cc8c585	0.024508247
61	0x3d1e48dd	0.038643707
62	0x3d0bb8d4	0.034111813
63	0xbb859176	-0.004076178
64	0x3c05f866	0.008176899
65	0x3ba4713f	0.005018383
66	0xbc2d1c5b	-0.0105658425
67	0xbc0b2073	-0.008491623
68	0xbceca3cd	-0.0288867
69	0x3b5c6c89	0.0033634028
70	0x3cc12359	0.023576425
71	0x3cb3401e	0.02188116
72	0xbd3aaa9d	-0.045572866
73	0x3d396fa8	0.0452725
74	0x3c8a6139	0.016892063
75	0x3cbbad16	0.022909682
76	0xbd0775e9	-0.033071432
77	0x3c14ec23	0.0090895025
78	0x3d1a6ee6	0.037703417
79	0xbcc51cba	-0.02406155
80	0x3bf6472a	0.0075158076
81	0x3cbadbf4	0.02280996
82	0x3d18a3b5	0.0372655
83	0x3d3918d3	0.04518969
84	0x3c0a5d3a	0.0084450785
85	0x3d9740ea	0.07385428
86	0xbc42ba30	-0.011885211
87	0xbcafbf0b	-0.021453401
88	0x3c11733c	0.008877572
89	0xbb7e33b4	-0.0038788142
90	0x3bcad37f	0.006189763
91	0x3b313a40	0.0027042776
92	0x3cd856e1	0.026408615
93	0x3c5cfb9a	0.013487721
94	0xbcb5ffef	-0.022216765
95	0xba7240ee	-0.00092412427
96	0x3d1f2df6	0.03886219
97	0x3d34d83d	0.044151533
98	0x3d003647	0.031301763
99	0x3d4cf7e1	0.050041083
100	0x3c067c89	0.008208402
101	0xbbebc8b9	-0.007195559
102	0x3d1b0fcc	0.037856862
103	0x3c7dd29f	0.0154921105
104	0xba485fce	-0.00076436705
105	0xbc748314	-0.01492383
106	0x3c71eb0f	0.014765515
107	0xbd089aa4	-0.0333506
108	0x3d0af672	0.033926435
109	0x3cf090fe	0.029366013
110	0xbcd2347b	-0.02565979
111	0x3c5c3ea1	0.013442666
112	0x3cb1caaa	0.021703083
113	0x3d7210d5	0.059098084
114	0x3d0b370a	0.033988036
115	0x3cffd933	0.031231498
116	0xbcb06d61	-0.02153653
117	0xbc2a6ab4	-0.010401417
118	0x3d62073a	0.055182673
119	0xbcc72664	-0.024310298
120	0x3d1932c0	0.037401915
121	0x3d5d3a3b	0.05401061
122	0x3c84ed22	0.016226355
123	0xbce270dd	-0.027641708
124	0x3ca5f8c9	0.020260232
125	0x3bfc936c	0.0077080037
126	0x3d02a189	0.031892333
127	0xbbe53bdb	-0.0069956607

network_body._body_endoder.seq_layers.0.weight f4 [128, 64]
0	0xbd9865c7	-0.074412875
1	0x3dfb0110	0.12256062
2	0x3e3b1300	0.18268967
3	0x3dc7e34e	0.09760152
4	0x3d6cb0f7	0.057785954
5	0xbd952130	-0.07281721
6	0xbe08ffff	-0.13378905
7	0x3c861f52	0.016372357
8	0xbe0f96ec	-0.14022416
9	0xbb8ae19f	-0.004238322
10	0xbe3b15a0	-0.18269968
11	0x3da0cbf5	0.07851402
12	0xbcc6a6dc	-0.024249487
13	0x3cf4712a	0.029839117
14	0xbdb489a7	-0.088153176
15	0xbd51d27c	-0.051226124
16	0x3e4bdc72	0.19908312
17	0xbd707e4e	-0.058714204
18	0xbd54b854	-0.0519336
19	0x3da85822	0.08219935
20	0x3e09a864	0.13443142
21	0x3e27a4c8	0.16371453
22	0xbd1bd09d	-0.038040746
23	0x3db0ae6d	0.08627019
24	0x3e6c3c6e	0.23069927
25	0xbd94beb5	-0.07262937
26	0x3e1982d0	0.14991307
27	0x3e8b27a8	0.27178693
28	0x3a41b9b5	0.0007390038
29	0x3d176aa1	0.036966924
30	0xbd9a5be6	-0.075370595
31	0xbdce9e86	-0.1008883
32	0xbd7e4a78	-0.062082738
33	0x3ce0517c	0.027382605
34	0x3d5978a5	0.05309357
35	0x3bef63ce	0.007305599
36	0xbd1d39f5	-0.03838535
37	0xbdbedbd8	-0.093192756
38	0xbcfad86c	-0.030620776
39	0xbe89b7b2	-0.2689796
40	0x3dbece64	0.0931671
41	0xbe7112e9	-0.2354237
42	0x3d6e6367	0.058200266
43	0xbda385df	-0.07984518
44	0xbd31f9bc	-0.043451056
45	0x3cb696f4	0.022288777
46	0xbcbd9a04	-0.02314473
47	0x3d5156bf	0.05110812
48	0xbd189547	-0.037251737
49	0xbe0d8e99	-0.13823928
50	0x3e1c9acf	0.1529343
51	0x3da233ea	0.07920058
52	0xbd16523c	-0.03669952
53	0x3e1d3624	0.15352684
54	0x3e39c5b8	0.1814183
55	0xbdac2097	-0.084046535
56	0xbe26a5b8	-0.16274154
57	0xbc70893c	-0.014681157
58	0x3dfcb737	0.12339633
59	0xbe46a68a	-0.19399467
60	0x3dee503d	0.11636398
61	0x3d44a8c5	0.048012514
62	0x3e25c523	0.16188483
63	0x3bc6480c	0.006051069
64	0x3de178e2	0.11009385
65	0x3ccdf269	0.025140004
66	0xbd6e7e7d	-0.058226097
67	0x3e044d0e	0.12920019
68	0xbdd7ed56	-0.10543315
69	0x3e574a52	0.21024445
70	0xbdb2fc86	-0.08739571
71	0xbcdff766	-0.027339648
72	0xbe6a3499	-0.22871627
73	0xbe9930df	-0.29920098
74	0xbde5b3ad	-0.11215911
75	0x3dd67061	0.10470653
76	0xbee39466	-0.44449157
77	0xbe46bdcd	-0.19408341
78	0xbd0e6356	-0.034762703
79	0xbdd45669	-0.10368044
80	0x3d2ffb3a	0.042964198
81	0x3e53e5b9	0.20693101
82	0xbdca5b89	-0.0988074
83	0x3e05be84	0.13060957
84	0xbc0f2372	-0.008736478
85	0x3d376d5d	0.04478203
86	0x3d98f0fd	0.0746784
87	0xbd21387d	-0.039360512
88	0xbc994d8a	-0.018713731
89	0xbba3a5db	-0.0049941367
90	0x3ddc7f0c	0.1076642
91	0xbda08797	-0.07838362
92	0xbe3d4039	-0.1848153
93	0xbd7aec23	-0.061260354
94	0x3d99dd14	0.075128704
95	0x3d573b79	0.052546952
96	0x3ce2803a	0.027649034
97	0x3d22fffe	0.039794914
98	0xbd679db5	-0.056546886
99	0x3ac77acb	0.001521909
100	0x3deebd1d	0.11657164
101	0x3caf53c8	0.021402255
102	0x3dc49ea7	0.09600573
103	0xbd5f68fb	-0.054543477
104	0x3e229a8f	0.15879272
105	0x3e0f726b	0.1400849
106	0x3e0a9acd	0.13535614
107	0xbe2097d6	-0.15682921
108	0xbe113d22	-0.14183477
109	0x3e4d90b7	0.20074736
110	0x3e4e1f4d	0.20129128
111	0xbd41f340	-0.047351122
112	0x3e4b7ee3	0.19872622
113	0xbc57e184	-0.013176326
114	0xbde727a7	-0.1128686
115	0xbdbe18db	-0.092820846
116	0x3d45e778	0.04831645
117	0xbd2497a6	-0.040183686
118	0x3e26221c	0.16223949
119	0xbe6eaa4f	-0.23307155
120	0xbce77b09	-0.02825691
121	0xbe07dd91	-0.13268115
122	0x3de58327	0.11206656
123	0x3c8630ff	0.016380785
124	0x3e208718	0.15676534
125	0xbddcede6	-0.10787563
126	0xbcafd818	-0.021465346
127	0x3d51b857	0.05120119
128	0xbdef5c8d	-0.116875745
129	0x3dff5b9a	0.124686435
130	0x3dc839da	0.09776659
131	0xbd41c40e	-0.047306113
132	0xbe144909	-0.14480986
133	0x3bd56c4c	0.006513154
134	0xbbc70150	-0.0060731545
135	0x3bbbfd91	0.0057370146
136	0xbd90d2fc	-0.07071492
137	0x39a0342c	0.0003055645
138	0xbda629b1	-0.08113421
139	0xbd8cccc0	-0.068749905
140	0x3c2a8713	0.010408181
141	0x3e98c5c5	0.29838386
142	0xbe9dbcba	-0.3080805
143	0xbb1fd92d	-0.0024390921
144	0x3d3cf0b4	0.04612799
145	0xbe414390	-0.1887343
146	0x3d8b7ff9	0.06811518
147	0x3d87af7b	0.06625267
148	0x3da52e74	0.08065501
149	0xbe171db9	-0.14757432
150	0xbcd8d0eb	-0.026466807
151	0xbcec0735	-0.02881203
152	0xbe1d13b6	-0.1533955
153	0x3d00e0bf	0.031464335
154	0x3c3d6c95	0.0115615325
155	0xbc9f3351	-0.01943365
156	0x3ed72e0c	0.42027318
157	0xbe094230	-0.13404155
158	0xbd0998b9	-0.033592913
159	0xbddadf50	-0.10687125
160	0x3b24c693	0.0025142774
161	0xbeb16538	-0.34647536
162	0x3dc10b28	0.09425956
163	0x3d45c985	0.048287887
164	0xbe08f343	-0.13374047
165	0x3d5763f6	0.052585565
166	0xbdf46d89	-0.11934955
167	0x3cc05665	0.023478696
168	0x3d4bef3b	0.049788695
169	0x3dddf48c	0.10837659
170	0x3dba8f71	0.091093905
171	0x3cdad6a7	0.026713682
172	0xbb5aa96c	-0.0033365143
173	0xbe1d5546	-0.1536456
174	0x3df58b40	0.119894505
175	0xbdd0eeee	-0.10201822
176	0x3dd5182c	0.10405001
177	0x3d6781f8	0.056520432
178	0x3d2db3b2	0.0424077
179	0x3cf9779f	0.030452548
180	0x3d421a7e	0.047388546
181	0x3d8d0190	0.06885064
182	0x3db432a3	0.08798721
183	0xbda9f228	-0.08298141
184	0xbdb43986	-0.08800034
185	0x3d0564b4	0.03256674
186	0x3e0eb971	0.13937928
187	0x3c15e156	0.009147963
188	0xbe38b4f4	-0.18037778
189	0xbd109234	-0.03529568
190	0x3cc64261	0.024201574
191	0x3dbc6c87	0.092003874
192	0xbcf7c092	-0.030243192
193	0xbe59cb18	-0.2126888
194	0xbcfa1a07	-0.030529989
195	0xbe004769	-0.12527241
196	0x3d78ba48	0.060724527
197	0xbe404275	-0.18775351
198	0xbe739db4	-0.23790628
199	0xbe0a6496	-0.13514933
200	0x3ab2f86c	0.0013654358
201	0x3d096a1c	0.03354846
202	0x3df36966	0.118853375
203	0xbca4da7b	-0.02012371
204	0x3bd011e0	0.006349787
205	0x3e4b9a37	0.19883047
206	0x3dbf1664	0.093304425
207	0x3d96b707	0.073591284
208	0x3d72744c	0.05919294
209	0xbe0f4cdc	-0.13994163
210	0x3e479a4b	0.19492452
211	0xbd163ec4	-0.03668095
212	0xbe180b2f	-0.14848016
213	0xbe7752aa	-0.24152628
214	0x3e296569	0.16542591
215	0xbdd239e0	-0.10264945
216	0x3b9735ed	0.0046145828
217	0xbd9d7e0c	-0.07690057
218	0xbdcf4fd7	-0.1012265
219	0xbcdd0e78	-0.026984438
220	0x3e042a80	0.12906837
221	0x3c6c2c25	0.014414822
222	0x3c21f9b6	0.009886196
223	0xbc332486	-0.010934001
224	0x3cc02ba2	0.023458306
225	0x3dc18505	0.094491996
226	0xbdec8b28	-0.115499794
227	0xbc6a8643	-0.014314237
228	0xbe5bd68b	-0.2146856
229	0xbdeb56f2	-0.11491193
230	0x3d313d70	0.043271482
231	0xbc5ce4fb	-0.013482328
232	0xbd9c20c4	-0.07623437
233	0xbdf01506	-0.1172276
234	0x3d1532ba	0.03642533
235	0x3e09fa25	0.13474329
236	0xbc83a1c7	-0.016068352
237	0xbe2202af	-0.15821336
238	0xbe5009ba	-0.2031621
239	0x3e05eb23	0.13077979
240	0x3e476118	0.19470632
241	0x3e7b2378	0.24525249
242	0x3e046816	0.1293033
243	0x3e2ab17d	0.16669269
244	0x3cfcec1a	0.0308743
245	0x3d47c144	0.048768297
246	0x3e492993	0.19644766
247	0xbbe4899d	-0.0069744126
248	0xbe388448	-0.18019211
249	0xbcbc6b89	-0.023000496
250	0x3da89392	0.08231272
251	0xbe0d7bbf	-0.13816737
252	0xbdcb8728	-0.099378884
253	0x3d8ef88b	0.069809996
254	0xbd74c04a	-0.059753694
255	0xbd18dabf	-0.037317988

network_body._body_endoder.seq_layers.2.bias f4 [128]
0	0x3a859129	0.0010190356
1	0x39d925bc	0.0004141758
2	0x3ba65f47	0.005077276
3	0xbc16ed22	-0.00921181
4	0x3b2e255f	0.0026572568
5	0x3ba4025f	0.0050051655
6	0xbb25073b	-0.0025181312
7	0x3cf3f758	0.029781029
8	0x3d04fbbf	0.032466646
9	0x3ca0395e	0.019558605
10	0x3c0ed7c6	0.008718437
11	0x3c35003a	0.011047417
12	0xb9ff304a	-0.00048673368
13	0x3d086c02	0.03330613
14	0x3cc10e73	0.02356646
15	0x3c4317d7	0.011907539
16	0x3cd2b559	0.025721239
17	0xbb0aafd6	-0.0021161935
18	0x3c42e728	0.011895932
19	0x3cce31db	0.025170257
20	0xbada9497	-0.0016676363
21	0x3ce28826	0.027652811
22	0x3c5c71ee	0.013454897
23	0x3bc3627e	0.005962669
24	0x3c1166c8	0.008874603
25	0x3cb6dd58	0.022322342
26	0x3cd545d6	0.026034277
27	0x3b020e74	0.001984504
28	0xbb86817f	-0.0041047926
29	0x3d2438af	0.04009312
30	0xbc1ec9fd	-0.009691712
31	0x3bbe46c4	0.0058067758
32	0x3be72b11	0.0070546945
33	0x3d2dd2de	0.042437427
34	0x3ce397f6	0.027782422
35	0xbbbccdba	-0.005761829
36	0xbb9f1f76	-0.0048560454
37	0x3b327528	0.0027230475
38	0xbbe77196	-0.007063101
39	0xbbfaaab4	-0.007649744
40	0x3a9f55ba	0.0012156286
41	0xbc185af4	-0.009299029
42	0x3d05f5ec	0.032705233
43	0xbb7459b1	-0.0037284906
44	0xbd1120ba	-0.0354316
45	0x3cd03e51	0.02542034
46	0x3d236258	0.03988871
47	0x3c597923	0.01327351
48	0x3bfa709c	0.0076428186
49	0x3d31d16a	0.043412603
50	0xbb80e0b5	-0.003933037
51	0x3ca7ac98	0.020468041
52	0x3ce1d7a0	0.027568638
53	0xbc4d11c0	-0.012516439
54	0x3cec079c	0.028812222
55	0xbc1097c9	-0.008825251
56	0x3d1e7b4c	0.038691804
57	0xbc55df44	-0.013053719
58	0x3c68761e	0.014188318
59	0x3c3e92c3	0.01163167
60	0xbc7f4b9e	-0.015581993
61	0x3cb5292d	0.02211436
62	0x3ce73f36	0.028228384
63	0xbb9286f2	-0.004471653
64	0x3c1248d1	0.008928494
65	0x3c500874	0.012697328
66	0x3c5618ff	0.013067483
67	0x3d006a44	0.031351343
68	0xbc204071	-0.009780989
69	0xbaed3184	-0.0018096422
70	0x3cb9a430	0.022661299
71	0xbb76b9ef	-0.0037647446
72	0x3cc3d448	0.023904935
73	0x3d2f9623	0.04286779
74	0x3c8b3678	0.016993746
75	0x3aca3e9e	0.0015430038
76	0x3b83c368	0.004021097
77	0x3d08ff62	0.033446677
78	0x3c89165c	0.016734295
79	0x3c47187a	0.012151832
80	0x3c22e7ab	0.009942929
81	0x3acc569e	0.0015589779
82	0xbbec50b5	-0.0072117695
83	0x3cbe9eb3	0.023269033
84	0x3c63b255	0.013897498
85	0x3d0b6112	0.03402812
86	0x3d32b3dd	0.043628562
87	0x3cd51159	0.026009249
88	0x3ce997c8	0.028514758
89	0x3d09aebf	0.033613916
90	0xbbbd91b7	-0.005785193
91	0xbd04788d	-0.03234153
92	0x3c42c6de	0.011888234
93	0x3d0f8d07	0.035046604
94	0x3ce74a06	0.02823354
95	0x3cc3d4a1	0.0239051
96	0x3c1a231b	0.009407784
97	0x3c54d852	0.012991028
98	0x3c4a5fc4	0.012351934
99	0x3c6a52e9	0.014301994
100	0x3c32ca65	0.010912512
101	0x3cd04f51	0.025428446
102	0x3ae8b8f2	0.0017755313
103	0xbc0a15b1	-0.008428023
104	0x3cfbc16b	0.030731877
105	0x3cfc49cf	0.030796913
106	0x3b828c32	0.0039839977
107	0xbb40d1e9	-0.0029421991
108	0x3bebfbdd	0.0072016553
109	0x3cda5dba	0.02665602
110	0x3c8e791e	0.017391738
111	0x3cb8cf36	0.022559743
112	0xbc060c30	-0.008181617
113	0x3c0f0231	0.00872855
114	0x3cfcd077	0.030861123
115	0x3c3cadfb	0.01151609
116	0x3ccbf89f	0.024898825
117	0x3c6f283d	0.014596996
118	0x3d07c605	0.03314783
119	0x3bd8a5db	0.0066115684
120	0x3cbfd88b	0.023418685
121	0xbbddb7c0	-0.0067662895
122	0x3d09ad21	0.033612374
123	0x3cc69c4d	0.024244452
124	0x3c3bebb3	0.011469769
125	0xbbd22aee	-0.006413809
126	0x3ce48fc2	0.02790058
127	0x3c902898	0.017597482

network_body._body_endoder.seq_layers.2.weight f4 [128, 128]
0	0xbe1d675d	-0.15371461
1	0xbc5d21b9	-0.01349681
2	0x3e200359	0.15626277
3	0x3dd658e5	0.10466174
4	0x3ddd9cdd	0.10820935
5	0x3d30c2cf	0.043154534
6	0x3cf81be8	0.030286744
7	0xbdad5e07	-0.084652
8	0x3d77c155	0.06048711
9	0xbdec00db	-0.11523601
10	0x3cf9d72a	0.030498106
11	0xbd02516f	-0.031815942
12	0xbba8e0e0	-0.0051537603
13	0x3dc58cfe	0.09646033
14	0x3cba8229	0.022767143
15	0xbe071fda	-0.13195744
16	0xbc5e582b	-0.013570826
17	0xbdb698b9	-0.08915848
18	0xbd91f75e	-0.0712726
19	0xbd57c99e	-0.05268251
20	0xbc799ae1	-0.01523468
21	0xbc9f0bac	-0.019414745
22	0xbc2d55ac	-0.010579508
23	0x3d043c49	0.032284055
24	0x3d1c5c2a	0.038173832
25	0xbdc6b002	-0.097015396
26	0xbcd3613c	-0.0258032
27	0x3dba01d6	0.090823814
28	0xbcc3c6dc	-0.023898534
29	0xbe0d953a	-0.13826457
30	0xbd7bb1f4	-0.061449006
31	0x3e6a78fc	0.22897714
32	0xbc3c148f	-0.011479511
33	0x3d81897c	0.06325051
34	0x3d8f61db	0.07001086
35	0xbd687b3c	-0.05675815
36	0x3d3b98a8	0.04579988
37	0x3e11bc7a	0.14232054
38	0xbdbc5113	-0.09195151
39	0xbd53dcf1	-0.051724378
40	0xbd75d07b	-0.060013276
41	0xbe676473	-0.22596912
42	0xbd76e9e4	-0.06028165
43	0x3e61d663	0.22054438
44	0xbe55db3b	-0.20884411
45	0xbccbc76d	-0.024875367
46	0xbc8776b8	-0.016536102
47	0x3e07f148	0.13275635
48	0x3cd58324	0.02606351
49	0xbd40ca2c	-0.047067806
50	0xbda9a6ee	-0.082837924
51	0xbe34e319	-0.17664756
52	0xbd00e21c	-0.031465635
53	0x3dfbeba5	0.12300805
54	0xbcdc5405	-0.026895532
55	0xbc338a35	-0.010958244
56	0x3d905670	0.07047737
57	0x3da7d6d5	0.08195273
58	0x3d5dde71	0.054167215
59	0x3de8f0dc	0.11374065
60	0xbda62f07	-0.081144385
61	0xbe41672e	-0.18887016
62	0xbde898b4	-0.11357251
63	0x3bd3f01d	0.0064678327
64	0xbc2f0648	-0.01068265
65	0x3d23d8cd	0.04000168
66	0x3cfd36e1	0.030909957
67	0xbe20fd19	-0.15721549
68	0x3c719edd	0.014747349
69	0xbc5eec81	-0.013606192
70	0x3dfc8201	0.12329484
71	0x3d2a6c0e	0.041606955
72	0x3c93eb97	0.018056674
73	0xbceb4faa	-0.02872451
74	0x3e25baf3	0.16184597
75	0xbcb5683f	-0.022144435
76	0xbddc4826	-0.10755949
77	0xbb059d5e	-0.0020387988
78	0xbe831b21	-0.25606635
79	0x3d76e826	0.060279988
80	0x3b192269	0.0023366457
81	0x3d53436e	0.051577978
82	0xbc077eac	-0.008269947
83	0xbe166892	-0.14688328
84	0x3e4372bf	0.19086741
85	0xbc8dec3f	-0.017324565
86	0x3e147515	0.14497788
87	0x3d90f86c	0.07078633
88	0x3d3b7e96	0.04577502
89	0x3d9e6f15	0.07736031
90	0xbce4698b	-0.027882358
91	0x3dc05b5a	0.09392424
92	0xbd800708	-0.06251341
93	0xbdaa8b15	-0.08327309
94	0xbe08ab49	-0.1334659
95	0x3d9c0403	0.07617953
96	0x3d8a949d	0.06766627
97	0x3e09ab59	0.1344427
98	0xbc867277	-0.016412003
99	0x3d8f97cc	0.07011375
100	0x3d489267	0.048967745
101	0x3c7053f0	0.01466845
102	0xbcfb2c7b	-0.030660858
103	0x3dc71ec1	0.09722663
104	0xbddcbc16	-0.10778062
105	0x3d1693a1	0.036761884
106	0xbc30fa91	-0.010801927
107	0x3c7e5768	0.015523769
108	0x3d60d1bd	0.054887522
109	0x3cab6873	0.020923829
110	0x3d290bfb	0.04127119
111	0x3dff2ba2	0.12459494
112	0x3e1f237c	0.1554088
113	0x3b105da6	0.0022028475
114	0xbdd4df57	-0.10394161
115	0x3d09942b	0.03358857
116	0x3cbde75b	0.023181608
117	0x3e2c25cb	0.16811292
118	0x3e4d85ae	0.20070526
119	0xbdb4532c	-0.08804926
120	0x3c24ee5e	0.010066597
121	0xbdecee6e	-0.11568914
122	0x3e03c449	0.12867846
123	0x3e168f7f	0.14703177
124	0xbdb4522b	-0.08804735
125	0x3cb4a197	0.022049708
126	0x3e4e663d	0.20156188
127	0x3dce4bcf	0.10073053
128	0xbcc0b5d5	-0.023524204
129	0xbdc77e7b	-0.09740921
130	0x3c7ad6e9	0.015310028
131	0xbddd50af	-0.10806405
132	0xbd89ac4f	-0.067223184
133	0xbe428e82	-0.18999675
134	0x3d93b8b2	0.07212962
135	0x3c9d45d6	0.01919834
136	0xbb7a6ff7	-0.003821371
137	0x3d6dac83	0.058025848
138	0x3c9f264e	0.019427445
139	0xbdd572a9	-0.1042226
140	0xbd83e4ea	-0.06440146
141	0x3db8aa22	0.09016825
142	0x3e2de866	0.16983184
143	0x3d3cd9e9	0.046106253
144	0x3c49c980	0.012316108
145	0xbb49154e	-0.0030682865
146	0xbd8c889b	-0.06861993
147	0x3d4b700b	0.0496674
148	0x3e007ed8	0.12548387
149	0x3dc7a0d7	0.09747475
150	0xbe7acd4e	-0.2449238
151	0x3e8f3110	0.2796712
152	0xbc70f5e1	-0.01470706
153	0xbd59f172	-0.053208776
154	0xbd6c3395	-0.05766638
155	0xbddf055f	-0.10889696
156	0xbd030c1c	-0.03199397
157	0xbd1c05d7	-0.038091507
158	0x3dd65dcb	0.10467108
159	0x3dd2da01	0.10295487
160	0xbe26c531	-0.1628616
161	0x3d3465dd	0.044042457
162	0xbe4d4c49	-0.20048632
163	0xbdf5f72e	-0.120100364
164	0xbd7f966f	-0.062399324
165	0xbd958cc2	-0.07302238
166	0x3c077532	0.008267688
167	0x3d35f15d	0.044419635
168	0xbe90ce59	-0.2828243
169	0xbcc67a3c	-0.024228208
170	0xbd1f486a	-0.03888742
171	0x3dba7e09	0.091060705
172	0x3c79575f	0.015218585
173	0x3dbf81a1	0.093508966
174	0x3d6e4347	0.05816963
175	0xbdb8a218	-0.09015292
176	0x3e380633	0.17971115
177	0xbd2a9594	-0.041646555
178	0x3b8a6572	0.004223519
179	0xbdda09e7	-0.1064642
180	0x3dddafc4	0.1082454
181	0xbd326c4c	-0.04356031
182	0x3ddafe53	0.1069304
183	0xbd635f5a	-0.055510856
184	0xbd205d36	-0.039151393
185	0xbe31efc6	-0.17376623
186	0x3d9665c6	0.073436305
187	0x3d2b3d98	0.041806787
188	0xbe56b19a	-0.20966187
189	0x3d3f4477	0.046696153
190	0xbcb3a2ac	-0.021928154
191	0x3dc00ea2	0.09377791
192	0xbc0ac4af	-0.008469745
193	0xbd45c5bd	-0.04828428
194	0xbd3bc4b1	-0.045841876
195	0x3df43492	0.119240895
196	0x3c8993e9	0.016794162
197	0x3ca62d1c	0.020285182
198	0x3e1122f7	0.14173494
199	0x3dcf6384	0.10126403
200	0xbdb0e10c	-0.08636674
201	0x3e167d96	0.14696345
202	0x3dd4e27c	0.10394761
203	0x3c029f89	0.007972606
204	0xbc281147	-0.0102580255
205	0x3d88d654	0.06681505
206	0x3c39f4d9	0.01134988
207	0x3d53d65a	0.051718093
208	0x3d084fb0	0.03327912
209	0xbb432377	-0.0029775777
210	0x3e1c033c	0.15235609
211	0xbc4790f8	-0.012180559
212	0xbc43f5f7	-0.011960498
213	0xbd7e7692	-0.062124796
214	0xbb9ba200	-0.0047495365
215	0xbe11cc9e	-0.14238212
216	0x3e8d2b3b	0.27572045
217	0x3d80290f	0.06257831
218	0x3e5a2922	0.21304753
219	0x3dd164ed	0.10224328
220	0x3d129017	0.035781946
221	0x3e3d417a	0.18482009
222	0xbe2db76d	-0.16964503
223	0x3cc7f046	0.024406563
224	0x3d4446f5	0.047919232
225	0x3d49be8e	0.049253993
226	0xbda02924	-0.07820347
227	0xbbb1652c	-0.005413672
228	0x3d2e0c2e	0.042492084
229	0x3d91c57a	0.07117744
230	0xbd4a2193	-0.049348425
231	0x3e19a9d1	0.15006186
232	0xbdd62713	-0.104566716
233	0x3da9a0fd	0.08282659
234	0x3d8abdda	0.067744926
235	0x3d404ebe	0.046950094
236	0x3e1ec272	0.15503863
237	0x3e102de0	0.1408
238	0xbdd076fa	-0.10178943
239	0xbe58e58e	-0.21181318
240	0xbb1067db	-0.002203456
241	0x3b85a3ff	0.0040783877
242	0xbe40304a	-0.18768421
243	0xbd06b16f	-0.032884058
244	0x3c2d031f	0.010559826
245	0x3ce7d688	0.028300539
246	0xbe0987ae	-0.13430664
247	0xbe2d518e	-0.16925642
248	0xbcdf3540	-0.027247071
249	0xbcfa98bd	-0.03059041
250	0x3e613ebf	0.21996592
251	0x3d17fbf1	0.037105504
252	0xbb9975bb	-0.004683224
253	0x3e2848cd	0.16434021
254	0xbe7aa125	-0.24475534
255	0xbde4e58a	-0.111765936
