results/NewBirdAgent7/BirdAgent/BirdAgent-1340298.onnx (onnx, 103045 bytes, 6 tensors)

action_model._discrete_distribution.branches.0.bias f4 [3]
00000000: 2d47 363c 4dd0 7bbc 2232 0c3c
0.011125368 -0.015369487 0.0085568745

action_model._discrete_distribution.branches.0.weight f4 [3, 128]
00000000: 83b3 493c 09cc e6bb 1172 52bd 39e1 803b
00000010: 83cd 0fbd 9626 a9bc 04c8 9cbb 1b51 8dbd
00000020: 7e63 3d3d 07c7 963c 54ff 02bd 27ee 053d
00000030: 815f 903b f94d c9bc 9ff9 063d ec1f 12bd
00000040: bf36 2a3d 300e 0a3b 04b3 733c c54c 3d3d
00000050: 62ac a03c aaf2 103d 5769 febb 6ac9 073c
00000060: 73a3 17bc e4da aa3c 817f cfbc 0d29 ea3c
00000070: 6749 023d 35a0 42bd 6484 debc c9f9 0f3d
00000080: 6f08 40bd 89f1 2abd b5f9 66bd 703b 44bc
00000090: 7e86 f2bc 4d7f d43c 58e9 293c 4baa f4bc
000000a0: cd29 9cba 2bb8 c3ba aeef cc3c f733 67bc
000000b0: b8c6 6dba 0cd2 043d 5ced 6bbd 095b 9f3c
000000c0: 0d40 88bb f448 453c f1e3 173d 330e 27bd
000000d0: 6cb8 413d 5f25 25bc 9eda 77bd 1095 2c3b
000000e0: dc32 fa3c 6fe7 523c d67b 043d 2df6 1b3d
000000f0: dd7f 83bc d9c4 94bd f7c2 7cbd fb3f 68ba
00000100: a76a ab3c 86fd b13c 981b be3c bb02 dc3c
00000110: 2ace 843c a233 4f3d 6632 bc3c 60a4 c0bc
00000120: 2452 0a3d 4851 8bbd 709c b33b 6617 a83b
00000130: 6860 b5bb d255 403d 7f35 083d 86d8 13bd
00000140: f90b d43c 6671 633b ddd2 d1b8 cb11 1b3d
00000150: bb7b 2f3d 0f78 3e3d 2631 acbd f872 92bd
00000160: 7d1d 103d 8a7e ef3c 1281 babc fbd0 acbc
00000170: aa73 b2bc 991a 48bd 0ca1 2e3d 3f98 193d
00000180: d383 363c d20c 25bd 76df 16bd b12f 3abb
00000190: 2fa9 1bbc 066b 0f3d afe5 523c c5e5 e93c
000001a0: e214 833c 003e 2f3d d963 90bb eae0 2c3c
000001b0: 0dc0 753c 2f43 2c3d 73b9 01bd e813 213d
000001c0: 8688 a3ba b092 34bd 7eb9 9dbd 2b81 6ebd
000001d0: 3cd1 32bd 72cc 373d 46ba 8dbd b30e e13c
000001e0: 8b6f b63c 8e3c 6fbc 0b82 8dbd 50c0 69bd
000001f0: b986 483d bd8a 743c ab78 c43c a704 163d
00000200: 4c15 53bc b4c8 183d d022 933d 1a2d ea3c
00000210: 6587 c23c 8ce5 aa3c f4cd cf3c d3d5 c93d
00000220: 74cf c7bd 7944 bebc bae5 533d b9b6 1dbd
00000230: 46df 95bc 1f7d 8e3d 814e 98bd 87d1 853d
00000240: cd77 89bd f74b f73c de1d 2ebd da3a a2bd
00000250: 9636 bfbc 875a 91bd a707 663d 7b75 89bc
00000260: 6f9a 703d ab76 3ebd 8f81 693d 4d7e 8abd
00000270: f503 9bbc cd98 c73d 7e90 2b3d 3abf 35bd
00000280: ef1e d93c c5b7 b53d 151e 9e3d aa5d a43c
00000290: 63ca d93c 2eb6 f2bc d9cf a3bc a8ed ee3c
000002a0: 4088 48bc 7c85 7e3a 1225 b3bd e7e6 80bb
000002b0: 8a05 f53c cb36 88bd 5842 9f3d c323 8fbd
000002c0: 5473 193d 5edd 5cbd 1ff7 bdbc 24f1 923d
000002d0: e7ff 9dbd d4cc 883d d020 a93d f9a5 6a3c
000002e0: 2ef1 7ebd f8e0 18bd 4df0 6cbd c4b1 38bd
000002f0: 0d3e 053d 792d b73d 816b 903d 00ac 283d
00000300: da86 98bc f481 90bd 5724 cfbc 61bd 80bd
00000310: 3b03 9ab6 e2b4 70bd 18cc 19bd d946 513d
00000320: e885 9ebd d1dc c93d d9da 5bbd 1f9c aebb
00000330: d768 403d 1bb4 a2bd 9006 71bd a562 a23d
00000340: 5113 5bbd 135e 273b 9a2d e33c 621e b4bd
00000350: d626 ebbc 4c0e 9dbd f3c3 b33d d6c4 b83d
00000360: 3474 9abd 8102 c5bd 99a9 4c3c 82a8 573d
00000370: 912a 9a3d cd3f ac3d 6723 c4bd b9b5 a5bd
00000380: 8e99 53bc 8bc4 b13d 67d5 833d 4170 f3bc
00000390: 7b80 953c 9d2d 8fbd 3111 1abc c891 aabc
000003a0: 2ffb 0dbd 1f3b 86bd c1ca bdb9 58e1 613c
000003b0: f913 80bc 07a5 92bd ce65 823d 8513 9ebd
000003c0: 16e3 b8bb 70c1 983d 6c1c c63d 93da a13d
000003d0: b7f8 a33d 5647 8cbd f91c c63d ef00 7fbc
000003e0: 0f98 98bd 989d 4b3d a7f7 ca3d 6cee 6e3d
000003f0: 84b6 4fbd 6aad bbbc d134 51bd bf8e 87bd
0.012310865 -0.007043366 -0.051378313 0.0039330986 -0.0351081 -0.020648282 -0.004784586 -0.06900235
0.04623746 0.01840545 -0.03198178 0.032697823 0.004405916 -0.024573313 0.0329529 -0.035674974
0.041556116 0.0021065585 0.014874224 0.04621579 0.019613449 0.035387672 -0.0077640223 0.008287767
-0.009255278 0.020856328 -0.025329353 0.028584028 0.031808283 -0.047516067 -0.027162738 0.035150323
-0.046883043 -0.041734252 -0.056390483 -0.011977062 -0.029605146 0.025939608 0.010370575 -0.029866358
-0.0011914313 -0.0014932206 0.025016632 -0.0141115105 -0.0009070444 0.03242688 -0.05759941 0.019452589
-0.004158026 0.012041319 0.037082616 -0.040785026 0.04729502 -0.010079711 -0.060511224 0.0026333965
0.03054183 0.012872561 0.03234466 0.03807657 -0.01605218 -0.07264108 -0.06170937 -0.00088596315
0.02092488 0.021727335 0.023206517 0.02685677 0.016211588 0.05058635 0.02297325 -0.02351588
0.03376974 -0.068026125 0.0054812953 0.0051297424 -0.005535174 0.046956845 0.033254143 -0.036095165
0.025884615 0.0034705042 -0.00010005173 0.037858766 0.042842608 0.046501216 -0.08407812 -0.07150835
0.035184372 0.029235143 -0.022766624 -0.021095743 -0.021783669 -0.04885349 0.042634055 0.03749871
0.011139828 -0.04029543 -0.036834203 -0.0028409774 -0.009500786 0.035014175 0.012872144 0.028551945
0.016001169 0.042783737 -0.004406434 0.010551671 0.014999402 0.04205626 -0.031671 0.039325625
-0.00124766 -0.044085205 -0.077013955 -0.058228653 -0.043656573 0.04487271 -0.069202945 0.02747283
0.022269985 -0.01460184 -0.06909569 -0.05706817 0.048956607 0.014925656 0.02398332 0.03662553
-0.012883496 0.03730078 0.07184374 0.02858596 0.023746202 0.02086141 0.02536676 0.09855237
-0.097563654 -0.02322601 0.051732756 -0.038504336 -0.018294942 0.06957459 -0.074368484 0.06534105
-0.06712303 0.03018759 -0.042508952 -0.07921381 -0.023341458 -0.07097345 0.05615964 -0.016779652
0.05874103 -0.04649989 0.057008322 -0.06762371 -0.018922785 0.09745941 0.041885845 -0.04437182
0.026504008 0.08872942 0.077205814 0.020064194 0.026585763 -0.029627886 -0.01999657 0.029166058
-0.012239516 0.0009709222 -0.08747305 -0.0039337757 0.029909868 -0.06651076 0.07776326 -0.06989243
0.0374635 -0.05392205 -0.023189126 0.071749 -0.07714825 0.06679693 0.082582116 0.0143217975
-0.062241726 -0.037323922 -0.057846356 -0.045091406 0.03252988 0.0894422 0.07051755 0.041179657
-0.01861899 -0.070560366 -0.025285883 -0.06286121 -4.5899337e-06 -0.058766253 -0.037548155 0.051092956
-0.07740384 0.098565705 -0.053675506 -0.0053286697 0.046974983 -0.07944509 -0.05884415 0.07928971
-0.05348522 0.002553825 0.027731705 -0.087948576 -0.028705042 -0.076687425 0.08777609 0.090219185
-0.07541695 -0.09619618 0.012491607 0.052650936 0.0752765 0.084106065 -0.09577065 -0.080913015
-0.012915028 0.08680066 0.06437188 -0.029716613 0.01824974 -0.06991122 -0.009403513 -0.020821467
-0.034663375 -0.06554245 -0.00036199953 0.013786636 -0.015634524 -0.07160383 0.06367074 -0.07718567
-0.005642305 0.0745877 0.0967339 0.07903018 0.08006423 -0.06849544 0.09673495 -0.015564187
-0.07450878 0.04971084 0.09910517 0.058332846 -0.05071117 -0.022909839 -0.05107576 -0.066190235

network_body._body_endoder.seq_layers.0.bias f4 [128]
00000000: d2bd a4bc 0efd 0a3d 5820 9bbc 0201 0b3d
00000010: 26dd 443d 85a4 713c 5431 1d3d 9889 4c3d
00000020: 0bd9 883d 1e9f 5ebd 8fb7 fcbc 9a21 1fbc
00000030: 75d9 313d 0cb6 1f3d 362a 123d 96a9 fab9
00000040: 17cd 32bd 3d7f e53c e92b 3abb 12e8 493c
00000050: d6f2 013c 3e87 943c 6c2b 213c 0bfe bf3c
00000060: c4b1 9b3c 5037 1abc 85f5 d63c f16e 163d
00000070: 4a6f c3bc cb33 8f3c 4a3c a73c 9a51 87bc
00000080: ec8d 333d 4730 793b 30b1 be3c 9084 ae3c
00000090: 7ece 8c3b 76cf 5cbd c652 10bc 234e 57bd
000000a0: 7871 f8b9 e6e4 173d a186 8d3c 6981 e4bc
000000b0: 69b3 93bc 2b5c f53c 396e da3c d651 393d
000000c0: b667 093d f2df df3c 4058 203d fb1f a83c
000000d0: aea6 d23b 5404 b63c 5260 eebb 7603 883c
000000e0: 24f3 e13c afda 81bc 9bfa 77bc 62d3 62bc
000000f0: 6c27 f93c df51 143d f508 f13c 9c50 19ba
00000100: 1a8f 9c3b 80a3 2b3c 6498 3bbb 2100 a6bc
00000110: 1c20 1bbd 1725 e43c e604 123d 9fb7 9e3c
00000120: 45c9 23bd d2d5 6f3d c32d ee3c 5c7a e53c
00000130: adfc 23bd 98ec c73b 882c 1e3d 742f ea39
00000140: 4a35 203d 8bcc fe3c a472 c13c ebf2 6b3d
00000150: 69b9 483c a529 933d 9921 78bc de25 bcbc
00000160: 4362 c23b 9e53 c9bb df27 813a 9b95 513c
00000170: 4e10 1c3d 5e66 303c 2e48 a43b c01b c63c
00000180: 4edb 573d b1b9 643d 222b e43c b556 4f3d
00000190: ae33 c73b 5769 47bc 87ce 3f3d 1bd6 8b3c
000001a0: 79f1 b5bb 1e10 12bc f69c 2a3c 79a5 e8bb
000001b0: b49e 3a3d 566b b43c 7a6e bebc 7b54 433c
000001c0: 8f8c 2b3d b217 8f3d b06f 2d3d 7db7 2a3d
000001d0: c5b6 b1bc 8808 83bc f384 913d 8209 4dbc
000001e0: b33a 0d3d f677 823d 53ee 4d3d 13ec 30bd
000001f0: bfa2 043d 28f1 a73b 8749 e03c ccd7 c03c
-0.020110045 0.033932738 -0.018936321 0.033936508 0.048062466 0.014748697 0.03837712 0.049935907
0.06682023 -0.054350965 -0.030849246 -0.009712601 0.043420274 0.038991973 0.035684787 -0.00047810067
-0.04365262 0.028014774 -0.002840752 0.012323396 0.007931432 0.018130895 0.009837013 0.023436567
0.019005664 -0.009412602 0.02624012 0.036726896 -0.023856778 0.017480751 0.02041449 -0.016518403
0.04383652 0.003802316 0.023277849 0.021303445 0.0042970767 -0.053908788 -0.008808797 -0.05256475
-0.00047386787 0.03708353 0.01727611 -0.027893739 -0.018029885 0.029951176 0.026663886 0.04524406
0.033546172 0.027328465 0.03914666 0.020523062 0.006428561 0.02221886 -0.007274666 0.016603213
0.027581759 -0.015851347 -0.015135433 -0.013844343 0.030414306 0.03621089 0.029423216 -0.00058484985
0.004777801 0.010475993 -0.0028624767 -0.020263733 -0.03787242 0.027849717 0.035649203 0.019374667
-0.039986867 0.058553524 0.029074555 0.028012447 -0.040035892 0.006101202 0.038616687 0.00044667313
0.03911332 0.031103393 0.023614235 0.05760471 0.0122512365 0.071856774 -0.015144729 -0.022967275
0.005932124 -0.006144001 0.0009853801 0.012792016 0.038101487 0.010766594 0.0050134873 0.024183154
0.05269938 0.05584115 0.027852599 0.0506198 0.0060791587 -0.012171111 0.04682782 0.017069867
-0.0055524674 -0.008914975 0.010413399 -0.007099804 0.045561507 0.022023838 -0.023246039 0.011921997
0.041882094 0.069869414 0.04234284 0.041678894 -0.021693597 -0.015995279 0.07105436 -0.012514474
0.034479808 0.06370537 0.05027611 -0.043193888 0.03238177 0.0051251836 0.02737881 0.0235404

network_body._body_endoder.seq_layers.0.weight f4 [128, 64]
00000000: c765 98bd a233 ea3d fbce 2a3e e737 d23d
00000010: 0b5e 473d 3021 95bd 5143 11be 4b58 353c
00000020: ec96 0fbe afed 4ebc a015 3bbe bd4a 8a3d
00000030: 17e5 93bc 2a71 f43c 3bd3 cbbd 7cd2 51bd
00000040: 0a8e 3c3e 7005 73bd 54b8 54bd 6a71 a43d
00000050: 64a8 093e e870 203e 3a84 3ebd 6dae b03d
00000060: 77f4 603e b5be 94bd 7427 083e 96d5 8a3e
00000070: d172 423a 4a13 1f3d e65b 9abd 7ea5 bcbd
00000080: 52f7 a9bd 7c51 e03c 62f0 223d ce63 ef3b
00000090: 94dc 69bd 1949 c1bd f9d0 fabc a3f5 88be
000000a0: 64ce be3d 16ab 7ebe 8bdd 603d df85 a3bd
000000b0: e020 56bd f496 b63c db53 13bd 80e3 393d
000000c0: d091 18bd 170f 10be cf9a 1c3e 6018 913d
000000d0: 1dc5 2dbd 2436 1d3e cf8d 303e 9720 acbd
000000e0: 9ff7 2dbe 3c89 70bc fcd5 ef3d 8d4a 51be
000000f0: 3d50 ee3d f660 273d 85b6 1f3e 486a 88b9
00000100: e278 e13d 7038 a13c 29cf 33bd 9a43 083e
00000110: 8469 fcbd 524a 573e 4661 ddbd f3bd 54ba
00000120: 9934 6abe cc79 a3be adb3 e5bd a883 cd3d
00000130: 05ca ddbe cdbd 46be b80f 4dbd 6956 d4bd
00000140: f39b 1e3d 0ba8 533e 895b cabd 2f04 d63d
00000150: 7223 0fbc ab9e 4c3d 2951 5f3d 7d38 21bd
00000160: 7edf f5bc dba5 a3bb 976b e13d 903c adbd
00000170: f144 3dbe eff2 bebd 14dd 993d ea59 893d
00000180: f5ab a23b feff 223d 705a 80bd cb7a c73a
00000190: 1da9 003e 32b7 2b3c dd92 c43d 0d3a afbd
000001a0: 8f9a 223e 826b 213e 3a83 e93d d697 20be
000001b0: 4de0 10be b790 4d3e 2bf7 463e d837 39bd
000001c0: f179 4b3e a5ae d6bc a727 e7bd bd50 b6bd
000001d0: a8a5 293d a697 24bd ce4e 2a3e 4faa 6ebe
000001e0: 4e02 adbc 91dd 07be e122 e43d 7866 103d
000001f0: 1887 203e 1851 cebd 796e ddbc 569f 5a3d
00000200: 8d5c efbd de1f ec3d c43c d03d 2822 36bd
00000210: 288f 27be 4c6c d53b 2f43 d1bc e0d0 8d3c
00000220: fcd2 90bd 0e2a a1bc b129 a6bd 6c0e a1bd
00000230: e982 863c c5c5 983e 4de6 a6be 2dd9 1fbb
00000240: e96d 1b3d cb2d 45be f97f 8b3d 7288 3e3d
00000250: 742e a53d 3614 14be 1a6d 3dbd 3507 ecbc
00000260: 0832 2dbe bfe0 003d 6e74 1a3c a434 dfbc
00000270: b22d d73e b4f6 1fbe b998 09bd ec71 b7bd
00000280: e42a c0bc 3865 b1be 380c a53d 85c9 453d
00000290: 7272 05be 1b0f 2b3d af70 f4bd c362 b83a
000002a0: 3bef 4b3d 37a0 f93d 42ac 903d a7d6 da3c
000002b0: 744a 29bc 4655 1dbe ce03 ea3d 6bf8 dabd
000002c0: 7715 d53d 2347 2d3d b2b3 2d3d b18e 113d
000002d0: 0b8b 063d 9001 8d3d 2496 ad3d 28f2 a9bd
000002e0: 422e b2bd b464 053d 12db 0a3e f717 863c
000002f0: f4b4 38be cc7c 0cbd e537 963c 151f b83d
00000300: 92c0 f7bc 8711 38be ff4b 1dbd 85d9 05be
00000310: fb0e a03d 7542 40be a090 3bbe f334 0dbe
00000320: 6cf8 b23a b898 523d 6669 f33d cb84 1b3c
00000330: 74f5 10ba 379a 4b3e c414 e23d 07b7 963d
00000340: 144f 9a3d fe9d f3bd 4b9a 473e 7498 94bc
00000350: 2f0b 18be 239e 67be dc48 3c3e e039 d2bd
00000360: e8b6 c53c 0c7e 9dbd 01e0 d2bd 954b a9b9
00000370: 5a2e 043e 50d2 f33c b6f9 213c 081f 5a3b
00000380: 4703 3a3d 0585 c13d 3113 c2bd 4386 6abc
00000390: acac 70be 88ff aabd 2951 313d dbc2 033a
000003a0: c420 9cbd d303 06be 1206 8c3d 25fa 093e
000003b0: 2414 503c af02 22be 597a 66be 5a6d 263e
000003c0: 1665 473e d01c 833e 1668 043e 439c 133e
000003d0: 651c 903d 44c1 473d 8d7e 693e 9d89 e4bb
000003e0: 1186 23be 896b bcbc 0181 ab3d 11b6 f4bd
000003f0: 2887 cbbd bcf3 b83d e482 a4bd 1ef7 12bd
-0.074412875 0.114356294 0.1668052 0.10264569 0.04867367 -0.07281721 -0.14185835 0.011068414
-0.14022416 -0.01262991 -0.18269968 0.067525364 -0.018053574 0.029839117 -0.099523984 -0.051226124
0.18413559 -0.059331357 -0.0519336 0.080294445 0.13443142 0.1566807 -0.04651282 0.08627019
0.21968256 -0.07262937 0.132963 0.27116078 0.00074176217 0.038836755 -0.075370595 -0.09211253
-0.08299126 0.027382605 0.03978003 0.007305599 -0.057095125 -0.094377704 -0.030617224 -0.26749906
0.0931671 -0.24869952 0.05489878 -0.07984518 -0.052277446 0.022288777 -0.035968643 0.045382977
-0.037248433 -0.14068256 0.1529343 0.07084727 -0.04242431 0.15352684 0.17241596 -0.084046535
-0.16988991 -0.014681157 0.11710736 -0.20438595 0.11636398 0.040863954 0.1559697 -0.00026019127
0.11009385 0.019680232 -0.043898735 0.13307038 -0.12324813 0.21024445 -0.10809569 -0.0008115463
-0.22871627 -0.3192886 -0.11215911 0.10034877 -0.4331819 -0.19408341 -0.05006382 -0.10368044
0.038722944 0.20669572 -0.0988074 0.10450017 -0.008736478 0.049956005 0.05452076 -0.039360512
-0.030013796 -0.0049941367 0.11006849 -0.08458817 -0.1848333 -0.0932368 0.075128704 0.06706603
0.0049643465 0.039794914 -0.062672496 0.001521909 0.12564512 0.010480689 0.095983244 -0.08555994
0.15879272 0.15763667 0.114019826 -0.15682921 -0.14148064 0.20074736 0.19430225 -0.045219272
0.19870736 -0.026206324 -0.1128686 -0.08902118 0.041417748 -0.040183686 0.16631624 -0.23307155
-0.021119263 -0.13268115 0.11139465 0.03525397 0.15676534 -0.10074061 -0.027030217 0.05337461
-0.116875745 0.11529516 0.1016784 -0.044466168 -0.16363204 0.006513154 -0.025544731 0.017311513
-0.07071492 -0.019673374 -0.08113421 -0.07864079 0.016419845 0.29838386 -0.3259758 -0.0024390921
0.037946615 -0.1925575 0.06811518 0.046516843 0.08065501 -0.14460835 -0.046246625 -0.02881203
-0.16913617 0.031464335 0.009427173 -0.02724678 0.4202705 -0.15621454 -0.033592913 -0.08957276
-0.023457952 -0.34647536 0.08058971 0.048287887 -0.13031939 0.041762453 -0.11935555 0.0014067519
0.049788695 0.12188762 0.070641056 0.026713682 -0.010332692 -0.1536456 0.11426507 -0.10691913
0.10404485 0.04230417 0.0424077 0.03553647 0.032847445 0.06885064 0.08475903 -0.08298141
-0.08700229 0.03256674 0.13560131 0.01636885 -0.18037778 -0.034298703 0.0183372 0.089903034
-0.030243192 -0.17975436 -0.038402554 -0.13071258 0.07815357 -0.18775351 -0.18316889 -0.1378973
0.0013654358 0.051415175 0.118853375 0.0094921095 -0.00055297394 0.19883047 0.11039117 0.073591284
0.07534614 -0.11895369 0.19492452 -0.018139102 -0.14848016 -0.22618918 0.18387169 -0.10264945
0.024135068 -0.07690057 -0.102966316 -0.00032290505 0.12908307 0.02976337 0.009886196 0.0033282656
0.04541328 0.094491996 -0.09476317 -0.014314237 -0.23503369 -0.0834952 0.04329029 0.0005026289
-0.07623437 -0.13087396 0.06837095 0.13474329 0.012700114 -0.15821336 -0.2250761 0.16252652
0.19472155 0.2560792 0.1293033 0.14415078 0.07036666 0.048768297 0.22802182 -0.0069744126
-0.15969111 -0.023000496 0.08374215 -0.11948789 -0.099378884 0.09030864 -0.08032778 -0.0358802

network_body._body_endoder.seq_layers.2.bias f4 [128]
00000000: 17ea c53b 29c2 073a a636 463b 3a85 15bb
00000010: 515e 9b3b 90e2 003b 8710 8e3b ae13 d33c
00000020: 3f51 263d 6b32 d73c 4556 dc3b 1e13 8b3c
00000030: 8a0e 473c ddfa 063d e781 f93c f290 233c
00000040: f123 003d 8ef5 753a 806a b53c 6c11 033d
00000050: bf0f 9a3b cb92 303d eac9 223c 2ab9 303c
00000060: 2099 3d3c 5d38 ef3c af0c be3c 5482 843c
00000070: a866 733b 7f68 1d3d ad23 82bb 231d 5c3c
00000080: d7e2 253c 61c3 2e3d 220d ce3c 61c0 0dbc
00000090: 2785 9639 5127 1c3c 25c3 8bbb a52c 4ebc
000000a0: 14e7 cc3a 8378 0dbc cf79 283d 3fed a8bb
000000b0: 7160 03bd c117 083d 7954 173d 3c84 be3c
000000c0: 8a7c 443c 64bc 623d 2cec db3b 139e 853c
000000d0: 398c 163d 9596 95ba 2e96 da3c 87a9 07bc
000000e0: a2ad 483d 6f22 60b9 aacf b83c b635 903c
000000f0: a563 0ebc 60c4 a83c b941 d33c 5470 e7bb
00000100: b52c 6f3c 1a3e b03c d999 983c 3669 1f3d
00000110: 2b95 f7bb d24d a53c 1d4c eb3c fc0d ecba
00000120: 7234 063d 1889 233d aac7 d53c 7043 333b
00000130: 86ac 34ba b559 293d 1824 013d 372a 6a3c
00000140: a45d 843c 16b2 fc39 1129 05bc 0b9d fa3c
00000150: 228d a33c 05d7 293d 63c3 293d 71e7 b73c
00000160: 3539 103d 3c24 243d 6b39 19bc f136 e6bc
00000170: 8b41 5a3c 172c 1e3d 1fde 2e3d a283 043d
00000180: aef5 8a3c 3a77 f73b 654e 8c3c 0ed2 823c
00000190: ad33 fb3b d7eb 093d 7bca 383b 96e0 19bb
000001a0: 9cbd 1c3d b3aa 193d 64e5 0a3a e087 c1ba
000001b0: b80f 543c a9d0 093d 6b93 943c aba1 fe3c
000001c0: 4ccb 19bc 44ac 4a3b 80ac e23c cac3 e93b
000001d0: 2ebf b63c 3280 bd3c 4c90 003d 3370 4e3c
000001e0: f56d 023d 0b15 d23a 2b6c e73c 3887 9e3c
000001f0: b94d 933c 75d7 ac3a 7210 173d 4518 dc3c
0.0060398686 0.00051787734 0.0030244975 -0.0022815005 0.004741468 0.0019666292 0.0043354663 0.02576622
0.040604826 0.026269158 0.0067241513 0.01697689 0.0121494625 0.032954086 0.03045745 0.009983288
0.031284276 0.0009382599 0.02214551 0.031999037 0.004701584 0.043108743 0.009935835 0.010786334
0.011572152 0.02920168 0.023199407 0.016175427 0.0037140045 0.038429733 -0.003971538 0.013434681
0.010124884 0.042666797 0.025152747 -0.008651824 0.00028709436 0.009530858 -0.0042652064 -0.012583886
0.0015632831 -0.008634689 0.04113179 -0.005155235 -0.032074396 0.03322578 0.036945794 0.023256414
0.011992583 0.055355445 0.0067115035 0.016310727 0.03675482 -0.0011412675 0.02668294 -0.008280165
0.048993714 -0.00021375132 0.02255996 0.017603736 -0.008690749 0.020601451 0.025788175 -0.007062951
0.014598061 0.021513987 0.018628048 0.038918696 -0.007555624 0.02017871 0.028722817 -0.0018009539
0.03276486 0.039925665 0.026096184 0.0027353428 -0.0006892163 0.041345317 0.031528562 0.014292291
0.016157933 0.0004819787 -0.008127467 0.030592462 0.019964758 0.041464824 0.0414461 0.022449227
0.035210807 0.04007362 -0.009352068 -0.02810237 0.013321291 0.038616266 0.0426923 0.032352097
0.016962852 0.0075520547 0.017127225 0.015969303 0.0076660723 0.03367218 0.002819686 -0.002347981
0.038266763 0.037516307 0.0005298464 -0.0014765225 0.012943201 0.03364626 0.0181367 0.031082949
-0.009386849 0.0030925432 0.027670145 0.0071339356 0.022307958 0.023132417 0.031387612 0.012599993
0.031843144 0.0016028 0.02824982 0.019351587 0.017981397 0.001318677 0.036880918 0.026867041

network_body._body_endoder.seq_layers.2.weight f4 [128, 128]
00000000: a5d6 1fbe 3067 86bc fad0 1b3e b9af cc3d
00000010: 8d2c e73d 47c0 2f3d ed7b bc3c 44e3 b0bd
00000020: bc10 933d 4fe5 f8bd fcf0 f53c a810 febc
00000030: 4874 7e3b c1fa ce3d adfb d93c 84e5 12be
00000040: 5810 82bc 3d7c b8bd 37e9 99bd 1aed 5bbd
00000050: dd01 94bc f595 93bc 2ae6 86bc 0205 0c3d
00000060: af60 313d f022 c8bd 493d e9bc 8e92 bb3d
00000070: ac36 debc a7ae 0bbe 180b 84bd d0be 633e
00000080: 300e 58bc 9330 5b3d 9701 883d 925a 7ebd
00000090: 6fba 283d a8a6 083e 44c5 c3bd d351 81bd
000000a0: af31 87bd a24c 62be 854b 95bd fac1 5a3e
000000b0: c77b 58be 1fd1 f3bc 3685 73bc ab3e 093e
000000c0: a25e d03c 6397 2bbd c678 adbd 009a 33be
000000d0: af63 04bd 3231 f93d 583c 0dbd 2daa 33bc
000000e0: 5d17 953d 3b53 a93d 6fe5 383d 61a7 eb3d
000000f0: d368 a8bd a1a9 47be a1cf f7bd 68d8 79b9
00000100: 1f5b a4bc 0627 033d 9878 1a3d 84fb 20be
00000110: d620 b43b 16e7 55bc 012d fe3d 6188 293d
00000120: 97fb 4e3c 77e0 9abc 630f 293e c3c7 adbc
00000130: 9145 f3bd 0241 34bb 6404 86be d3b2 4c3d
00000140: 6725 9a3b 4a4e 6c3d 3a87 1ebc f4ef 0bbe
00000150: 8b10 423e 4191 97bc a690 153e e942 823d
00000160: 0f11 2d3d 0676 a13d a09e 04bd e585 c63d
00000170: dcb7 82bd 2c3e b1bd d51e 0abe 6131 943d
00000180: 928e 863d 3f5f 083e 2057 1fbc 2e4c 833d
00000190: 6935 373d 3ad7 ff3b 6ae1 e0bc 9374 bf3d
000001a0: c3a6 ebbd ad88 033d 7e4c 90bc 1948 d23b
000001b0: bf59 293d d31d 933c b6df 0a3d ad96 f73d
000001c0: 3b73 2a3e 6974 af3c c6fb ccbd 6deb 1b3d
000001d0: bbb9 7a3c 15af 263e 4b34 4b3e 5d7f b8bd
000001e0: f7ca 753a 042c e9bd 8f8c 113e ff28 103e
000001f0: 918d bcbd 53b4 6e3c cf9f 4a3e c1d4 df3d
00000200: e770 03bd e176 cebd d7a1 333c 7783 d3bd
00000210: 6612 89bd 91a8 4abe f9bf 8d3d 4b22 773c
00000220: a00b 503b 3348 673d 93fb 463c 5328 cabd
00000230: 37da 68bd 89d8 ae3d b789 2e3e 1425 3f3d
00000240: 3c0f 133c e6dc 8abb 87f4 94bd b1cc 4e3d
00000250: 545f f73d afac b73d 02cd 7fbe a812 8d3e
00000260: ca21 e1ba 7701 69bd 9297 77bd 45ad e0bd
00000270: 70cb 1abd df77 16bd f01a d03d 906c d73d
00000280: 2405 2abe b6ea 243d 4009 52be fb93 ffbd
00000290: 8f14 83bd 9eda 97bd 8e45 5039 35b9 263d
000002a0: 5667 91be 210a c7bc 53f9 6fbd a4b1 bb3d
000002b0: f5a3 423c a8fc c03d 1d5f 6b3d f3de bdbd
000002c0: ec7a 353e 67f3 1bbd 7a30 38bb 0ce4 e2bd
000002d0: e243 d73d 1fc0 36bd 0e7e db3d a12a 65bd
000002e0: 90fe 23bd a238 33be bfa3 4d3d fa3d 223d
000002f0: 7382 57be d7dd 253d 02ec a5bc 64d2 b83d
00000300: 2492 26bc c56f 35bd 0646 40bd 68be ee3d
00000310: 2512 7a3c ffed 793c ae5c 0f3e b107 ca3d
00000320: 2109 b1bd 7d97 1b3e 9236 d13d 1ba2 de3b
00000330: 7fe5 81bc 66ea 8c3d ac9e 253c 9216 723d
00000340: 440f 113d a8ca e6ba 7534 153e 609a d4bb
00000350: 9c04 6fbc d96e 87bd 604d 20bb c5b3 14be
00000360: 8e04 8b3e ff5b 683d e0b9 4e3e 229a d73d
00000370: 6ae4 083d f7f0 3d3e a6bc 2dbe 8d1e cd3c
00000380: d1e2 3b3d 5047 3e3d 6a41 94bd 62ab e2bb
00000390: f11a 1b3d fc8c 893d b3d4 47bd 6c2b 173e
000003a0: e7a5 d6bd 62e0 a63d 01d1 2a3d d018 623d
000003b0: 4d75 243e e218 073e 2910 e8bd dc9f 5abe
000003c0: 9376 003b 58a8 bc3c f026 40be 9bf7 18bd
000003d0: e29c f13b 05e6 e13c 63af 0dbe 0616 31be
000003e0: f4be f7bc 9796 f5bc 53ea 633e 050f 113d
000003f0: 86c6 10bc 7036 2a3e bfe7 79be 1990 dcbd
-0.15609224 -0.016406626 0.15216437 0.09994454 0.11287794 0.04290798 0.023008311 -0.086370975
0.07180926 -0.12153112 0.030022137 -0.031013802 0.0038826633 0.10106421 0.026609266 -0.14345366
-0.015876934 -0.090080716 -0.07515185 -0.053692915 -0.018067295 -0.018015841 -0.016467173 0.034184463
0.043305095 -0.09772289 -0.028471606 0.091588125 -0.027125679 -0.13640843 -0.064474285 0.22240758
-0.013186976 0.05351312 0.06640928 -0.062098093 0.041193422 0.13344824 -0.0955911 -0.06314435
-0.06601273 -0.22099546 -0.07289795 0.21363059 -0.21140967 -0.029762803 -0.014863303 0.13402812
0.02543575 -0.04189242 -0.08470301 -0.17539215 -0.03232163 0.121675864 -0.034481376 -0.010965866
0.07279847 0.08267828 0.04514068 0.11506534 -0.08223119 -0.19498302 -0.12100149 -0.00023827108
-0.020062981 0.032019638 0.037712663 -0.15720946 0.0054970784 -0.013055583 0.124109276 0.041389827
0.012633226 -0.018905861 0.16509776 -0.021213418 -0.11878503 -0.0027504568 -0.26175225 0.049975228
0.0047041657 0.05769185 -0.009675795 -0.13665754 0.18951623 -0.01850188 0.1460596 0.06360418
0.042252596 0.07883839 -0.03237784 0.09693507 -0.06382725 -0.086544365 -0.13488324 0.07235981
0.06570162 0.13317584 -0.009725362 0.064110145 0.04472867 0.0078076394 -0.027451236 0.09348407
-0.11506417 0.032112766 -0.0176146 0.006417286 0.041345354 0.017958557 0.033904754 0.12089286
0.1664552 0.021417813 -0.100089595 0.038066316 0.015303071 0.16277726 0.19844167 -0.090086676
0.00093762524 -0.113853484 0.14213775 0.14078139 -0.09206689 0.01456936 0.19787525 0.109292515
-0.032090094 -0.10081268 0.010963879 -0.10327809 -0.06692962 -0.19790865 0.069213815 0.01508386
0.003174521 0.05646534 0.012144941 -0.098709725 -0.05684873 0.085373946 0.17044722 0.04666622
0.0089758 -0.004237759 -0.072732024 0.050488178 0.12078729 0.08968484 -0.24980548 0.27553296
-0.0017176208 -0.056886163 -0.060447283 -0.109705485 -0.03779167 -0.03673541 0.10161388 0.105187535
-0.16603523 0.0402629 -0.20511341 -0.12479397 -0.064004056 -0.07414745 0.00019862337 0.04070397
-0.28399152 -0.024296822 -0.058587383 0.09164742 0.011879911 0.0942319 0.057463754 -0.0927104
0.17722672 -0.038073923 -0.0028105066 -0.11078653 0.105109945 -0.044616815 0.107174024 -0.055948857
-0.04003769 -0.17502072 0.05020499 0.039609887 -0.21045856 0.040494766 -0.020254139 0.09024504
-0.010166679 -0.044296045 -0.04694178 0.11657411 0.015263115 0.015254497 0.14000198 0.09864748
-0.08644319 0.15194507 0.102154866 0.006794227 -0.015856503 0.068806455 0.010108631 0.059103556
0.03541495 -0.0017608004 0.14570792 -0.0064881295 -0.014588501 -0.066129394 -0.0024460182 -0.14521702
0.27151912 0.05672836 0.20188093 0.105274454 0.033420958 0.18548952 -0.16966495 0.025038982
0.045870606 0.046454728 -0.07239039 -0.006917403 0.03786749 0.06716344 -0.04878683 0.14762658
-0.10480862 0.081482664 0.041703228 0.055199444 0.16060372 0.13193086 -0.11331207 -0.21350044
0.0019601926 0.023029491 -0.18764853 -0.03734551 0.007373438 0.027575502 -0.13836436 -0.17293558
-0.03024242 -0.029979033 0.22257356 0.035414714 -0.008836394 0.16622329 -0.2440481 -0.10769672
