results/NewBirdAgent7/BirdAgent/checkpoint.pt (torch, 618247 bytes, 33 tensors)

network_body._body_endoder.seq_layers.0.weight f4 [128, 64]
000000 c7 65 98 bd a2 33 ea 3d fb ce 2a 3e e7 37 d2 3d
       -0.074412875 0.114356294 0.1668052 0.10264569
000010 0b 5e 47 3d 30 21 95 bd 51 43 11 be 4b 58 35 3c
       0.04867367 -0.07281721 -0.14185835 0.011068414
000020 ec 96 0f be af ed 4e bc a0 15 3b be bd 4a 8a 3d
       -0.14022416 -0.01262991 -0.18269968 0.067525364
000030 17 e5 93 bc 2a 71 f4 3c 3b d3 cb bd 7c d2 51 bd
       -0.018053574 0.029839117 -0.099523984 -0.051226124
000040 0a 8e 3c 3e 70 05 73 bd 54 b8 54 bd 6a 71 a4 3d
       0.18413559 -0.059331357 -0.0519336 0.080294445
000050 64 a8 09 3e e8 70 20 3e 3a 84 3e bd 6d ae b0 3d
       0.13443142 0.1566807 -0.04651282 0.08627019
000060 77 f4 60 3e b5 be 94 bd 74 27 08 3e 96 d5 8a 3e
       0.21968256 -0.07262937 0.132963 0.27116078
000070 d1 72 42 3a 4a 13 1f 3d e6 5b 9a bd 7e a5 bc bd
       0.00074176217 0.038836755 -0.075370595 -0.09211253
000080 52 f7 a9 bd 7c 51 e0 3c 62 f0 22 3d ce 63 ef 3b
       -0.08299126 0.027382605 0.03978003 0.007305599
000090 94 dc 69 bd 19 49 c1 bd f9 d0 fa bc a3 f5 88 be
       -0.057095125 -0.094377704 -0.030617224 -0.26749906
0000a0 64 ce be 3d 16 ab 7e be 8b dd 60 3d df 85 a3 bd
       0.0931671 -0.24869952 0.05489878 -0.07984518
0000b0 e0 20 56 bd f4 96 b6 3c db 53 13 bd 80 e3 39 3d
       -0.052277446 0.022288777 -0.035968643 0.045382977
0000c0 d0 91 18 bd 17 0f 10 be cf 9a 1c 3e 60 18 91 3d
       -0.037248433 -0.14068256 0.1529343 0.07084727
0000d0 1d c5 2d bd 24 36 1d 3e cf 8d 30 3e 97 20 ac bd
       -0.04242431 0.15352684 0.17241596 -0.084046535
0000e0 9f f7 2d be 3c 89 70 bc fc d5 ef 3d 8d 4a 51 be
       -0.16988991 -0.014681157 0.11710736 -0.20438595
0000f0 3d 50 ee 3d f6 60 27 3d 85 b6 1f 3e 48 6a 88 b9
       0.11636398 0.040863954 0.1559697 -0.00026019127
000100 e2 78 e1 3d 70 38 a1 3c 29 cf 33 bd 9a 43 08 3e
       0.11009385 0.019680232 -0.043898735 0.13307038
000110 84 69 fc bd 52 4a 57 3e 46 61 dd bd f3 bd 54 ba
       -0.12324813 0.21024445 -0.10809569 -0.0008115463
000120 99 34 6a be cc 79 a3 be ad b3 e5 bd a8 83 cd 3d
       -0.22871627 -0.3192886 -0.11215911 0.10034877
000130 05 ca dd be cd bd 46 be b8 0f 4d bd 69 56 d4 bd
       -0.4331819 -0.19408341 -0.05006382 -0.10368044
000140 f3 9b 1e 3d 0b a8 53 3e 89 5b ca bd 2f 04 d6 3d
       0.038722944 0.20669572 -0.0988074 0.10450017
000150 72 23 0f bc ab 9e 4c 3d 29 51 5f 3d 7d 38 21 bd
       -0.008736478 0.049956005 0.05452076 -0.039360512
000160 7e df f5 bc db a5 a3 bb 97 6b e1 3d 90 3c ad bd
       -0.030013796 -0.0049941367 0.11006849 -0.08458817
000170 f1 44 3d be ef f2 be bd 14 dd 99 3d ea 59 89 3d
       -0.1848333 -0.0932368 0.075128704 0.06706603
000180 f5 ab a2 3b fe ff 22 3d 70 5a 80 bd cb 7a c7 3a
       0.0049643465 0.039794914 -0.062672496 0.001521909
000190 1d a9 00 3e 32 b7 2b 3c dd 92 c4 3d 0d 3a af bd
       0.12564512 0.010480689 0.095983244 -0.08555994
0001a0 8f 9a 22 3e 82 6b 21 3e 3a 83 e9 3d d6 97 20 be
       0.15879272 0.15763667 0.114019826 -0.15682921
0001b0 4d e0 10 be b7 90 4d 3e 2b f7 46 3e d8 37 39 bd
       -0.14148064 0.20074736 0.19430225 -0.045219272
0001c0 f1 79 4b 3e a5 ae d6 bc a7 27 e7 bd bd 50 b6 bd
       0.19870736 -0.026206324 -0.1128686 -0.08902118
0001d0 a8 a5 29 3d a6 97 24 bd ce 4e 2a 3e 4f aa 6e be
       0.041417748 -0.040183686 0.16631624 -0.23307155
0001e0 4e 02 ad bc 91 dd 07 be e1 22 e4 3d 78 66 10 3d
       -0.021119263 -0.13268115 0.11139465 0.03525397
0001f0 18 87 20 3e 18 51 ce bd 79 6e dd bc 56 9f 5a 3d
       0.15676534 -0.10074061 -0.027030217 0.05337461
000200 8d 5c ef bd de 1f ec 3d c4 3c d0 3d 28 22 36 bd
       -0.116875745 0.11529516 0.1016784 -0.044466168
000210 28 8f 27 be 4c 6c d5 3b 2f 43 d1 bc e0 d0 8d 3c
       -0.16363204 0.006513154 -0.025544731 0.017311513
000220 fc d2 90 bd 0e 2a a1 bc b1 29 a6 bd 6c 0e a1 bd
       -0.07071492 -0.019673374 -0.08113421 -0.07864079
000230 e9 82 86 3c c5 c5 98 3e 4d e6 a6 be 2d d9 1f bb
       0.016419845 0.29838386 -0.3259758 -0.0024390921
000240 e9 6d 1b 3d cb 2d 45 be f9 7f 8b 3d 72 88 3e 3d
       0.037946615 -0.1925575 0.06811518 0.046516843
000250 74 2e a5 3d 36 14 14 be 1a 6d 3d bd 35 07 ec bc
       0.08065501 -0.14460835 -0.046246625 -0.02881203
000260 08 32 2d be bf e0 00 3d 6e 74 1a 3c a4 34 df bc
       -0.16913617 0.031464335 0.009427173 -0.02724678
000270 b2 2d d7 3e b4 f6 1f be b9 98 09 bd ec 71 b7 bd
       0.4202705 -0.15621454 -0.033592913 -0.08957276
000280 e4 2a c0 bc 38 65 b1 be 38 0c a5 3d 85 c9 45 3d
       -0.023457952 -0.34647536 0.08058971 0.048287887
000290 72 72 05 be 1b 0f 2b 3d af 70 f4 bd c3 62 b8 3a
       -0.13031939 0.041762453 -0.11935555 0.0014067519
0002a0 3b ef 4b 3d 37 a0 f9 3d 42 ac 90 3d a7 d6 da 3c
       0.049788695 0.12188762 0.070641056 0.026713682
0002b0 74 4a 29 bc 46 55 1d be ce 03 ea 3d 6b f8 da bd
       -0.010332692 -0.1536456 0.11426507 -0.10691913
0002c0 77 15 d5 3d 23 47 2d 3d b2 b3 2d 3d b1 8e 11 3d
       0.10404485 0.04230417 0.0424077 0.03553647
0002d0 0b 8b 06 3d 90 01 8d 3d 24 96 ad 3d 28 f2 a9 bd
       0.032847445 0.06885064 0.08475903 -0.08298141
0002e0 42 2e b2 bd b4 64 05 3d 12 db 0a 3e f7 17 86 3c
       -0.08700229 0.03256674 0.13560131 0.01636885
0002f0 f4 b4 38 be cc 7c 0c bd e5 37 96 3c 15 1f b8 3d
       -0.18037778 -0.034298703 0.0183372 0.089903034
000300 92 c0 f7 bc 87 11 38 be ff 4b 1d bd 85 d9 05 be
       -0.030243192 -0.17975436 -0.038402554 -0.13071258
000310 fb 0e a0 3d 75 42 40 be a0 90 3b be f3 34 0d be
       0.07815357 -0.18775351 -0.18316889 -0.1378973
000320 6c f8 b2 3a b8 98 52 3d 66 69 f3 3d cb 84 1b 3c
       0.0013654358 0.051415175 0.118853375 0.0094921095
000330 74 f5 10 ba 37 9a 4b 3e c4 14 e2 3d 07 b7 96 3d
       -0.00055297394 0.19883047 0.11039117 0.073591284
000340 14 4f 9a 3d fe 9d f3 bd 4b 9a 47 3e 74 98 94 bc
       0.07534614 -0.11895369 0.19492452 -0.018139102
000350 2f 0b 18 be 23 9e 67 be dc 48 3c 3e e0 39 d2 bd
       -0.14848016 -0.22618918 0.18387169 -0.10264945
000360 e8 b6 c5 3c 0c 7e 9d bd 01 e0 d2 bd 95 4b a9 b9
       0.024135068 -0.07690057 -0.102966316 -0.00032290505
000370 5a 2e 04 3e 50 d2 f3 3c b6 f9 21 3c 08 1f 5a 3b
       0.12908307 0.02976337 0.009886196 0.0033282656
000380 47 03 3a 3d 05 85 c1 3d 31 13 c2 bd 43 86 6a bc
       0.04541328 0.094491996 -0.09476317 -0.014314237
000390 ac ac 70 be 88 ff aa bd 29 51 31 3d db c2 03 3a
       -0.23503369 -0.0834952 0.04329029 0.0005026289
0003a0 c4 20 9c bd d3 03 06 be 12 06 8c 3d 25 fa 09 3e
       -0.07623437 -0.13087396 0.06837095 0.13474329
0003b0 24 14 50 3c af 02 22 be 59 7a 66 be 5a 6d 26 3e
       0.012700114 -0.15821336 -0.2250761 0.16252652
0003c0 16 65 47 3e d0 1c 83 3e 16 68 04 3e 43 9c 13 3e
       0.19472155 0.2560792 0.1293033 0.14415078
0003d0 65 1c 90 3d 44 c1 47 3d 8d 7e 69 3e 9d 89 e4 bb
       0.07036666 0.048768297 0.22802182 -0.0069744126
0003e0 11 86 23 be 89 6b bc bc 01 81 ab 3d 11 b6 f4 bd
       -0.15969111 -0.023000496 0.08374215 -0.11948789
0003f0 28 87 cb bd bc f3 b8 3d e4 82 a4 bd 1e f7 12 bd
       -0.099378884 0.09030864 -0.08032778 -0.0358802

network_body._body_endoder.seq_layers.0.bias f4 [128]
000000 d2 bd a4 bc 0e fd 0a 3d 58 20 9b bc 02 01 0b 3d
       -0.020110045 0.033932738 -0.018936321 0.033936508
000010 26 dd 44 3d 85 a4 71 3c 54 31 1d 3d 98 89 4c 3d
       0.048062466 0.014748697 0.03837712 0.049935907
000020 0b d9 88 3d 1e 9f 5e bd 8f b7 fc bc 9a 21 1f bc
       0.06682023 -0.054350965 -0.030849246 -0.009712601
000030 75 d9 31 3d 0c b6 1f 3d 36 2a 12 3d 96 a9 fa b9
       0.043420274 0.038991973 0.035684787 -0.00047810067
000040 17 cd 32 bd 3d 7f e5 3c e9 2b 3a bb 12 e8 49 3c
       -0.04365262 0.028014774 -0.002840752 0.012323396
000050 d6 f2 01 3c 3e 87 94 3c 6c 2b 21 3c 0b fe bf 3c
       0.007931432 0.018130895 0.009837013 0.023436567
000060 c4 b1 9b 3c 50 37 1a bc 85 f5 d6 3c f1 6e 16 3d
       0.019005664 -0.009412602 0.02624012 0.036726896
000070 4a 6f c3 bc cb 33 8f 3c 4a 3c a7 3c 9a 51 87 bc
       -0.023856778 0.017480751 0.02041449 -0.016518403
000080 ec 8d 33 3d 47 30 79 3b 30 b1 be 3c 90 84 ae 3c
       0.04383652 0.003802316 0.023277849 0.021303445
000090 7e ce 8c 3b 76 cf 5c bd c6 52 10 bc 23 4e 57 bd
       0.0042970767 -0.053908788 -0.008808797 -0.05256475
0000a0 78 71 f8 b9 e6 e4 17 3d a1 86 8d 3c 69 81 e4 bc
       -0.00047386787 0.03708353 0.01727611 -0.027893739
0000b0 69 b3 93 bc 2b 5c f5 3c 39 6e da 3c d6 51 39 3d
       -0.018029885 0.029951176 0.026663886 0.04524406
0000c0 b6 67 09 3d f2 df df 3c 40 58 20 3d fb 1f a8 3c
       0.033546172 0.027328465 0.03914666 0.020523062
0000d0 ae a6 d2 3b 54 04 b6 3c 52 60 ee bb 76 03 88 3c
       0.006428561 0.02221886 -0.007274666 0.016603213
0000e0 24 f3 e1 3c af da 81 bc 9b fa 77 bc 62 d3 62 bc
       0.027581759 -0.015851347 -0.015135433 -0.013844343
0000f0 6c 27 f9 3c df 51 14 3d f5 08 f1 3c 9c 50 19 ba
       0.030414306 0.03621089 0.029423216 -0.00058484985
000100 1a 8f 9c 3b 80 a3 2b 3c 64 98 3b bb 21 00 a6 bc
       0.004777801 0.010475993 -0.0028624767 -0.020263733
000110 1c 20 1b bd 17 25 e4 3c e6 04 12 3d 9f b7 9e 3c
       -0.03787242 0.027849717 0.035649203 0.019374667
000120 45 c9 23 bd d2 d5 6f 3d c3 2d ee 3c 5c 7a e5 3c
       -0.039986867 0.058553524 0.029074555 0.028012447
000130 ad fc 23 bd 98 ec c7 3b 88 2c 1e 3d 74 2f ea 39
       -0.040035892 0.006101202 0.038616687 0.00044667313
000140 4a 35 20 3d 8b cc fe 3c a4 72 c1 3c eb f2 6b 3d
       0.03911332 0.031103393 0.023614235 0.05760471
000150 69 b9 48 3c a5 29 93 3d 99 21 78 bc de 25 bc bc
       0.0122512365 0.071856774 -0.015144729 -0.022967275
000160 43 62 c2 3b 9e 53 c9 bb df 27 81 3a 9b 95 51 3c
       0.005932124 -0.006144001 0.0009853801 0.012792016
000170 4e 10 1c 3d 5e 66 30 3c 2e 48 a4 3b c0 1b c6 3c
       0.038101487 0.010766594 0.0050134873 0.024183154
000180 4e db 57 3d b1 b9 64 3d 22 2b e4 3c b5 56 4f 3d
       0.05269938 0.05584115 0.027852599 0.0506198
000190 ae 33 c7 3b 57 69 47 bc 87 ce 3f 3d 1b d6 8b 3c
       0.0060791587 -0.012171111 0.04682782 0.017069867
0001a0 79 f1 b5 bb 1e 10 12 bc f6 9c 2a 3c 79 a5 e8 bb
       -0.0055524674 -0.008914975 0.010413399 -0.007099804
0001b0 b4 9e 3a 3d 56 6b b4 3c 7a 6e be bc 7b 54 43 3c
       0.045561507 0.022023838 -0.023246039 0.011921997
0001c0 8f 8c 2b 3d b2 17 8f 3d b0 6f 2d 3d 7d b7 2a 3d
       0.041882094 0.069869414 0.04234284 0.041678894
0001d0 c5 b6 b1 bc 88 08 83 bc f3 84 91 3d 82 09 4d bc
       -0.021693597 -0.015995279 0.07105436 -0.012514474
0001e0 b3 3a 0d 3d f6 77 82 3d 53 ee 4d 3d 13 ec 30 bd
       0.034479808 0.06370537 0.05027611 -0.043193888
0001f0 bf a2 04 3d 28 f1 a7 3b 87 49 e0 3c cc d7 c0 3c
       0.03238177 0.0051251836 0.02737881 0.0235404

network_body._body_endoder.seq_layers.2.weight f4 [128, 128]
000000 a5 d6 1f be 30 67 86 bc fa d0 1b 3e b9 af cc 3d
       -0.15609224 -0.016406626 0.15216437 0.09994454
000010 8d 2c e7 3d 47 c0 2f 3d ed 7b bc 3c 44 e3 b0 bd
       0.11287794 0.04290798 0.023008311 -0.086370975
000020 bc 10 93 3d 4f e5 f8 bd fc f0 f5 3c a8 10 fe bc
       0.07180926 -0.12153112 0.030022137 -0.031013802
000030 48 74 7e 3b c1 fa ce 3d ad fb d9 3c 84 e5 12 be
       0.0038826633 0.10106421 0.026609266 -0.14345366
000040 58 10 82 bc 3d 7c b8 bd 37 e9 99 bd 1a ed 5b bd
       -0.015876934 -0.090080716 -0.07515185 -0.053692915
000050 dd 01 94 bc f5 95 93 bc 2a e6 86 bc 02 05 0c 3d
       -0.018067295 -0.018015841 -0.016467173 0.034184463
000060 af 60 31 3d f0 22 c8 bd 49 3d e9 bc 8e 92 bb 3d
       0.043305095 -0.09772289 -0.028471606 0.091588125
000070 ac 36 de bc a7 ae 0b be 18 0b 84 bd d0 be 63 3e
       -0.027125679 -0.13640843 -0.064474285 0.22240758
000080 30 0e 58 bc 93 30 5b 3d 97 01 88 3d 92 5a 7e bd
       -0.013186976 0.05351312 0.06640928 -0.062098093
000090 6f ba 28 3d a8 a6 08 3e 44 c5 c3 bd d3 51 81 bd
       0.041193422 0.13344824 -0.0955911 -0.06314435
0000a0 af 31 87 bd a2 4c 62 be 85 4b 95 bd fa c1 5a 3e
       -0.06601273 -0.22099546 -0.07289795 0.21363059
0000b0 c7 7b 58 be 1f d1 f3 bc 36 85 73 bc ab 3e 09 3e
       -0.21140967 -0.029762803 -0.014863303 0.13402812
0000c0 a2 5e d0 3c 63 97 2b bd c6 78 ad bd 00 9a 33 be
       0.02543575 -0.04189242 -0.08470301 -0.17539215
0000d0 af 63 04 bd 32 31 f9 3d 58 3c 0d bd 2d aa 33 bc
       -0.03232163 0.121675864 -0.034481376 -0.010965866
0000e0 5d 17 95 3d 3b 53 a9 3d 6f e5 38 3d 61 a7 eb 3d
       0.07279847 0.08267828 0.04514068 0.11506534
0000f0 d3 68 a8 bd a1 a9 47 be a1 cf f7 bd 68 d8 79 b9
       -0.08223119 -0.19498302 -0.12100149 -0.00023827108
000100 1f 5b a4 bc 06 27 03 3d 98 78 1a 3d 84 fb 20 be
       -0.020062981 0.032019638 0.037712663 -0.15720946
000110 d6 20 b4 3b 16 e7 55 bc 01 2d fe 3d 61 88 29 3d
       0.0054970784 -0.013055583 0.124109276 0.041389827
000120 97 fb 4e 3c 77 e0 9a bc 63 0f 29 3e c3 c7 ad bc
       0.012633226 -0.018905861 0.16509776 -0.021213418
000130 91 45 f3 bd 02 41 34 bb 64 04 86 be d3 b2 4c 3d
       -0.11878503 -0.0027504568 -0.26175225 0.049975228
000140 67 25 9a 3b 4a 4e 6c 3d 3a 87 1e bc f4 ef 0b be
       0.0047041657 0.05769185 -0.009675795 -0.13665754
000150 8b 10 42 3e 41 91 97 bc a6 90 15 3e e9 42 82 3d
       0.18951623 -0.01850188 0.1460596 0.06360418
000160 0f 11 2d 3d 06 76 a1 3d a0 9e 04 bd e5 85 c6 3d
       0.042252596 0.07883839 -0.03237784 0.09693507
000170 dc b7 82 bd 2c 3e b1 bd d5 1e 0a be 61 31 94 3d
       -0.06382725 -0.086544365 -0.13488324 0.07235981
000180 92 8e 86 3d 3f 5f 08 3e 20 57 1f bc 2e 4c 83 3d
       0.06570162 0.13317584 -0.009725362 0.064110145
000190 69 35 37 3d 3a d7 ff 3b 6a e1 e0 bc 93 74 bf 3d
       0.04472867 0.0078076394 -0.027451236 0.09348407
0001a0 c3 a6 eb bd ad 88 03 3d 7e 4c 90 bc 19 48 d2 3b
       -0.11506417 0.032112766 -0.0176146 0.006417286
0001b0 bf 59 29 3d d3 1d 93 3c b6 df 0a 3d ad 96 f7 3d
       0.041345354 0.017958557 0.033904754 0.12089286
0001c0 3b 73 2a 3e 69 74 af 3c c6 fb cc bd 6d eb 1b 3d
       0.1664552 0.021417813 -0.100089595 0.038066316
0001d0 bb b9 7a 3c 15 af 26 3e 4b 34 4b 3e 5d 7f b8 bd
       0.015303071 0.16277726 0.19844167 -0.090086676
0001e0 f7 ca 75 3a 04 2c e9 bd 8f 8c 11 3e ff 28 10 3e
       0.00093762524 -0.113853484 0.14213775 0.14078139
0001f0 91 8d bc bd 53 b4 6e 3c cf 9f 4a 3e c1 d4 df 3d
       -0.09206689 0.01456936 0.19787525 0.109292515
000200 e7 70 03 bd e1 76 ce bd d7 a1 33 3c 77 83 d3 bd
       -0.032090094 -0.10081268 0.010963879 -0.10327809
000210 66 12 89 bd 91 a8 4a be f9 bf 8d 3d 4b 22 77 3c
       -0.06692962 -0.19790865 0.069213815 0.01508386
000220 a0 0b 50 3b 33 48 67 3d 93 fb 46 3c 53 28 ca bd
       0.003174521 0.05646534 0.012144941 -0.098709725
000230 37 da 68 bd 89 d8 ae 3d b7 89 2e 3e 14 25 3f 3d
       -0.05684873 0.085373946 0.17044722 0.04666622
000240 3c 0f 13 3c e6 dc 8a bb 87 f4 94 bd b1 cc 4e 3d
       0.0089758 -0.004237759 -0.072732024 0.050488178
000250 54 5f f7 3d af ac b7 3d 02 cd 7f be a8 12 8d 3e
       0.12078729 0.08968484 -0.24980548 0.27553296
000260 ca 21 e1 ba 77 01 69 bd 92 97 77 bd 45 ad e0 bd
       -0.0017176208 -0.056886163 -0.060447283 -0.109705485
000270 70 cb 1a bd df 77 16 bd f0 1a d0 3d 90 6c d7 3d
       -0.03779167 -0.03673541 0.10161388 0.105187535
000280 24 05 2a be b6 ea 24 3d 40 09 52 be fb 93 ff bd
       -0.16603523 0.0402629 -0.20511341 -0.12479397
000290 8f 14 83 bd 9e da 97 bd 8e 45 50 39 35 b9 26 3d
       -0.064004056 -0.07414745 0.00019862337 0.04070397
0002a0 56 67 91 be 21 0a c7 bc 53 f9 6f bd a4 b1 bb 3d
       -0.28399152 -0.024296822 -0.058587383 0.09164742
0002b0 f5 a3 42 3c a8 fc c0 3d 1d 5f 6b 3d f3 de bd bd
       0.011879911 0.0942319 0.057463754 -0.0927104
0002c0 ec 7a 35 3e 67 f3 1b bd 7a 30 38 bb 0c e4 e2 bd
       0.17722672 -0.038073923 -0.0028105066 -0.11078653
0002d0 e2 43 d7 3d 1f c0 36 bd 0e 7e db 3d a1 2a 65 bd
       0.105109945 -0.044616815 0.107174024 -0.055948857
0002e0 90 fe 23 bd a2 38 33 be bf a3 4d 3d fa 3d 22 3d
       -0.04003769 -0.17502072 0.05020499 0.039609887
0002f0 73 82 57 be d7 dd 25 3d 02 ec a5 bc 64 d2 b8 3d
       -0.21045856 0.040494766 -0.020254139 0.09024504
000300 24 92 26 bc c5 6f 35 bd 06 46 40 bd 68 be ee 3d
       -0.010166679 -0.044296045 -0.04694178 0.11657411
000310 25 12 7a 3c ff ed 79 3c ae 5c 0f 3e b1 07 ca 3d
       0.015263115 0.015254497 0.14000198 0.09864748
000320 21 09 b1 bd 7d 97 1b 3e 92 36 d1 3d 1b a2 de 3b
       -0.08644319 0.15194507 0.102154866 0.006794227
000330 7f e5 81 bc 66 ea 8c 3d ac 9e 25 3c 92 16 72 3d
       -0.015856503 0.068806455 0.010108631 0.059103556
000340 44 0f 11 3d a8 ca e6 ba 75 34 15 3e 60 9a d4 bb
       0.03541495 -0.0017608004 0.14570792 -0.0064881295
000350 9c 04 6f bc d9 6e 87 bd 60 4d 20 bb c5 b3 14 be
       -0.014588501 -0.066129394 -0.0024460182 -0.14521702
000360 8e 04 8b 3e ff 5b 68 3d e0 b9 4e 3e 22 9a d7 3d
       0.27151912 0.05672836 0.20188093 0.105274454
000370 6a e4 08 3d f7 f0 3d 3e a6 bc 2d be 8d 1e cd 3c
       0.033420958 0.18548952 -0.16966495 0.025038982
000380 d1 e2 3b 3d 50 47 3e 3d 6a 41 94 bd 62 ab e2 bb
       0.045870606 0.046454728 -0.07239039 -0.006917403
000390 f1 1a 1b 3d fc 8c 89 3d b3 d4 47 bd 6c 2b 17 3e
       0.03786749 0.06716344 -0.04878683 0.14762658
0003a0 e7 a5 d6 bd 62 e0 a6 3d 01 d1 2a 3d d0 18 62 3d
       -0.10480862 0.081482664 0.041703228 0.055199444
0003b0 4d 75 24 3e e2 18 07 3e 29 10 e8 bd dc 9f 5a be
       0.16060372 0.13193086 -0.11331207 -0.21350044
0003c0 93 76 00 3b 58 a8 bc 3c f0 26 40 be 9b f7 18 bd
       0.0019601926 0.023029491 -0.18764853 -0.03734551
0003d0 e2 9c f1 3b 05 e6 e1 3c 63 af 0d be 06 16 31 be
       0.007373438 0.027575502 -0.13836436 -0.17293558
0003e0 f4 be f7 bc 97 96 f5 bc 53 ea 63 3e 05 0f 11 3d
       -0.03024242 -0.029979033 0.22257356 0.035414714
0003f0 86 c6 10 bc 70 36 2a 3e bf e7 79 be 19 90 dc bd
       -0.008836394 0.16622329 -0.2440481 -0.10769672

network_body._body_endoder.seq_layers.2.bias f4 [128]
000000 17 ea c5 3b 29 c2 07 3a a6 36 46 3b 3a 85 15 bb
       0.0060398686 0.00051787734 0.0030244975 -0.0022815005
000010 51 5e 9b 3b 90 e2 00 3b 87 10 8e 3b ae 13 d3 3c
       0.004741468 0.0019666292 0.0043354663 0.02576622
000020 3f 51 26 3d 6b 32 d7 3c 45 56 dc 3b 1e 13 8b 3c
       0.040604826 0.026269158 0.0067241513 0.01697689
000030 8a 0e 47 3c dd fa 06 3d e7 81 f9 3c f2 90 23 3c
       0.0121494625 0.032954086 0.03045745 0.009983288
000040 f1 23 00 3d 8e f5 75 3a 80 6a b5 3c 6c 11 03 3d
       0.031284276 0.0009382599 0.02214551 0.031999037
000050 bf 0f 9a 3b cb 92 30 3d ea c9 22 3c 2a b9 30 3c
       0.004701584 0.043108743 0.009935835 0.010786334
000060 20 99 3d 3c 5d 38 ef 3c af 0c be 3c 54 82 84 3c
       0.011572152 0.02920168 0.023199407 0.016175427
000070 a8 66 73 3b 7f 68 1d 3d ad 23 82 bb 23 1d 5c 3c
       0.0037140045 0.038429733 -0.003971538 0.013434681
000080 d7 e2 25 3c 61 c3 2e 3d 22 0d ce 3c 61 c0 0d bc
       0.010124884 0.042666797 0.025152747 -0.008651824
000090 27 85 96 39 51 27 1c 3c 25 c3 8b bb a5 2c 4e bc
       0.00028709436 0.009530858 -0.0042652064 -0.012583886
0000a0 14 e7 cc 3a 83 78 0d bc cf 79 28 3d 3f ed a8 bb
       0.0015632831 -0.008634689 0.04113179 -0.005155235
0000b0 71 60 03 bd c1 17 08 3d 79 54 17 3d 3c 84 be 3c
       -0.032074396 0.03322578 0.036945794 0.023256414
0000c0 8a 7c 44 3c 64 bc 62 3d 2c ec db 3b 13 9e 85 3c
       0.011992583 0.055355445 0.0067115035 0.016310727
0000d0 39 8c 16 3d 95 96 95 ba 2e 96 da 3c 87 a9 07 bc
       0.03675482 -0.0011412675 0.02668294 -0.008280165
0000e0 a2 ad 48 3d 6f 22 60 b9 aa cf b8 3c b6 35 90 3c
       0.048993714 -0.00021375132 0.02255996 0.017603736
0000f0 a5 63 0e bc 60 c4 a8 3c b9 41 d3 3c 54 70 e7 bb
       -0.008690749 0.020601451 0.025788175 -0.007062951
000100 b5 2c 6f 3c 1a 3e b0 3c d9 99 98 3c 36 69 1f 3d
       0.014598061 0.021513987 0.018628048 0.038918696
000110 2b 95 f7 bb d2 4d a5 3c 1d 4c eb 3c fc 0d ec ba
       -0.007555624 0.02017871 0.028722817 -0.0018009539
000120 72 34 06 3d 18 89 23 3d aa c7 d5 3c 70 43 33 3b
       0.03276486 0.039925665 0.026096184 0.0027353428
000130 86 ac 34 ba b5 59 29 3d 18 24 01 3d 37 2a 6a 3c
       -0.0006892163 0.041345317 0.031528562 0.014292291
000140 a4 5d 84 3c 16 b2 fc 39 11 29 05 bc 0b 9d fa 3c
       0.016157933 0.0004819787 -0.008127467 0.030592462
000150 22 8d a3 3c 05 d7 29 3d 63 c3 29 3d 71 e7 b7 3c
       0.019964758 0.041464824 0.0414461 0.022449227
000160 35 39 10 3d 3c 24 24 3d 6b 39 19 bc f1 36 e6 bc
       0.035210807 0.04007362 -0.009352068 -0.02810237
000170 8b 41 5a 3c 17 2c 1e 3d 1f de 2e 3d a2 83 04 3d
       0.013321291 0.038616266 0.0426923 0.032352097
000180 ae f5 8a 3c 3a 77 f7 3b 65 4e 8c 3c 0e d2 82 3c
       0.016962852 0.0075520547 0.017127225 0.015969303
000190 ad 33 fb 3b d7 eb 09 3d 7b ca 38 3b 96 e0 19 bb
       0.0076660723 0.03367218 0.002819686 -0.002347981
0001a0 9c bd 1c 3d b3 aa 19 3d 64 e5 0a 3a e0 87 c1 ba
       0.038266763 0.037516307 0.0005298464 -0.0014765225
0001b0 b8 0f 54 3c a9 d0 09 3d 6b 93 94 3c ab a1 fe 3c
       0.012943201 0.03364626 0.0181367 0.031082949
0001c0 4c cb 19 bc 44 ac 4a 3b 80 ac e2 3c ca c3 e9 3b
       -0.009386849 0.0030925432 0.027670145 0.0071339356
0001d0 2e bf b6 3c 32 80 bd 3c 4c 90 00 3d 33 70 4e 3c
       0.022307958 0.023132417 0.031387612 0.012599993
0001e0 f5 6d 02 3d 0b 15 d2 3a 2b 6c e7 3c 38 87 9e 3c
       0.031843144 0.0016028 0.02824982 0.019351587
0001f0 b9 4d 93 3c 75 d7 ac 3a 72 10 17 3d 45 18 dc 3c
       0.017981397 0.001318677 0.036880918 0.026867041

action_model._discrete_distribution.branches.0.weight f4 [3, 128]
000000 83 b3 49 3c 09 cc e6 bb 11 72 52 bd 39 e1 80 3b
       0.012310865 -0.007043366 -0.051378313 0.0039330986
000010 83 cd 0f bd 96 26 a9 bc 04 c8 9c bb 1b 51 8d bd
       -0.0351081 -0.020648282 -0.004784586 -0.06900235
000020 7e 63 3d 3d 07 c7 96 3c 54 ff 02 bd 27 ee 05 3d
       0.04623746 0.01840545 -0.03198178 0.032697823
000030 81 5f 90 3b f9 4d c9 bc 9f f9 06 3d ec 1f 12 bd
       0.004405916 -0.024573313 0.0329529 -0.035674974
000040 bf 36 2a 3d 30 0e 0a 3b 04 b3 73 3c c5 4c 3d 3d
       0.041556116 0.0021065585 0.014874224 0.04621579
000050 62 ac a0 3c aa f2 10 3d 57 69 fe bb 6a c9 07 3c
       0.019613449 0.035387672 -0.0077640223 0.008287767
000060 73 a3 17 bc e4 da aa 3c 81 7f cf bc 0d 29 ea 3c
       -0.009255278 0.020856328 -0.025329353 0.028584028
000070 67 49 02 3d 35 a0 42 bd 64 84 de bc c9 f9 0f 3d
       0.031808283 -0.047516067 -0.027162738 0.035150323
000080 6f 08 40 bd 89 f1 2a bd b5 f9 66 bd 70 3b 44 bc
       -0.046883043 -0.041734252 -0.056390483 -0.011977062
000090 7e 86 f2 bc 4d 7f d4 3c 58 e9 29 3c 4b aa f4 bc
       -0.029605146 0.025939608 0.010370575 -0.029866358
0000a0 cd 29 9c ba 2b b8 c3 ba ae ef cc 3c f7 33 67 bc
       -0.0011914313 -0.0014932206 0.025016632 -0.0141115105
0000b0 b8 c6 6d ba 0c d2 04 3d 5c ed 6b bd 09 5b 9f 3c
       -0.0009070444 0.03242688 -0.05759941 0.019452589
0000c0 0d 40 88 bb f4 48 45 3c f1 e3 17 3d 33 0e 27 bd
       -0.004158026 0.012041319 0.037082616 -0.040785026
0000d0 6c b8 41 3d 5f 25 25 bc 9e da 77 bd 10 95 2c 3b
       0.04729502 -0.010079711 -0.060511224 0.0026333965
0000e0 dc 32 fa 3c 6f e7 52 3c d6 7b 04 3d 2d f6 1b 3d
       0.03054183 0.012872561 0.03234466 0.03807657
0000f0 dd 7f 83 bc d9 c4 94 bd f7 c2 7c bd fb 3f 68 ba
       -0.01605218 -0.07264108 -0.06170937 -0.00088596315
000100 a7 6a ab 3c 86 fd b1 3c 98 1b be 3c bb 02 dc 3c
       0.02092488 0.021727335 0.023206517 0.02685677
000110 2a ce 84 3c a2 33 4f 3d 66 32 bc 3c 60 a4 c0 bc
       0.016211588 0.05058635 0.02297325 -0.02351588
000120 24 52 0a 3d 48 51 8b bd 70 9c b3 3b 66 17 a8 3b
       0.03376974 -0.068026125 0.0054812953 0.0051297424
000130 68 60 b5 bb d2 55 40 3d 7f 35 08 3d 86 d8 13 bd
       -0.005535174 0.046956845 0.033254143 -0.036095165
000140 f9 0b d4 3c 66 71 63 3b dd d2 d1 b8 cb 11 1b 3d
       0.025884615 0.0034705042 -0.00010005173 0.037858766
000150 bb 7b 2f 3d 0f 78 3e 3d 26 31 ac bd f8 72 92 bd
       0.042842608 0.046501216 -0.08407812 -0.07150835
000160 7d 1d 10 3d 8a 7e ef 3c 12 81 ba bc fb d0 ac bc
       0.035184372 0.029235143 -0.022766624 -0.021095743
000170 aa 73 b2 bc 99 1a 48 bd 0c a1 2e 3d 3f 98 19 3d
       -0.021783669 -0.04885349 0.042634055 0.03749871
000180 d3 83 36 3c d2 0c 25 bd 76 df 16 bd b1 2f 3a bb
       0.011139828 -0.04029543 -0.036834203 -0.0028409774
000190 2f a9 1b bc 06 6b 0f 3d af e5 52 3c c5 e5 e9 3c
       -0.009500786 0.035014175 0.012872144 0.028551945
0001a0 e2 14 83 3c 00 3e 2f 3d d9 63 90 bb ea e0 2c 3c
       0.016001169 0.042783737 -0.004406434 0.010551671
0001b0 0d c0 75 3c 2f 43 2c 3d 73 b9 01 bd e8 13 21 3d
       0.014999402 0.04205626 -0.031671 0.039325625
0001c0 86 88 a3 ba b0 92 34 bd 7e b9 9d bd 2b 81 6e bd
       -0.00124766 -0.044085205 -0.077013955 -0.058228653
0001d0 3c d1 32 bd 72 cc 37 3d 46 ba 8d bd b3 0e e1 3c
       -0.043656573 0.04487271 -0.069202945 0.02747283
0001e0 8b 6f b6 3c 8e 3c 6f bc 0b 82 8d bd 50 c0 69 bd
       0.022269985 -0.01460184 -0.06909569 -0.05706817
0001f0 b9 86 48 3d bd 8a 74 3c ab 78 c4 3c a7 04 16 3d
       0.048956607 0.014925656 0.02398332 0.03662553
000200 4c 15 53 bc b4 c8 18 3d d0 22 93 3d 1a 2d ea 3c
       -0.012883496 0.03730078 0.07184374 0.02858596
000210 65 87 c2 3c 8c e5 aa 3c f4 cd cf 3c d3 d5 c9 3d
       0.023746202 0.02086141 0.02536676 0.09855237
000220 74 cf c7 bd 79 44 be bc ba e5 53 3d b9 b6 1d bd
       -0.097563654 -0.02322601 0.051732756 -0.038504336
000230 46 df 95 bc 1f 7d 8e 3d 81 4e 98 bd 87 d1 85 3d
       -0.018294942 0.06957459 -0.074368484 0.06534105
000240 cd 77 89 bd f7 4b f7 3c de 1d 2e bd da 3a a2 bd
       -0.06712303 0.03018759 -0.042508952 -0.07921381
000250 96 36 bf bc 87 5a 91 bd a7 07 66 3d 7b 75 89 bc
       -0.023341458 -0.07097345 0.05615964 -0.016779652
000260 6f 9a 70 3d ab 76 3e bd 8f 81 69 3d 4d 7e 8a bd
       0.05874103 -0.04649989 0.057008322 -0.06762371
000270 f5 03 9b bc cd 98 c7 3d 7e 90 2b 3d 3a bf 35 bd
       -0.018922785 0.09745941 0.041885845 -0.04437182
000280 ef 1e d9 3c c5 b7 b5 3d 15 1e 9e 3d aa 5d a4 3c
       0.026504008 0.08872942 0.077205814 0.020064194
000290 63 ca d9 3c 2e b6 f2 bc d9 cf a3 bc a8 ed ee 3c
       0.026585763 -0.029627886 -0.01999657 0.029166058
0002a0 40 88 48 bc 7c 85 7e 3a 12 25 b3 bd e7 e6 80 bb
       -0.012239516 0.0009709222 -0.08747305 -0.0039337757
0002b0 8a 05 f5 3c cb 36 88 bd 58 42 9f 3d c3 23 8f bd
       0.029909868 -0.06651076 0.07776326 -0.06989243
0002c0 54 73 19 3d 5e dd 5c bd 1f f7 bd bc 24 f1 92 3d
       0.0374635 -0.05392205 -0.023189126 0.071749
0002d0 e7 ff 9d bd d4 cc 88 3d d0 20 a9 3d f9 a5 6a 3c
       -0.07714825 0.06679693 0.082582116 0.0143217975
0002e0 2e f1 7e bd f8 e0 18 bd 4d f0 6c bd c4 b1 38 bd
       -0.062241726 -0.037323922 -0.057846356 -0.045091406
0002f0 0d 3e 05 3d 79 2d b7 3d 81 6b 90 3d 00 ac 28 3d
       0.03252988 0.0894422 0.07051755 0.041179657
000300 da 86 98 bc f4 81 90 bd 57 24 cf bc 61 bd 80 bd
       -0.01861899 -0.070560366 -0.025285883 -0.06286121
000310 3b 03 9a b6 e2 b4 70 bd 18 cc 19 bd d9 46 51 3d
       -4.5899337e-06 -0.058766253 -0.037548155 0.051092956
000320 e8 85 9e bd d1 dc c9 3d d9 da 5b bd 1f 9c ae bb
       -0.07740384 0.098565705 -0.053675506 -0.0053286697
000330 d7 68 40 3d 1b b4 a2 bd 90 06 71 bd a5 62 a2 3d
       0.046974983 -0.07944509 -0.05884415 0.07928971
000340 51 13 5b bd 13 5e 27 3b 9a 2d e3 3c 62 1e b4 bd
       -0.05348522 0.002553825 0.027731705 -0.087948576
000350 d6 26 eb bc 4c 0e 9d bd f3 c3 b3 3d d6 c4 b8 3d
       -0.028705042 -0.076687425 0.08777609 0.090219185
000360 34 74 9a bd 81 02 c5 bd 99 a9 4c 3c 82 a8 57 3d
       -0.07541695 -0.09619618 0.012491607 0.052650936
000370 91 2a 9a 3d cd 3f ac 3d 67 23 c4 bd b9 b5 a5 bd
       0.0752765 0.084106065 -0.09577065 -0.080913015
000380 8e 99 53 bc 8b c4 b1 3d 67 d5 83 3d 41 70 f3 bc
       -0.012915028 0.08680066 0.06437188 -0.029716613
000390 7b 80 95 3c 9d 2d 8f bd 31 11 1a bc c8 91 aa bc
       0.01824974 -0.06991122 -0.009403513 -0.020821467
0003a0 2f fb 0d bd 1f 3b 86 bd c1 ca bd b9 58 e1 61 3c
       -0.034663375 -0.06554245 -0.00036199953 0.013786636
0003b0 f9 13 80 bc 07 a5 92 bd ce 65 82 3d 85 13 9e bd
       -0.015634524 -0.07160383 0.06367074 -0.07718567
0003c0 16 e3 b8 bb 70 c1 98 3d 6c 1c c6 3d 93 da a1 3d
       -0.005642305 0.0745877 0.0967339 0.07903018
0003d0 b7 f8 a3 3d 56 47 8c bd f9 1c c6 3d ef 00 7f bc
       0.08006423 -0.06849544 0.09673495 -0.015564187
0003e0 0f 98 98 bd 98 9d 4b 3d a7 f7 ca 3d 6c ee 6e 3d
       -0.07450878 0.04971084 0.09910517 0.058332846
0003f0 84 b6 4f bd 6a ad bb bc d1 34 51 bd bf 8e 87 bd
       -0.05071117 -0.022909839 -0.05107576 -0.066190235

action_model._discrete_distribution.branches.0.bias f4 [3]
000000 2d 47 36 3c 4d d0 7b bc 22 32 0c 3c
       0.011125368 -0.015369487 0.0085568745

exp_avg f4 [128, 64]
000000 00 00 00 00 89 df bc 37 9c 77 a3 36 5d b2 b8 b4
       0.0 2.2515438e-05 4.871703e-06 -3.4402447e-07
000010 dd d5 c4 36 00 00 00 00 f6 ee c4 37 5d 6a 97 36
       5.866152e-06 0.0 2.3476296e-05 4.512533e-06
000020 04 00 00 80 c3 38 a1 36 00 00 00 00 6e 19 e2 37
       -6e-45 4.804782e-06 0.0 2.6953141e-05
000030 33 0e b8 33 04 00 00 80 6f ec 06 37 00 00 00 00
       8.5707505e-08 -6e-45 8.042071e-06 0.0
000040 b3 e4 5d 37 f4 4f 6e 37 04 00 00 80 52 86 65 36
       1.3225875e-05 1.4204521e-05 -6e-45 3.4201844e-06
000050 00 00 00 00 a5 77 b1 37 4c df c3 36 04 00 00 00
       0.0 2.1155758e-05 5.837448e-06 6e-45
000060 01 a9 1a 37 00 00 00 00 67 32 92 37 b2 79 2e 37
       9.218465e-06 0.0 1.7428027e-05 1.0399543e-05
000070 1b 69 61 9f b2 23 59 36 00 00 00 00 7e 68 6e 37
       -4.7732544e-20 3.2356297e-06 0.0 1.4210234e-05
000080 87 08 56 37 04 00 00 00 1b 3a 11 37 00 00 00 00
       1.2757379e-05 6e-45 8.656202e-06 0.0
000090 4e d3 6d 37 56 0d 1a 37 6b 35 fe a0 c6 38 4e 36
       1.4175499e-05 9.18222e-06 -4.3064623e-19 3.0729439e-06
0000a0 00 00 00 00 ee e5 55 37 93 a1 6e 37 04 00 00 00
       0.0 1.2749324e-05 1.4223525e-05 6e-45
0000b0 d2 48 04 37 00 00 00 00 ec 0f 1d 37 a3 04 8a 37
       7.884768e-06 0.0 9.361636e-06 1.6453041e-05
0000c0 6b 35 fe a0 5f 00 91 36 00 00 00 00 62 db d5 36
       -4.3064623e-19 4.32138e-06 0.0 6.373434e-06
0000d0 de 25 b1 37 04 00 00 00 b6 c1 0f 37 00 00 00 00
       2.1117678e-05 6e-45 8.568566e-06 0.0
0000e0 ec d9 db 38 00 00 00 00 31 41 87 39 76 36 30 39
       0.00010483325 0.0 0.00025797778 0.00016804956
0000f0 00 00 00 00 e0 18 39 37 e6 4d 02 38 5f ec 8b 39
       0.0 1.1032651e-05 3.1066964e-05 0.00026688256
000100 00 00 00 00 64 d0 17 b9 b8 0c cf 36 9e 99 31 b6
       0.0 -0.00014478114 6.1705614e-06 -2.6464472e-06
000110 ec db aa b8 00 00 00 00 b0 d7 9d 39 59 8d e6 b9
       -8.147195e-05 0.0 0.00030106073 -0.0004397433
000120 04 00 00 80 2d bd ba b8 00 00 00 00 94 e2 f1 b8
       -6e-45 -8.904408e-05 0.0 -0.00011533979
000130 ef 73 cf b7 04 00 00 80 0f fe 00 b9 00 00 00 00
       -2.4730309e-05 -6e-45 -0.00012301675 0.0
000140 d7 c9 07 39 43 6a 8d b9 04 00 00 80 8a 04 9e b7
       0.00012949794 -0.00026972787 -6e-45 -1.8837181e-05
000150 00 00 00 00 8a 7d 33 b9 59 1b 0e 38 04 00 00 80
       0.0 -0.00017117537 3.3880908e-05 -6e-45
000160 55 c0 f6 b8 00 00 00 00 e2 78 e3 37 3b 85 2e b9
       -0.00011766019 0.0 2.71168e-05 -0.00016643565
000170 ce 2e e4 22 37 3e 8c 37 00 00 00 00 26 cd fc 38
       6.184908e-18 1.6718272e-05 0.0 0.00012054508
000180 44 dc 85 b9 04 00 00 80 5c b3 e6 b8 00 00 00 00
       -0.00025531847 -6e-45 -0.00011000663 0.0
000190 92 06 42 b8 97 b4 dc b8 c3 7a d4 24 f3 59 ce b4
       -4.6259323e-05 -0.00010524055 9.214831e-17 -3.8435937e-07
0001a0 00 00 00 00 34 25 bf 38 31 0b 69 b9 04 00 00 80
       0.0 9.114519e-05 -0.0002222478 -6e-45
0001b0 50 c8 b6 b8 00 00 00 00 0a a0 e3 38 23 0f 83 b9
       -8.7157474e-05 0.0 0.00010854013 -0.00024997545
0001c0 c3 7a d4 24 08 b5 25 b8 00 00 00 00 9f c7 6c 38
       9.214831e-17 -3.9507664e-05 0.0 5.6452696e-05
0001d0 ec 4c 29 b9 04 00 00 80 3b 2d 8d b8 00 00 00 00
       -0.00016145752 -6e-45 -6.731829e-05 0.0
0001e0 50 0a b3 ba 00 00 00 00 3f 54 27 ba c4 11 1c bb
       -0.001365969 0.0 -0.0006383098 -0.00238143
0001f0 00 00 00 00 9d c2 16 b9 ea 1d 34 3b 54 28 78 ba
       0.0 -0.00014377614 0.002748365 -0.00094664586
000200 00 00 00 00 00 46 e7 b5 38 5d 51 36 82 1b 54 b5
       0.0 -1.7231214e-06 3.1197687e-06 -7.9016183e-07
000210 97 e3 8f b7 00 00 00 00 d2 1d c8 38 7d 2f c5 b8
       -1.7152908e-05 0.0 9.5422976e-05 -9.4025374e-05
000220 04 00 00 00 fd 73 9a b7 00 00 00 00 63 34 64 37
       6e-45 -1.8412242e-05 0.0 1.3602056e-05
000230 3e 21 57 b7 04 00 00 80 63 c5 d4 b7 00 00 00 00
       -1.2822738e-05 -6e-45 -2.5364285e-05 0.0
000240 b1 f4 62 38 7f 3a 5f b8 04 00 00 00 27 22 c8 b6
       5.4110486e-05 -5.3221822e-05 6e-45 -5.9644403e-06
000250 00 00 00 00 66 d8 05 b7 33 73 1c 37 04 00 00 80
       0.0 -7.977802e-06 9.3251465e-06 -6e-45
000260 f9 64 b4 b7 00 00 00 00 c6 64 0e 38 c0 d8 08 b8
       -2.1504691e-05 0.0 3.394929e-05 -3.262679e-05
000270 1a 3a 2d 21 9b 86 4f 36 00 00 00 00 56 0a 82 38
       5.8691577e-19 3.0923754e-06 0.0 6.200808e-05
000280 df 1a 7c b8 04 00 00 00 9f ad 9c b7 00 00 00 00
       -6.0106508e-05 6e-45 -1.8677498e-05 0.0
000290 ff 44 05 38 4c 69 1a b8 5c f3 06 23 80 16 1a b6
       3.177393e-05 -3.6814527e-05 7.315688e-18 -2.2960885e-06
0002a0 00 00 00 00 a6 71 77 38 77 38 6c b8 04 00 00 00
       0.0 5.8995232e-05 -5.631937e-05 6e-45
0002b0 58 36 59 b7 00 00 00 00 f6 36 44 38 74 1d 55 b8
       -1.2946861e-05 0.0 4.6781228e-05 -5.0810588e-05
0002c0 5c f3 06 23 ce 34 c9 b6 00 00 00 00 b2 68 10 38
       7.315688e-18 -5.996414e-06 0.0 3.442978e-05
0002d0 7f 40 de b7 04 00 00 00 e8 0b 03 b7 00 00 00 00
       -2.6494496e-05 6e-45 -7.810981e-06 0.0
0002e0 c6 e0 06 b9 00 00 00 00 86 2e da 38 f1 24 8b b9
       -0.0001286297 0.0 0.00010403716 -0.0002653967
0002f0 00 00 00 00 85 31 63 b7 8f 78 28 3a 2b 14 67 38
       0.0 -1.3541784e-05 0.0006426656 5.5093475e-05
000300 00 00 00 00 b9 dd 5c 36 86 56 d7 35 d9 4d bf 35
       0.0 3.2911614e-06 1.604393e-06 1.4253266e-06
000310 b4 16 06 38 00 00 00 00 6a 96 23 b9 98 44 2a 39
       3.1969234e-05 0.0 -0.00015600925 0.00016238017
000320 04 00 00 00 6d 46 0d 38 00 00 00 00 0f 34 02 b6
       6e-45 3.368261e-05 0.0 -1.9401812e-06
000330 2d 05 04 37 04 00 00 00 b5 30 3a 38 00 00 00 00
       7.869018e-06 6e-45 4.4391218e-05 0.0
000340 14 d0 93 b8 6e 04 a1 38 04 00 00 00 22 09 b7 37
       -7.048264e-05 7.677903e-05 6e-45 2.1819553e-05
000350 00 00 00 00 6e f9 2c 35 b5 ba 8d 36 04 00 00 00
       0.0 6.443796e-07 4.223863e-06 6e-45
000360 fb 5d 33 38 00 00 00 00 64 57 0b b8 00 02 26 38
       4.276445e-05 0.0 -3.322157e-05 3.9579347e-05
000370 4b e5 ea a2 86 be 2c 37 00 00 00 00 03 f2 b9 b8
       -6.36686e-18 1.0296359e-05 0.0 -8.8665656e-05
000380 fa e7 c1 38 04 00 00 80 a8 e5 e9 37 00 00 00 00
       9.246166e-05 -6e-45 2.7882706e-05 0.0
000390 a1 2b 81 b7 1a 4b b1 37 3d 53 d3 a4 6a ba 23 37
       -1.5398315e-05 2.1135016e-05 -9.1647674e-17 9.75896e-06
0003a0 00 00 00 00 13 02 6f b8 75 92 77 38 04 00 00 80
       0.0 -5.6983972e-05 5.9025788e-05 -6e-45
0003b0 34 d0 d0 36 00 00 00 00 a0 6e d2 b7 3d 6d 00 38
       6.223121e-06 0.0 -2.5085465e-05 3.0619314e-05
0003c0 3d 53 d3 a4 41 31 32 37 00 00 00 00 74 cd 02 36
       -9.1647674e-17 1.0621095e-05 0.0 1.94911e-06
0003d0 c8 75 75 b7 04 00 00 80 ea 39 1a b7 00 00 00 00
       -1.4630561e-05 -6e-45 -9.1925995e-06 0.0
0003e0 61 29 e7 38 00 00 00 00 2c 80 0e 3a ce 7e 98 39
       0.00011022646 0.0 0.0005435969 0.00029086176
0003f0 00 00 00 00 1f af 42 37 f4 db 6a b9 7c 35 18 3a
       0.0 1.1604075e-05 -0.00022397918 0.00058063096

exp_avg_sq f4 [128, 64]
000000 00 00 00 00 81 8b b0 32 72 30 be 30 9d 92 1f 30
       0.0 2.0552536e-08 1.3838088e-09 5.8052213e-10
000010 41 b3 51 31 00 00 00 00 9f 87 27 32 b1 83 57 32
       3.0515397e-09 0.0 9.751516e-09 1.254459e-08
000020 dc bc 8e 2a 07 0a 3a 31 00 00 00 00 49 95 be 32
       2.5355315e-13 2.7072262e-09 0.0 2.2186798e-08
000030 0b b9 44 30 2b 26 66 28 f3 15 84 31 00 00 00 00
       7.1567346e-10 1.2775841e-14 3.844201e-09 0.0
000040 75 75 b0 31 6d 87 8b 32 eb 70 0a 2b 22 1f bb 30
       5.1356275e-09 1.6243314e-08 4.9184154e-13 1.3614889e-09
000050 00 00 00 00 73 9f a0 32 4e 8c 6c 31 58 49 56 2a
       0.0 1.869896e-08 3.4422274e-09 1.9032464e-13
000060 3e 25 75 31 00 00 00 00 8e 2b 81 31 b6 3f 99 32
       3.5673362e-09 0.0 3.7593457e-09 1.7840517e-08
000070 97 b9 b0 2b ac dd 67 30 00 00 00 00 ec b7 1c 32
       1.2557064e-12 8.4352325e-10 0.0 9.122214e-09
000080 11 8b 69 32 8a 72 b7 2b 4f a1 7b 31 00 00 00 00
       1.3594005e-08 1.3034723e-12 3.6617e-09 0.0
000090 b7 44 53 31 2c cd 9d 32 b5 75 de 2b 1d 42 31 30
       3.07436e-09 1.8370507e-08 1.5806719e-12 6.448618e-10
0000a0 00 00 00 00 cf 1c a7 31 d7 e9 96 32 4c a9 13 2c
       0.0 4.863615e-09 1.7568636e-08 2.0983935e-12
0000b0 1d a2 63 31 00 00 00 00 97 26 15 31 a9 64 a5 32
       3.3124998e-09 0.0 2.170429e-09 1.9254303e-08
0000c0 a9 5b f1 2b 0b 2d 2b 30 00 00 00 00 c8 f7 85 31
       1.7149521e-12 6.227345e-10 0.0 3.898979e-09
0000d0 bb 83 9f 32 f4 68 1d 2c 4c f2 5a 31 00 00 00 00
       1.856994e-08 2.2369303e-12 3.1860905e-09 0.0
0000e0 7b 0d 82 34 00 00 00 00 31 84 54 36 ee c1 06 35
       2.4224195e-07 0.0 3.1667407e-06 5.0201095e-07
0000f0 00 00 00 00 ea 76 38 31 7e 45 00 36 91 8c 59 36
       0.0 2.6843119e-09 1.9113936e-06 3.241734e-06
000100 00 00 00 00 43 0e 53 36 d2 b8 8a 32 54 b5 41 31
       0.0 3.1449752e-06 1.6149361e-08 2.818827e-09
000110 3e bb 85 34 00 00 00 00 79 e5 05 36 f9 22 8e 35
       2.4909417e-07 0.0 1.9952115e-06 1.0590003e-06
000120 8d 12 b5 2b c3 5b 6f 34 00 00 00 00 ac ce 54 36
       1.2865972e-12 2.2291992e-07 0.0 3.171076e-06
000130 84 6e 53 32 96 01 8f 29 27 0f b4 34 00 00 00 00
       1.2306945e-08 6.350751e-14 3.3538637e-07 0.0
000140 c4 b7 ca 35 10 fc bc 35 aa ec 98 2f 9b ae 1c 34
       1.5103656e-06 1.4080451e-06 2.78168e-10 1.4592153e-07
000150 00 00 00 00 a9 12 32 36 17 e9 ce 34 89 1f 03 2b
       0.0 2.6534929e-06 3.8540085e-07 4.6584313e-13
000160 91 10 b2 34 00 00 00 00 d9 72 c0 35 25 bc c9 35
       3.3167137e-07 0.0 1.433854e-06 1.5030424e-06
000170 dc c0 29 30 43 ac c7 33 00 00 00 00 94 50 f1 35
       6.175591e-10 9.297994e-08 0.0 1.797935e-06
000180 bd c6 97 35 fe da e3 2e 0c 64 a9 34 00 00 00 00
       1.1308217e-06 1.0361666e-10 3.1551497e-07 0.0
000190 be 23 b1 35 38 22 da 35 5a be 8c 30 2a fd a0 33
       1.319793e-06 1.6252225e-06 1.0240442e-09 7.496631e-08
0001a0 00 00 00 00 9e 22 ce 35 84 44 b7 35 cf 35 b4 2d
       0.0 1.5358271e-06 1.3654503e-06 2.0487527e-11
0001b0 a3 7e 96 34 00 00 00 00 82 a6 97 35 30 c6 fe 35
       2.8031818e-07 0.0 1.1298837e-06 1.8982155e-06
0001c0 91 eb c3 30 c5 3d af 33 00 00 00 00 f6 d7 ab 35
       1.4255069e-09 8.160308e-08 0.0 1.2803346e-06
0001d0 52 28 d7 35 0e 6a f5 2c bb 2c 99 34 00 00 00 00
       1.6030483e-06 6.9750932e-12 2.8531016e-07 0.0
0001e0 7f c5 2e 38 00 00 00 00 4a 78 3f 39 d3 44 9a 38
       4.1668765e-05 0.0 0.0001825999 7.356112e-05
0001f0 00 00 00 00 ab e2 f7 34 f7 37 87 39 5e 95 46 39
       0.0 4.6172258e-07 0.00025790904 0.00018938395
000200 00 00 00 00 1d 39 1c 34 ba 64 11 31 10 7a ac 2f
       0.0 1.454941e-07 2.1157534e-09 3.1373348e-10
000210 8f d5 84 32 00 00 00 00 fa a7 ae 33 fb e4 7f 33
       1.5463938e-08 0.0 8.133061e-08 5.958007e-08
000220 6f a8 c7 2b 5c 6f 6d 32 00 00 00 00 d9 39 1d 34
       1.418655e-12 1.3820536e-08 0.0 1.4642809e-07
000230 56 dc 14 31 0b 47 4b 2b 88 66 ab 32 00 00 00 00
       2.166208e-09 7.221868e-13 1.9953646e-08 0.0
000240 44 06 75 33 dd 81 ab 33 1c 36 e7 2d 94 2b 14 32
       5.7049206e-08 7.98643e-08 2.6285689e-11 8.624642e-09
000250 00 00 00 00 b5 2f f1 33 6e 87 ed 32 c9 a8 f5 2c
       0.0 1.1231115e-07 2.7652018e-08 6.9820577e-12
000260 7c 84 a5 32 00 00 00 00 a8 e3 56 33 a8 b1 bb 33
       1.9268775e-08 0.0 5.003281e-08 8.7401816e-08
000270 e0 c2 9e 2e 35 40 bf 31 00 00 00 00 5f 16 94 33
       7.219625e-11 5.566131e-09 0.0 6.895856e-08
000280 34 26 92 33 cd 3b 82 2e e1 2d 96 32 00 00 00 00
       6.805604e-08 5.922338e-11 1.7483162e-08 0.0
000290 ea 0b 45 33 03 75 c7 33 fe 46 ea 2e 79 81 98 31
       4.5878473e-08 9.287944e-08 1.0653699e-10 4.4385016e-09
0002a0 00 00 00 00 df 77 74 33 e3 a9 a6 33 1b 08 04 2f
       0.0 5.69197e-08 7.7608796e-08 1.200821e-10
0002b0 bd e1 80 32 00 00 00 00 a3 41 3c 33 50 e1 cf 33
       1.5003815e-08 0.0 4.3831857e-08 9.680173e-08
0002c0 3e 8f 19 2f 67 57 94 31 00 00 00 00 bc 40 6e 33
       1.3966159e-10 4.3173034e-09 0.0 5.547257e-08
0002d0 c1 97 a6 33 a1 a3 13 2f ce c2 73 32 00 00 00 00
       7.757581e-08 1.3427705e-10 1.4188755e-08 0.0
0002e0 99 c8 03 36 00 00 00 00 30 90 4a 37 22 a2 64 36
       1.9637284e-06 0.0 1.20737095e-05 3.4069021e-06
0002f0 00 00 00 00 16 eb ba 32 7a 64 47 37 c7 da 50 37
       0.0 2.1760155e-08 1.1884718e-05 1.2448704e-05
000300 00 00 00 00 b0 3c 78 34 4e 72 76 31 3c 8d 28 31
       0.0 2.3118878e-07 3.5862686e-09 2.45275e-09
000310 6c 6e 51 33 00 00 00 00 46 64 68 33 27 67 4a 34
       4.8762033e-08 0.0 5.4107907e-08 1.8850243e-07
000320 42 30 f7 2c 33 6b 2b 33 00 00 00 00 79 93 7b 34
       7.02552e-12 3.9911537e-08 0.0 2.3429847e-07
000330 a7 e8 ab 31 92 2e 8c 27 51 5e 86 33 00 00 00 00
       5.0032045e-09 3.8908297e-15 6.257017e-08 0.0
000340 4d a5 96 32 60 b0 6c 34 82 44 fb 2f 0c b7 9d 32
       1.7537468e-08 2.2043378e-07 4.5705312e-10 1.8360446e-08
000350 00 00 00 00 38 73 f3 33 b3 28 f8 33 8d 63 67 28
       0.0 1.13365275e-07 1.1555803e-07 1.28446626e-14
000360 ed ec 81 33 00 00 00 00 f9 ce 2c 32 d1 d9 75 34
       6.050127e-08 0.0 1.0058778e-08 2.2896644e-07
000370 4f 08 7a 30 ed ee 3c 32 00 00 00 00 63 06 e7 32
       9.096128e-10 1.0997366e-08 0.0 2.6894844e-08
000380 ce 13 5a 34 59 0a 3c 2f dc e1 5d 33 00 00 00 00
       2.0310037e-07 1.7102177e-10 5.166099e-08 0.0
000390 35 12 06 32 53 32 7b 34 b6 33 c7 30 b6 a9 17 32
       7.803966e-09 2.3394504e-07 1.4493853e-09 8.827945e-09
0003a0 00 00 00 00 23 16 8f 32 5d d6 67 34 ac 4b 41 2e
       0.0 1.6657458e-08 2.1591536e-07 4.395033e-11
0003b0 34 63 2c 33 00 00 00 00 f8 51 e2 31 2e 38 7b 34
       4.0137095e-08 0.0 6.5867845e-09 2.3396635e-07
0003c0 12 ad 0b 31 7b ca 14 32 00 00 00 00 34 fa f8 32
       2.0325541e-09 8.6607725e-09 0.0 2.8984779e-08
0003d0 d0 fa 4f 34 46 f2 2b 2d 9f c7 13 33 00 00 00 00
       1.9369622e-07 9.77402e-12 3.440766e-08 0.0
0003e0 ce 13 15 36 00 00 00 00 42 5d dd 37 c3 a7 ab 36
       2.2214258e-06 0.0 2.638868e-05 5.115727e-06
0003f0 00 00 00 00 57 72 d3 32 13 57 0c 38 8b 72 e4 37
       0.0 2.4615629e-08 3.3459695e-05 2.7233056e-05

exp_avg f4 [128]
000000 11 fa e2 37 31 05 14 b9 ed c3 36 35 b6 95 d3 36
       2.7057746e-05 -0.00014116314 6.8085393e-07 6.3057187e-06
000010 6b a3 3f b8 e6 27 85 b8 bc 99 c6 b6 95 2e c8 38
       -4.5690143e-05 -6.349366e-05 -5.918757e-06 9.54542e-05
000020 fe e8 f2 38 68 4d 93 36 f9 de 46 38 93 02 b4 b7
       0.000115828574 4.3899527e-06 4.7414538e-05 -2.145887e-05
000030 d0 19 47 39 86 46 88 38 c6 89 19 38 19 52 02 b9
       0.00018987735 6.4981214e-05 3.6606354e-05 -0.0001242835
000040 8a d9 49 b6 a7 6b 00 39 83 a4 b4 b8 57 6a b3 38
       -3.0077958e-06 0.00012247135 -8.6137115e-05 8.5551925e-05
000050 f8 78 1d 38 95 61 e3 38 af c5 3b b9 c3 6b aa 37
       3.7544378e-05 0.000108423796 -0.00017907353 2.031576e-05
000060 b7 7e 61 37 85 81 c2 37 24 84 84 b7 75 c3 4c b8
       1.3440548e-05 2.3186914e-05 -1.5797159e-05 -4.8819424e-05
000070 9c 7b 02 b7 51 13 9a 38 31 95 69 b8 a2 86 a9 b7
       -7.777384e-06 7.34689e-05 -5.5690474e-05 -2.0209063e-05
000080 2b fe 9f b7 ef 40 6b b9 3d 71 20 b9 e0 59 f7 b7
       -1.9072633e-05 -0.00022435536 -0.00015300974 -2.9486546e-05
000090 85 51 95 b7 0a e2 4a b6 dd 91 98 37 08 f7 62 37
       -1.7800145e-05 -3.0231918e-06 1.8187735e-05 1.3528166e-05
0000a0 ad 79 f5 b6 eb eb 78 38 fa 9a c4 b9 81 03 d3 b7
       -7.315734e-06 5.9347523e-05 -0.000374995 -2.5154792e-05
0000b0 04 f2 39 37 68 5d c0 37 d5 e6 15 38 cd 39 d0 38
       1.1083208e-05 2.293168e-05 3.5739347e-05 9.928979e-05
0000c0 8e 4e 62 38 58 3a 6f 39 36 b3 0f 38 e4 e8 6c b9
       5.395576e-05 0.00022814551 3.426076e-05 -0.00022593472
0000d0 87 2e 0b b8 da d6 36 b7 c2 e2 80 37 1f 9a 17 39
       -3.3183514e-05 -1.0898069e-05 1.5364381e-05 0.00014457897
0000e0 c0 a4 31 39 f4 ed bc b7 de fb 01 b9 16 3e 00 b8
       0.0001694141 -2.2522152e-05 -0.00012396227 -3.05754e-05
0000f0 72 28 d3 38 4a f9 78 b9 e6 e3 05 b9 5b b6 ac 37
       0.000100687976 -0.0002374399 -0.00012768767 2.0588914e-05
000100 21 8e b2 36 86 fd fe 35 81 ca 4b 39 54 37 25 38
       5.3213594e-06 1.899826e-06 0.00019435027 3.9390594e-05
000110 91 83 27 37 b5 f9 f4 b6 22 fe 5b 37 93 c1 df 37
       9.984608e-06 -7.3008364e-06 1.3112587e-05 2.6673812e-05
000120 4f 30 31 b7 87 9f ed 38 09 e8 80 b8 1d af 6d 39
       -1.056127e-05 0.00011330755 -6.1467355e-05 0.00022667316
000130 7b 4b 26 37 90 b5 1d 38 0e 20 98 b9 f8 d0 d7 b9
       9.911945e-06 3.760081e-05 -0.00029015582 -0.0004116369
000140 a7 dc d1 38 55 d5 92 39 7c fc 02 38 05 a5 ed 38
       0.00010006996 0.00028006235 3.122956e-05 0.00011331778
000150 0a 64 08 b8 57 2c d8 b8 bc 76 12 36 3b c8 74 b6
       -3.2518095e-05 -0.000103079416 2.1824808e-06 -3.6475383e-06
000160 ac fc 7d 37 3c 74 52 b8 d8 ce 3c 36 0c c9 62 39
       1.5138805e-05 -5.0176153e-05 2.8134582e-06 0.00021627935
000170 bb 00 2b b7 c5 77 62 38 e6 a6 85 35 54 58 04 37
       -1.0192564e-05 5.3994143e-05 9.957846e-07 7.888379e-06
000180 89 dc 53 b6 7f 5a 38 b8 e0 ab 07 b6 d2 ac 04 b9
       -3.1569818e-06 -4.39533e-05 -2.0216612e-06 -0.00012652882
000190 32 f7 1b b9 89 35 e4 b3 cc 45 d3 38 03 eb 37 b8
       -0.0001487404 -1.0626815e-07 0.00010074265 -4.384947e-05
0001a0 3a 21 38 36 62 76 93 b7 e7 4f 26 38 a7 39 2a b9
       2.7437477e-06 -1.7578892e-05 3.96519e-05 -0.0001623394
0001b0 e5 c4 41 ba cf ad b7 38 67 a3 03 b9 1a 71 0a b8
       -0.00073917053 8.7584944e-05 -0.00012554006 -3.3007098e-05
0001c0 58 12 89 38 8f ff 0d 39 8b 00 dc 38 7a a3 88 39
       6.536086e-05 0.00013542011 0.000104905186 0.0002606174
0001d0 cc 5d 2e 37 69 f8 0a 37 c1 33 c5 b6 ca cf df 37
       1.0393047e-05 8.2832785e-06 -5.8770825e-06 2.668043e-05
0001e0 da f4 7c b9 a5 85 89 37 b0 3d 4d b9 5f 04 f2 37
       -0.00024123807 1.6393906e-05 -0.00019573304 2.8850684e-05
0001f0 47 41 77 b6 61 d9 11 37 94 38 a6 b8 1b 05 9f 38
       -3.6843865e-06 8.693286e-06 -7.926035e-05 7.582662e-05

exp_avg_sq f4 [128]
000000 12 26 c6 32 15 c4 56 36 af cd 21 34 ed 3a 82 34
       2.3067546e-08 3.200262e-06 1.506912e-07 2.425726e-07
000010 a0 48 7e 35 4a be 33 36 a2 99 38 31 ea 9d af 35
       9.4728057e-07 2.6783841e-06 2.6862854e-09 1.3084475e-06
000020 c0 53 da 35 5e 26 0c 30 6f 73 e1 33 e6 d6 4a 32
       1.626664e-06 5.0986226e-10 1.0498376e-07 1.180681e-08
000030 03 27 2a 37 f4 22 0f 36 86 7b e7 36 68 dc 79 35
       1.0141873e-05 2.1329006e-06 6.8987165e-06 9.308046e-07
000040 b2 d5 ac 32 d6 be 1b 36 13 06 f6 35 2e 4e 15 35
       2.0120613e-08 2.320788e-06 1.8330196e-06 5.562059e-07
000050 88 b3 aa 34 fc e4 e2 34 05 34 00 37 df c7 83 34
       3.1795594e-07 4.2262388e-07 7.641506e-06 2.4546077e-07
000060 20 f9 24 34 56 95 bf 33 0b a1 ba 36 7f 54 b3 35
       1.5364321e-07 8.9212946e-08 5.56198e-06 1.3361131e-06
000070 7b 61 08 32 e6 55 af 35 a2 87 68 34 f0 29 21 33
       7.938406e-09 1.3063516e-06 2.1656027e-07 3.7523876e-08
000080 40 51 25 33 c2 90 34 36 c3 d9 3b 36 e3 29 71 33
       3.8490953e-08 2.690635e-06 2.7991925e-06 5.615028e-08
000090 8b 8a 15 33 28 8f 82 30 5f 3d e1 33 28 b8 30 31
       3.481777e-08 9.499432e-10 1.0488542e-07 2.5716052e-09
0000a0 9b 91 f6 31 38 2f 87 36 41 15 f8 36 30 2a ec 31
       7.1760957e-09 4.0288105e-06 7.3934502e-06 6.8733e-09
0000b0 d3 35 8c 32 24 d2 35 34 bf 26 91 35 84 f9 59 36
       1.6322621e-08 1.6933387e-07 1.0814618e-06 3.2480757e-06
0000c0 a6 af da 34 02 71 0d 37 40 b9 49 35 d2 87 2f 37
       4.0733465e-07 8.430567e-06 7.514791e-07 1.0462436e-05
0000d0 88 ea ad 33 14 98 16 34 19 4c 6b 31 e1 14 77 36
       8.098601e-08 1.4025164e-07 3.4240257e-09 3.6818021e-06
0000e0 f4 68 a0 36 17 0f 72 32 2b a7 9d 35 e1 d6 cc 33
       4.7805897e-06 1.4089685e-08 1.1746064e-06 9.5385765e-08
0000f0 39 e3 70 35 5d 1d 37 37 1d fc 8b 36 74 9c f9 32
       8.973762e-07 1.0914487e-05 4.1718727e-06 2.9058562e-08
000100 52 66 b6 30 40 16 81 31 8e 52 9c 35 6b d7 9e 33
       1.3271324e-09 3.7569237e-09 1.1646932e-06 7.3966326e-08
000110 f6 ff 98 31 e3 af 64 35 db b3 e1 35 95 47 6a 34
       4.4528816e-09 8.519257e-07 1.6816151e-06 2.181899e-07
000120 3e e8 45 32 57 13 85 37 d3 a7 86 35 b7 c2 13 37
       1.1519715e-08 1.5863841e-05 1.0032621e-06 8.807218e-06
000130 68 46 01 32 71 1f 44 34 95 8b 04 37 20 93 00 36
       7.524797e-09 1.8265361e-07 7.900312e-06 1.9159124e-06
000140 d1 76 5c 35 73 c9 6a 37 5d 6f e0 34 33 e3 5d 36
       8.212929e-07 1.399439e-05 4.180428e-07 3.3063814e-06
000150 4e be 83 33 32 a4 89 36 ac 74 08 33 c5 46 f8 30
       6.134779e-08 4.102033e-06 3.177108e-08 1.8064489e-09
000160 fe 83 b0 33 2a 21 0b 34 0e 50 9c 32 77 4c f7 35
       8.219648e-08 1.2957449e-07 1.8197195e-08 1.8425188e-06
000170 8f 95 85 34 3f f5 24 36 54 90 8b 32 c4 4f 01 34
       2.4882e-07 2.4580656e-06 1.6247363e-08 1.204308e-07
000180 3d 15 24 34 00 a8 4a 33 b4 e0 b0 33 56 43 a3 35
       1.5281417e-07 4.7184585e-08 8.236512e-08 1.2164044e-06
000190 5c 07 7a 36 7e 18 7a 33 1b 6d 52 36 04 2c dc 34
       3.7257187e-06 5.8229936e-08 3.1355946e-06 4.101022e-07
0001a0 b2 a1 87 30 37 39 67 32 db 00 ba 36 2e 8e 87 33
       9.868499e-10 1.3458979e-08 5.5433316e-06 6.31229e-08
0001b0 55 70 86 37 7a 35 9b 34 38 a8 db 35 fb 60 3f 35
       1.6026353e-05 2.890991e-07 1.636573e-06 7.129417e-07
0001c0 0e 0a 9f 34 c3 41 51 36 c7 35 ec 36 a1 bf b6 36
       2.9623374e-07 3.1181705e-06 7.0396086e-06 5.446331e-06
0001d0 a7 de c7 31 cf a8 bc 31 43 b6 6e 33 74 02 96 35
       5.816975e-09 5.4907114e-09 5.557946e-08 1.1176585e-06
0001e0 af c3 cf 36 f1 b3 46 33 22 ee fe 35 cf b8 20 32
       6.1918613e-06 4.6264123e-08 1.899378e-06 9.355246e-09
0001f0 1d 8e 97 30 38 4d af 30 43 d3 ba 35 56 9a ac 35
       1.1027087e-09 1.2754873e-09 1.3919565e-06 1.2859916e-06
