results/NewBirdAgent5/BirdAgent/BirdAgent-261420.pt (torch, 618247 bytes, 33 tensors)

network_body._body_endoder.seq_layers.0.weight f4 [128, 64]
000000 be b1 0e be 6c d0 6a bb 85 c5 82 bd b7 4a 1b 3d
       -0.13934991 -0.0035829796 -0.0638533 0.03791305
000010 6e 4d b3 bd 35 e6 7e be 0e 35 ac 3b 4b 5a 8c bd
       -0.08755003 -0.24892505 0.005255348 -0.068531595
000020 fb ad 3d 3e 4f 99 29 3e ce 33 b1 bc 50 37 19 be
       0.185234 0.16562389 -0.021631148 -0.14962506
000030 35 92 f3 3e 73 21 28 bd a2 50 d5 3d c2 8f d3 3d
       0.47572485 -0.041047525 0.1041577 0.10330154
000040 76 37 b1 bd e1 c6 be 3d 89 74 ac 3d 01 67 13 3e
       -0.086531565 0.09315277 0.08420665 0.14394762
000050 90 b9 7e be 42 62 88 3b 1b 3b 18 3e 64 97 8e bc
       -0.24875474 0.004162104 0.14866297 -0.017406173
000060 bb 6e d1 bd dc 0e 4a be 86 30 a8 3d 5d 29 18 3e
       -0.10226198 -0.19732231 0.0821238 0.14859529
000070 a8 e8 90 bd 23 92 e5 bd 25 60 be bc 01 35 1f bd
       -0.07075626 -0.11209514 -0.023239205 -0.038868908
000080 02 95 be 3d 97 c7 00 be 24 35 82 3d 86 9c 02 be
       0.09305765 -0.12576137 0.06357792 -0.12755021
000090 c8 93 c7 3c 69 71 17 3e 1b 77 b9 3c 8c cc 78 3d
       0.02436246 0.14789356 0.022639802 0.060741946
0000a0 1a bb 95 3e 2d 07 91 be e0 e9 09 3e d1 48 42 3e
       0.2924431 -0.28325787 0.13468122 0.1897309
0000b0 bf 14 00 bd bf 3e 98 bc 49 33 90 bd 3a 18 39 3e
       -0.031269785 -0.018584607 -0.07041032 0.18075648
0000c0 53 9e 17 bd c5 92 14 bd 41 2c 1f bb 56 c5 82 bd
       -0.037016224 -0.036272783 -0.0024287852 -0.06385295
0000d0 46 a0 c1 bd 9a fa f1 bd 3a e9 ef 3d be 80 fd bd
       -0.09454398 -0.118153766 0.11714406 -0.12378071
0000e0 3f 41 62 be b2 4a 07 3e d1 93 8d 3e be c0 1a bd
       -0.22095202 0.13212088 0.27651837 -0.03778147
0000f0 8c 96 1f be f7 99 90 3c f6 ee 67 bc 48 6c 91 bc
       -0.15584773 0.017651541 -0.014156094 -0.017751828
000100 b3 a8 33 be 04 20 38 be 92 19 c1 bd fb 09 16 be
       -0.17544822 -0.17980963 -0.09428705 -0.14652245
000110 bb a5 89 3d c3 32 33 3a 49 13 c7 bd 5b 0f 3a bd
       0.06721064 0.0006835872 -0.09720475 -0.0454248
000120 74 6f 6d be 16 d1 08 3d 4f ab 14 be e1 cf a5 3d
       -0.23187047 0.033402525 -0.14518474 0.080962904
000130 af 2d 96 bd 31 a9 16 3e ec 2b e2 3d 25 c2 ad be
       -0.07332932 0.14712979 0.11043534 -0.33937183
000140 0d 29 01 be c4 46 f2 bd f7 cf 3c 3e 6a 99 52 bd
       -0.12613316 -0.11829904 0.18438707 -0.05141584
000150 a6 db 96 3d 4b f3 0d bd c3 37 b7 bc 0c f9 08 3d
       0.07366113 -0.03465585 -0.022365456 0.033440635
000160 16 44 0d be 82 67 02 3e 17 ab 38 3b 37 69 4c 3e
       -0.13795504 0.12734798 0.002817815 0.19962011
000170 82 d1 1e be ce e1 39 3d 71 7f 63 3d 2a 22 6e 3e
       -0.15509608 0.04538136 0.05554146 0.2325522
000180 ae ec bb bd f5 f1 8d 3e 00 00 35 be e4 73 ce bd
       -0.091760024 0.2772366 -0.17675781 -0.10080698
000190 83 42 22 3d e9 17 b6 bd fd 78 3e 3c 93 ef a3 bd
       0.03961421 -0.08891279 0.011625526 -0.080046795
0001a0 e0 96 2d bb 69 c2 f8 ba 50 f5 0c be 3b ac e7 bd
       -0.0026487634 -0.0018978837 -0.13765454 -0.11312147
0001b0 9b d7 40 be c6 07 89 3d ee 0f da bd 3a 91 cd 3d
       -0.18832247 0.06690936 -0.106475696 0.100374654
0001c0 2b b6 f8 bc 0e 32 27 bd 61 59 71 3d 64 81 05 bd
       -0.030360302 -0.04081922 0.05892313 -0.0325941
0001d0 59 9f 5e 3d 7e 91 ce bc 99 d8 1f 3e 7f 68 82 3c
       0.054351185 -0.02521586 0.15609969 0.015918968
0001e0 2b be f7 bd 32 cb 71 3e a5 61 56 be 26 ac 90 bd
       -0.120968185 0.23612669 -0.20935686 -0.07064085
0001f0 76 e6 72 3d 46 eb 09 bd e4 1a 69 3e 36 43 33 bb
       0.059301816 -0.03367164 0.22764164 -0.0027353293
000200 97 83 b8 bd 37 86 17 bd 7e d9 ea 3d 2d f9 33 3d
       -0.09009474 -0.03699323 0.114672646 0.043938804
000210 3d 93 d1 bd 11 2c 5e be 40 34 43 3d 33 40 ae bd
       -0.102331616 -0.21696497 0.04765725 -0.08508339
000220 0b d0 fd bc e9 48 68 3d 34 3b 0e 3e 03 93 e3 3d
       -0.030982992 0.056710158 0.13889772 0.11112025
000230 6b 96 87 bc f1 89 0e be 8a d4 c2 3d be d3 0f be
       -0.016551217 -0.13919808 0.09513195 -0.14045617
000240 90 2c b4 bc b1 f2 4b 3d 21 42 b9 3d 54 a0 b8 3c
       -0.021993905 0.049791995 0.09045816 0.022537388
000250 d5 63 89 bd 0b 6a 33 be bd 85 26 bd 03 20 46 3e
       -0.067084946 -0.17520921 -0.040654887 0.19348149
000260 f6 2c af 3d 93 94 35 3e 13 1c 09 bd aa 9a b3 bd
       0.085534975 0.17732458 -0.03347404 -0.08769734
000270 c0 cb 37 be 43 99 c9 bd 30 4d cb 3c 94 3a 06 bd
       -0.17948818 -0.098436855 0.02481708 -0.03277071
000280 0e 22 34 bd 84 3b b1 3d 17 68 ad 3d d6 94 1e be
       -0.04397779 0.0865393 0.08467119 -0.15486464
000290 32 27 3a bd d9 d8 a2 3d c2 92 8b bd e7 1e 23 3e
       -0.045447536 0.07951517 -0.06815101 0.15929757
0002a0 40 a2 18 3e ad 57 8a 3d a2 70 bd bd f6 20 b0 3d
       0.14905643 0.06755004 -0.09249999 0.08600037
0002b0 6e 45 d0 bd e6 4e 37 3e 8e 29 15 be 43 43 44 3d
       -0.10169493 0.17901191 -0.14566633 0.04791571
0002c0 9f 9c 83 3d 8b d1 3d be 2b f2 26 be f5 95 8f be
       0.064263575 -0.18536966 -0.16303317 -0.28044096
0002d0 7e af 18 be b9 72 23 bc 39 c8 bd 3d af 54 16 3e
       -0.14910695 -0.0099760825 0.09266705 0.14680742
0002e0 9c 86 bd bd 57 87 3e be e1 db b5 3e 55 22 a5 bd
       -0.0925419 -0.18606316 0.35519317 -0.08063189
0002f0 f5 b9 88 bd c0 8a 9b 3d 1c 4c 8a 3e 4e 5a ca bd
       -0.066760935 0.07594824 0.27011192 -0.098805055
000300 f1 19 fd 3d c4 e8 41 bd c0 fc 10 bd 9f 50 c2 bd
       0.123584636 -0.047341123 -0.03539729 -0.094880335
000310 78 19 4b 3e 88 0f ae bd b5 70 bf 3c e0 65 67 3e
       0.19833934 -0.08499056 0.023369173 0.22597456
000320 3a 87 7c 3c 93 42 2e 3e e8 8d 16 be 52 28 31 be
       0.0154131 0.17017584 -0.1470257 -0.17300537
000330 01 5f 16 3d 1a 5b 04 3d 03 dd 88 3c 8c c0 06 be
       0.036711697 0.032313444 0.01670695 -0.13159388
000340 11 b8 0d be b2 61 dd 3d 68 1e 65 bd 59 60 3c 3e
       -0.13839747 0.108096495 -0.0559372 0.18396129
000350 cd a0 09 be bf 32 fa bc 0b 74 56 be 1d b6 25 be
       -0.13440247 -0.030541776 -0.20942704 -0.16182752
000360 52 50 43 bc 17 a5 63 be 57 e9 03 be 0d ec cd 3c
       -0.011921005 -0.22230946 -0.12881981 0.025136972
000370 d8 5a 1a bd f4 f8 7a be ea b1 3a 3d 80 d2 04 3e
       -0.03768429 -0.2450903 0.04557983 0.12970924
000380 76 08 15 3e 42 25 28 3d 59 66 2e 3e 59 5f c4 bc
       0.14554009 0.041051157 0.1703123 -0.023971247
000390 40 99 cb 39 66 21 82 be 47 80 11 3c dd aa e4 3d
       0.00038833357 -0.25416106 0.008880681 0.11165402
0003a0 76 5c 56 3e 66 55 10 3e 0f 55 a5 3d 23 b0 23 be
       0.20933709 0.14095077 0.08072864 -0.1598516
0003b0 f5 a8 27 3e 40 70 23 3d 2c 7f 3f be 9c d9 b1 3d
       0.16373046 0.03990197 -0.18700856 0.08684084
0003c0 2b ba 68 bc f1 e8 41 be c1 ab 13 bb 2f f0 f2 bc
       -0.014204542 -0.18936516 -0.0022532793 -0.029655544
0003d0 02 10 fe 3d f2 3b 5a be 8c 9b 99 bd a2 90 59 3c
       0.12405397 -0.2131193 -0.07500371 0.013279112
0003e0 c4 9a f6 bc 8e 40 36 be 08 93 ce 3b 71 be 3c be
       -0.030103095 -0.17798063 0.0063041486 -0.18432023
0003f0 c0 74 8c 3b d1 bc 4c be bb 60 55 be e2 a4 6f bd
       0.0042863786 -0.19993903 -0.20837681 -0.058506854

network_body._body_endoder.seq_layers.0.bias f4 [128]
000000 5b db 99 3c ad cf 5e bb 55 91 9d 3c 06 42 0e bc
       0.018781355 -0.0033998296 0.019234339 -0.008682733
000010 bc 16 8a bc 5d 7d 0d bc ce f1 72 3c 61 b1 c7 ba
       -0.016856544 -0.008635846 0.014828159 -0.0015235358
000020 66 35 8e 3c f5 85 aa 3c 48 a3 18 bb 06 cd a1 3c
       0.017359447 0.020815829 -0.0023290683 0.019751083
000030 a1 55 c8 3c 19 9c cb bb 23 c3 86 3c 97 78 3b 39
       0.024454894 -0.0062136767 0.01645047 0.00017878633
000040 bb 29 7e 3c e7 7c 88 3c 8c e6 1f 3b 2e e9 31 3c
       0.015512879 0.01666112 0.0024398891 0.010858817
000050 30 2b 93 3b 81 d7 9b bc a9 27 60 3c e7 9b db ba
       0.0044912323 -0.019023659 0.013681331 -0.0016754837
000060 7e e3 9f 3c 31 c3 59 3c b2 44 48 3d 9e 02 b8 3c
       0.019517656 0.013291166 0.048893638 0.022462185
000070 27 ce 30 bc a9 c8 b9 3c 0e 17 89 3d cb ea fd 3b
       -0.010791338 0.02267869 0.066938505 0.007748937
000080 3f b1 9b bc 01 60 00 bc e1 fd 6c ba 0b c2 85 3c
       -0.019005416 -0.007835389 -0.00090405165 0.016327878
000090 61 46 b7 3b 26 66 3d 3c d4 9f a5 3a f1 b1 c9 3b
       0.0055931066 0.011559999 0.0012636133 0.0061552455
0000a0 01 0d 66 3c 38 7a c7 ba a6 49 5c 3c 70 92 69 3c
       0.014041186 -0.0015218919 0.0134452935 0.014256105
0000b0 f3 0b 62 bc d3 ba 94 3c a2 e8 f4 3b 0d 7c 92 3c
       -0.013796794 0.018155491 0.007474021 0.017881418
0000c0 2b 84 9f 3b 01 d8 ad 3c 80 54 93 bc 24 ca 04 3d
       0.0048680506 0.021221163 -0.017984629 0.03241934
0000d0 ac e2 b3 3c 98 c3 0f 39 57 93 05 3c 70 01 cb bb
       0.021958672 0.00013710407 0.008152804 -0.0061952397
0000e0 70 09 33 3c 9e 06 14 3d dc e3 9d 3c 88 71 92 3c
       0.010927543 0.036139123 0.01927369 0.017876402
0000f0 23 79 b7 3c 9f 01 c5 3c 3d b3 ff bb c6 08 0b 3d
       0.02239663 0.024048625 -0.0078033493 0.033943914
000100 06 ec bf 3c ff 65 9c b9 c2 7f d4 3c ea 2b 83 3c
       0.023427974 -0.00029830632 0.025939826 0.01601215
000110 64 06 ab 3c ab 5b fc 3c f4 f9 b4 3c 71 3a 04 3d
       0.02087707 0.03080543 0.022091843 0.032282297
000120 fd c4 18 3d c9 75 ac bc 9b 67 2e 3c 6c 63 51 3c
       0.037297238 -0.021052258 0.010644819 0.012780052
000130 e3 86 2a 3d 62 0a 36 3c 84 dc f3 3c 87 bb bd 3c
       0.041632544 0.011110874 0.029768236 0.023160709
000140 5f 0d 68 ba c7 0c 9b bc 0c 37 d8 3c e8 83 84 3a
       -0.000885209 -0.018926991 0.026393436 0.0010110112
000150 90 96 05 3c df 9a 77 3c 25 48 32 bc 1a 6e b4 3c
       0.008153573 0.015112608 -0.010881458 0.022025157
000160 b7 7b 1a bc 9e 83 c2 3c 48 07 b4 3c 63 12 12 3d
       -0.00942891 0.0237444 0.021976128 0.035662066
000170 0d af 78 bc c9 54 a8 ba 3a b6 0f 3b ea 2e 10 3d
       -0.015178454 -0.0012842651 0.0021928684 0.03520099
000180 6b cc 63 3c 37 51 2b 3c cb 21 9c 3c 71 ef 0a 3c
       0.0139037175 0.010456375 0.019059082 0.008479939
000190 ac 40 06 3c fa 30 77 bc bb f3 05 3d 94 89 9a 3c
       0.00819413 -0.0150873605 0.032703143 0.01886443
0001a0 f6 98 06 bb f7 f2 bb 3c 4e 65 e7 39 43 10 4f 3c
       -0.002053795 0.022943003 0.0004413523 0.012638154
0001b0 e3 54 f4 bb 13 15 68 bc e1 ae 66 bc 09 f1 3f 3a
       -0.0074564083 -0.014165181 -0.01407978 0.0007321989
0001c0 d1 c1 83 3c 10 ad 84 3c f7 7c 18 3c 9c e5 21 3d
       0.01608363 0.016195804 0.009307138 0.039525613
0001d0 07 c8 89 3c 82 88 cf b9 a7 54 ff b9 e4 7b 7e 3c
       0.016819013 -0.00039583823 -0.0004870046 0.0155324675
0001e0 a3 58 e2 3b 42 c8 ae 3b 03 fb b5 bc b1 34 88 3b
       0.006907539 0.005333931 -0.022214418 0.004156672
0001f0 e5 56 69 3d 90 4b ca b9 d9 82 da bb 0d 3f 91 bb
       0.056967635 -0.0003858474 -0.0066684303 -0.004432565

network_body._body_endoder.seq_layers.2.weight f4 [128, 128]
000000 9b 5c 04 bd e0 3f 5b bc 2c 3d 8e bd 19 0e b8 bd
       -0.032314878 -0.013381928 -0.06945261 -0.08987064
000010 f6 c8 f4 3b a2 9f 90 3b bc f2 aa 3b 5a 71 7b bc
       0.0074702455 0.004413561 0.0052169245 -0.015346849
000020 21 3a f8 3d 26 bf c3 bc 1c d8 c2 3d cf ae f4 bd
       0.12120462 -0.023894858 0.09513876 -0.119474046
000030 6a cc 21 bd 83 23 90 bd 9f 4f 40 3e e0 7f 86 3c
       -0.039501585 -0.07038023 0.18780373 0.016418397
000040 d6 a8 4b 3e 36 44 45 3d d0 f0 a7 bd c2 58 db bd
       0.19888625 0.048160754 -0.08200228 -0.107102886
000050 3b 10 52 3d f0 cd e8 3c 75 06 07 3d 42 45 9f bc
       0.05128501 0.028418511 0.032965142 -0.019442204
000060 56 ad 0e 3d c9 5b bc bd 8c e3 b7 3d eb 7b f1 3d
       0.034833275 -0.09197194 0.08978948 0.117912136
000070 b5 02 7e bd 9d 97 d8 bc 3c bd 5f 3d 3d 89 a0 bd
       -0.0620143 -0.026439482 0.054623827 -0.07838676
000080 b4 c7 76 3d 25 66 a0 3d f2 54 51 bd bb e8 5c bd
       0.060249045 0.078319825 -0.0511064 -0.053932887
000090 ca 81 39 bd 5c a1 5f bd 0b 3f 05 be a1 5d 0a bd
       -0.045289792 -0.054597244 -0.1301233 -0.033780698
0000a0 39 d2 53 bc 8a 3d e2 bc 58 03 c4 3b c7 00 a9 3d
       -0.012928539 -0.027617235 0.005981844 0.082521014
0000b0 de 45 0d be c8 35 01 3e b4 cb 3b 3e cb 62 15 3a
       -0.13796183 0.12618172 0.18339425 0.000569862
0000c0 10 c1 18 be 65 01 ab bd c2 c9 81 bd 28 97 1e bd
       -0.14917397 -0.08349875 -0.063373104 -0.038718373
0000d0 7c 55 0e 3e 5f 81 c3 3d 0b ce 0b bd 5a 02 24 bb
       0.13899797 0.0954616 -0.034132045 -0.0025025816
0000e0 c2 f0 dc 3d e2 a6 98 3c 36 84 9d bd 1c 5c bf 3d
       0.107881084 0.018634263 -0.07691233 0.0934374
0000f0 a5 32 66 bc 29 9b a0 3d cd ba 45 3d c8 08 50 3e
       -0.014050161 0.078420945 0.04827385 0.2031585
000100 46 0d a3 3d 08 14 90 bd 2c 03 86 3c 6e bd 7a 3d
       0.07961516 -0.07035071 0.016358934 0.06121581
000110 80 34 1e 3e c1 ab 53 3d 39 2c 13 3d 07 f6 3e 3d
       0.15449715 0.05167747 0.035930846 0.04662135
000120 e7 90 d9 bc cf 24 38 bd 64 f2 4c 3d b3 70 c0 3d
       -0.026558353 -0.04495698 0.05003585 0.09396496
000130 a8 45 f3 3c 3f a5 77 bd cf f2 0b 3e e7 b1 ee 3b
       0.0296963 -0.060460325 0.13666843 0.007284391
000140 db 0c e1 bd 94 05 70 bd 4b 49 d6 bd f1 54 0c be
       -0.1098878 -0.05859907 -0.10463198 -0.13704278
000150 6b 80 03 bd af 7e 70 bd 53 aa d5 3d 12 52 88 bd
       -0.03210489 -0.058714565 0.104328774 -0.06656279
000160 c0 65 6b 3d 0a 76 16 3d 8b 4b c8 bc 04 f3 98 3d
       0.057470083 0.036733665 -0.024450084 0.074682266
000170 49 fd 40 bd 3e bb e7 bd a1 38 81 3c 24 99 0f 3b
       -0.04711655 -0.113150105 0.015774073 0.0021911347
000180 28 a3 b7 3d 04 8a 8b bd 90 7a 06 3e bf bc 1d be
       0.089666665 -0.06813434 0.13132691 -0.15404032
000190 cc 63 38 3d 02 9c 8c 3d 9b 12 ee 3c c8 8e e9 3d
       0.04501705 0.06865694 0.029061606 0.114041865
0001a0 42 0d 88 bd 80 a6 31 be 58 63 20 3b d1 76 cf 3d
       -0.06643154 -0.17348671 0.0024473276 0.10130084
0001b0 f7 67 0d 3e 24 30 7e 3d 40 c5 65 3d 6c f3 98 bd
       0.1380919 0.06205763 0.056096315 -0.07468304
0001c0 f0 65 4e 3c 7e 7e ed bd ac d8 c6 3c 87 44 06 3c
       0.012597546 -0.11596392 0.02427324 0.008195049
0001d0 27 7a be 3a 7a 4a c2 3d a6 d3 aa 3c 52 a7 ad bd
       0.0014532254 0.094868615 0.020852875 -0.084791794
0001e0 62 44 a3 ba 11 9d f0 bc d6 5d e3 bd 46 e7 20 3e
       -0.0012456293 -0.02937177 -0.11101882 0.15713224
0001f0 1f 40 d3 3d 58 75 0b 3e 38 39 ed 3c 45 fa f5 bc
       0.103149645 0.13618982 0.028957948 -0.030026564
000200 2a 32 75 3c d3 2e 95 bd ca 64 e2 bc ad 8d ed 3c
       0.014965573 -0.07284322 -0.02763595 0.02899822
000210 b9 ae 22 3d 12 db 56 bd f1 6e b3 bc 45 ef 22 3d
       0.03971741 -0.052455015 -0.021903487 0.039778966
000220 63 8e 7c bd c2 6c e9 bd 98 c3 23 3d 22 2a 02 3e
       -0.061659228 -0.11397697 0.039981455 0.12711385
000230 1a 09 b5 3c 4f 9a b9 bd 28 ca c3 bd 54 dc ab 3d
       0.022099067 -0.09062635 -0.095600426 0.08391634
000240 f0 c2 34 3c 81 24 61 3d 7f 43 78 bc 85 23 b3 3d
       0.011032805 0.054966453 -0.015152811 0.08747009
000250 09 4d de 3c 4f 79 09 3d 89 21 6c 3c 43 2d 61 3d
       0.027136343 0.033562955 0.014412292 0.054974806
000260 a8 67 26 3e 25 47 c1 3c 44 b2 15 3e 55 06 f9 bc
       0.16250479 0.023593495 0.14618784 -0.030398527
000270 93 c9 9a bc 6b f9 04 bd c7 f6 1e 3d 2d 63 28 bd
       -0.018894946 -0.032464426 0.038809564 -0.041110206
000280 da f0 df 3a f8 fd 06 be 7d eb 25 bc 59 3c a8 3c
       0.0017085329 -0.13182819 -0.010126946 0.020536589
000290 a9 5f 00 3d b9 8d 08 be 3d 36 ad bd 08 4b 05 be
       0.03134123 -0.13335313 -0.08457611 -0.13016903
0002a0 3a 51 02 be 83 71 1e 3d 66 61 b1 bc 63 85 c8 bd
       -0.12726298 0.038682472 -0.021652889 -0.097910665
0002b0 ff 6c 4e be c0 a2 e9 bd f9 32 e1 bb 0e 06 25 be
       -0.20158766 -0.11407995 -0.0068725315 -0.16115591
0002c0 97 9c fb bd 7d 23 e3 3d 70 0c 9a bd 86 e9 ac 3d
       -0.122857265 0.11090753 -0.075219035 0.084429786
0002d0 a4 d3 6e bd 51 d5 87 3d dd 71 6b 3d 16 5f b9 3d
       -0.058307305 0.06632484 0.057481635 0.09051339
0002e0 55 f5 03 bd 70 55 10 be 8e bc 89 bd f2 4d 92 bd
       -0.03221639 -0.14095092 -0.06725417 -0.07143773
0002f0 9b 11 db 3b 78 83 8b 3c 1c 4f ed bd af 98 0a be
       0.0066854483 0.017030463 -0.115873545 -0.13534807
000300 ef 09 f6 3c 86 c6 d8 bc 31 3d 94 bc d1 03 0c be
       0.030034034 -0.02646185 -0.018095585 -0.13673331
000310 d8 9f a6 3d 90 78 41 bd 18 61 cf bd bb 8a 69 be
       0.081359565 -0.047234118 -0.10125941 -0.22806828
000320 32 12 3a 3d 5e e6 96 bd 04 db d4 bd 34 ab 91 bd
       0.04542751 -0.07368158 -0.103933364 -0.071127325
000330 2f ac d0 bd 58 c5 e2 bd 35 fd 91 bd 92 90 d2 3c
       -0.101890914 -0.110727966 -0.071283735 0.025703702
000340 d0 46 e8 3d 3b f5 12 3d ff f8 a9 bc 8b 02 08 3d
       0.113416314 0.0358784 -0.020748613 0.03320555
000350 84 12 cf 3a 2e aa c8 bb ee de 29 bc 9a 43 20 bc
       0.0015798365 -0.0061238026 -0.010368092 -0.0097817425
000360 78 fb 2a bd ae 42 b6 3d 25 f0 89 bc 54 9f 29 be
       -0.041743726 0.08899437 -0.016838143 -0.16564685
000370 dd 93 69 be fd 10 de 3b c0 2f 2d 3d 9a 7d 78 be
       -0.22810312 0.0067769275 0.042281866 -0.24266663
000380 34 b8 08 3e 94 a4 c2 bb e7 1b ae bd 18 f3 84 be
       0.13351518 -0.0059400294 -0.08501416 -0.25966716
000390 9a b9 02 be ae ef 24 3e 21 e9 3f be 59 cd bc bc
       -0.12766114 0.16107056 -0.18741275 -0.023047136
0003a0 b3 db 26 3e 3a 61 a9 3d 66 8e a9 bd 7c 63 6f 3d
       0.16294746 0.082704976 -0.082791135 0.058444485
0003b0 ac 52 d5 3d 92 2e 3c 3c d3 c9 e3 3d 25 eb 1f bc
       0.10416159 0.011485713 0.11122479 -0.009760653
0003c0 64 60 7b 3c 61 8a 72 3d d6 9c c5 3c 10 af 22 3d
       0.015342806 0.059214 0.024122637 0.039717734
0003d0 e4 2b b9 3d 53 51 84 bd 0f 47 84 bd fc 5a 71 be
       0.090415746 -0.06460824 -0.06458866 -0.23569864
0003e0 e2 70 37 be 21 30 e4 3d b3 be 2e bd d4 e6 90 bd
       -0.17914155 0.11141992 -0.042662334 -0.07075277
0003f0 6b 45 c1 bd 1e bb e7 3d d2 46 01 be 3f 2d 88 bd
       -0.094370686 0.11314987 -0.12624672 -0.06649255

network_body._body_endoder.seq_layers.2.bias f4 [128]
000000 bb 9e 25 3b f4 09 5b 3c c0 bd be 3c 41 7d 9b 3b
       0.0025271613 0.013369072 0.02328384 0.004745156
000010 41 08 b2 3c 72 4f e0 3b e8 82 c4 bb 74 d0 e2 3c
       0.021732451 0.006845408 -0.0059970506 0.027687289
000020 8c 4a ca 3c 16 84 ba 3c 13 98 49 3c 94 d9 e9 3c
       0.02469375 0.022768062 0.012304324 0.028546132
000030 9e 8a 32 3c ab 52 02 3c d3 6a 61 bb da 86 27 3d
       0.010897307 0.00795428 -0.0034395948 0.04090009
000040 2e 98 e2 3c 88 97 3e 3c d2 de 36 3c b7 16 e0 3a
       0.027660456 0.011632808 0.011161523 0.0017096613
000050 93 a2 27 ba 2a f5 79 3c 42 5f 6b 3c 1a 1d fb 3c
       -0.000639477 0.015256206 0.014365973 0.030653525
000060 81 8d 93 3c b4 d5 90 bb 03 cc f6 3c b9 62 1d 3c
       0.01801181 -0.0044200066 0.030126577 0.009606057
000070 25 32 b8 bb bd 67 9b 3c 53 65 c4 3c 58 88 82 bb
       -0.005621212 0.018970365 0.023974096 -0.0039835386
000080 63 7f ee 3c 5b c3 d5 3c fd d3 9f ba 9f a6 b5 3c
       0.029113477 0.02609413 -0.0012193915 0.022174178
000090 5e 2b b0 3b 49 5b e3 3c 04 0e 5c bc b5 3b 0f bc
       0.0053762635 0.02775349 -0.013431076 -0.008742263
0000a0 1d 90 c5 3c 55 a5 ac 3c d1 70 eb 3a 07 ae bb 3a
       0.02411657 0.02107493 0.0017962699 0.0014318832
0000b0 83 bc 20 3c 14 d1 82 3c dc b5 57 3b a0 f0 8b 3c
       0.00981057 0.015968837 0.0032914793 0.017082512
0000c0 73 24 19 3c e1 ee cc 3c e3 e3 72 3c 40 90 45 3c
       0.009347069 0.02501625 0.01482484 0.012058318
0000d0 ee ed 19 3c b8 c5 9c 3c b1 13 83 3c d8 ac 8e ba
       0.009395106 0.019137248 0.0160006 -0.0010885252
0000e0 ea bd 9c 3b fa 6c 9c 3b 30 e6 f0 3b c6 9c f1 3c
       0.0047833817 0.004773733 0.0073516592 0.0294937
0000f0 3f 2d 13 3c 41 73 1c 3c 42 ed 02 3c 3a c7 c9 3c
       0.0089829555 0.009548963 0.007991137 0.024631131
000100 37 a2 58 bc 70 2d 9f 3b 04 8a ef 3b 42 61 05 3c
       -0.013222269 0.0048577115 0.007310154 0.008140864
000110 e1 12 09 bc 78 1a bf 3c b1 f6 3a 3c f6 ab 9f 3c
       -0.0083663175 0.023328051 0.011411355 0.019491177
000120 76 98 db 3b 90 cc 1b 3c b9 1f e7 bb c5 51 3b 3c
       0.0067015244 0.009509221 -0.007053342 0.01143307
000130 23 f5 3d 3c df 08 de 3b 21 6a 03 3b 8c 60 47 3c
       0.01159409 0.00677596 0.0020052271 0.012169015
000140 03 bd f9 3a 3b 51 d4 3c dc 3f 04 bc 95 05 0e 3b
       0.0019053522 0.02591764 -0.008071866 0.0021670808
000150 22 83 be 3a f6 8a 61 3b 5c cf 2b 37 63 68 10 bb
       0.001453493 0.0034415103 1.0240674e-05 -0.0022034876
000160 04 a9 7b 3c ed d1 25 bb 6c ba 11 bb c6 2a b7 3c
       0.015360121 -0.0025302127 -0.002223636 0.022359263
000170 06 7e 5b 3b 27 05 fb bb 1c 1a f1 3c e5 0b 16 bc
       0.0033491864 -0.0076605263 0.029431395 -0.009158109
000180 5a 39 23 3c 2b 2e 9d 3c 1c 22 93 3b 80 83 ba 3b
       0.009962404 0.019187054 0.00449015 0.0056919456
000190 94 92 f4 3b 08 34 8c 3c 52 03 fa 3c 56 c5 03 3d
       0.0074637625 0.017114654 0.030519161 0.032170616
0001a0 bb f9 b1 bb da 0a e5 3b 0d cf 91 bb c9 0c 5e 3c
       -0.0054313815 0.006989819 -0.004449731 0.013552853
0001b0 73 61 e3 3c f4 a5 0e bc 79 75 9a 3c 01 04 a3 3b
       0.027756428 -0.0087065585 0.018854843 0.0049748425
0001c0 1c 71 66 3c 6b e3 9c 3c 07 18 92 3b 99 7f e0 3b
       0.014065053 0.01915141 0.0044584307 0.0068511483
0001d0 91 c7 e0 ba 69 b0 a2 3c 3c 1c 01 3d 9b ea e2 bb
       -0.0017149319 0.01985951 0.031521067 -0.00692494
0001e0 c8 eb 2e 3c 3d 36 bc ba b0 68 5c 3c cf 44 b1 3c
       0.010676332 -0.0014359426 0.013452694 0.021639256
0001f0 6a 01 9d 3c 1e 4b 47 3b 05 22 00 3c 58 27 2a 3c
       0.019165713 0.0030409764 0.007820611 0.010385357

action_model._discrete_distribution.branches.0.weight f4 [3, 128]
000000 28 49 09 bc 2f 04 89 3b 0f 96 b0 3a 78 8a 7c 3c
       -0.008379258 0.004181407 0.0013472455 0.015413873
000010 d7 56 03 bd 29 4a 94 bc 53 f1 b0 bc 59 3d 87 bc
       -0.03206524 -0.018101769 -0.021599447 -0.016508745
000020 39 60 e0 3c 6b 5b c0 3c e2 89 05 bd 74 7c 82 3a
       0.027389633 0.023481091 -0.0326022 0.0009955303
000030 9e e2 22 bc 5d 2d 5e bb 94 13 82 ba cc 21 4a bc
       -0.009941725 -0.003390155 -0.0009924048 -0.012337159
000040 23 ba 26 bd fc 38 d6 3c 01 07 3b 3c 06 ee 35 3c
       -0.040704858 0.02615022 0.011415244 0.0111041125
000050 b9 7d 8e 3b 68 0f 8b bc c0 5e c6 3b 75 c5 8c bc
       0.0043484834 -0.01697512 0.0060537755 -0.017183999
000060 b8 1e cd bc 45 fb 9a 3a 52 51 20 bb 12 68 50 3c
       -0.025039062 0.0011824152 -0.0024462533 0.012720125
000070 13 d1 cb 3b 14 0a 80 3c 37 3d 29 3c c5 6b 3d bc
       0.006219992 0.015629806 0.010329536 -0.011561339
000080 af 61 24 bc 17 dd 1d bd 14 c9 21 bc 55 e6 91 bc
       -0.010033055 -0.038540926 -0.009874601 -0.017810026
000090 4c de e4 ba cd b2 e6 bb d6 47 88 bc 7c ea ff 3b
       -0.0017461269 -0.0070403577 -0.016635817 0.007809935
0000a0 19 91 a2 3c 85 66 57 bb da 84 70 bb 37 cb 91 3c
       0.019844579 -0.0032867503 -0.003670028 0.017797096
0000b0 11 55 88 3c 0c de f0 3c 17 30 a9 3c 3a 0f 4a bc
       0.016642125 0.029402755 0.020652814 -0.012332732
0000c0 48 d4 29 bd 11 f7 cc bc 99 fa 23 3c 08 98 67 3c
       -0.041462213 -0.025020154 0.010008478 0.014135368
0000d0 61 45 35 bc 7a 21 94 3c 59 f6 4a 3c c0 e5 f4 bc
       -0.0110639045 0.01808237 0.012387835 -0.02989471
0000e0 d7 ee c9 bc 12 9a 99 bb c2 86 a0 bb ba 78 a7 bc
       -0.02465002 -0.004687556 -0.004898877 -0.02044331
0000f0 09 bf 0d bc bf 6f e0 bc f3 2f 9f 3b 65 fe d2 bc
       -0.008651503 -0.027397035 0.004858011 -0.02575607
000100 e4 81 0d bc ee a9 97 bc c4 f4 6e 3c 39 dc 62 bc
       -0.008636925 -0.018513646 0.014584724 -0.0138464505
000110 e7 87 f7 3b 75 61 84 bc 33 35 ff bb b5 3f dd bc
       0.0075540426 -0.016159752 -0.0077883243 -0.027007917
000120 05 3f 84 bc 01 7a 38 bb e5 72 d5 3b db d2 c5 3c
       -0.016143331 -0.0028148892 0.0065139406 0.024148395
000130 8d f7 69 bb 16 70 be 3c e8 07 22 bb 78 3f 98 bb
       -0.003570053 0.023246806 -0.002472395 -0.004646238
000140 a8 2c 2a bc 7f cd da 3c e2 6a 01 3c 56 1a a7 bc
       -0.010386623 0.026709316 0.007899018 -0.0203983
000150 02 9d cd bb 96 28 a0 3b f9 f6 a7 bb b7 02 00 3b
       -0.0062748203 0.0048876507 -0.005125877 0.0019532868
000160 79 95 d9 bc 97 57 d0 3b 54 81 91 bb 56 8a a1 3c
       -0.026560532 0.006358098 -0.004440466 0.019719284
000170 07 92 68 3c 22 ef 07 bb c0 8e cd 3c 73 80 9d 3c
       0.014194972 -0.00207419 0.025092483 0.019226288
000180 12 d2 56 bc f5 e6 f1 bc 23 91 48 3c 4f c0 b5 bc
       -0.013111608 -0.029529074 0.012241635 -0.022186426
000190 d6 4b 85 3c 1c fa e8 3c c0 b8 7a bc 4c 3f 2f bc
       0.016271513 0.028439574 -0.015302837 -0.0106962435
0001a0 18 7e 23 3c 5f 75 de 3c f0 b3 0a 3c 5f 36 86 3b
       0.009978794 0.027155576 0.008465752 0.004095837
0001b0 5f 7f 07 bd 29 ac 1a bb 0b d9 1c bc 94 be d0 3b
       -0.033080455 -0.002360115 -0.009573231 0.006370375
0001c0 b4 c4 59 bc 20 ed 91 3c 04 67 5d 3a 6b 50 a8 3b
       -0.013291527 0.017813265 0.00084458315 0.0051365397
0001d0 48 52 70 bc 7d 47 d1 3c ec 43 b6 bc f0 9c 8a bb
       -0.014668055 0.025546784 -0.022249185 -0.004230134
0001e0 e6 ed 5e bc b5 fc 88 3b 3f 87 98 bc 0a 09 8e bc
       -0.013606524 0.0041805157 -0.018619178 -0.017338295
0001f0 1c d3 c1 bc 74 65 ed bc ba b7 ad bc 7e ca 35 3c
       -0.023660235 -0.02897904 -0.021205772 0.011095641
000200 c5 19 71 3c 24 88 b2 bc bf e6 b3 3c bf a8 a4 bc
       0.014715617 -0.021793433 0.021960614 -0.020099996
000210 80 b7 52 3d c3 c2 f7 3c 1b 9a b6 bc d0 f0 fd 3c
       0.05144453 0.030244237 -0.02229028 0.030998617
000220 e3 48 0f bd b7 a1 22 bd 05 b6 97 3c 9a 4e a2 3c
       -0.03498162 -0.039705005 0.01851941 0.01981287
000230 1e af 5e 3c 94 20 13 bd 77 0c 8d bc b3 a4 b5 3c
       0.013591556 -0.03591974 -0.017217858 0.022173261
000240 b8 67 db 3c a6 fc 55 bd d7 17 68 3c 27 62 f7 3b
       0.026782855 -0.052242897 0.01416584 0.0075495425
000250 d8 16 d7 bc 80 06 de 3c 09 99 f4 bc c1 3e be 3c
       -0.02625601 0.027102709 -0.02985813 0.023223283
000260 38 f2 b6 3c 26 db 0c bc a9 de 2b 3d c1 65 5b bc
       0.022332296 -0.008597171 0.041960392 -0.013390959
000270 00 32 d5 ba a2 01 12 bd 22 b4 fc bc 46 b6 1e 3b
       -0.0016265512 -0.03564609 -0.030847613 0.002421753
000280 df 9d 6e 3c 46 e3 17 3d 29 8e c6 3a 1d d8 ea 3c
       0.014564007 0.03708198 0.0015148568 0.028667504
000290 f7 9b 00 3c 4b 67 ed 3c b2 2f af 3c f0 ff a4 3b
       0.007849685 0.028979918 0.021385048 0.005035393
0002a0 ae f0 51 bd dc d4 9f 3c 1e 8d 42 3c 44 37 1d bd
       -0.05125492 0.019510679 0.011874465 -0.038382784
0002b0 71 f4 c7 3b 29 c5 2d bd e6 6e d0 bc 5d 4a 9c 3c
       0.0061021377 -0.042424355 -0.025443505 0.019078428
0002c0 6b ba 4e 3c 26 67 17 3d 16 26 56 3c b2 6c f9 bc
       0.012617688 0.036963604 0.013070604 -0.030447338
0002d0 f7 68 42 3b 80 8e 57 bd 11 20 1d bd b8 0c 2b 3c
       0.0029664615 -0.052626133 -0.03836066 0.010440044
0002e0 31 cf dc 3b 68 ea 85 3b b5 a5 5f bc 83 73 52 3d
       0.0067385663 0.0040867813 -0.0136503475 0.05137969
0002f0 5c d3 1b bd 0e 43 8d 3c ed b5 11 bd f7 70 17 3d
       -0.038043365 0.017243888 -0.03557389 0.036972966
000300 c4 58 cc bb 55 b8 66 bc 5a 7d c6 bc cf 40 c7 3c
       -0.0062361676 -0.014082034 -0.024229694 0.024322895
000310 c6 6a 07 3b 86 f7 c2 3c 42 03 0a bd ef 8e 86 3c
       0.0020663007 0.023799669 -0.033694513 0.016425578
000320 43 70 a3 bc 56 fe 15 bd 49 9b cb 3b 95 8f 08 bd
       -0.019950991 -0.036619507 0.00621358 -0.033340055
000330 1d 78 fc 3b f7 d0 34 bd a6 a0 f9 bc c5 06 81 3c
       0.0077047483 -0.044144597 -0.030472111 0.015750298
000340 16 bd 44 bc e5 18 29 bd 62 a8 09 bc 4e 07 be 3b
       -0.012007972 -0.041283507 -0.008401962 0.0057992106
000350 a4 4f 4e 3c af 66 a7 bc 70 82 1b 3c 1a b8 44 bc
       0.01259223 -0.020434706 0.009491548 -0.012006784
000360 8b 03 c2 3c 5a 66 19 bc d7 4b b5 bb 19 7f 14 bd
       0.02368333 -0.009362781 -0.0055327225 -0.036254022
000370 1f dc 82 bc e4 89 b8 bc f2 94 59 bd bd df 29 bb
       -0.015974103 -0.022526689 -0.05312056 -0.0025920712
000380 f5 59 73 3c 17 77 b9 3c 97 f3 f4 bc 9c 65 db 3c
       0.01485299 0.022639794 -0.029901309 0.02678185
000390 05 9e ea bc 08 0c 39 bd cc f0 9d 3c 64 b5 cd 3c
       -0.028639803 -0.04517749 0.01927986 0.025110908
0003a0 86 ce eb bc 3d af 17 bd d5 cd 1a bc b7 f9 89 3c
       -0.028785001 -0.037032355 -0.009448488 0.016842706
0003b0 dc 40 3f 3d 56 d2 bb bb e2 cc 9d 3c e3 67 07 bd
       0.046692714 -0.005731861 0.019262735 -0.03305806
0003c0 15 85 fe 3c 57 b4 3b bd 81 d2 06 3b f3 e6 5a 3c
       0.031069318 -0.045826282 0.0020572247 0.013360727
0003d0 f3 9b b6 bc 48 31 10 bd f7 7d 23 3d 1c 4a 99 bc
       -0.02229116 -0.03520325 0.03991505 -0.018712096
0003e0 e1 db 13 3c e4 df 78 bc 81 80 e1 3c e5 f0 06 3d
       0.009024591 -0.015190098 0.027527096 0.03294458
0003f0 0a 32 12 3d 09 70 07 bc 3d 5c 42 bc 16 de 28 bd
       0.035692252 -0.008266457 -0.011862812 -0.041227423

action_model._discrete_distribution.branches.0.bias f4 [3]
000000 65 ae 2f ba 0c ee 9b 39 93 c4 cd 3b
       -0.0006701707 0.00029741263 0.006279537

exp_avg f4 [128, 64]
000000 00 00 00 00 b2 ac 20 b7 de 48 da b5 e6 75 42 b7
       0.0 -9.576952e-06 -1.6263473e-06 -1.15907515e-05
000010 6e 85 25 b8 00 00 00 00 58 4d 8b b8 d4 09 40 38
       -3.946333e-05 0.0 -6.642443e-05 4.578552e-05
000020 3e a1 10 b6 2b 04 57 b8 00 00 00 00 a8 f2 f3 37
       -2.1551527e-06 -5.1263876e-05 0.0 2.9080853e-05
000030 41 94 59 b8 f4 88 fa 9f 9a be 2a 37 00 00 00 00
       -5.1874904e-05 -1.0610569e-19 1.01771675e-05 0.0
000040 d8 5e c7 38 75 c7 fa b8 1d ca e6 35 66 77 30 b8
       9.5067255e-05 -0.00011958081 1.7195158e-06 -4.207287e-05
000050 00 00 00 00 d4 e2 07 38 c2 7d 67 b8 dd ef 23 a0
       0.0 3.239776e-05 -5.5191813e-05 -1.3886001e-19
000060 e6 cd 56 38 00 00 00 00 ee 04 c6 35 60 3b 59 b7
       5.1213334e-05 0.0 1.4753584e-06 -1.2948032e-05
000070 f0 f0 3d b7 48 35 bb b7 00 00 00 00 4b e4 00 36
       -1.13213755e-05 -2.2316948e-05 0.0 1.920637e-06
000080 ef 42 f3 b8 57 6e bf 38 9f 03 ac 38 00 00 00 00
       -0.0001159961 9.128142e-05 8.2022736e-05 0.0
000090 ee 04 c6 35 05 0f 7d b7 4d 1d 1a b7 b6 30 a6 b7
       1.4753584e-06 -1.5083472e-05 -9.185937e-06 -1.9811425e-05
0000a0 00 00 00 00 5d d0 8a 34 7c 56 f4 b8 34 fe c3 38
       0.0 2.5856107e-07 -0.000116509356 9.3456736e-05
0000b0 68 e1 ae 38 00 00 00 00 c2 ec b0 ac 5b 4e 64 b7
       8.338952e-05 0.0 -5.0285063e-12 -1.3608103e-05
0000c0 4d 1d 1a b7 42 91 a1 b7 00 00 00 00 35 3e ce 35
       -9.185937e-06 -1.9260337e-05 0.0 1.5366301e-06
0000d0 7d 61 e6 b8 0d 5b b3 38 5c 74 ae 38 00 00 00 00
       -0.00010985413 8.552345e-05 8.31864e-05 0.0
0000e0 b3 b5 04 b9 00 00 00 00 d2 d0 9e b9 b7 75 ca b8
       -0.00012656189 0.0 -0.00030291692 -9.654037e-05
0000f0 00 00 00 00 12 8c 5f b7 4f 68 bf 38 24 99 9f b9
       0.0 -1.3324448e-05 9.127019e-05 -0.00030440942
000100 00 00 00 00 09 5a 5d 35 d1 b1 09 33 f6 31 fb b4
       0.0 8.2459934e-07 3.205952e-08 -4.6788745e-07
000110 f3 72 3a 34 00 00 00 00 a0 6b 3d 35 29 56 aa b4
       1.7364418e-07 0.0 7.05646e-07 -3.1727657e-07
000120 99 f7 dc 2f 4f ba d0 33 00 00 00 00 e4 7e 51 b4
       4.0193696e-10 9.719644e-08 0.0 -1.9510804e-07
000130 de bb 1c 35 bd 93 e2 21 d2 6f a4 b4 00 00 00 00
       5.838791e-07 1.5353462e-18 -3.062874e-07 0.0
000140 57 2b 2a b4 31 3b 11 35 d2 e6 d5 31 da dc c8 34
       -1.5848251e-07 5.4102844e-07 6.225357e-09 3.7413594e-07
000150 00 00 00 00 a4 f6 8c 34 51 83 07 34 5b 3d dd 21
       0.0 2.6256487e-07 1.2620627e-07 1.4991783e-18
000160 b2 95 86 b4 00 00 00 00 47 e0 31 32 1b b3 d2 34
       -2.5068363e-07 0.0 1.0353751e-08 3.9245865e-07
000170 cf 38 71 b2 25 63 82 34 00 00 00 00 47 d0 5d 33
       -1.4040963e-08 2.4286524e-07 0.0 5.1645e-08
000180 62 70 39 35 83 e2 bd b4 20 6b c4 b4 00 00 00 00
       6.908141e-07 -3.5368802e-07 -3.658579e-07 0.0
000190 47 e0 31 32 02 be c5 34 2b 6a 2d 32 bd a6 68 34
       1.0353751e-08 3.6832358e-07 1.0094065e-08 2.1667343e-07
0001a0 00 00 00 00 df 06 23 32 c8 ee 49 35 76 3d c8 b4
       0.0 9.489411e-09 7.522581e-07 -3.7297622e-07
0001b0 f4 af c5 b4 00 00 00 00 26 3a 8b 29 00 4d cb 34
       -3.6822132e-07 0.0 6.182927e-14 3.786772e-07
0001c0 2b 6a 2d 32 fb 98 5d 34 00 00 00 00 17 e3 31 32
       1.0094065e-08 2.0637883e-07 0.0 1.035439e-08
0001d0 46 ca 4b 35 52 6b cc b4 f1 38 c6 b4 00 00 00 00
       7.591774e-07 -3.8076047e-07 -3.6921804e-07 0.0
0001e0 40 10 53 36 00 00 00 00 27 eb 29 37 73 21 95 36
       3.145091e-06 0.0 1.0127936e-05 4.44444e-06
0001f0 00 00 00 00 d2 be b1 34 1c 19 69 36 cb e3 04 37
       0.0 3.310766e-07 3.4734321e-06 7.92085e-06
000200 00 00 00 00 eb f1 67 b8 59 84 82 33 8d 02 9f b4
       0.0 -5.5299995e-05 6.0776706e-08 -2.9617914e-07
000210 f7 45 51 b8 00 00 00 00 44 89 25 b8 af f9 86 b7
       -4.9894643e-05 0.0 -3.9466904e-05 -1.6090313e-05
000220 32 75 bb 32 6d b3 2f b8 00 00 00 00 bf 68 4b b8
       2.182296e-08 -4.1890355e-05 0.0 -4.8496524e-05
000230 4f 2f ec b6 2c a1 fe 9f e7 0b 00 b8 00 00 00 00
       -7.0388555e-06 -1.0783982e-19 -3.0528663e-05 0.0
000240 27 d0 8a 38 f8 2a ff b8 08 29 64 b3 c0 b2 d2 b7
       6.619124e-05 -0.00012167351 -5.3122704e-08 -2.5117188e-05
000250 00 00 00 00 e7 fd 31 b6 c8 ce 5d b8 42 5e 9c 1f
       0.0 -2.6522846e-06 -5.2883086e-05 6.6224506e-20
000260 2d ff 96 b5 00 00 00 00 f7 b5 62 b4 15 53 6b b8
       -1.1250137e-06 0.0 -2.1114089e-07 -5.6105742e-05
000270 ca c7 51 35 58 65 f1 b6 00 00 00 00 f7 bc e4 b4
       7.81493e-07 -7.1941577e-06 0.0 -4.26058e-07
000280 b2 fe f4 b8 19 6c 81 38 6a 23 08 38 00 00 00 00
       -0.00011682267 6.171334e-05 3.245791e-05 0.0
000290 f7 b5 62 b4 56 e8 6a b8 22 18 37 35 49 99 cc b6
       -2.1114089e-07 -5.6006327e-05 6.820793e-07 -6.0975185e-06
0002a0 00 00 00 00 34 7b 66 b4 ed 17 f4 b8 d3 13 80 38
       0.0 -2.146524e-07 -0.00011639283 6.107208e-05
0002b0 3e 3a 19 38 00 00 00 00 39 38 a1 2a 0d cb 6b b8
       3.6532285e-05 0.0 2.8638357e-13 -5.6217472e-05
0002c0 22 18 37 35 38 e9 c0 b6 00 00 00 00 20 b5 62 b4
       6.820793e-07 -5.749196e-06 0.0 -2.1113783e-07
0002d0 80 30 f4 b8 83 2a 80 38 6b 47 1e 38 00 00 00 00
       -0.000116438605 6.111434e-05 3.773665e-05 0.0
0002e0 99 d8 04 b9 00 00 00 00 8f 90 3a ba 6b 91 a0 b9
       -0.0001266919 0.0 -0.0007116878 -0.00030625923
0002f0 00 00 00 00 95 d5 5f b7 4f 82 44 3a dd 92 32 ba
       0.0 -1.3341564e-05 0.0007496224 -0.00068120455
000300 00 00 00 00 5f c0 69 b7 42 ae f7 35 f4 62 5c 36
       0.0 -1.3932672e-05 1.845365e-06 3.2840153e-06
000310 77 a3 65 b6 00 00 00 00 54 c4 20 36 93 f9 75 b7
       -3.4218808e-06 0.0 2.3956136e-06 -1.46612465e-05
000320 6a 5a 68 36 0e be 14 36 00 00 00 00 46 d2 2d b7
       3.4623322e-06 2.2164345e-06 0.0 -1.0360562e-05
000330 64 03 d1 35 d9 03 00 1e d1 38 09 b7 00 00 00 00
       1.55727e-06 6.777059e-21 -8.179065e-06 0.0
000340 27 de 7b b5 4e 99 e1 b6 9a 3a 99 b5 6a 7c 7a 36
       -9.382806e-07 -6.7233696e-06 -1.1416444e-06 3.7325322e-06
000350 00 00 00 00 d8 95 05 b7 04 c0 61 b5 5e dc 6e 1e
       0.0 -7.962306e-06 -8.409845e-07 1.2645186e-20
000360 7e e0 d6 b6 00 00 00 00 23 2a 27 b5 9b 97 a1 b7
       -6.4038313e-06 0.0 -6.2273665e-07 -1.9263292e-05
000370 01 f0 39 37 ba b7 08 37 00 00 00 00 b6 f2 ea 35
       1.108274e-05 8.149009e-06 0.0 1.7504997e-06
000380 b3 ee 26 b7 f8 17 22 b5 c0 ee 05 b5 00 00 00 00
       -9.9499475e-06 -6.038458e-07 -4.989379e-07 0.0
000390 23 2a 27 b5 ee 3e 93 b7 a3 3e 1d 37 8f de 02 37
       -6.2273665e-07 -1.755307e-05 9.372513e-06 7.800422e-06
0003a0 00 00 00 00 00 de c3 35 d3 0f a7 b5 9b 4b 17 b7
       0.0 1.4593243e-06 -1.2447075e-06 -9.017905e-06
0003b0 e8 b4 37 b6 00 00 00 00 f6 bd af ab 3f 78 98 b7
       -2.7374426e-06 0.0 -1.2487223e-12 -1.8175806e-05
0003c0 a3 3e 1d 37 99 1a 04 37 00 00 00 00 db 17 34 b5
       9.372513e-06 7.874006e-06 0.0 -6.708994e-07
0003d0 6d 2d 1a b7 c1 e8 8d 35 31 64 00 b6 00 00 00 00
       -9.189692e-06 1.0573059e-06 -1.9131805e-06 0.0
0003e0 60 36 90 b8 00 00 00 00 01 09 90 b8 ab 18 c5 b7
       -6.876583e-05 0.0 -6.868132e-05 -2.3495717e-05
0003f0 00 00 00 00 e7 d7 f2 b6 50 33 91 37 0b 30 37 b8
       0.0 -7.2372964e-06 1.7309241e-05 -4.3675343e-05

exp_avg_sq f4 [128, 64]
000000 00 00 00 00 cd 82 bf 33 db 8a 6d 32 26 89 14 33
       0.0 8.917923e-08 1.3826788e-08 3.458367e-08
000010 ea cc 98 33 00 00 00 00 ca 97 a4 33 09 85 81 33
       7.115325e-08 0.0 7.6644554e-08 6.0312296e-08
000020 23 f0 52 31 6c e4 92 33 00 00 00 00 57 51 3d 33
       3.0695524e-09 6.8402045e-08 0.0 4.407897e-08
000030 bc 33 af 33 90 e4 80 2d 9e 50 6d 33 00 00 00 00
       8.158483e-08 1.4653417e-11 5.5254183e-08 0.0
000040 a5 0e da 32 98 b1 cc 33 50 d8 96 31 5c e2 42 33
       2.53852e-08 9.5317944e-08 4.3901665e-09 4.5375018e-08
000050 00 00 00 00 49 8e 5b 32 a3 d2 f2 33 7b 15 9c 2d
       0.0 1.277983e-08 1.1307318e-07 1.7744686e-11
000060 6a 89 02 33 00 00 00 00 41 ed 73 31 d5 07 f6 33
       3.039296e-08 0.0 3.5496017e-09 1.1456692e-07
000070 5c 54 09 32 e1 2d 1c 33 00 00 00 00 4d e5 92 31
       7.993631e-09 3.6363307e-08 0.0 4.2752277e-09
000080 58 af fa 33 13 9d 23 32 5f 61 00 33 00 00 00 00
       1.1673427e-07 9.523563e-09 2.989088e-08 0.0
000090 81 81 e7 2f 7b d4 ff 33 91 ac 14 32 d2 00 02 33
       4.2110673e-10 1.1913013e-07 8.653971e-09 3.026873e-08
0000a0 00 00 00 00 ed 28 73 30 93 d2 ff 33 dd 61 88 32
       0.0 8.8461044e-10 1.1912666e-07 1.5876987e-08
0000b0 88 07 00 33 00 00 00 00 cc 1b b1 2f 8a f7 fe 33
       2.9809172e-08 0.0 3.2215863e-10 1.1872824e-07
0000c0 17 8d 1f 32 82 a4 f8 32 00 00 00 00 5c bf eb 2f
       9.287098e-09 2.894581e-08 0.0 4.288222e-10
0000d0 64 2a 00 34 95 7c 8c 32 e2 1f ff 32 00 00 00 00
       1.193635e-07 1.6354798e-08 2.9700406e-08 0.0
0000e0 5e e7 9c 36 00 00 00 00 a5 cb 51 37 a9 c6 4c 36
       4.676097e-06 0.0 1.2504785e-05 3.0514004e-06
0000f0 00 00 00 00 98 8c 5e 33 d4 b6 2e 37 79 d3 71 37
       0.0 5.1816272e-08 1.0413776e-05 1.4413957e-05
000100 00 00 00 00 6d c9 3a 2e 19 26 03 2e fa 51 b4 2d
       0.0 4.2470406e-11 2.981979e-11 2.0500036e-11
000110 80 f9 32 2e 00 00 00 00 59 19 3f 2e 7b 75 56 2e
       4.0694115e-11 0.0 4.3450885e-11 4.876231e-11
000120 ae 16 f6 2c cb e5 31 2e 00 00 00 00 19 dd 99 2d
       6.9942585e-12 4.0449238e-11 0.0 1.7492273e-11
000130 f2 42 82 2e 48 a1 85 2d 93 f9 31 2e 00 00 00 00
       5.9236074e-11 1.5191973e-11 4.0466807e-11 0.0
000140 e8 ec b8 2d 70 8f 8e 2e 4f 9b 23 2d e2 51 03 2e
       2.1023586e-11 6.482892e-11 9.299963e-12 2.9858678e-11
000150 00 00 00 00 d7 96 42 2d 26 ac 8a 2e 60 a9 93 2d
       0.0 1.1061116e-11 6.306093e-11 1.6787183e-11
000160 1f d5 01 2e 00 00 00 00 a6 7c 6d 2d 05 2a 90 2e
       2.9520494e-11 0.0 1.3499568e-11 6.555826e-11
000170 18 a5 4a 2d fc 06 f4 2d 00 00 00 00 92 fd 73 2d
       1.1519029e-11 2.774269e-11 0.0 1.3869255e-11
000180 be 3b 73 2e 4d bd d9 2d 6a 49 19 2e 00 00 00 00
       5.5304865e-11 2.475411e-11 3.4853377e-11 0.0
000190 03 e8 17 2d 51 f1 8d 2e 18 14 a5 2d 53 0d 08 2e
       8.634873e-12 6.454804e-11 1.8767252e-11 3.0934654e-11
0001a0 00 00 00 00 7f 41 0c 2d 33 c4 7c 2e ac af 20 2e
       0.0 7.972622e-12 5.7472426e-11 3.6535816e-11
0001b0 f9 05 3a 2e 00 00 00 00 c1 3a ad 2c 87 c5 93 2e
       4.229681e-11 0.0 4.9234787e-12 6.719874e-11
0001c0 43 d7 d0 2d 60 25 27 2e 00 00 00 00 5f 61 28 2c
       2.3742458e-11 3.80046e-11 0.0 2.3928288e-12
0001d0 0a 77 8a 2e 0f f4 26 2e 67 c0 42 2e 00 00 00 00
       6.296659e-11 3.7960798e-11 4.428138e-11 0.0
0001e0 61 ee 40 32 00 00 00 00 95 4e b0 31 b0 8f e0 30
       1.1230072e-08 0.0 5.131208e-09 1.6338983e-09
0001f0 00 00 00 00 31 d2 08 2f 58 a5 bb 31 34 85 65 32
       0.0 1.2443803e-10 5.4612137e-09 1.3359841e-08
000200 00 00 00 00 0e 30 d0 32 f6 8f 6e 31 9e e2 fb 2c
       0.0 2.423624e-08 3.471539e-09 7.1590086e-12
000210 4f 55 5c 32 00 00 00 00 a7 ac c7 32 91 0f 4c 31
       1.2825082e-08 0.0 2.3245162e-08 2.9694756e-09
000220 b9 da e4 2d 65 6e 54 32 00 00 00 00 b3 8b 75 32
       2.6017731e-11 1.2365125e-08 0.0 1.4292641e-08
000230 8a 5f 57 32 b2 df 95 2f 07 d5 2c 32 00 00 00 00
       1.253637e-08 2.7261887e-10 1.00601545e-08 0.0
000240 aa d4 9c 31 5c 17 b2 32 65 58 55 2e d4 f3 13 32
       4.5643747e-09 2.073255e-08 4.8509103e-11 8.611966e-09
000250 00 00 00 00 07 44 dc 2f 90 1d d1 32 20 82 32 30
       0.0 4.0066103e-10 2.4344246e-08 6.494094e-10
000260 1d ae ab 31 00 00 00 00 f6 f7 b4 30 ea ab cd 32
       4.9965494e-09 0.0 1.3167198e-09 2.3943318e-08
000270 d9 32 01 30 49 2f ce 31 00 00 00 00 b4 3d 89 2f
       4.7002185e-10 6.0007648e-09 0.0 2.4963998e-10
000280 79 c3 cc 32 1e b1 55 31 ff 27 b0 31 00 00 00 00
       2.3837616e-08 3.109626e-09 5.126821e-09 0.0
000290 a7 f9 fa 2f 1d cf cd 32 78 15 45 30 d6 1a ae 31
       4.5652124e-10 2.3959325e-08 7.169869e-10 5.0671174e-09
0002a0 00 00 00 00 04 94 e6 2e 8e f6 cd 32 5d c6 91 31
       0.0 1.0485482e-10 2.3977261e-08 4.2426067e-09
0002b0 4d 8b b8 31 00 00 00 00 18 d1 01 30 b7 c8 ce 32
       5.3709415e-09 0.0 4.7227067e-10 2.407283e-08
0002c0 24 db 19 30 6a 9f 9d 31 00 00 00 00 03 90 d2 2e
       5.5972493e-10 4.5874247e-09 0.0 9.575276e-11
0002d0 44 f3 cd 32 1b 10 9a 31 c7 0d bd 31 00 00 00 00
       2.3975765e-08 4.483821e-09 5.5021903e-09 0.0
0002e0 bc c9 a5 35 00 00 00 00 f2 d5 67 36 cc 84 3a 35
       1.235217e-06 0.0 3.4546215e-06 6.9483644e-07
0002f0 00 00 00 00 2f 21 6b 32 a6 9d 43 35 e5 ce 76 36
       0.0 1.3686345e-08 7.287257e-07 3.6777285e-06
000300 00 00 00 00 e0 1a 8b 30 3a 29 0a 31 55 2c 5e 31
       0.0 1.0121219e-09 2.0105078e-09 3.2330452e-09
000310 43 e1 92 31 00 00 00 00 60 de b5 2f ab 6c b4 31
       4.2747685e-09 0.0 3.3081715e-10 5.2510436e-09
000320 fd 2e 7d 30 39 e5 9f 31 00 00 00 00 cd b5 c6 30
       9.210764e-10 4.6535686e-09 0.0 1.4458067e-09
000330 11 30 ae 31 96 01 e6 2b b2 85 73 31 00 00 00 00
       5.069531e-09 1.6342923e-12 3.543715e-09 0.0
000340 3f fa 0c 2e e3 64 ac 31 60 73 d8 30 88 65 43 31
       3.2054578e-11 5.0173283e-09 1.574886e-09 2.8433949e-09
000350 00 00 00 00 00 97 be 30 54 85 b6 31 f1 e6 11 2c
       0.0 1.3867236e-09 5.312055e-09 2.0733938e-12
000360 7f ed 0f 31 00 00 00 00 bc d4 85 2e ca d2 93 31
       2.094424e-09 0.0 6.085929e-11 4.302227e-09
000370 56 59 10 31 27 4e 3a 31 00 00 00 00 ad 20 d3 30
       2.100554e-09 2.7110987e-09 0.0 1.5361558e-09
000380 e6 94 ab 31 0f ff 56 2d 8a 74 1e 31 00 00 00 00
       4.993683e-09 1.2221126e-11 2.305827e-09 0.0
000390 91 5d 6c 2e 04 b4 94 31 4b 68 12 31 7b 73 31 31
       5.374329e-11 4.3278323e-09 2.130508e-09 2.5822533e-09
0003a0 00 00 00 00 c1 ca 2f 2e 44 c6 ba 31 de ed 93 30
       0.0 3.9970475e-11 5.4358527e-09 1.0763264e-09
0003b0 68 21 2b 31 00 00 00 00 63 da 5b 2e 59 da 93 31
       2.4902764e-09 0.0 4.99888e-11 4.3030863e-09
0003c0 32 b9 13 31 24 52 30 31 00 00 00 00 df 1d 9a 2d
       2.1496587e-09 2.5658062e-09 0.0 1.7521038e-11
0003d0 26 60 bd 31 69 41 8e 30 63 18 26 31 00 00 00 00
       5.5115548e-09 1.035045e-09 2.4170042e-09 0.0
0003e0 a2 38 28 34 00 00 00 00 5f e7 86 34 41 32 98 33
       1.5666822e-07 0.0 2.512779e-07 7.087193e-08
0003f0 00 00 00 00 b9 9e ee 30 ec a3 d6 35 28 61 0d 35
       0.0 1.7361891e-09 1.599195e-06 5.2667974e-07

exp_avg f4 [128]
000000 b9 23 bf b7 a3 a8 d0 34 f9 d2 68 b8 0d b4 13 b7
       -2.2785609e-05 3.8865718e-07 -5.5509594e-05 -8.803804e-06
000010 5a be 82 b6 03 2c f1 35 99 8c 43 b8 c3 4a da b7
       -3.8964617e-06 1.7968708e-06 -4.6622565e-05 -2.6022439e-05
000020 57 dd 47 38 e1 46 94 b7 a1 a7 d4 b7 cb e8 61 b8
       4.7651436e-05 -1.767598e-05 -2.5350428e-05 -5.3860986e-05
000030 33 76 46 b8 1c fd f4 35 0c 96 80 b7 4e df dd b6
       -4.731696e-05 1.8253081e-06 -1.532866e-05 -6.6123093e-06
000040 17 23 be b8 3c b3 bc b7 f3 91 dc b4 2f 09 63 37
       -9.066442e-05 -2.2494809e-05 -4.1084385e-07 1.3532393e-05
000050 27 7d 04 b6 10 30 81 b5 dd f4 9e b6 39 e6 8c 37
       -1.974238e-06 -9.625237e-07 -4.737273e-06 1.6796506e-05
000060 6d 3a 0b 38 ab 4b 2a 38 cb 3b 89 b7 3c 52 60 38
       3.3194596e-05 4.060163e-05 -1.6359516e-05 5.348235e-05
000070 0f a6 b3 b6 23 5c e2 b7 3d b4 73 38 a1 7c e2 b7
       -5.3539475e-06 -2.6984204e-05 5.8103575e-05 -2.6999334e-05
000080 49 08 f4 b6 9c 54 0d 38 46 77 f8 36 d8 68 70 37
       -7.272731e-06 3.369582e-05 7.404861e-06 1.4329526e-05
000090 4e 53 17 38 28 94 75 36 34 8d 5d b6 1e c1 28 37
       3.607879e-05 3.6594083e-06 -3.3013757e-06 1.0058544e-05
0000a0 33 4b 4a b7 91 5c 20 38 c6 10 4b b8 61 88 1c 36
       -1.2057647e-05 3.8233182e-05 -4.8414593e-05 2.3325194e-06
0000b0 74 09 7b b6 1b 05 c1 36 f1 b8 11 37 7c ad ae b7
       -3.7407417e-06 5.7524426e-06 8.6857335e-06 -2.0823201e-05
0000c0 11 ca 8b b6 09 78 3c b6 48 99 78 b6 64 b1 00 38
       -4.1660464e-06 -2.8084053e-06 -3.7044101e-06 3.0682786e-05
0000d0 39 83 43 b7 70 dd 9f 38 5e 36 f8 b6 19 af 22 36
       -1.1653458e-05 7.622957e-05 -7.397305e-06 2.4241801e-06
0000e0 b2 7c 14 38 d8 8e ad 35 cd 22 b9 37 24 7f 2a 38
       3.540208e-05 1.2931077e-06 2.2069924e-05 4.0649567e-05
0000f0 1d 1f 01 36 b1 48 06 37 56 17 20 b5 a5 fc 9e b6
       1.9240608e-06 8.003947e-06 -5.9638603e-07 -4.7381786e-06
000100 9e a2 b6 36 f2 3a 2d 36 a2 99 ae b5 1b c4 bb b7
       5.442954e-06 2.581332e-06 -1.3008723e-06 -2.2383456e-05
000110 12 48 5c b8 ed f4 e2 36 7b e1 8f b6 3a c9 fd b3
       -5.2519208e-05 6.763838e-06 -4.2879815e-06 -1.18178335e-07
000120 11 74 e2 37 eb 2a 16 b7 53 e4 5c 36 ba 3d 6d b7
       2.6995347e-05 -8.950689e-06 3.2915457e-06 -1.4140673e-05
000130 3e da 2e b7 bb fc a3 b7 27 33 a3 37 ff 3b 86 37
       -1.0422022e-05 -1.9548801e-05 1.9454934e-05 1.6001983e-05
000140 6d 79 98 b7 4f e3 8a 37 a4 c5 0a 38 54 58 02 b8
       -1.8176355e-05 1.655673e-05 3.308583e-05 -3.1076677e-05
000150 17 6e 9f 36 96 df 3f b4 02 cd 79 b6 c4 19 60 b8
       4.7513854e-06 -1.7869601e-07 -3.7223222e-06 -5.3429758e-05
000160 91 6b b5 b5 48 e3 32 b8 ae 9d af b7 ef 2d 20 b7
       -1.3516857e-06 -4.265018e-05 -2.0935051e-05 -9.547438e-06
000170 f7 93 de b5 0d 14 e8 b5 80 c4 9c b6 84 c2 23 b7
       -1.6583352e-06 -1.7291183e-06 -4.672038e-06 -9.760846e-06
000180 45 bf 34 37 03 59 7d 37 e9 6c 08 b5 66 f6 8a b7
       1.07733695e-05 1.51007e-05 -5.0822433e-07 -1.656562e-05
000190 69 8f e5 35 51 1a c1 b7 a9 c8 06 36 2a 55 89 b8
       1.7103567e-06 -2.3019647e-05 2.0084356e-06 -6.548532e-05
0001a0 55 9c b4 36 f9 68 7f b7 db 1c d0 37 4a 77 01 b7
       5.3826175e-06 -1.5223625e-05 2.480897e-05 -7.716773e-06
0001b0 a8 b6 52 35 18 90 4a b7 5e 1e 9c b6 e3 f6 b9 36
       7.8496896e-07 -1.2073688e-05 -4.6526975e-06 5.542171e-06
0001c0 9d 03 68 35 e1 53 37 b8 c8 a1 88 36 c8 be bc 36
       8.6431993e-07 -4.370872e-05 4.0719497e-06 5.6250465e-06
0001d0 6d aa db b6 a6 f5 df b5 2c 0e 6a b8 ae 06 85 b8
       -6.546549e-06 -1.6686288e-06 -5.5803146e-05 -6.3431784e-05
0001e0 3e 6c 3c 36 be 81 05 b8 37 3a 14 b7 03 14 7b 36
       2.8077188e-06 -3.1830503e-05 -8.835042e-06 3.7413563e-06
0001f0 26 22 b4 b7 98 e5 28 38 b7 19 94 37 06 d0 39 b8
       -2.1473574e-05 4.0268147e-05 1.765495e-05 -4.4301174e-05

exp_avg_sq f4 [128]
000000 06 bd 12 34 75 c4 d4 2e 4f 21 d8 32 26 1d f1 31
       1.3666076e-07 9.6755416e-11 2.5160857e-08 7.017337e-09
000010 23 74 e5 30 f7 cc 4b 2f a9 bc 53 33 11 ae 02 32
       1.6694951e-09 1.853556e-10 4.929885e-08 7.606574e-09
000020 1e 5c 9c 33 fa bc 1e 32 90 87 b7 32 c8 12 09 33
       7.281072e-08 9.239779e-09 2.136565e-08 3.191488e-08
000030 81 9a e6 32 c9 1f 0d 2f 01 ea 6e 31 6c 01 b2 33
       2.6845784e-08 1.2835168e-10 3.4766574e-09 8.2890296e-08
000040 f1 a0 40 34 2b 41 5c 31 7c 5e 37 31 9c 6b a8 32
       1.7939944e-07 3.2051257e-09 2.6683713e-09 1.960671e-08
000050 c6 1f c5 31 6e a1 23 32 21 eb 5b 32 3b 4c 2f 33
       5.737067e-09 9.524554e-09 1.280094e-08 4.0814694e-08
000060 61 52 f8 33 61 09 13 34 7a d7 e4 32 2f 8b 18 34
       1.15633846e-07 1.3693854e-07 2.664068e-08 1.4206738e-07
000070 0b ed 78 33 44 d0 a8 33 aa 84 fe 32 2c 03 d9 31
       5.795759e-08 7.860993e-08 2.962982e-08 6.315892e-09
000080 c7 dc 56 32 7e 9e 20 33 87 48 0e 31 79 47 b6 32
       1.2506638e-08 3.739705e-08 2.0704947e-09 2.122009e-08
000090 56 b0 58 33 0d 6d 11 30 1e 7c dc 31 fa 7f c1 31
       5.0451796e-08 5.2905663e-10 6.416953e-09 5.6315885e-09
0000a0 55 65 35 31 b1 d5 cb 33 16 27 0d 34 35 dd 43 32
       2.6396567e-09 9.4917944e-08 1.3145868e-07 1.14007905e-08
0000b0 15 23 60 31 57 1e c9 31 51 40 06 32 8d 2f 0a 33
       3.2616232e-09 5.853319e-09 7.81445e-09 3.2173876e-08
0000c0 d1 a7 10 31 1c e4 0a 31 be d4 7a 30 21 48 81 33
       2.105015e-09 2.0211308e-09 9.1251795e-10 6.020151e-08
0000d0 ef 03 b3 32 0d 04 4f 34 40 96 83 32 da a7 29 32
       2.0840131e-08 1.9279851e-07 1.5318733e-08 9.87526e-09
0000e0 d4 8a 24 32 56 e4 80 33 54 5d a5 32 5c 8b 01 34
       9.577622e-09 6.0019985e-08 1.9250969e-08 1.206476e-07
0000f0 c9 c0 7f 33 5a 67 00 33 ea 45 63 31 7e 52 c8 30
       5.954715e-08 2.989632e-08 3.307259e-09 1.4575361e-09
000100 a7 e2 6e 30 7d 28 51 31 46 a6 b3 2f 35 fc 6a 33
       8.690599e-10 3.0436518e-09 3.2678055e-10 5.471175e-08
000110 2a 1d 44 34 2a 20 2c 32 98 5c 2c 33 c6 0a 85 32
       1.8264532e-07 1.0019031e-08 4.0131084e-08 1.5488137e-08
000120 8e 9b 9d 32 11 67 7a 30 2a c0 32 32 1c 09 90 31
       1.8347944e-08 9.1095936e-10 1.0404657e-08 4.191987e-09
000130 4b a4 85 31 9a 80 51 33 e2 a4 c2 33 d5 01 a0 33
       3.8894874e-09 4.8778567e-08 9.063821e-08 7.450914e-08
000140 b1 20 23 33 63 2f 18 33 b0 4c f6 33 0a 2a a3 32
       3.7981128e-08 3.5433356e-08 1.1469217e-07 1.8994815e-08
000150 19 34 26 32 f4 19 e6 2e f1 48 00 33 16 a9 de 33
       9.674317e-09 1.0463799e-10 2.9868662e-08 1.0368437e-07
000160 66 07 29 32 62 fa 2e 33 8b d7 bc 33 87 c8 c3 32
       9.838777e-09 4.0740254e-08 8.793639e-08 2.2792177e-08
000170 92 ba 9e 31 2b 46 98 31 9e ef 21 32 34 8d 5e 31
       4.619616e-09 4.4317594e-09 9.425916e-09 3.2385516e-09
000180 2d e0 a0 31 02 3c 59 33 89 32 a0 32 39 90 19 31
       4.6820987e-09 5.0578826e-08 1.8649432e-08 2.2346411e-09
000190 ed fe 5f 2f 74 6b fb 32 fc 46 7b 33 74 45 b1 33
       2.03723e-10 2.926911e-08 5.850505e-08 8.254838e-08
0001a0 84 b3 c4 32 ce 8d 3d 33 a5 60 16 34 2b 99 01 31
       2.2899037e-08 4.4133962e-08 1.4004998e-07 1.8859037e-09
0001b0 d4 c3 45 30 9f fd 8e 31 77 14 ee 30 de e4 ee 31
       7.194647e-10 4.1615773e-09 1.7322596e-09 6.952731e-09
0001c0 98 2d a9 32 df 49 0a 34 3c 3b 24 34 8c e2 6f 31
       1.9694923e-08 1.2879126e-07 1.529524e-07 3.4907854e-09
0001d0 0b ef b3 31 ae 6b c6 32 f6 fe b4 33 ea 2c 89 32
       5.2367617e-09 2.30992e-08 8.42828e-08 1.5969324e-08
0001e0 ff fd 67 33 e0 14 dd 33 d4 14 0b 31 d2 e3 ea 31
       5.4014887e-08 1.02949116e-07 2.0239002e-09 6.8361965e-09
0001f0 e8 91 13 33 39 8f 6d 33 f9 93 31 32 fb 6c 72 32
       3.4358806e-08 5.5311123e-08 1.0336401e-08 1.4111033e-08
