results/NewSnakeAgent3/SnakeAgent/SnakeAgent-999956.onnx (onnx, 103045 bytes, 6 tensors)

action_model._discrete_distribution.branches.0.bias f4 [3]
00000000: 1950 bbbc a424 f13b 1623 4c3c
-0.022865342 0.007359104 0.012459537

action_model._discrete_distribution.branches.0.weight f4 [3, 128]
00000000: f1ee ba3c fa6a c7bc 0947 ff3c 6a4f 743b
00000010: ebdb 1c3c 8e93 87bc e0b5 c93a ed8c c739
00000020: d80e 153c 119c 20bc aa36 73bc 61e8 e03c
00000030: 919a a13c eccb 0fbd 0b6d 4ebb 6479 ad3b
00000040: 1fef 403d 7506 933a 95ae 443c 4349 453c
00000050: b7ca 08bc b9da 2dbc 5f21 88bb 11a6 a93b
00000060: 868e 61bc 9501 053c 2f8b 7b3c 92ef 433c
00000070: 47a4 f5bb 0f78 073b 954b 04bd 44c8 b1bb
00000080: c98c 1d3d 76ba 903b a3f6 cdbc 96ea 4f3c
00000090: 642d 44bb 05a1 193c 15b3 11bc 896e 713c
000000a0: 250f cc3c 9132 16bb 81bc cebb f8c0 d03b
000000b0: 435d e0bb 39f8 42bc 5cd1 eebb d89d fd3c
000000c0: 5cf9 ba3c 20b8 87bc a259 363c 3563 a8bc
000000d0: 1c20 dbbc 5861 80bb 2c76 db3b b384 0ebb
000000e0: 5a47 34bc bbdc c33b bf3a 73bc e58c 423c
000000f0: fa05 f03b 49c0 9c3c a785 d33a 4e7e 143c
00000100: 7d2d 0d3b 4f9d 403c d4e4 30bc b79e 543c
00000110: 9209 cf3a eeff 8a3b 6750 7dbd 1435 ea3b
00000120: fd71 b83b f0bf d6bc cc4e 17bc f637 853b
00000130: 9773 2cbb 212e 23bc 1303 ba3c f5ab 5dba
00000140: 1726 f73b 14b2 f0bb 419b c4bc ef71 6039
00000150: b1f8 20bc 6862 bc3b ad37 23bb 189e 363c
00000160: be55 0c3c 5d1e 27b9 e11a 38bc 231b 893c
00000170: fbca b13c ab7b 2b3c 799a 653c 097e 15bd
00000180: 5b0a e2b8 445a f3bc a497 81bc bfd9 8b3c
00000190: fa6e 5dbc 9e89 a03b 0ae2 ecbc 1a48 6fbc
000001a0: 9c90 5d3c 3c94 59bc ef44 ef3b b60f 0dbc
000001b0: 043e 983c 8fd6 97bc 1061 5c3b 5805 f73c
000001c0: ce5e 903b 1288 3d3c a064 7d3a abe7 c83a
000001d0: a3c6 d0bc 63b8 e639 bc89 05bc 43ca b33b
000001e0: 6327 af3c 6580 233a e02e 183c fbde 92bc
000001f0: 53c3 313c 9cfa 1f3c f057 6fbc 55ec 2abd
00000200: 708e 19bc b0b9 acbb bb7a 673d 8d60 4fbc
00000210: f79e 563b b534 9f3c 2c09 843c 22cf a03c
00000220: cada 0f3d ba2f cabc 5c14 99bd d403 3d3c
00000230: 984d 82bc 8d62 07bd 847f afbc fcfc 093c
00000240: 6789 37bc 42a0 6abb d624 e6bc 4906 77bb
00000250: 3525 83b9 27cd ccbc 0dbb 693b 70ac 903b
00000260: 9fc9 95bc cba7 6e3c 7391 81bc 5399 313d
00000270: 297a af3b 6c0b 743c 4fe8 26bd eb94 bebc
00000280: 8cc9 823c 017f 8abc 8ad1 20bc 12a7 ab3b
00000290: 24a3 a4bb 3084 713d 37e0 d4bc 6c20 8b3d
000002a0: 9edc 92bd 1ff7 02bd 713a d0bc 9858 b7bc
000002b0: 30df dcbc 3b60 14bc b59d 0b3c a34c 883d
000002c0: 9d61 20bd 9b23 acbc 429a 053c 969f 24bc
000002d0: a32b bbbd 2445 07bc 3592 a0bc 3b2f bf3c
000002e0: 7f69 9b3c e08d 913d d4e0 ff3b 242f a8bb
000002f0: 59ea d9bb c1b3 95bd f4a6 863c c371 6dbb
00000300: fa96 aa3c 3809 babc 24fc abbc 748c 8d3c
00000310: 4a1d 4fbb b123 47bc 7129 c5bd cfdc de3c
00000320: 2b8f d9bb 85dc 98bd 8421 4b3c 5f6b f43c
00000330: cfff 433d 4474 53bb 7abe d53d abbb 5cbc
00000340: 2975 9c3c cd7e c73c 9710 8bbd a27b 6c3b
00000350: 8c03 54bc c397 3f3b 16be 70bd 52ae a53b
00000360: 3f52 86bb fa86 27bd 4830 c83a 5fe1 3e3d
00000370: 9462 873d 6ccd 33bc bf00 f13b 394d f6bc
00000380: 41a7 623c cc85 3bbd a3e5 21bc c351 7b3c
00000390: b60c 083d e306 9a3b 3171 83bd 72d0 1dbd
000003a0: a5e5 fcb9 1356 eb3c 1707 c83c c246 b4bc
000003b0: 427f 26bd 907c e8bb bc0b 8cbd 55f2 623d
000003c0: e520 d03c 501e 5e3c 457c 32bc 3f11 963d
000003d0: 6d97 88bd b831 cd3c 5d3c 47bd 60a7 07bd
000003e0: 1201 8bba 01d5 85bb f3f1 a6bc 40a7 aebd
000003f0: bc79 e4bc 21b9 c7bb a0d7 42bc 38aa c03c
0.022819014 -0.024343003 0.031161802 0.003727878 0.009573917 -0.016549852 0.0015389286 0.00038061236
0.009097777 -0.009802834 -0.014844576 0.027454557 0.019727023 -0.035106584 -0.00314981 0.005294012
0.047103044 0.0011217134 0.012004514 0.012041393 -0.008349112 -0.01061123 -0.004154369 0.0051772674
-0.01376689 0.008118053 0.015353008 0.0119589735 -0.00749639 0.0020670926 -0.032298643 -0.005425485
0.03846434 0.004416759 -0.02514202 0.012690207 -0.0029934281 0.009376769 -0.008892794 0.014735826
0.024909565 -0.0022918324 -0.0063090925 0.00637066 -0.006847055 -0.011900001 -0.007288141 0.030959055
0.022823982 -0.01656729 0.011129769 -0.020555118 -0.02674871 -0.0039178543 0.006697437 -0.0021746575
-0.01100334 0.005977241 -0.014845549 0.011874412 0.007324931 0.019134657 0.0016137854 0.0090633165
0.0021542006 0.011756255 -0.010796744 0.012977294 0.0015795699 0.004241935 -0.061844256 0.0071474407
0.005628823 -0.02621457 -0.009235095 0.004065509 -0.0026314014 -0.009959728 0.022706544 -0.00084561046
0.0075423825 -0.0073454473 -0.023999812 0.00021404748 -0.009824918 0.0057490356 -0.0024905012 0.011146091
0.008565364 -0.00015937672 -0.011236877 0.016736573 0.021703234 0.010466496 0.01401388 -0.03649715
-0.000107784486 -0.029706128 -0.015819378 0.017071603 -0.013515228 0.0048992177 -0.028916378 -0.014604593
0.013523247 -0.013279971 0.0073019187 -0.008609703 0.018584259 -0.018534927 0.003362719 0.030153915
0.004405833 0.011568086 0.00096661784 0.0015327831 -0.025485342 0.00044006397 -0.008150514 0.005486758
0.021381086 0.0006237089 0.00928852 -0.017928591 0.010849792 0.00976434 -0.014608368 -0.04172929
-0.009372339 -0.005271159 0.05651353 -0.012657297 0.003274856 0.019434312 0.016117655 0.019630019
0.035120763 -0.02468096 -0.07474586 0.011536557 -0.01590614 -0.03305297 -0.021423109 0.008422133
-0.011202193 -0.0035801088 -0.028093737 -0.0037692955 -0.00025013988 -0.025000168 0.003566447 0.0044150874
-0.018284617 0.014566372 -0.015816426 0.043359112 0.005355139 0.014895301 -0.04074889 -0.023264369
0.015965246 -0.016906263 -0.009815583 0.005238422 -0.0050243307 0.058963954 -0.02598582 0.06793293
-0.07170986 -0.031973954 -0.025418492 -0.022381112 -0.026961893 -0.009056146 0.008521487 0.06655242
-0.03915559 -0.021013072 0.008154454 -0.010047814 -0.091391824 -0.0082562305 -0.019600967 0.02333795
0.018971203 0.07107139 0.007808784 -0.0051325727 -0.006650251 -0.07309676 0.016437031 -0.0036231137
0.020823944 -0.022709474 -0.020994253 0.017278887 -0.003160315 -0.012154506 -0.09627045 0.0272049
-0.0066393814 -0.07463936 0.0123981275 0.029836355 0.04785138 -0.0032265345 0.10436721 -0.013472478
0.019098835 0.024352456 -0.06790274 0.0036084433 -0.012940299 0.0029234744 -0.05877503 0.005056181
-0.00409916 -0.040900208 0.0015273178 0.04660165 0.06610599 -0.010974269 0.0073548253 -0.03006612
0.013833822 -0.045781896 -0.00988141 0.015339318 0.033215247 0.004700528 -0.06418074 -0.038528867
-0.00048236284 0.028727567 0.024417443 -0.022006396 -0.040648706 -0.007094927 -0.06838176 0.055406887
0.02540631 0.013557032 -0.010893886 0.07327508 -0.06669507 0.025048122 -0.04864155 -0.033118606
-0.0010605177 -0.00408423 -0.020379042 -0.08527994 -0.027890079 -0.006095067 -0.011892229 0.023518667

network_body._body_endoder.seq_layers.0.bias f4 [128]
00000000: a57c 1a3d 8825 763c 841e f8bc bfce ccbc
00000010: 036e 8d3c c115 baba ab76 b33c 84e4 cd3c
00000020: 9ae3 48bc 0a4f 513d 7f7a 833d 7d6e 433d
00000030: ff03 163d feab f3bb 9b23 8b3b f760 503c
00000040: 47a4 863b 2146 3ebc dcd3 d839 19e4 bd3c
00000050: 911a 713d 18dc cabb 4518 21bc 489b 1e3c
00000060: 7426 713d dfdf c83c ddc5 843c efe5 9ebc
00000070: f88a 653c 2b1d a13c e1da 3b3c 9d70 303d
00000080: 0f17 df3c 7042 12bd 15ba 653c 9b69 f53c
00000090: ecc7 703d e47f 4a3b 0d9b 2e3d 08ec 34bc
000000a0: 1022 84bc 0ab3 b63b 3894 023d 5c7a 713d
000000b0: e370 b43a 9b3e b5ba d5d1 453c 6073 c83c
000000c0: 5902 6c3d 76de 20bd a8c7 e7bb dc41 033b
000000d0: 59ed 613c 8477 193c f35e 763c 0833 95bc
000000e0: 6734 d83c 3692 f73a 0299 b73c 4a97 34bb
000000f0: ca16 6dbc df15 67bd 5503 b6bc 4ef6 943c
00000100: 7c05 7cbc 259e a4bb 1410 f73c aa23 f83b
00000110: 6b8b 573d 1eee 273c 9223 223d dcc0 ea3b
00000120: f80c 14bc 0781 5a3c 5b02 483c e825 493b
00000130: 4689 813d e8f0 823d 1e17 33bd 2fd4 9c3c
00000140: 0c95 c6bc 5f26 083d 0612 a9bb 3a4d 0b3d
00000150: a111 15bc d7ec 603c 7261 0d3b b5bb 773d
00000160: da96 bfbc fcec f1bb fabf 9a3c 18fb 70bb
00000170: e77f 393c 9896 d6bc 2b8b b7bb 1ae8 5e3c
00000180: 3e7d d5bc a46d ff3c f87f ed3c d896 51bc
00000190: 1122 b6bb 5dfc d23c 93bd b93c 3adf 833c
000001a0: 0346 d33c 5fd2 c93b 3b1e 583c bcd6 963c
000001b0: 5134 3a3b 7098 d83c 075d 733b 6eed 223d
000001c0: bb42 ed3b 2b02 253d e235 243d c666 833d
000001d0: d087 653d 4ddb 863c e619 94bc 0d71 883c
000001e0: 7835 86bc 4ff1 ffbb 2071 56bc eaed a13c
000001f0: cfab 9fbb aa35 0b3d 70bc 9b3d 6a3e c03b
0.037716527 0.015023597 -0.030287988 -0.025000928 0.017264372 -0.0014197157 0.021907171 0.025133379
-0.012261296 0.05110077 0.06419849 0.04771279 0.036624905 -0.0074362746 0.004246188 0.012718431
0.004108939 -0.0116134 0.00041356578 0.023180055 0.058863226 -0.006190788 -0.009832446 0.009680577
0.058874562 0.024520813 0.01620763 -0.01939675 0.0140101835 0.019667229 0.011465759 0.043076146
0.027232675 -0.03570789 0.014021416 0.029957583 0.05878441 0.0030898983 0.042628337 -0.011042602
-0.016129524 0.0055755423 0.031879634 0.05895458 0.0013766553 -0.0013827862 0.012073954 0.024469078
0.057619426 -0.039274655 -0.0070733614 0.002002827 0.013789498 0.009366874 0.015037286 -0.01821281
0.026392175 0.0018888179 0.022411827 -0.0027555996 -0.014470765 -0.056417342 -0.022218386 0.018183853
-0.015382167 -0.005023735 0.030159034 0.007572611 0.052623194 0.010249643 0.039584704 0.007164104
-0.009036295 0.013336427 0.012207593 0.003069276 0.06325011 0.063936055 -0.04372322 0.019144146
-0.024240993 0.03323972 -0.0051596193 0.034009196 -0.009098441 0.013728342 0.0021572975 0.060481746
-0.023387361 -0.007382987 0.01889037 -0.0036770757 0.011321998 -0.026194856 -0.005601307 0.013605142
-0.026060697 0.03118021 0.028991684 -0.012792312 -0.0055582603 0.025755102 0.022673404 0.016097654
0.02579022 0.0061591114 0.013190801 0.01841294 0.002841253 0.026439875 0.0037134306 0.03977721
0.007240621 0.04028527 0.04009045 0.06416087 0.056037724 0.016461993 -0.018078756 0.01665547
-0.016382918 -0.0078107486 -0.013088495 0.019766767 -0.004872776 0.033986725 0.07604301 0.0058668153

network_body._body_endoder.seq_layers.0.weight f4 [128, 64]
00000000: 1b39 bdbd dcfb 1fbe 3f58 31bd 0a06 cfbd
00000010: 4430 bb3d 95ca 273e eaf8 88be 6884 953d
00000020: 985e ba3d 7c73 413c d2a9 f73c da66 7cbd
00000030: 5481 90bb 54bc 8e3a 922d 673e 13e3 c2bc
00000040: 88fc a83c c516 26bc 6758 323c b140 663e
00000050: 18a5 f1bb 1ceb bd3d d213 f73c c813 43bd
00000060: cc1a 72bd 5793 e0bc 7306 4abc c9f5 753d
00000070: f179 97be 0444 f2bd 351d 48be 09ab e13e
00000080: 7946 14be 89fb cf3d f360 dabd ff70 a2bd
00000090: 49ff 83be e4f7 08be e21c 863e 1d67 243b
000000a0: 6cee 5f3e 25ae ac3b 204d 0bbe c9b4 933d
000000b0: 9d9b 0c3d 99cd ad3d 5318 1c3d 7739 22bd
000000c0: d2cb c0bd 01ee 06bd 176b a53d 998f 72be
000000d0: 738b 68bd 1817 cfbd 4a18 733e e168 2ebe
000000e0: a53b 6ebd cb66 93be 2dd8 bbbc c874 e13c
000000f0: 5572 613d 99e0 3ebb 7432 cb3c 067e fdbc
00000100: e963 0dbc c1ca 06be 083c 2abd 0dec 163e
00000110: aaf5 36bd b859 b63d 9816 8bbe 8b8c 033e
00000120: 90ed 443d 8c15 d4bc 5680 d4bd a416 163e
00000130: 399a 6abd bf7b 9d3d d978 46be 584d 5a3d
00000140: fb19 92bd adc2 113e 26a8 14bb 15c4 813c
00000150: ff6d 803d cadd 083e 322c a7be cd44 71bd
00000160: ab8b 903d 4eda 443d a7b5 bd3a e79d a9bd
00000170: 28c6 9cbd 2c0d 233a 4100 9ebd d844 5b3e
00000180: 4e1a 2dbe b7ca 333d 0f8a 6a3d 308c 2a3d
00000190: f393 7dbe 618c ddbd a36c 323d 37c5 89bd
000001a0: 5f10 e93d 7c8f 783e e652 6fbd bfa1 dabd
000001b0: e525 c6bd 1538 2fbe 9dab 9abe c791 023e
000001c0: b417 983d 941b 1f3e 56ff 493e edde f33c
000001d0: b002 b2bd e065 6dbe bc14 f4bc c86f 08be
000001e0: 344f 803e e248 61bb 582b 433e 4042 d3bd
000001f0: 2d31 813d 9451 303e ff33 14be cd2d 4abe
00000200: 9001 b7bd 2188 4ebe bc78 7cbe 8e02 323c
00000210: 7e61 11be 455f 35bd d27c f33c ae02 3cbd
00000220: b49a 583e de4f 1c3d 52e6 0ebe 1da2 fc3d
00000230: 9d81 4ebd cf6f 8dbc b8a5 48bd 94fc 2ebe
00000240: 3eb5 703c f9ee e13d 5133 a83e 6157 313d
00000250: 3224 f8bd eb48 ddbd a8e3 2bbd 916b 2d3e
00000260: 4e1c 003e 42c8 eebb 9143 1cbe 8aee 86bd
00000270: 930a 883e 920e 15be b3e7 6abc 04fc 9f3e
00000280: cb43 41be 8b9c 833e 291a bebd c4d4 1fbe
00000290: a836 0c3e e4e2 2c3e 9ae0 253e c4c0 513e
000002a0: ad00 e5bd 0742 aabd cfa5 8e3d 18d7 bebc
000002b0: 284f de3c 475a 443e 8167 353e ee20 7dbe
000002c0: e2ef ea3d 28d1 4dbd 0d8f 4cbd 141d c5bd
000002d0: 2bc0 223d 0944 1fbd 89aa bcbc 2d80 a5bd
000002e0: 5d2a 45be 138b 2a3e c13e d6bd 8f14 50be
000002f0: b631 a43d aa6f 133e d461 8a3d 6ef3 34be
00000300: 9ca1 49be 5b78 883e f375 28be 9609 343d
00000310: 5045 d63d fffc 87be b963 3c3e a4f8 7a3d
00000320: 7875 883d a93c 3e3d 2a1b 54be 9da3 92bd
00000330: d8eb 9b3d 10c1 693e c748 2ebc e1ac 1ebe
00000340: 9fb2 243d 7431 b1bc c267 fa3d f4d9 96bd
00000350: 5d21 9f3d 99f4 5b3e c9f6 b63c 9b96 3f3d
00000360: aaad 95bd fe9a 1cbe 871d ecbd 3d58 d23b
00000370: 58db 80bd fb87 cd3d 9dab 063d 55d6 fabc
00000380: 1c09 993d 4d88 8b3e e917 8abe b9ea 563c
00000390: fead 47bd 7582 bfbd f23e 98bd bbe8 253e
000003a0: f349 19be 9d4b 18be a09f 183e f684 a4be
000003b0: 44e5 96bd b842 65bc fa20 153e d0e3 26be
000003c0: cb27 b1bd 9f25 4b3e 40b1 86be c2cc 59bd
000003d0: 3f36 783d ff14 06bd 7a3b c7bc dcdc 52be
000003e0: b5a0 1ebd 528e 03be 5759 b63d 80e8 303d
000003f0: 5766 ef3d ad98 88be ed75 963d 35a0 cc3d
-0.09239408 -0.1562342 -0.04329705 -0.10108574 0.09140065 0.16385873 -0.26752406 0.07300645
0.091000736 0.011807319 0.030232344 -0.061621524 -0.0044099484 0.0010889866 0.22575977 -0.023789918
0.020628229 -0.010137265 0.010885335 0.22485615 -0.007374417 0.09273359 0.030160818 -0.047626287
-0.059107587 -0.027414007 -0.012330639 0.060048852 -0.2958522 -0.11829379 -0.19542392 0.44075802
-0.14480008 0.101553984 -0.10663023 -0.079317085 -0.25780705 -0.13375813 0.2619391 0.0025085874
0.21868294 0.005269783 -0.1360364 0.072122164 0.034328092 0.0848648 0.038109135 -0.039605584
-0.09413876 -0.032941822 0.080770664 -0.2368759 -0.056773614 -0.10111827 0.23739734 -0.17032196
-0.05816235 -0.28789362 -0.02293023 0.027521506 0.055040676 -0.002912557 0.024804331 -0.030943882
-0.0086297775 -0.13163282 -0.041561157 0.14738484 -0.044667877 0.08903831 -0.27165675 0.12846582
0.04807812 -0.02588918 -0.10376041 0.14657074 -0.057275984 0.07689618 -0.19382037 0.053296417
-0.07133862 0.14234419 -0.0022683232 0.01584057 0.0627098 0.13365856 -0.32650906 -0.058903504
0.070578896 0.048059754 0.0014473692 -0.082820706 -0.07654983 0.00062199193 -0.07714892 0.2141298
-0.16904566 0.043894496 0.05726057 0.0416376 -0.2476347 -0.10817791 0.043560635 -0.06727069
0.11380076 0.24273485 -0.058428667 -0.10675382 -0.096751966 -0.17111237 -0.30209056 0.12750922
0.07426396 0.15537864 0.19726309 0.029769385 -0.08691919 -0.23183393 -0.029795043 -0.13323891
0.25060427 -0.0034375717 0.19059503 -0.103153706 0.06308208 0.1721862 -0.1447296 -0.19744034
-0.08935845 -0.20169117 -0.24655432 0.010864867 -0.14197347 -0.04428031 0.029722605 -0.045900993
0.21152765 0.038162105 -0.13955048 0.12335608 -0.050416578 -0.017265229 -0.048986167 -0.17088538
0.014691649 0.110319085 0.3285165 0.04329622 -0.12116279 -0.108049236 -0.041965157 0.16935565
0.12510797 -0.007287056 -0.1526015 -0.065884665 0.26570567 -0.1455634 -0.014337468 0.3124696
-0.18873517 0.2570537 -0.092823334 -0.15608507 0.13692725 0.16883427 0.1619896 0.2048369
-0.111817695 -0.08313375 0.06965219 -0.023295924 0.027137354 0.19175063 0.17715265 -0.24719593
0.11471535 -0.050248295 -0.04994111 -0.09624687 0.039734047 -0.038883243 -0.023030536 -0.08081088
-0.19254442 0.16654615 -0.10461188 -0.20320342 0.08017294 0.14398065 0.067569405 -0.17670986
-0.19690555 0.26654324 -0.16451244 0.043954454 0.10462439 -0.26560208 0.18397416 0.06127228
0.066630304 0.04644457 -0.20713487 -0.07160113 0.07613343 0.22827554 -0.010637469 -0.15495636
0.04020941 -0.021630026 0.122268215 -0.0736579 0.077700354 0.21480025 0.022334473 0.046774488
-0.073085144 -0.152935 -0.115290694 0.00641921 -0.062918365 0.10035702 0.032878507 -0.03061978
0.074724406 0.27252427 -0.26971367 0.013117486 -0.048749916 -0.093510546 -0.07433881 0.16202061
-0.14969616 -0.14872594 0.14904642 -0.3213269 -0.07367948 -0.013992958 0.14563361 -0.16297841
-0.08650168 0.1983857 -0.26307106 -0.053173788 0.060598608 -0.032734867 -0.024320353 -0.20592064
-0.03872748 -0.1284726 0.08903759 0.04319048 0.11689442 -0.26678982 0.07346711 0.099914946

network_body._body_endoder.seq_layers.2.bias f4 [128]
00000000: c9a4 74bb 2f2a 953c 0ef8 bd3c 3779 2bbc
00000010: 09c1 c8bb 5952 d03c e8b2 06ba 4bd4 243d
00000020: 7346 943c 40ff 263c 9652 453c 2710 5c3c
00000030: c839 95bc 9b70 e53c 9456 8c3a 6fec b5bb
00000040: 5d15 823b 75b0 a8bc 5e52 cfbc 5b4b 8abc
00000050: 4859 28ba c440 003d ec2b 853c d6d9 28bc
00000060: a1dc 283c f54e a63b 78af 31bc a0fe 563d
00000070: 1c45 823c f525 2a3c a590 d63c 3b3d 2b3c
00000080: a463 54bc db05 253c 770e da3c d17d 9cbc
00000090: 2df3 413c 0b60 013d d756 6c3c 8f5d 103d
000000a0: c9f9 433c c0db eeba cc19 b43c e606 c6bb
000000b0: 93f9 e3bb 925b fb3b f389 f1bb a609 ec3c
000000c0: d990 103c f6da aa3c 0d6b 8fbc a772 c73c
000000d0: e064 f83c 6036 acbc 66df bb3b 0383 f53b
000000e0: 56f1 623c 5eab 183d 6016 b53c 55fb abbc
000000f0: 485c b7bc 519c c23b f4ca eeba 6c8c 8dbc
00000100: 9b8e 5dbb be41 94bc ed2c b8bb 3754 223c
00000110: a14c e9bc 3d4f b0bc 68f1 0a3d 2295 113d
00000120: 278c 9c3b 3b20 fd3c 9e1f 7939 cc71 b93c
00000130: fb85 113d eb67 04bd 37e9 423d 442b 6bbc
00000140: 482d a73a b7d4 773b e4ec f33c cd41 363b
00000150: 3b2a f33c cde7 a3bc 8adf 553c ce20 bbbc
00000160: 9367 3a3b 682f f53b 5879 e6bb 2eb8 fa3c
00000170: 5fd8 013d bae6 73bb 811e 9bbc f30d b63c
00000180: 7f57 cb3b 70d6 9c3c 58a4 473c 041d 43bc
00000190: ee7a 043d 5fc8 66bc 8f09 2b3d 143a 6a3c
000001a0: a146 3cbc b44f 0d3d 3af5 13bb ce1a ca39
000001b0: 84c6 703c f2ad ce3c 9307 9a3c e16a 4c3c
000001c0: 25f7 ff3b a64b 1b3c e318 8f3c 1af7 473d
000001d0: ea36 483d fbe9 023a c8ea 073c ac08 99bc
000001e0: b5f8 3dbc 1e82 0cbc 8a1b d5bc d77b 073d
000001f0: ca6c 5fbc 7e0b cdbc 9255 873c 56b5 c33c
-0.0037329665 0.018208591 0.02318957 -0.010465912 -0.006126527 0.025429891 -0.00051383534 0.04024152
0.018099999 0.010192692 0.012043616 0.013431585 -0.018216029 0.028007796 0.0010706955 -0.0055518667
0.003969832 -0.020591954 -0.02530783 -0.016881635 -0.00064219953 0.031311765 0.016256295 -0.010305842
0.010306508 0.0050753304 -0.010845058 0.052488923 0.015902095 0.010385026 0.026192019 0.01045161
-0.012963209 0.010072197 0.026618225 -0.019102963 0.011837763 0.031585734 0.014425001 0.035245474
0.011961409 -0.001822345 0.021984957 -0.006043303 -0.006957242 0.007670828 -0.007371181 0.028813194
0.008823597 0.020856362 -0.0175071 0.024346663 0.030321538 -0.021022022 0.0057334183 0.0074924245
0.013851484 0.037272803 0.022105396 -0.020993868 -0.02238287 0.0059390445 -0.0018218444 -0.017278872
-0.0033806923 -0.018097755 -0.00562059 0.009907774 -0.028478922 -0.021522159 0.03392163 0.035542615
0.0047774496 0.030899158 0.00023758269 0.02263727 0.035528164 -0.032325666 0.047585692 -0.014353577
0.0012754584 0.0037815997 0.029776044 0.0027810216 0.029683223 -0.020007992 0.013053784 -0.022842791
0.0028443083 0.007482458 -0.0070335083 0.030605402 0.03170049 -0.0037216381 -0.018935444 0.022223448
0.0062054987 0.01914522 0.012185179 -0.011908773 0.032343797 -0.014085858 0.041757163 0.0142960735
-0.011491449 0.03449984 -0.0022576586 0.00038548413 0.014695767 0.025229428 0.01880244 0.012476654
0.0078114443 0.009478485 0.017467922 0.04881964 0.048880495 0.0004993972 0.008295722 -0.018680893
-0.011594941 -0.008575944 -0.026014108 0.033077087 -0.013636777 -0.025029894 0.016520295 0.023890179

network_body._body_endoder.seq_layers.2.weight f4 [128, 128]
00000000: 9011 333c 7d12 73be 8769 bb3d 05e2 31be
00000010: 935b c9bd c255 94bd c898 d9bd ade5 8f3c
00000020: 680e 7e3d e196 5cbc cb25 9fbc b1ef 463e
00000030: 6fcd 68bd cbc4 733b 82cd 9a3c 487c 2d3d
00000040: ad12 153c 8d6b cabd 9e93 8d3b 8bb7 cabc
00000050: aaec cbbd ddd7 efbc 4f5e abbd 35dd 2d3d
00000060: a837 9c3d b3fd d93d 4a50 3a3c f20a 9ebc
00000070: 3726 cebd c16b 383d dc83 153e ce8b 97bd
00000080: ef0e 2abd 4459 523b 81d2 43bd 0e96 92bc
00000090: 0d42 113d f398 20be b30b 1bbc a669 d2bd
000000a0: 7318 b43d a998 3dbd 516d 183d 2809 ddbd
000000b0: 1f23 62be f903 f7bd 8594 b0bd 2c7e 333e
000000c0: a000 aabc a9fa 42bd 58cd 423d 4692 88bd
000000d0: f524 083e 6cac 9abb 1601 c13d 800d eebd
000000e0: 4ce7 e53d 950f 8b3d fc95 0f3e 46ba c3bc
000000f0: a807 bd3d f741 063d c1f8 243d 16ef fdbd
00000100: 3804 28bd df5c acbd a624 2b3d fcad f13d
00000110: a18a 953d 671a e73d 8e73 253d 9e08 013e
00000120: 8f4c 82bd 1833 d6bc 6949 48be 244a d1bd
00000130: 90bd be3c d600 cfbd bae0 543c 7015 76bd
00000140: daa4 da3d 5883 793c 0e7f fcbc 4798 433d
00000150: 58ba 6a3c d137 8f3c c8b7 73bd ae5c 883d
00000160: 03cc 30bd 00b3 0d3d dc5f 113d 4661 5bbd
00000170: 86cc 1bbd 3574 353d 27b2 a63d 4b6b b03c
00000180: 76b2 f53b 1a5a 4d3d 54a5 803c 8cd0 67bd
00000190: 3c6f 5e3d 7687 e13d 8cad 9039 b555 a33b
000001a0: 6b0b bebb 9541 9c3c ab5f 383c 4334 ec3d
000001b0: eb96 d5bc c082 a13c 0250 1fbe 7405 71bd
000001c0: 2412 5d3d 892b 183c 432e 0cbd 26a5 82bc
000001d0: 76ef a1b9 6f5a a93d 3389 f2bd dd81 8a3c
000001e0: 3b60 5f3d 507c e63d 6c85 2e3e 31a9 c0bd
000001f0: e6b1 48bd e17b cfbd 2b72 92bd 0e57 05be
00000200: 5d1d 14bc a0bd 20be d277 3cbd 6549 f7bd
00000210: 3f68 0a3e bcd8 3ebb b13c 01bd 5d54 93be
00000220: 76d0 0c3e 875c 9cbc ae26 40bc 119b b9bd
00000230: dc23 cd3b 5f20 03bd 9a2b d03b 963a 1cbc
00000240: daf6 dfbd ca24 723b 41b1 483c aac6 a53d
00000250: 7cb2 8abd b4c8 07bd 1fea a5bc d8ad 443e
00000260: ecc8 8a3d cb39 ecbb 6d48 07bd b96f 30bd
00000270: c013 fabc bc3f 3cbd 29d3 43bd 50fb 183e
00000280: dbca da3d 20d0 0dbd 3b18 cabc c45d 473c
00000290: 5a65 4f3d 5c47 9f3c 0455 08be e30a c73d
000002a0: 844d bebd c987 773d f60d c5bd 5edd 63bc
000002b0: 06b6 d53d 951a fdbd 8a42 80bd c180 f0bd
000002c0: e05a 9cbd 4e28 4fbc cecd f03c 45d9 d23c
000002d0: 7fea 2ebe 18d3 343e dad4 b33d 15c8 403e
000002e0: 2e85 893d a834 ddbd 18f3 fe3d f4ac 1f3e
000002f0: 8ff9 41be 6395 363d f1ea a5bc 95c2 373d
00000300: 4f34 833d 8bd0 223d 8407 2e3d 508a 14bb
00000310: 8d08 43bd d956 f9bd c1b8 863d e7f4 6abe
00000320: d6a4 6039 2e5e 56bb 893a 29bc f8c8 7d3c
00000330: 3310 6d3d 60a5 7d3d 70d3 20be 1517 943c
00000340: 5de7 abbd 90c9 78be 670f f9bd bb0a 063e
00000350: e3d7 fdbc 89ed 66bb 2568 a83d c7df d13d
00000360: 3be8 82bd 20ac 8f3d cfe1 88bc 2234 80bd
00000370: 57f3 8e3d 8b13 8d3d 804f 583d b3bd 37bd
00000380: 02b5 023e f760 d53b 7168 5a3c 1854 243d
00000390: 8ffd cdbd 1b89 943d 1721 013e ad52 31bc
000003a0: d366 30bd 7476 f13d e670 af3d 7edb b5bd
000003b0: b3d1 f93d 6577 1e3d b958 b73c 8518 05be
000003c0: 1429 0dbd 014c 68bd a79d a43c 8053 96bc
000003d0: 19ae 89bb a8f2 50be 800f 7bbd aa64 bf3d
000003e0: 85de d33c 2dcf bc3d 37ec 39bd 45d3 ee3c
000003f0: aa86 983d 1250 6f3d 4ae2 ebbd b4c0 d63d
0.01092948 -0.23737521 0.09150987 -0.17371376 -0.098319195 -0.072429195 -0.10624844 0.017565573
0.062025458 -0.013463707 -0.0194272 0.19427373 -0.05683654 0.0037196155 0.018896822 0.042354852
0.009098691 -0.09883795 0.004320576 -0.024745723 -0.099572495 -0.029277736 -0.08367597 0.042447288
0.07627803 0.106440924 0.0113716815 -0.019292329 -0.10065883 0.045024637 0.14601082 -0.073997125
-0.041518148 0.0032096663 -0.047808174 -0.017893817 0.03546338 -0.15683345 -0.0094632385 -0.10274057
0.08793726 -0.046288166 0.037213627 -0.10792762 -0.2208371 -0.120613046 -0.08622078 0.175286
-0.020752251 -0.04760233 0.047559112 -0.066685244 0.13295348 -0.0047202613 0.09424035 -0.11623669
0.11225757 0.067900814 0.14022058 -0.023892533 0.09229976 0.032777753 0.040276293 -0.12399118
-0.04101965 -0.08416151 0.041782998 0.11800763 0.07301832 0.11284333 0.040393405 0.12600943
-0.06362259 -0.02614741 -0.19559254 -0.10219219 0.02328375 -0.10107581 0.012993032 -0.06007904
0.10675974 0.015229069 -0.030822303 0.047752645 0.014326654 0.01748267 -0.05950144 0.06658302
-0.04316331 0.034594536 0.03549181 -0.053559564 -0.038036846 0.044300277 0.081394486 0.021535536
0.007498081 0.050134756 0.015703835 -0.05659537 0.0543053 0.11012165 0.00027595123 0.0049845823
-0.005799701 0.01907424 0.011253278 0.11533406 -0.02607294 0.019715667 -0.15557864 -0.05884309
0.05397238 0.009287723 -0.034223806 -0.01594789 -0.00030886725 0.08269202 -0.11842575 0.016907627
0.054535132 0.112541795 0.17043084 -0.09407271 -0.048997782 -0.1013105 -0.07150682 -0.1302149
-0.009040204 -0.15697336 -0.046012707 -0.12074546 0.13516329 -0.0029120883 -0.03155202 -0.28775302
0.13751397 -0.01908709 -0.011727972 -0.0906278 0.0062603783 -0.032013293 0.006352854 -0.009535452
-0.10935755 0.0036948198 0.012249292 0.08094533 -0.067723244 -0.03315039 -0.02025324 0.19206941
0.06776604 -0.007209038 -0.033028055 -0.043075297 -0.030526996 -0.04595922 -0.0478088 0.14939618
0.10683223 -0.03462231 -0.024669757 0.012168352 0.050633766 0.019443206 -0.13313681 0.09718873
-0.09292129 0.06043223 -0.096218035 -0.0139077585 0.10435109 -0.12358586 -0.06262691 -0.11743308
-0.076345205 -0.012643887 0.02939501 0.025738368 -0.1708164 0.17658651 0.087808326 0.18826325
0.06714855 -0.10801059 0.1244871 0.1559332 -0.18942855 0.04457606 -0.02025363 0.044863302
0.064064614 0.039749663 0.042487636 -0.0022665448 -0.047615577 -0.12174768 0.06578208 -0.22944985
0.00021423711 -0.0032709944 -0.010328897 0.015489809 0.057876777 0.061925292 -0.15705657 0.018077413
-0.083937384 -0.2429564 -0.12161141 0.13090031 -0.030986732 -0.0035236797 0.08222989 0.1024776
-0.06391951 0.07015252 -0.016709236 -0.062599435 0.06980007 0.06888493 0.052810192 -0.044858646
0.12764362 0.0065118033 0.013330565 0.04011926 -0.10058128 0.07252713 0.12610279 -0.010822934
-0.04306681 0.11790171 0.085664555 -0.088797554 0.121982 0.038688082 0.022381173 -0.12997635
-0.034463003 -0.056713108 0.020094706 -0.018350363 -0.0042016623 -0.20405066 -0.06129408 0.09345372
0.025862942 0.09219203 -0.045391288 0.029153476 0.0744756 0.05842597 -0.115177706 0.10485974
