results/NewSnakeAgent3/SnakeAgent/SnakeAgent-1499974.onnx (onnx, 103045 bytes, 6 tensors)

action_model._discrete_distribution.branches.0.bias f4 [3]
000000 5c c0 cc bc 98 13 0c 3c 2c 9e 57 3c
       -0.024994068 0.008549593 0.01316027

action_model._discrete_distribution.branches.0.weight f4 [3, 128]
000000 cc ba b6 3c 90 70 d1 bc 40 6a df 3c 98 be f5 3a
       0.022305869 -0.02556637 0.027272344 0.0018748818
000010 fd a4 46 3c 4e f3 b1 bc 3a fb 70 39 1e f5 03 3b
       0.012124297 -0.021722462 0.00022981773 0.0020135115
000020 85 3b a4 3b 08 61 7b bc 5e 72 85 bc 3a b9 22 3d
       0.005011978 -0.015342958 -0.016289886 0.039727427
000030 6f 6f ae 3c ea 0a 15 bd df f6 93 bb cf 94 ae 3b
       0.02129337 -0.03638736 -0.0045155133 0.005327798
000040 20 eb 44 3d fa 70 22 3b 6b 28 60 3b 39 92 3c 3c
       0.048075795 0.0024786578 0.0034203778 0.011509472
000050 c5 6f 05 bc c4 cb a5 bc f6 e7 b9 bb 63 26 ae 3c
       -0.008144324 -0.020238765 -0.005673404 0.021258539
000060 7f aa 17 bc 6a b4 85 3b d9 b5 b3 3c 93 e4 03 3c
       -0.009256958 0.004080345 0.021937298 0.008050102
000070 68 3c 1c bc e4 f1 46 b9 dc fc f8 bc d1 c4 e1 bb
       -0.009535886 -0.00018972863 -0.03039401 -0.0068899174
000080 5c 1d 16 3d 8b e9 a7 3b 98 24 ec bc 6e 53 22 3c
       0.036649093 0.005124276 -0.028826043 0.0099075865
000090 5d e0 9d bb 42 21 ad 3b 5e 83 2a bc 0a 87 42 3c
       -0.004818006 0.0052835057 -0.010407297 0.011873016
0000a0 1e 0b b1 3c 44 fd ff ba d5 ac 39 bb 9a 8b 04 3c
       0.021611746 -0.0019530435 -0.0028331776 0.008089924
0000b0 0b 25 11 bc df 0a 49 bc 69 66 f5 bb a9 01 e1 3c
       -0.008858929 -0.012270658 -0.007489015 0.027466612
0000c0 be 17 be 3c d0 5f 7e bc 5f b4 56 3c c6 2c ad bc
       0.02320468 -0.015525773 0.013104527 -0.021139514
0000d0 4f 2a f2 bc 33 27 97 bb 9a 9a 8c 3b 46 30 97 3b
       -0.02956119 -0.004612827 0.004290891 0.004613909
0000e0 fa f9 5a bc d8 98 a1 3b 63 d6 9e bc d6 bb 16 3c
       -0.013365263 0.0049315505 -0.019389337 0.009200057
0000f0 21 15 1b 3c fd ab b8 3c a0 2d 05 3a 16 96 db 3b
       0.009465487 0.022542948 0.0005080346 0.0067012412
000100 fc 6d 30 bb 62 3c 69 3c ac ae 57 bc 36 7f aa 3c
       -0.0026921025 0.014235588 -0.013164204 0.020812612
000110 4c 14 ed 3a 9d 08 80 3b 8c f0 8c bd 04 ab 93 3a
       0.0018087714 0.003907277 -0.06881818 0.0011266177
000120 f9 8a b0 3b f3 0f dc bc 65 c2 60 bc 5c 03 ce 3a
       0.0053876606 -0.026863074 -0.013718222 0.0015717554
000130 72 e2 2e bb e9 9c 23 bc cc 88 bf 3c c8 7d 06 bb
       -0.0026685265 -0.009986141 0.02338066 -0.0020521749
000140 63 01 8d 3b f1 ea 6e bb 56 1e b4 bc 65 ec 9c 39
       0.004303144 -0.0036455954 -0.021987122 0.00029930766
000150 34 ca 46 bc 43 ba e3 3b 59 32 c6 bb ef 28 52 3c
       -0.01213317 0.0069496944 -0.0060484824 0.012827142
000160 91 fd f5 3b ca 0a 4e ba f1 05 c0 bc 4b c1 c2 3c
       0.007507034 -0.0007859884 -0.023440333 0.02377381
000170 b2 87 8b 3c 19 6a 2b 3c ea fe 67 3c cb 93 1b bd
       0.017032478 0.010462307 0.014159897 -0.037982743
000180 94 81 38 3c f9 d3 de bc b2 40 97 bc b6 53 bd 3c
       0.011261363 -0.027200686 -0.018463466 0.023111206
000190 11 f1 68 bc 5f 8a 4b 3b 0a 64 dd bc 5e 61 3e bc
       -0.014217631 0.0031057817 -0.027025241 -0.011619894
0001a0 e7 bb 3a 3c 7c b3 96 bc 34 f9 3a 3a f2 9d 9e bb
       0.0113973385 -0.018396132 0.0007132471 -0.004840606
0001b0 ac 91 93 3c 78 ef 87 bc 66 cc 8c 3b 7c 36 e5 3c
       0.018013798 -0.01659368 0.004296827 0.027980082
0001c0 b4 15 85 bb e9 83 2b 3c 63 b8 8a b8 d6 42 a5 3a
       -0.004061425 0.010468462 -6.6146975e-05 0.001260842
0001d0 9a 7f c3 bc 72 b7 3f bb d4 56 64 bc 6f 7d 6c 3a
       -0.023864556 -0.002925363 -0.013936717 0.00090213766
0001e0 c3 74 cf 3c 5e 8d 41 3a bd 43 0a 3c bc c8 a3 bc
       0.025324231 0.0007383431 0.008439002 -0.019993179
0001f0 5f e7 0b 3c 5e 6e f3 3b 07 b6 ae bc 09 63 43 bd
       0.00853905 0.0074289283 -0.021327032 -0.04770187
000200 2f aa 31 bc 94 b0 b3 bb 8b a9 6f 3d 37 4b 4e bc
       -0.010843798 -0.0054836962 0.0585113 -0.012591175
000210 04 4b f3 3a 5f 91 c0 3c 63 d2 89 3c 5f 8b 8d 3c
       0.0018561785 0.023506818 0.016823953 0.017278371
000220 03 2d 1f 3d 60 f2 ad bc bc 8d 9e bd d4 36 d9 3a
       0.038861286 -0.021233737 -0.077418774 0.0016572126
000230 44 c6 95 bc 6a e5 11 bd ea 73 ae bc 94 16 32 3c
       -0.018283017 -0.035619177 -0.021295507 0.010869641
000240 fc 89 ca bc 80 2d 87 bb 6e af dc bc 45 33 96 bb
       -0.024724 -0.004125297 -0.02693912 -0.0045837485
000250 ff bf c2 ba f0 42 a2 bc 84 08 a4 3b 70 16 02 ba
       -0.0014858245 -0.019807309 0.005005898 -0.000496245
000260 98 39 ad bc bb cb b1 3c 4b 36 f7 bc 96 83 42 3d
       -0.021145627 0.021703592 -0.030177256 0.04748877
000270 69 d1 84 3b 7e c9 85 3c 0c 4b 38 bd 81 72 dc bc
       0.004053284 0.01633143 -0.044993445 -0.026910068
000280 f4 18 8f 3c 42 84 b9 bc bf 96 11 bc 0a ba fa 3b
       0.017467953 -0.022646073 -0.008886038 0.007651572
000290 2f 42 93 bb 5f 42 7b 3d fb 6f 01 bd e1 dd 8a 3d
       -0.0044939737 0.061342593 -0.031600934 0.06780601
0002a0 1b 98 9f bd ae db 05 bd 60 ca fa bc 5b a3 ba bc
       -0.07792684 -0.032680206 -0.030614078 -0.022782972
0002b0 38 2f d4 bc 35 e9 2b bc b9 ed d8 3b b9 0a 8f 3d
       -0.025901422 -0.010492613 0.0066201356 0.06984467
0002c0 54 46 2c bd 51 22 b5 bc d4 ec 6e 3b 72 78 2a bc
       -0.042059258 -0.02211109 0.0036457079 -0.010404693
0002d0 70 19 be bd d7 aa e9 bb a2 c5 a8 bc 6e db bb 3c
       -0.092821956 -0.0071309614 -0.020602051 0.02293178
0002e0 48 e2 a2 3c 84 14 9c 3d 7e cd 3f 3c e5 58 08 bc
       0.01988329 0.076211005 0.011706708 -0.008321975
0002f0 f1 2d 8d bc 1d ef a4 bd 4b 25 8e 3c 66 4a 3f 3a
       -0.01723382 -0.0805342 0.017351767 0.0007297158
000300 18 19 c5 3c db 86 0d bd f1 d7 d7 bc 5a f9 7a 3c
       0.024059817 -0.034552436 -0.026348086 0.015318239
000310 83 09 98 bb 66 93 96 bc 03 57 c3 bd ff ce fc 3c
       -0.0046398058 -0.018380832 -0.095380805 0.030860422
000320 fa f4 da bb 54 97 9e bd ff 8f 8d 3c cf e0 f2 3c
       -0.0066820355 -0.07743707 0.017280577 0.029648213
000330 6a 35 47 3d d0 7b 7a 3b 5c 4f d8 3d 8a 7b 75 bc
       0.048634924 0.003822077 0.105620116 -0.014983067
000340 16 b9 b0 3c 76 f0 9d 3c f2 84 97 bd 4e 3c 68 3a
       0.02157263 0.0192797 -0.07398404 0.0008859084
000350 60 b0 49 bc 45 ee aa 3a 18 7e 79 bd 1a f2 3a 3b
       -0.0123101175 0.001304098 -0.060911268 0.0028525651
000360 05 95 b2 bb 2d 32 3a bd d6 16 39 3c 05 6c 39 3d
       -0.0054498934 -0.045458008 0.011296948 0.04526903
000370 96 b3 8e 3d 65 10 28 bc 7d c6 c1 3b 3e 5e f8 bc
       0.06967847 -0.010257815 0.005913554 -0.030318376
000380 b5 de 0b 3c 27 d5 4a bd 97 07 3d bc 55 e7 38 3c
       0.008536984 -0.049519684 -0.011537454 0.011285623
000390 94 9a 0e 3d de b8 5e 3b a1 ae 89 bd b3 50 35 bd
       0.034815386 0.00339847 -0.06722761 -0.044266414
0003a0 b2 19 db ba 34 e0 09 3d 0d 43 e6 3c 02 50 c5 bc
       -0.0016716032 0.033661082 0.028108144 -0.024086002
0003b0 14 f5 37 bd 88 53 22 bc bc c3 97 bd 11 5e 71 3d
       -0.04491146 -0.009907611 -0.0741038 0.0589276
0003c0 3d 67 0d 3d e8 8e 49 3c 98 06 2e bc ac e9 9b 3d
       0.034522284 0.012302138 -0.010621689 0.07612929
0003d0 44 79 8d bd ce f1 e4 3c 25 30 4a bd 5b 7b 17 bd
       -0.06907895 0.027947333 -0.04936232 -0.036982875
0003e0 60 1e 92 bb 33 9c 06 bc f0 5e b1 bc 4b fd b9 bd
       -0.0044591874 -0.008215952 -0.021651715 -0.09081515
0003f0 e1 36 ea bc 62 4f 44 bb 43 15 52 bc 4b 94 e7 3c
       -0.028590621 -0.0029954542 -0.012822452 0.028268954

network_body._body_endoder.seq_layers.0.bias f4 [128]
000000 2c 9e 29 3d 27 23 68 3c 70 c7 c5 bc 05 0b d6 bc
       0.04141061 0.014168537 -0.02414295 -0.026128301
000010 24 fc 8a 3c f4 9e dc ba 12 76 b7 3c dd 38 ce 3c
       0.016965933 -0.001683204 0.022395167 0.025173599
000020 c7 cc 31 bc a7 67 5d 3d 2e 6b 8b 3d b8 0e 58 3d
       -0.010852045 0.05405393 0.06807552 0.052748412
000030 87 a2 12 3d 74 16 e4 bb 7d 0b 77 3b 99 ce 74 3c
       0.03579953 -0.0069606844 0.0037696057 0.014941835
000040 97 66 07 3c 54 e1 53 bc e1 9a 48 3b c1 61 ed 3c
       0.008264205 -0.01293214 0.0030609893 0.028977277
000050 1f 2e 82 3d 50 22 ab bb 21 62 5b bc 34 1d 2f 3c
       0.06356453 -0.005222596 -0.013390095 0.010688115
000060 b6 03 6e 3d 35 df db 3c 06 90 93 3c 1f 40 95 bc
       0.058109008 0.026839832 0.018013012 -0.018219052
000070 89 59 7a 3c f2 05 a2 3c 88 85 73 3c d3 00 34 3d
       0.015280136 0.019778226 0.014863379 0.0439461
000080 c5 39 cc 3c f8 3d 12 bd d2 9f 72 3c 65 a3 e5 3c
       0.02492989 -0.03570363 0.014808612 0.028032014
000090 a5 2a 76 3d 8b 67 9d 3b 46 71 1d 3d b4 eb 17 bc
       0.060099263 0.004803603 0.038438104 -0.009272505
0000a0 af fa 5c bc bc 2a 99 3b bb 1c 11 3d bd 6a 78 3d
       -0.013487502 0.004674284 0.03542779 0.06064867
0000b0 ed 13 05 3b 46 e1 5a 38 99 ce 1c 3c 41 fb da 3c
       0.0020306066 5.2185052e-05 0.009570741 0.026731135
0000c0 67 0f 80 3d 0c 3f 1b bd 7a 9a 04 bc f5 0a df ba
       0.06252938 -0.037901923 -0.008093471 -0.0017016815
0000d0 10 b7 83 3c 9c d0 38 3c d0 33 72 3c 7b 97 a4 bc
       0.016078502 0.011280205 0.014782861 -0.020091763
0000e0 12 70 c6 3c b9 3b 41 3a 13 3e ba 3c 0c 84 d4 ba
       0.024223361 0.0007371265 0.022734677 -0.001621367
0000f0 7e ea 6f bc 51 05 77 bd 15 1d bc bc 76 87 a7 3c
       -0.01464331 -0.060307804 -0.022963086 0.020450335
000100 d4 32 95 bc a7 1c 54 bb f9 48 06 3d c5 55 e4 3b
       -0.018212713 -0.003236571 0.032784436 0.0069682323
000110 f8 8e 5d 3d 8a 5c c2 3b 2d 94 1d 3d 3f 18 dc 3b
       0.054091424 0.0059314417 0.03847139 0.0067167575
000120 99 23 d0 bb 66 1f 7a 3c dd b9 63 3c 3e 8c 0f 3b
       -0.0063519 0.015266275 0.013899294 0.002190366
000130 68 2e 84 3d c2 dd 88 3d 00 30 28 bd 72 42 94 3c
       0.06454164 0.06682922 -0.0410614 0.01809809
000140 ad 0e fc bc 6d c0 ee 3c 5e a0 98 bb 65 9c 15 3d
       -0.030768717 0.02914449 -0.004657789 0.036526103
000150 3e 81 bd bb 96 d7 3e 3c 47 7c 0d 3b ac 99 83 3d
       -0.005783229 0.011648079 0.0021588968 0.06425795
000160 d4 29 69 bc 62 f4 0b bc 21 54 a2 3c e9 7c 0e bb
       -0.014231164 -0.008542152 0.019815506 -0.0021741933
000170 a2 6d 2b 3c 7f 28 c3 bc 6a 7f 77 bb 0a a5 81 3c
       0.01046315 -0.023823021 -0.0037765154 0.015825767
000180 f9 74 c2 bc 31 de 07 3d 9e 7f ea 3c ad 14 47 bc
       -0.023737418 0.033170883 0.028625306 -0.012150926
000190 95 45 ba bb 71 6f e5 3c 46 7e 9b 3c 03 74 9c 3c
       -0.0056845644 0.028007241 0.01898111 0.019098287
0001a0 80 e3 cd 3c a7 8e 0d 3c 73 32 13 3c 65 4a 93 3c
       0.025132895 0.008639968 0.008984196 0.01797981
0001b0 24 8e 85 ba 98 df fc 3c 23 fa a0 3b 05 9f 25 3d
       -0.0010189456 0.030868337 0.004912631 0.040434856
0001c0 f7 04 19 3c 05 f4 38 3d 94 b9 33 3d 33 60 78 3d
       0.009339563 0.04515459 0.043878153 0.060638618
0001d0 06 ca 68 3d 09 c6 86 3c ba 4d a6 bc b9 99 8b 3c
       0.05683329 0.016451852 -0.020300735 0.017041074
0001e0 2c 5b c1 bc 10 2c ad bb 2b 17 24 bc 78 03 c3 3c
       -0.023603044 -0.0052847937 -0.010015289 0.023805365
0001f0 d0 55 b9 ba 1a 97 0c 3d 09 6f 9f 3d 8a 57 bb 3b
       -0.0014139954 0.03432379 0.0778485 0.0057172226

network_body._body_endoder.seq_layers.0.weight f4 [128, 64]
000000 1d 95 b4 bd e0 b5 23 be c5 0e 1a bd 5f 96 d9 bd
       -0.088175036 -0.15987349 -0.03761174 -0.10624384
000010 08 27 c3 3d 16 0e 2d 3e ac 76 8d be 5e 2b a2 3d
       0.09528929 0.16899905 -0.27629602 0.07918428
000020 f8 0e b3 3d 2a 00 4d 3c a2 76 1b 3d 9f 78 7b bd
       0.087430894 0.012512246 0.037954934 -0.06139433
000030 af 53 d0 bb 44 c3 20 bc 1f b3 6f 3e 3d 40 c1 bc
       -0.006357632 -0.00981218 0.23408173 -0.023590202
000040 18 22 9c 3c 88 2d 01 3c 49 e3 8f 3b 2a d9 5c 3e
       0.019059226 0.007884391 0.004391108 0.21567217
000050 47 32 71 bc 0e ed de 3d 9d 72 0c 3d 57 91 7a bd
       -0.01472146 0.10885058 0.03428899 -0.061173763
000060 71 84 6d bd a1 20 d9 bc 56 4d 1c bc de 15 97 3d
       -0.057987634 -0.026504816 -0.009539923 0.07377218
000070 fa 62 9b be 34 47 04 be fb 95 55 be 6b c5 e6 3e
       -0.3034895 -0.12917787 -0.20857994 0.45072493
000080 69 98 0a be 5f 6e ca 3d df 70 d9 bd 64 59 a7 bd
       -0.13534702 0.09884333 -0.106172316 -0.08171347
000090 a4 4d 82 be 06 dd d5 bd 5f 15 82 3e ca db 31 bc
       -0.2544986 -0.104425475 0.2540693 -0.010855624
0000a0 e1 e4 56 3e 19 b8 56 3b a7 0b 01 be 84 f8 9a 3d
       0.20985748 0.003276354 -0.12602101 0.07566932
0000b0 13 33 18 3d b2 5a ac 3d b8 fa 42 3d 9d 39 56 bc
       0.037158083 0.08415736 0.047602385 -0.0130752595
0000c0 c7 ae d1 bd 5c f1 3d bd 18 17 ab 3d c9 63 65 be
       -0.10238414 -0.046372756 0.08354014 -0.22401346
0000d0 b5 58 85 bd 33 a8 d2 bd bf 21 6f 3e 8d 4f 2b be
       -0.0651106 -0.10285988 0.23352717 -0.16729565
0000e0 65 1a 5f bd d9 d0 97 be f7 4e dc bc 57 b7 ff 3c
       -0.05446853 -0.29651526 -0.026893122 0.031215353
0000f0 c8 e8 73 3d 06 1f da b9 2c d1 10 3d 51 71 cb bc
       0.05954817 -0.00041603314 0.03535573 -0.024834307
000100 7f 7c 17 bc ff a7 0c be f1 5a 1b bd a7 71 1a 3e
       -0.009245991 -0.1373596 -0.037928525 0.15082417
000110 b3 11 2d bd 29 77 b9 3d 30 85 92 be 3b 79 09 3e
       -0.042253207 0.09055931 -0.2861724 0.13425152
000120 8d 7c 43 3d fb 29 d7 bc 22 e8 cd bd db 14 15 3e
       0.047726203 -0.026265135 -0.100540414 0.14558737
000130 11 c1 7f bd ba 9e 91 3d b9 ce 41 be 97 39 4d 3d
       -0.06243998 0.07110353 -0.18926515 0.05010375
000140 ad aa 9a bd b6 06 1f 3e 70 ae 30 bb b8 1e cd 3b
       -0.07552085 0.15529904 -0.0026959442 0.0062597655
000150 88 36 69 3d 61 09 0e 3e 4a e7 a6 be 5a 15 6a bd
       0.05693677 0.13870765 -0.32598335 -0.05714927
000160 04 cc 90 3d 66 93 2f 3d cb 5a 90 b8 73 e1 74 bd
       0.07070163 0.04286518 -6.8833666e-05 -0.059785318
000170 3d a9 9d bd 1b 89 65 bc 34 12 af bd 94 28 5b 3e
       -0.07698295 -0.014009739 -0.08548394 0.21402198
000180 2b 58 29 be cf c0 44 3d 15 70 69 3d 75 96 0f 3d
       -0.1653754 0.04803544 0.056991655 0.035055596
000190 0f 9c 83 be 2a 1f 92 bd 47 0a 2f 3d 62 68 ac bd
       -0.25705 -0.0713485 0.04273441 -0.08418347
0001a0 52 7e dd 3d e9 83 70 3e 07 ee 5e bd e9 50 dd bd
       0.10815109 0.2348782 -0.05442622 -0.10806448
0001b0 54 af c6 bd e3 89 33 be c0 cb 95 be ae 4b 1f 3e
       -0.0970141 -0.17533068 -0.2925701 0.15556213
0001c0 3c 65 97 3d 84 f1 10 3e 2f 84 4f 3e fa f6 1d 3d
       0.07392356 0.14154631 0.20265268 0.038565613
0001d0 2d 4d c9 bd fc 72 6e be 84 9c 14 bd c9 fe 0c be
       -0.09829173 -0.2328605 -0.036282077 -0.13769068
0001e0 64 be 7f 3e 2a ab 45 ba b4 ce 3f 3e 50 02 d5 bd
       0.24974972 -0.0007540459 0.18731195 -0.10400832
0001f0 ed 88 81 3d c5 32 31 3e 98 c9 13 be 59 b9 48 be
       0.06324945 0.17304523 -0.1443237 -0.19601955
000200 99 cf a7 bd 9c 20 4e be cf d4 7a be 01 bc 3d 3c
       -0.08193893 -0.20129627 -0.24495243 0.011580468
000210 37 f6 0a be e9 a3 22 bd cb 03 09 3d d2 f0 32 bd
       -0.13570486 -0.0397071 0.033450883 -0.043686695
000220 d5 44 59 3e c0 1d 2c 3d 21 59 08 be fa 39 00 3e
       0.21217664 0.04202056 -0.1331525 0.12522116
000230 81 6d 43 bd d1 68 93 bc 27 fb 2d bd af 1c 2c be
       -0.047711853 -0.017994316 -0.042475846 -0.16807817
000240 3f cf aa 3c bf 56 ec 3d 49 97 a8 3e 33 31 41 3d
       0.020850776 0.11539983 0.3292792 0.04716606
000250 81 3b ee bd 63 ad e1 bd b6 0f 07 bd 80 ca 2c 3e
       -0.11632443 -0.11019399 -0.032973967 0.16874123
000260 80 4d 05 3e 50 b0 95 bb 56 30 19 be 5e 28 68 bd
       0.13017845 -0.004568137 -0.14959845 -0.056679122
000270 11 8b 88 3e 4a 11 11 be 22 24 27 bc 3c dd 9e 3e
       0.266686 -0.14166752 -0.010201486 0.31028163
000280 78 55 39 be 74 ea 83 3e 7d 61 b6 bd 22 ff 1a be
       -0.1809901 0.2576481 -0.08905313 -0.15136388
000290 6e 6b 11 3e d7 d6 30 3e 28 3c 28 3e d8 3f 57 3e
       0.14201137 0.17269455 0.16429198 0.21020448
0002a0 dc b0 d8 bd c4 8e ae bd 68 fb 97 3d 2c a5 c1 bc
       -0.10580608 -0.08523324 0.07420999 -0.02363833
0002b0 87 7f 03 3d 39 1d 4b 3e bd 4a 3a 3e 35 b1 7f be
       0.03210404 0.19835366 0.18192573 -0.24969943
0002c0 74 d6 ec 3d dd 15 33 bd 31 b2 3b bd 77 0d be bd
       0.11564341 -0.043722022 -0.045824233 -0.09279912
0002d0 13 e3 38 3d 42 b2 1d bd 1a 40 8e bc 68 37 ab bd
       0.04513843 -0.038500078 -0.01736455 -0.08360177
0002e0 7f df 3e be d5 a7 2d 3e 1c cf dd bd b1 c9 49 be
       -0.18639944 0.16958554 -0.108305186 -0.19705845
0002f0 07 17 b4 3d 0f 2e 13 3e 3f 84 8b 3d cc 85 2b be
       0.087934546 0.14373039 0.06812333 -0.16750258
000300 ce 15 44 be 81 4b 84 3e ea b0 31 be 32 06 36 3d
       -0.19148943 0.25838855 -0.17352644 0.044439502
000310 84 5b d0 3d 1b 9b 87 be 2b 64 4a 3e b3 b0 35 3d
       0.10173705 -0.26485524 0.19764774 0.044357967
000320 d6 6b 82 3d 5d f1 23 3d 13 36 50 be 26 3b ad bd
       0.06368224 0.040025104 -0.20333128 -0.08458547
000330 6c d9 a3 3d 81 55 68 3e dc 62 6a bc 2f 42 1c be
       0.08000454 0.22688867 -0.0143057965 -0.15259622
000340 8b d9 44 3d 12 71 2b bd bb fc fc 3d c1 30 94 bd
       0.048059028 -0.04185588 0.12352892 -0.072358616
000350 5c d2 aa 3d 6f 28 44 3e 22 50 f2 3c 25 f1 51 3d
       0.08340904 0.19156049 0.029579226 0.051255364
000360 70 c0 9c bd 1f cd 1a be cc e8 ef bd 30 dd c5 bb
       -0.07653892 -0.1511731 -0.11714324 -0.0060383305
000370 f6 c9 83 bd 98 7b d6 3d ab d4 02 3d 9c 2a 15 bd
       -0.06435005 0.104727924 0.031941097 -0.03641759
000380 f9 67 9b 3d 3a be 8c 3e e1 65 8e be 28 0b 8b 3c
       0.075881906 0.2748888 -0.27812102 0.016973093
000390 44 65 6d bd 4d d7 eb bd 54 da 99 bd 22 04 2f 3e
       -0.057957903 -0.11515675 -0.07512346 0.1709142
0003a0 25 27 14 be e4 b2 18 be c4 1e 15 3e 53 3f a5 be
       -0.14468057 -0.14911991 0.14562517 -0.32274875
0003b0 bf e0 a0 bd 6b 37 31 bc 52 28 0a 3e 34 63 39 be
       -0.07855367 -0.010816435 0.13491943 -0.18104249
0003c0 52 8e b0 bd d1 f6 56 3e 97 8b 85 be b4 ea 67 bd
       -0.086208954 0.2099259 -0.2608306 -0.056620315
0003d0 c8 38 88 3d e6 84 01 bd bf 4c 93 bc 9e 4d 56 be
       0.06651455 -0.031620882 -0.017980931 -0.20928046
0003e0 31 3e 23 bd 6c d6 03 be b0 e6 c1 3d 04 4b 2c 3d
       -0.039854232 -0.12874764 0.09467828 0.042063728
0003f0 e6 aa ee 3d fa a5 87 be b9 c4 95 3d 35 c1 c9 3d
       0.1165369 -0.26493818 0.073129125 0.098513044

network_body._body_endoder.seq_layers.2.bias f4 [128]
000000 8d 9f be ba 29 7e a6 3c 36 d7 be 3c 75 92 28 bc
       -0.00145434 0.02032383 0.02329598 -0.010288824
000010 89 48 af bb 15 4a cf 3c c3 b1 8d 3a 8d 5e 2c 3d
       -0.005349223 0.02530388 0.0010810423 0.04208236
000020 8e 57 96 3c 1a 6e 2f 3c d6 40 3c 3c 92 e1 65 3c
       0.018352296 0.010707403 0.0114900675 0.014030831
000030 b0 ba c0 bc df 94 ec 3c 11 92 5a 3b f0 4a af bb
       -0.02352652 0.028879581 0.0033351223 -0.0053495094
000040 53 e9 c8 3b 2d 85 c3 bc da 56 de bc b5 4c 97 bc
       0.00613133 -0.023867214 -0.027141023 -0.018469194
000050 68 a5 27 3b d6 f9 0d 3d ca 7e 8a 3c 68 22 8e bb
       0.0025580768 0.03466209 0.01690616 -0.0043375976
000060 52 fe fc 3b 18 8a f8 3b 1f a1 1b bb 4c 89 59 3d
       0.007720747 0.0075848214 -0.0023747159 0.053109452
000070 0d ba 95 3c 1b 21 17 3c 3c ee e6 3c ba a3 35 3c
       0.018277192 0.009224202 0.02818977 0.011086399
000080 ca ba 66 bc 63 20 54 3c 8b 6f ed 3c a6 da bb bc
       -0.01408262 0.012947175 0.028983852 -0.022931408
000090 1f 8c 20 3c f6 fb 05 3d ad 91 75 3c e8 c6 1f 3d
       0.0097990325 0.03271099 0.014988345 0.03900805
0000a0 eb 11 5b 3c ba 69 4c bb f6 5b bb 3c 37 4c fb bb
       0.013370971 -0.0031190948 0.022870999 -0.0076689976
0000b0 dd a7 e8 bb 7a 23 1e 3c bd 76 ff bb 53 6b ef 3c
       -0.007100089 0.009652013 -0.007796137 0.02922598
0000c0 21 01 17 3c 49 68 c3 3c 48 11 95 bc f2 d2 c0 3c
       0.009216578 0.023853438 -0.018196717 0.023538087
0000d0 63 36 fb 3c 5a 55 c6 bc 41 e1 dd 3b 6d 54 f1 3b
       0.030665582 -0.02421062 0.006771237 0.0073648007
0000e0 2e 9f 89 3c 1a 98 18 3d ec e2 d5 3c 71 2a ba bc
       0.016799536 0.03725443 0.026109181 -0.022725316
0000f0 28 16 be bc 86 81 59 3a 30 96 19 bb 58 61 b7 bc
       -0.023203924 0.00082971936 -0.0023435466 -0.022385284
000100 c7 4d b1 bb 62 98 2c bc 41 dc f4 b9 38 b6 41 3c
       -0.005410883 -0.010534378 -0.0004670341 0.0118232295
000110 d5 40 08 bd 1c 04 a1 bc 9d d0 09 3d 92 7d 15 3d
       -0.033264954 -0.01965528 0.033646215 0.036496706
000120 6e 1f d7 3b b8 ca 04 3d 56 29 41 b9 78 13 b4 3c
       0.006565026 0.03241989 -0.00018421313 0.02198194
000130 a3 f6 0b 3d 65 02 d5 bc fa ef 46 3d 79 0e 71 bc
       0.034170758 -0.026002118 0.048568703 -0.014712923
000140 54 83 ec 38 6b af cd 3a aa d8 f9 3c a3 43 f8 39
       0.00011277819 0.0015692537 0.030498821 0.0004735264
000150 7a 0c f0 3c 9d 81 a6 bc 14 18 65 3c a4 84 c9 bc
       0.029302824 -0.020325476 0.013982791 -0.02459938
000160 92 dd 21 3b d1 48 da 3b 0d da f6 3a f1 7f 09 3d
       0.0024698717 0.0066615124 0.0018833295 0.03356928
000170 4c cb 01 3d 66 aa a3 bb 91 96 be bc b9 84 b7 3c
       0.03168802 -0.0049946783 -0.023265155 0.022402154
000180 98 92 ac 3b ec 4e ac 3c f5 bc 53 3c ec 1e 30 bc
       0.005266499 0.021033727 0.012923469 -0.01074956
000190 44 8a 08 3d 71 d8 75 bc 74 1c 2c 3d 8f 87 6a 3c
       0.033334985 -0.015005217 0.042019323 0.014314546
0001a0 f8 43 84 bc 6b 1a 14 3d f7 f5 61 bb bc 52 b6 39
       -0.016145691 0.036158007 -0.0034478882 0.00034775387
0001b0 27 0c 6f 3c a1 cf da 3c 27 51 ab 3c 41 7b 4c 3c
       0.0145903 0.026710333 0.02091272 0.012480558
0001c0 31 4d 32 3c 3c 20 22 3c d2 7e 8b 3c c8 57 4c 3d
       0.010882662 0.009895381 0.017028246 0.049888402
0001d0 bc 0f 50 3d 13 34 2c bb da a9 0f 3c b7 9a 9b bc
       0.050796255 -0.0026276156 0.008768523 -0.018994672
0001e0 5e 42 5c bc af e8 0f bc d1 9e ca bc 3e 11 0e 3d
       -0.013443558 -0.008783503 -0.024733933 0.034684412
0001f0 5f e2 31 bc 32 b4 ec bc bb c7 88 3c 7a 6a e5 3c
       -0.010857194 -0.028894518 0.016696801 0.028004874

network_body._body_endoder.seq_layers.2.weight f4 [128, 128]
000000 34 79 9f ba a9 5b 6d be 5c 8f b4 3d cd d0 30 be
       -0.0012166859 -0.23179497 0.08816406 -0.17267151
000010 ce 43 c5 bd ec 62 97 bd fe ad e2 bd 8e 5b ae 3c
       -0.09632073 -0.07391915 -0.110683426 0.021283891
000020 26 22 82 3d 75 5c 09 bc a5 cf 72 bc a4 31 3b 3e
       0.063541695 -0.00838386 -0.014820014 0.18280655
000030 61 78 81 bd 35 9d a2 3b 98 a6 9f 3c b4 dc 47 3d
       -0.063217886 0.004962588 0.019488618 0.048794463
000040 96 a7 4b 3c ab 74 c2 bd 05 f9 42 3a ae 3b dd bc
       0.012430092 -0.09494909 0.00074376195 -0.027005997
000050 02 fb c7 bd f7 97 e6 bc bf 69 ad bd c0 ce 0c 3d
       -0.09764673 -0.028148634 -0.08467435 0.03437686
000060 1e a0 99 3d f1 20 e3 3d 81 51 58 3c 66 50 b7 bc
       0.07501243 0.110902674 0.013203026 -0.022377204
000070 6a ae ca bd 27 38 0e 3d 87 77 12 3e 76 f0 90 bd
       -0.09896548 0.03472152 0.14303409 -0.07077114
000080 bd 77 28 bd a1 02 2f 3c ad 9e 4d bd 69 23 75 bc
       -0.041129816 0.010681779 -0.050200153 -0.014962056
000090 c1 bc 14 3d d7 6a 1e be 11 7c 38 bc 13 ad d8 bd
       0.036312822 -0.15470444 -0.0112600485 -0.10579886
0000a0 47 28 af 3d a2 65 35 bd e8 c6 23 3d 90 44 da bd
       0.08552604 -0.044286378 0.039984614 -0.106576085
0000b0 07 4f 63 be f2 59 f4 bd 8a be b3 bd b8 bc 32 3e
       -0.22198115 -0.11931218 -0.08776577 0.17454803
0000c0 fb cc d6 bc b9 69 33 bd 7c 38 3f 3d 9e 39 7c bd
       -0.02622079 -0.043801997 0.046684727 -0.061578386
0000d0 21 05 02 3e f0 ee 99 bb fe c7 c3 3d dc a7 e0 bd
       0.12697269 -0.004697673 0.0955963 -0.10969517
0000e0 38 09 ea 3d 56 33 8e 3d ee a4 11 3e e9 75 c7 bc
       0.114275396 0.06943385 0.14223072 -0.024348216
0000f0 60 41 bd 3d e2 ec 09 3d f7 6d 3d 3d aa cf 07 be
       0.09240985 0.033673175 0.04624745 -0.13262811
000100 cb 1e 47 bd d9 fb bb bd 35 33 40 3d c1 a2 f3 3d
       -0.04861335 -0.091788955 0.046923835 0.11896277
000110 33 f9 94 3d e3 f0 e7 3d f1 20 28 3d 3b 8d 02 3e
       0.072740935 0.11325242 0.04104704 0.12749188
000120 83 be 81 bd fd 0d c6 bc 3e f0 4e be d5 51 cc bd
       -0.06335165 -0.024176592 -0.20208833 -0.09976546
000130 e4 62 bd 3c d5 d8 da bd 5d e7 84 3c d6 da 61 bd
       0.023118444 -0.10685889 0.016223604 -0.05514034
000140 30 a3 d2 3d a4 80 8b 3c 00 6c f8 bc 52 60 52 3d
       0.10285032 0.017029114 -0.030324936 0.05136139
000150 e1 0d 89 3c fc 1c 30 3c 50 4c 77 bd 5a d3 91 3d
       0.01673025 0.010749098 -0.06037551 0.0712039
000160 05 8a 52 bd f7 1a 1a 3d 81 d5 0c 3d aa 3a 51 bd
       -0.051401157 0.037623372 0.0343833 -0.051081337
000170 51 f5 2b bd 70 93 3d 3d 0d 58 9f 3d a5 54 79 3c
       -0.041982 0.046283185 0.07780466 0.015217935
000180 56 77 ff 38 25 33 4d 3d be c3 12 3c 21 9b 52 bd
       0.000121815756 0.050097603 0.008957801 -0.051417474
000190 1b e0 6b 3d 68 14 e6 3d 2e dd 3f bb d2 fa 06 3a
       0.05758677 0.11234361 -0.002927612 0.00051490695
0001a0 16 f0 e8 bb 90 eb 8a 3c 68 3b 61 3c 6d d2 f5 3d
       -0.0071086986 0.016958028 0.013747074 0.12003026
0001b0 7e f0 e4 bc 26 eb b5 3c 81 97 26 be 29 aa 77 bd
       -0.027946707 0.022206854 -0.16268732 -0.06046501
0001c0 04 f3 6a 3d ae 6f 95 3b 36 1c d5 bc 8f 51 68 bc
       0.057360664 0.0045604324 -0.026014429 -0.014179601
0001d0 18 71 cc ba b9 48 a7 3d 50 2e e9 bd ce 63 8d 3c
       -0.0015597669 0.081681676 -0.113857865 0.017259505
0001e0 6b 77 49 3d e3 ab 04 3e ff 95 30 3e 1b c4 be bd
       0.04918615 0.12956195 0.17244719 -0.09314748
0001f0 3b dc 3f bd 83 6a cc bd 87 81 8c bd f8 0a 03 be
       -0.046840888 -0.09981253 -0.06860643 -0.12797153
000200 bc f1 1a bb 7f 5a 26 be 04 95 49 bd 70 16 f0 bd
       -0.002364262 -0.16245459 -0.049214378 -0.117230296
000210 c2 41 0f 3e e2 d3 77 bb 6e f7 03 bd 82 5a 8d be
       0.13989928 -0.00378155 -0.03221839 -0.27608114
000220 d0 69 0b 3e 0c e1 8c bc b3 f6 83 bc 1a 78 bd bd
       0.13614583 -0.017197154 -0.016108846 -0.09251423
000230 5c 07 b0 3b b1 94 01 bd 19 a2 e0 3b ae 98 c5 bb
       0.005371971 -0.031635944 0.006855261 -0.0060301637
000240 2e a5 ca bd 7b aa 36 3b b8 9b 90 3c 87 d4 a3 3d
       -0.09894787 0.002787261 0.017652377 0.07999521
000250 c4 1c 7d bd 9e de 0f bd f5 39 81 bc 37 6a 44 3e
       -0.06179501 -0.035124414 -0.015774706 0.19181143
000260 00 a1 9b 3d e7 92 26 bc 13 de 0b bd 5a b1 19 bd
       0.07599068 -0.01016686 -0.034147333 -0.03752265
000270 7c 7d e5 bc 29 64 45 bd ad fa 57 bd 51 f0 1a 3e
       -0.028013937 -0.048191223 -0.052729297 0.15130736
000280 f2 f7 d0 3d bb b9 c5 bc 95 a7 e5 bc 25 64 6d 3c
       0.10203542 -0.024136415 -0.02803401 0.014489208
000290 17 ec 52 3d f0 24 81 3c 6e 43 02 be 52 3b b9 3d
       0.051494684 0.015764683 -0.12721035 0.090445176
0002a0 15 bb b5 bd fd a8 83 3d ca ac c3 bd e2 06 61 bc
       -0.08873574 0.06428716 -0.09554441 -0.013734551
0002b0 a0 3b de 3d 06 9e 04 be c1 af 56 bd 38 d0 e8 bd
       0.10851216 -0.12950906 -0.052413706 -0.113678396
0002c0 a5 87 9c bd f8 80 35 bc 35 e5 d9 3c 9d da df 3c
       -0.0764306 -0.011078112 0.026598552 0.027325923
0002d0 5f 2f 37 be 90 69 34 3e 90 96 bc 3d 01 47 3b 3e
       -0.17889164 0.17618394 0.09208405 0.18288805
0002e0 9f 1d 8c 3d 4a 49 d5 bd 8f 3f 07 3e 48 62 24 3e
       0.06841587 -0.104143694 0.1320784 0.16053116
0002f0 8f af 41 be b1 af 44 3d ba 30 f2 bc 01 a6 25 3d
       -0.18914627 0.048019115 -0.02956425 0.040441517
000300 05 48 69 3d e5 15 1d 3d 8b 97 30 3d 70 df a2 3b
       0.05695345 0.03835096 0.043113273 0.0049704835
000310 20 42 50 bd 92 88 d7 bd 1c 96 8e 3d e9 a9 5e be
       -0.05084431 -0.105240956 0.06962225 -0.21744503
000320 45 c9 98 bb b7 d4 fb ba c0 69 53 bc 4e 13 9f 3c
       -0.004662665 -0.0019213174 -0.012903631 0.019418385
000330 fb a7 70 3d 08 27 7d 3d 22 19 23 be 92 21 87 3c
       0.05875395 0.0618048 -0.15927556 0.0164955
000340 59 b0 ad bd 1b fe 68 be 21 00 f9 bd d5 01 06 3e
       -0.08480901 -0.22753184 -0.12158228 0.13086636
000350 a1 c9 e5 bc 9f ad e7 bb dc 15 ad 3d d5 45 e9 3d
       -0.028050246 -0.007070258 0.08451435 0.113902725
000360 e8 fe 70 bd f3 b7 a0 3d c5 90 76 bc 9a fd 73 bd
       -0.058836848 0.078475855 -0.015049164 -0.059568025
000370 6f 68 93 3d 81 06 8a 3d 54 df 63 3d 35 7d 3e bd
       0.071976535 0.06739522 0.055632904 -0.046506125
000380 e8 ef fe 3d e8 4a 83 3c 29 d3 1a 3c 22 d2 06 3d
       0.12448102 0.016026929 0.009449759 0.032915242
000390 00 d5 c8 bd 0d 19 97 3d b3 05 03 3e e8 fe 68 bc
       -0.098062515 0.07377825 0.12795143 -0.014220931
0003a0 c1 7e f2 bc cd 8f ed 3d 8a a3 b1 3d b2 f3 b0 bd
       -0.029601457 0.115996934 0.08673771 -0.08640231
0003b0 bc 5b 09 3e 17 a8 5b 3d a3 eb b3 3c b7 30 03 be
       0.134139 0.0536271 0.021962946 -0.12811552
0003c0 a1 a6 0a bd 92 46 6e bd 88 71 9a 3c 2b 51 1a bc
       -0.033850316 -0.05817277 0.018852964 -0.009418766
0003d0 14 af 5f 3c 0e e9 52 be 75 cc 7e bd 0d b9 cb 3d
       0.013652582 -0.20596716 -0.062206704 0.09947405
0003e0 4f 9e 9b 3c 5c 75 be 3d 57 e7 0b bd dd 45 0d 3d
       0.018996386 0.09299728 -0.03415617 0.034490455
0003f0 44 ba bd 3d a3 27 8b 3d 2e 0c ef bd 5a d3 eb 3d
       0.09264043 0.067946695 -0.11672245 0.115149215
