results/NewSnakeAgent3/SnakeAgent/SnakeAgent-1999998.onnx (onnx, 103045 bytes, 6 tensors)

action_model._discrete_distribution.branches.0.bias f4 [3]
00000000: 054d d1bc da13 183c 2236 533c
-0.025549421 0.009282077 0.012891324

action_model._discrete_distribution.branches.0.weight f4 [3, 128]
00000000: cefd bb3c de20 adbc 94dc ea3c 5299 313b
00000010: 48b0 443c 4625 96bc e900 fbba d0ef d738
00000020: 3790 843b cba2 7bbc ac82 88bc ab0f 213d
00000030: 20b2 9e3c f2b8 17bd ea21 5abb 1269 133b
00000040: ce69 413d 43c7 7c3a 0bbc 103b 1644 2a3c
00000050: c967 04bc c338 b4bc ab47 e8bb d3a4 ae3c
00000060: 70bf 0bbc 8dae 2dba afb5 bb3c 44ac e23b
00000070: ae8f 10bc 58a7 5aba 1791 e8bc d902 f1bb
00000080: fd4f 183d ccf2 9b3b 2907 dfbc 3827 173c
00000090: 7d1f c1bb 14fb c83b a104 0dbc 7055 533c
000000a0: 4c55 be3c 75b1 21bb 900c 11bb b7e4 193c
000000b0: 9402 32bc 1d2e 40bc 4f3f 07bc 107e d73c
000000c0: a533 b93c 7b64 51bc 7339 5b3c cfa0 babc
000000d0: fc91 e7bc e606 d6bb 4ff8 653b 7793 4e3b
000000e0: 5e0b 19bc b9a6 803b 2ab7 a4bc 8d6e 4a3c
000000f0: f0fa 1a3c b1f0 bc3c aac5 9ab8 5453 a73b
00000100: 4855 78bb 00ee 633c e8bc 64bc fb24 8a3c
00000110: 76a6 ed39 2989 2c3b 102b 8fbd 569a 8b3a
00000120: 7827 8a3b 1506 dfbc 242a 87bc 9242 e039
00000130: 1892 63bb 442a 11bc 396c af3c e1f7 e1ba
00000140: 271b 153b 87eb c0bb 32d0 b8bc 3015 ac39
00000150: 98c6 59bc 0fc9 153c 74c7 81bb 6d18 683c
00000160: e8a5 bb3b cde7 11ba dc96 bdbc 2123 ac3c
00000170: 619b 8a3c 031f 0a3c 6c2a 4a3c f782 27bd
00000180: 09d7 383c 3d40 d7bc a86c 96bc c4de a53c
00000190: 5e6e 4cbc 3cda 233b 5b9a cfbc 19f2 2bbc
000001a0: 4191 223c 4124 a0bc d0df 43ba 9093 40bb
000001b0: 0044 a73c aa89 6bbc bc7f 313b 5b6d e53c
000001c0: 8fb9 fbb9 4968 423c 438a f7ba ca20 f9b9
000001d0: 420e bfbc d9c9 a5bb 0d48 72bc 7d4e 153b
000001e0: 32cd e33c 38b3 8e3a 4dfa 2a3c 466b 9ebc
000001f0: 008d 163c f3ce c03b eb77 a1bc 9f75 35bd
00000200: 9e5d 45bc 96c3 eabb ddc3 6f3d 5266 59bc
00000210: bb29 633b 8f77 bc3c 85ac 9d3c 2995 a03c
00000220: 2673 243d 9a5f b2bc 446d a4bd de35 3e3b
00000230: 2ac7 8cbc 94d6 12bd 5a40 c3bc c3ac 5e3c
00000240: c31c cabc 4fb7 59bb cbfe e1bc 8107 8bbb
00000250: 341a f7ba 4344 a9bc 1cb4 a33b 5693 35ba
00000260: 07bf bfbc 616c c13c 87b9 fdbc ca73 483d
00000270: b649 573b 881b 8a3c aa9e 3ebd 8fff e0bc
00000280: e166 923c ae6f b2bc 9768 24bc 303d 023c
00000290: 0920 7fbb 45bb 7c3d aaad 14bd e1a4 893d
000002a0: 1b5f a5bd e9aa 03bd 56a7 06bd cb58 c4bc
000002b0: aafa c7bc ab3c 34bc 84f6 e23b f14e 913d
000002c0: 2e42 2abd e807 c5bc 123e 1c3b 1395 1ebc
000002d0: 0c46 c0bd 16a4 57bb 0b9e a6bc 7f23 cd3c
000002e0: 3536 9b3c fee7 a03d 0f12 443c 7bb0 33bc
000002f0: 0c52 abbc 9307 acbd eebe 953c 48a5 e53a
00000300: 5077 df3c dbff 10bd 0893 d6bc 30f1 9a3c
00000310: 08dc 85bb 3fe4 94bc 812a c8bd 8734 fb3c
00000320: b51b d8bb e27f a0bd 0fb0 9c3c c50b f73c
00000330: fbcf 4a3d fb4b b73b c4a3 dc3d ff3d 84bc
00000340: ddff b63c 201f b13c fa99 99bd 38ac 823a
00000350: e4c2 4dbc e944 1c37 43ba 80bd 10b0 323a
00000360: 27c6 92bb 386b 41bd 5819 0f3c 32fe 463d
00000370: 2834 903d 4e3b 0dbc 3859 ee3b 34ef febc
00000380: bb91 ec3b 2036 55bd 009b 49bc 2abe 4d3c
00000390: 8184 0c3d 71db 403b 9fdf 8bbd b6ca 3dbd
000003a0: 24e2 95ba e4c6 103d 6e18 f33c 2415 c8bc
000003b0: 4e56 40bd 5f48 44bc 2b34 99bd 915a 763d
000003c0: a739 0b3d c7ba 383c 6b30 23bc 926b 9f3d
000003d0: 097c 90bd db3a e93c 75bd 51bd 739a 20bd
000003e0: f024 a4bb 8fb1 3fbc 94f4 b8bc 7fc6 bcbd
000003f0: 6838 f4bc 685d c9ba c946 6abc 1248 e83c
0.022948172 -0.021133836 0.028669633 0.0027099443 0.012004919 -0.01832832 -0.0019150052 0.000102966675
0.004045512 -0.015358637 -0.016663872 0.039321583 0.019372046 -0.037041612 -0.0033284375 0.0022493047
0.047220044 0.00096427294 0.0022084739 0.0103922095 -0.008081385 -0.021999722 -0.0070886216 0.021318829
-0.008529529 -0.00066254364 0.022913782 0.0069175083 -0.008823318 -0.0008340976 -0.028389497 -0.007355076
0.037185658 0.0047591683 -0.027225094 0.009225659 -0.0058936463 0.0061334465 -0.008607061 0.012898788
0.023234032 -0.0024672423 -0.0022132732 0.009392909 -0.0108648725 -0.011729744 -0.00825484 0.026305228
0.022607634 -0.012780304 0.013380396 -0.022781758 -0.028267853 -0.006531584 0.003509063 0.0031521001
-0.009341089 0.003926125 -0.02010687 0.012355459 0.009459242 0.02306399 -7.38011e-05 0.005106369
-0.0037892628 0.013911724 -0.013961054 0.016863337 0.00045328186 0.002632687 -0.069906354 0.0010650854
0.004216131 -0.02722458 -0.016499586 0.00042774208 -0.003472453 -0.008860175 0.02141391 -0.0017240011
0.002275178 -0.005887452 -0.022560213 0.00032822182 -0.013291977 0.009142174 -0.0039605442 0.01416598
0.0057265647 -0.0005565852 -0.023143224 0.021012845 0.016919794 0.008430245 0.012339216 -0.040896382
0.011281737 -0.026275748 -0.018362358 0.020247824 -0.012477485 0.0025001904 -0.025342157 -0.010494732
0.009922327 -0.019548537 -0.00074720103 -0.002938483 0.020418167 -0.014376083 0.0027084192 0.028006246
-0.00048012703 0.011865684 -0.001888581 -0.0004751741 -0.023322228 -0.0050594625 -0.014787686 0.0022782378
0.027807806 0.0010887152 0.010435653 -0.019338261 0.00918889 0.0058840453 -0.019710502 -0.044301625
-0.012046246 -0.007164429 0.0585364 -0.013269024 0.0034662324 0.023006229 0.019247303 0.019602375
0.040148877 -0.021774102 -0.08028653 0.0029023807 -0.017184813 -0.03584917 -0.023834396 0.013590994
-0.024671918 -0.0033220833 -0.027587315 -0.004242838 -0.0018852414 -0.020662433 0.004995836 -0.0006926557
-0.023406519 0.02361125 -0.030972255 0.04893855 0.0032850332 0.016858831 -0.046538033 -0.02746561
0.017871322 -0.021781769 -0.010034702 0.007949159 -0.0038929007 0.06170203 -0.03629843 0.06720901
-0.080747806 -0.032145415 -0.032874428 -0.023968121 -0.024411518 -0.0110007925 0.0069263596 0.07095135
-0.04156702 -0.024051622 0.0023840708 -0.009679097 -0.093883604 -0.00329042 -0.020339033 0.02504134
0.018946746 0.07856749 0.011967196 -0.010967369 -0.020913146 -0.08399882 0.018279519 0.0017520571
0.027278572 -0.035400253 -0.026193157 0.018913835 -0.0040850677 -0.018175242 -0.09773732 0.030664695
-0.0065951 -0.07836892 0.01912692 0.03015698 0.049514752 0.0055937744 0.10773423 -0.016142843
0.022338802 0.021621287 -0.07500072 0.0009969538 -0.012558673 9.314369e-06 -0.062855266 0.00068163965
-0.004479188 -0.047221392 0.00873407 0.048582263 0.07041198 -0.008620096 0.0072738193 -0.03111992
0.007219521 -0.05205357 -0.012305021 0.012557546 0.034306053 0.0029427672 -0.06829762 -0.0463359
-0.0011435193 0.035345927 0.029674735 -0.024424143 -0.046957307 -0.011980145 -0.074806534 0.060144965
0.03399053 0.011275 -0.009960274 0.07784189 -0.07054908 0.028470447 -0.05120607 -0.039209794
-0.005009286 -0.011700048 -0.022577561 -0.092175476 -0.029812053 -0.001536292 -0.014299103 0.028354678

network_body._body_endoder.seq_layers.0.bias f4 [128]
00000000: 500e 2a3d d24e 5a3c 4e64 c4bc f8bc d4bc
00000010: 0d09 8c3c 30a7 23ba 6108 b63c a587 c53c
00000020: fa7b 40bc 7257 5b3d f039 8e3d 5957 5d3d
00000030: afcd 093d 7e19 c4bb 361f 703b 9b97 7e3c
00000040: 762d 0b3c 7585 65bc 32f0 feba 9449 f43c
00000050: 9c4c 853d 3949 abbb 5cae 60bc cb4f 1b3c
00000060: a371 743d 26ff eb3c 8d28 9a3c fdb6 81bc
00000070: eb2d 7e3c 74ea a33c 5904 6e3c 1b41 323d
00000080: 5204 cb3c 13e1 12bd e6ee 413c f9b3 f33c
00000090: 72e1 7c3d 8c20 9b3b 2661 153d bed2 06bc
000000a0: 98c5 54bc bf56 dc3b 8e8b 183d 9fbb 763d
000000b0: 4bd6 b53a 240a a6b9 a9a0 153c 552c dd3c
000000c0: 1ba3 7b3d 6e44 26bd 9fcc c5bb 39a0 8aba
000000d0: dab9 883c 51c4 563c 885b 5f3c 1fdf 9cbc
000000e0: 9778 c53c 5d3e 0a3a 6380 be3c da58 0b3a
000000f0: 8abd 68bc 65fc 72bd 0156 cebc 1f62 9a3c
00000100: 3f6f 97bc f682 47bb 9319 0d3d 6473 e93b
00000110: 809d 5a3d c7ef 793b 204b 173d a531 c03b
00000120: ef11 bbbb ed2c 873c a87c 7a3c 0b0e 4f3b
00000130: fd1c 853d b66a 873d 3f89 1fbd 0902 963c
00000140: c0b9 e8bc 0ecd ec3c 0464 93bb 7db5 153d
00000150: 462b b9bb 25fd 343c c194 d939 7e49 883d
00000160: a8bb 36bc b1c4 04bc fa3f aa3c e0d3 98ba
00000170: d183 233c 80d5 c1bc b100 97bb 9007 763c
00000180: c21c d2bc 9d90 073d 135b f43c a15a 39bc
00000190: 0561 c7bb 8b4d de3c b0fa 923c d761 933c
000001a0: 0d44 ce3c f92b 1b3c fa32 2b3c 585c 943c
000001b0: 6075 8739 e802 023d 10d7 ba3b 2271 283d
000001c0: efe6 2e3c 599f 3f3d c808 363d 4567 7d3d
000001d0: 934b 6a3d 3f05 813c 6787 acbc d882 853c
000001e0: 9c89 d8bc 3807 85bb 262b 28bc 4f63 b73c
000001f0: 4855 20ba 75cd 053d 33db a03d 2528 b83b
0.041517556 0.013324456 -0.02397361 -0.025969014 0.01709416 -0.00062428694 0.022220792 0.024112532
-0.011748308 0.05355019 0.069446445 0.05403838 0.03364342 -0.005984484 0.0036639697 0.015539075
0.008494725 -0.014008869 -0.0019450246 0.029820241 0.06508753 -0.0052272347 -0.0137134455 0.009479473
0.059678685 0.028808188 0.018818164 -0.015834326 0.015513877 0.020009257 0.014527404 0.04351912
0.024782334 -0.03585918 0.011836743 0.029748904 0.06173844 0.0047341045 0.0364696 -0.008228956
-0.012986563 0.006724208 0.037242465 0.060237523 0.0013873068 -0.00031669543 0.009132543 0.026998678
0.061434846 -0.040592603 -0.0060363556 -0.0010576315 0.016690183 0.013108329 0.013632663 -0.019149361
0.024105353 0.0005273575 0.023254579 0.0005315669 -0.014205346 -0.059322733 -0.025187494 0.018845616
-0.018485663 -0.003044305 0.034448218 0.0071243513 0.05337286 0.0038137303 0.03693688 0.005865293
-0.005708925 0.016500914 0.015288509 0.0031594064 0.0649967 0.0661215 -0.038949247 0.018311517
-0.028408885 0.028906371 -0.004498007 0.036550034 -0.0056509105 0.0110466825 0.00041500296 0.066546425
-0.011153139 -0.0081035355 0.02078246 -0.0011659823 0.009980158 -0.023661375 -0.0046082367 0.0150164515
-0.025648478 0.0330969 0.029828584 -0.0113131115 -0.0060845637 0.027136585 0.017941803 0.01799099
0.025178934 0.009470933 0.0104491655 0.01811044 0.00025836658 0.031741053 0.005701907 0.041123517
0.010675176 0.046782825 0.04444197 0.061866064 0.05720098 0.015749572 -0.021060659 0.016297743
-0.026432805 -0.0040596984 -0.010264194 0.022386221 -0.00061162235 0.032666642 0.07854309 0.00562002

network_body._body_endoder.seq_layers.0.weight f4 [128, 64]
00000000: 6215 b5bd ba53 21be fc53 20bd 4a0b d8bd
00000010: 9585 c33d 2b39 2d3e 84da 8ebe ef1c a53d
00000020: cdc3 b43d 3a4f 423c cf26 143d 6fc4 6bbd
00000030: f206 f6bb 956b f2bb 3b23 703e 7bd0 bfbc
00000040: 2185 5d3c 2487 363c 41bb 913b 3db8 5b3e
00000050: 9430 93bc 55bc ea3d 80c1 093d e05e 74bd
00000060: 94c7 6cbd 8f85 d3bc df7f 51bc 8941 963d
00000070: fb9d 9abe f223 06be fd3b 56be 803e e53e
00000080: 85d2 08be b077 cf3d 8297 d2bd bfee a9bd
00000090: 7b0c 83be b4fe cabd 580e 823e acd6 76bc
000000a0: 909a 563e af59 0a3b 3474 00be a174 983d
000000b0: e271 253d 9237 ac3d e202 2a3d 6beb 04bc
000000c0: 8a74 cfbd 70ec 46bd 0eb8 a73d feb3 67be
000000d0: 9598 87bd b1b4 d9bd fcbc 6e3e 1909 2dbe
000000e0: 22aa 5ebd 7701 99be d4da e3bc d44b 003d
000000f0: f94c 6c3d de26 ab39 943b 163d 3629 c6bc
00000100: 02c7 20bc 1d33 0abe dd78 28bd 3b72 1a3e
00000110: 8f2f 2abd fc57 ba3d fd21 94be f9ee 083e
00000120: 400a 433d 8bc3 d3bc bf21 d1bd 24d1 183e
00000130: 0749 86bd 3f1e 923d 8c0c 41be f735 4e3d
00000140: 103d a0bd c5cb 1d3e be8c 46bb def0 d13b
00000150: ad91 5c3d 07c5 113e 0053 a7be df49 6dbd
00000160: 0836 923d 0543 2f3d e983 08bb fe79 7abd
00000170: b0bb 9dbd 2e4f 70bc 8ec3 b0bd 90a0 563e
00000180: e429 28be f6ac 403d 5bbe 743d 4976 0a3d
00000190: be59 83be 80f3 8fbd 48ec 2f3d eb08 b2bd
000001a0: 2845 de3d b82f 6f3e 66a1 62bd 8d13 dcbd
000001b0: b42b c2bd 2aa7 34be 8f01 96be a147 203e
000001c0: 54d6 973d 11fd 0c3e 02aa 4c3e 9351 123d
000001d0: 8ece d0bd 0401 6ebe aa92 1fbd 61d5 0fbe
000001e0: 16e1 7e3e ee58 07ba ebe5 3d3e e5bc d6bd
000001f0: 1b03 7e3d 618f 313e 747f 13be 8833 49be
00000200: 6996 a3bd ad98 4cbe 5c10 7ebe 332e 3d3c
00000210: bf7d 0abe b2aa 1fbd 8bed 1d3d b4b4 45bd
00000220: 999d 593e 6525 2b3d dd35 04be 9bc3 fa3d
00000230: f209 45bd 720e 95bc a6d7 28bd 8ae9 2abe
00000240: 4ecb c63c d4e6 e43d 543f a83e 3392 3f3d
00000250: d03e e3bd 04b4 e6bd 2497 0fbd ba87 2c3e
00000260: f0e3 063e 68c0 a7bb 348d 14be a671 69bd
00000270: ecf4 873e 4863 11be 69de d7bb 4205 9e3e
00000280: ba03 3bbe 5fe7 833e c400 b7bd a86e 1bbe
00000290: 14e2 143e c3fe 303e 461d 283e 5c62 573e
000002a0: d9a6 d2bd 8493 a8bd 4122 923d d68a c1bc
000002b0: f529 013d ef2f 4b3e 485b 3c3e 81cb 7ebe
000002c0: dc91 ec3d d846 2ebd 4396 38bd 6e86 bbbd
000002d0: 3c95 323d 2170 1dbd 0876 8bbc 814a abbd
000002e0: f2b2 3ebe 30d5 2d3e e019 debd 249d 49be
000002f0: 4b9b b83d 5fde 143e b478 833d f75f 2cbe
00000300: a82e 42be 3e3a 823e 1824 31be 9236 323d
00000310: 1894 cf3d 0e7e 87be 8f98 4c3e 1164 313d
00000320: 9ece 7d3d 4b50 223d acf4 4cbe ff35 b6bd
00000330: 841d a43d 3785 663e 8e3a 7bbc dd84 1cbe
00000340: ce58 5b3d 6f42 33bd 6119 fa3d d257 93bd
00000350: 8f9d af3d 9dfe 3e3e c187 fc3c 646a 4f3d
00000360: 8ab4 9fbd f23f 1bbe 86a2 eebd 7455 82bb
00000370: 4a8a 86bd 96a6 d83d 24bc f93c 2bd5 0dbd
00000380: 313b 9c3d f125 8c3e 19eb 8fbe 67ac 923c
00000390: 6fdf 6ebd 891f f1bd 5894 9abd 6e15 323e
000003a0: 7fff 16be c610 19be 4db9 163e f7e6 a4be
000003b0: 7f5f a6bd fe20 3abc 646a 0e3e 53b9 3bbe
000003c0: d5b2 b3bd a861 573e 8890 85be a5fd 6abd
000003d0: 0c85 8d3d 135d eabc 8a00 89bc f4c4 59be
000003e0: bb97 22bd 2775 06be 57f3 c23d 7af1 2c3d
000003f0: 6548 e93d 227c 87be 0ad4 903d 66c3 c93d
-0.08841969 -0.15754595 -0.039142594 -0.10549028 0.09546963 0.16916339 -0.2790109 0.08062159
0.088264085 0.011859709 0.036169823 -0.05756038 -0.007508152 -0.0073980787 0.2345094 -0.02341484
0.01352051 0.0111406185 0.0044473712 0.21457 -0.0179675 0.11461703 0.0336318 -0.059660792
-0.05780752 -0.025820522 -0.0127868345 0.073367186 -0.30198655 -0.1309965 -0.20921321 0.44774246
-0.13361557 0.101302505 -0.10282804 -0.0829749 -0.2559546 -0.09911862 0.25401568 -0.01506583
0.20957398 0.0021110584 -0.12544328 0.0744412 0.04039181 0.08409037 0.041506656 -0.008112769
-0.1012965 -0.048565328 0.081894025 -0.22627255 -0.066208996 -0.10630167 0.2331428 -0.16898002
-0.05436147 -0.2988393 -0.027814306 0.031322315 0.057690594 0.0003264462 0.036677912 -0.024189573
-0.009813072 -0.1349606 -0.04113089 0.15082638 -0.04154926 0.09098813 -0.2893218 0.13372411
0.047617197 -0.025850078 -0.10211515 0.14923531 -0.065568976 0.07134675 -0.18852443 0.050344434
-0.07824147 0.15409763 -0.0030296291 0.0064068874 0.053849865 0.14235316 -0.3268051 -0.057931777
0.07139212 0.042788524 -0.0020830578 -0.061151497 -0.07701814 -0.014667315 -0.08631049 0.20959687
-0.1642223 0.04703995 0.05975185 0.03380421 -0.25654405 -0.07028866 0.042949945 -0.08693107
0.10853034 0.23358047 -0.055329703 -0.107459165 -0.09480992 -0.17641893 -0.29298064 0.15652324
0.07413927 0.13768412 0.19986728 0.035722326 -0.10195647 -0.23242575 -0.03895823 -0.14046241
0.24890551 -0.0005163093 0.18544738 -0.104852475 0.06201468 0.17339851 -0.14404088 -0.19648564
-0.07987673 -0.19980116 -0.24810928 0.011546659 -0.13524531 -0.038981147 0.038556617 -0.048268035
0.21251525 0.04178371 -0.12911172 0.1224434 -0.048105188 -0.018195365 -0.041221283 -0.1669065
0.024266865 0.111768395 0.32860816 0.046770286 -0.11095965 -0.11264804 -0.03505625 0.1684865
0.13172889 -0.005119372 -0.1450699 -0.05699315 0.26554048 -0.14198029 -0.0065877927 0.30863386
-0.1826314 0.2576246 -0.08935693 -0.15178931 0.14539367 0.17284684 0.16417417 0.21033615
-0.1028573 -0.082312614 0.0713544 -0.023625772 0.031534154 0.19842504 0.18394196 -0.24882318
0.11551258 -0.04254803 -0.045065176 -0.091565 0.043599352 -0.038437013 -0.017024055 -0.0836382
-0.1862295 0.16975856 -0.10844779 -0.1968885 0.09013995 0.14537953 0.06419507 -0.16833483
-0.1896311 0.2543506 -0.17298925 0.043509074 0.101356685 -0.2646336 0.19980071 0.04330832
0.061964624 0.039627355 -0.2001521 -0.08897018 0.08013442 0.22511755 -0.015333785 -0.15285058
0.053551488 -0.043764528 0.12211872 -0.07194485 0.08574974 0.18651815 0.030826451 0.05063857
-0.07798107 -0.15161112 -0.11652093 -0.003977472 -0.06569345 0.10578649 0.03048522 -0.03462712
0.07628477 0.27372697 -0.28109053 0.017904473 -0.05831855 -0.11773593 -0.075478256 0.17390987
-0.14745902 -0.14947805 0.14719124 -0.32207462 -0.08123683 -0.011360405 0.13907772 -0.18332414
-0.08774344 0.21033347 -0.2608683 -0.0573708 0.06910142 -0.028608834 -0.01672389 -0.21266538
-0.039695483 -0.13130628 0.0951907 0.042222477 0.11390761 -0.26461893 0.07071693 0.098517224

network_body._body_endoder.seq_layers.2.bias f4 [128]
00000000: 9bbc e0b9 193e 9c3c 5bbe c53c 9fa4 31bc
00000010: 19b7 c4bb eff3 c93c eee5 003b fa40 313d
00000020: e869 9a3c 8565 283c fbed 3b3c 4f25 613c
00000030: 9a52 e0bc acea e63c dc0b 443b 4793 97bb
00000040: 1ae8 8c3b 54c7 cfbc 9cd8 d4bc ea3c a7bc
00000050: b471 bf3a 82a6 113d 2da3 8a3c a408 4cbb
00000060: 8036 133c c92e fe3b 6ddb 43bb c29b 5d3d
00000070: ead7 943c 9f25 293c 8800 e33c 1071 2d3c
00000080: 40c7 65bc 5f31 473c a955 ed3c 8a30 b7bc
00000090: 90ef 163c e914 0b3d a237 6b3c 19a0 223d
000000a0: 85fc 6b3c 44f9 66bb 36b5 ba3c 5639 01bc
000000b0: 9243 00bc 895d 113c 98bc e2bb c522 f43c
000000c0: 549b e43b c9bd c73c 570e 9bbc b07e c23c
000000d0: 4fce f83c 5b2e c6bc 7258 d73b 925e 1a3c
000000e0: 15e4 863c 1aad 1b3d 806c d93c 1c01 b4bc
000000f0: 008f c9bc d332 fa3a e91a e8ba d535 c1bc
00000100: 2251 9bbb 5eed 3abc f08e eaba 66c5 4b3c
00000110: da11 09bd 2c3f a8bc 981c 0b3d 4e32 163d
00000120: 202f c83b 9490 033d 91af 273b a4b1 b43c
00000130: 54b8 0c3d 2706 c5bc cba7 493d f08e 72bc
00000140: c773 f038 f00e 753b 880a f33c 47ae 4738
00000150: 8687 ed3c 83b8 b2bc 1cf4 613c e649 c3bc
00000160: 65c4 a03a 0455 c73b c5be 073b 54e9 0b3d
00000170: ce8f 033d 5be0 e8bb ec51 bfbc 407b b73c
00000180: 7f03 833b 9070 ab3c db17 4a3c c3ac 40bc
00000190: 777f 093d ce87 86bc a59e 2b3d 7abb 833c
000001a0: 9b95 8fbc d2dc 173d 279c 80bb 10a3 b438
000001b0: 2d47 6b3c 5d86 db3c bdb2 a53c e384 543c
000001c0: f2e5 323c 06f7 2c3c 4986 893c fdec 4f3d
000001d0: 734b 4c3d 5c34 52bb a6d8 f83b 05f5 92bc
000001e0: 8e81 43bc 000b 04bc 3461 d0bc 9cae 0c3d
000001f0: f5de 45bc e702 f5bc da56 853c 1f93 d63c
-0.0004286513 0.01907258 0.02413862 -0.010842471 -0.0060032723 0.02465245 0.0019668299 0.043274857
0.018849328 0.01027811 0.011470313 0.013741805 -0.027383137 0.028188072 0.0029914295 -0.004625711
0.0043001296 -0.025363602 -0.025982194 -0.020414788 0.001460603 0.035559185 0.016923511 -0.003113308
0.008985162 0.007757042 -0.0029885427 0.05410362 0.018169362 0.010323911 0.027710214 0.010586038
-0.014024556 0.012157767 0.02897151 -0.022362012 0.00921239 0.03395549 0.014356526 0.039703462
0.014403467 -0.0035243789 0.022791486 -0.007887205 -0.00782861 0.008872398 -0.006919455 0.029801736
0.0069765244 0.024382489 -0.018927736 0.02374205 0.030371813 -0.024192026 0.006571823 0.009421961
0.01646618 0.03800688 0.026540995 -0.021973185 -0.02460432 0.0019088633 -0.0017708215 -0.02358524
-0.0047398964 -0.011409132 -0.0017895382 0.0124372 -0.03346429 -0.020537935 0.033962816 0.036669068
0.0061091334 0.032120302 0.0025586823 0.022057362 0.034355476 -0.024050785 0.049232285 -0.014804587
0.00011465657 0.0037392937 0.029668108 4.7607606e-05 0.028995287 -0.021816498 0.01379111 -0.023838948
0.0012265561 0.0060831327 0.0020713073 0.034158066 0.032119565 -0.0071068234 -0.023354493 0.022397637
0.0039982195 0.020927697 0.012334789 -0.01175994 0.033568826 -0.016422179 0.041899342 0.016080607
-0.017527392 0.037075825 -0.003924865 8.6134416e-05 0.014360231 0.026797468 0.02022683 0.012971136
0.010919081 0.010556942 0.016787665 0.05076312 0.04987664 -0.0032074666 0.007594186 -0.0179391
-0.011932744 -0.008059263 -0.025436975 0.034346208 -0.012077083 -0.02990861 0.016276766 0.0261932

network_body._body_endoder.seq_layers.2.weight f4 [128, 128]
00000000: 4c14 a1ba 9d1a 69be 279d ae3d f2a3 31be
00000010: 6aed c6bd 15cd 8bbd bc66 e4bd 8e7f ba3c
00000020: c60b 873d 673f abbb 4d2d 64bc b324 3f3e
00000030: 188f 80bd 7e5e b53b 7b7b a33c b6c3 4a3d
00000040: 8ae0 683c ea18 bebd ac73 ee39 b0c8 d1bc
00000050: 31be c6bd aff5 c6bc 0304 a9bd 6c7f 083d
00000060: e5c8 a03d e3b5 e93d 496f 4c3c 51a4 c3bc
00000070: dd3c cbbd 8ffa 053d d7df 123e 9b61 8ebd
00000080: bad2 2cbd 5c0e 513c eb3d 47bd de70 65bc
00000090: 32c3 173d b494 1dbe e32b 48bc 0a11 d2bd
000000a0: 3453 b03d c0c9 33bd c0f7 233d 192c dcbd
000000b0: 8055 62be c71f f2bd 35e4 b3bd a3d1 323e
000000c0: 9b67 f8bc 7a35 2dbd 4e0a 393d 710f 77bd
000000d0: aeaa 023e 2024 81ba 05f7 c63d a992 d5bd
000000e0: 250b f03d 6ffe 8d3d f81b 123e 85dc d1bc
000000f0: 0f3c be3d c47b 133d ce36 4d3d d223 09be
00000100: 0814 47bd 2330 bebd f4a9 4e3d 2092 f13d
00000110: 6027 953d 77bd ed3d 4b26 263d 147f 023e
00000120: b46b 87bd bc33 c3bc 5bdf 50be a770 cabd
00000130: c954 b53c d189 dfbd e359 913c 96f7 58bd
00000140: 1c48 d73d e79b 963c 5deb cebc 7dc5 5a3d
00000150: c633 8d3c ad47 473c 1b91 77bd 68cb 963d
00000160: edcd 49bd 2133 183d 4bcc 0f3d d057 4fbd
00000170: e736 2cbd e850 3f3d 8154 9d3d 9620 613c
00000180: 14ef dbba 29c2 4b3d dd1c 353c 8605 4ebd
00000190: eec2 6c3d 79c0 e63d f309 8fbb d23b 0f3b
000001a0: 9c15 05bc b742 863c 5739 783c 8dcc f83d
000001b0: 90a8 e0bc edea ba3c 1b89 27be 06e5 77bd
000001c0: 0323 763d d3ed d33b 9cc4 bebc 205a 3cbc
000001d0: b3fb 3dba 7248 a63d ea29 e2bd d0f6 a03c
000001e0: 423b 4d3d 827b 0a3e 31fc 2f3e 2ce3 c0bd
000001f0: bd1a 3bbd e170 ccbd eb62 8cbd a85d 03be
00000200: 3d3b f4ba d30c 25be 5991 48bd 27fe e9bd
00000210: 0574 123e d929 2ebb 976f 0cbd 3ca1 8dbe
00000220: 3ad8 0a3e 1cab a1bc 16ae 99bc 32ea c3bd
00000230: 6885 223b ef93 05bd f575 1d3c c597 c5bb
00000240: 7602 bdbd b082 623b 6291 a13c d53e 9f3d
00000250: 3a23 78bd 51f0 0fbd 0454 64bc 12fa 413e
00000260: ff5a 9c3d a77a 31bc 1c98 11bd f05d 1dbd
00000270: 735d ecbc 8eb7 4fbd feb7 62bd 2e47 193e
00000280: 854a cf3d e791 b9bc d03a ecbc ff56 473c
00000290: a241 4f3d b7ce 7d3c 8268 fdbd e5cd b73d
000002a0: 5414 b8bd fe5d 8a3d 7c6e c5bd a621 6ebc
000002b0: 3395 df3d b90c 05be ce05 47bd d485 e4bd
000002c0: 2a9a 9ebd 8998 43bc e358 d23c 89ea ef3c
000002d0: ee6c 39be e1e1 313e 5aa7 bb3d 7c48 3d3e
000002e0: 0a85 8c3d 7119 d1bd f1dc 063e 9f66 283e
000002f0: cbeb 40be 3392 503d 1934 f1bc 0230 203d
00000300: 934c 5c3d 2eb6 153d 54ea 353d 8cb7 093c
00000310: be84 56bd ceb0 d9bd 7a2c 8e3d 2a73 5cbe
00000320: 8750 c3bb e009 4cbb f7fd 7fbc aa59 ac3c
00000330: 5309 7a3d 08db 753d ac90 23be c161 833c
00000340: ef42 b1bd f464 69be 01df fabd 880c 043e
00000350: add0 d1bc 8262 13bc 48cf ac3d 49a9 f53d
00000360: bc7b 67bd fd0f a33d 82c8 5abc 5225 72bd
00000370: 1714 8f3d 08d7 893d 1914 623d efba 49bd
00000380: 6e36 fc3d 1817 9d3c 2af6 053c 012a 053d
00000390: 03ee c9bd a144 953d 2666 023e 7d6f 77bc
000003a0: 3708 e3bc 23f9 e63d d509 ad3d ee7d b4bd
000003b0: 7335 0a3e 8200 6c3d 5ad9 9b3c f05b 04be
000003c0: b232 12bd 4ad5 7cbd 366d 943c c243 08bc
000003d0: d9b0 8f3c 7d23 55be 9b2b 7abd ef7e ce3d
000003e0: 3ea2 943c 75aa c63d 8297 02bd ac72 153d
000003f0: 6ba5 c43d c7e7 883d 1f62 efbd 77c2 e93d
-0.0012289374 -0.22764058 0.08526068 -0.17347696 -0.09713252 -0.06826226 -0.111524075 0.022765901
0.065940425 -0.005226064 -0.013926816 0.18666343 -0.06277293 0.005534946 0.019956341 0.04950305
0.0142136905 -0.09282096 0.0004548108 -0.02560839 -0.09704245 -0.024287073 -0.08252718 0.033324644
0.078508176 0.11411645 0.012477704 -0.023882063 -0.09923718 0.032709654 0.143432 -0.069522105
-0.042193152 0.012759771 -0.048643034 -0.01400396 0.037051387 -0.15388757 -0.012217495 -0.10257156
0.0860962 -0.043893576 0.040031195 -0.107505985 -0.22102928 -0.11822467 -0.087837614 0.17462783
-0.03032284 -0.042287327 0.045175843 -0.06031746 0.12760422 -0.0009852685 0.09715084 -0.10428364
0.11720876 0.06933295 0.14268482 -0.025617847 0.09288799 0.036006704 0.050101094 -0.1339257
-0.048603088 -0.09286525 0.05045505 0.11795449 0.07282901 0.11608403 0.040563863 0.12743789
-0.066123396 -0.02382838 -0.20397703 -0.09884768 0.022135155 -0.10914958 0.017743057 -0.05297049
0.10511801 0.018384887 -0.025258714 0.053410996 0.017236602 0.012163085 -0.060441118 0.073630154
-0.04926865 0.037158135 0.03510694 -0.050620854 -0.042044546 0.046708018 0.076821335 0.013740679
-0.0016779625 0.049745712 0.011054245 -0.050298236 0.057803087 0.1126718 -0.0043651997 0.0021855724
-0.008122828 0.016389234 0.01515039 0.1214839 -0.027424127 0.0228171 -0.16360895 -0.06052115
0.060091984 0.00646756 -0.02328711 -0.011496097 -0.0007247284 0.081192866 -0.11043151 0.01964894
0.05010534 0.13523677 0.17186047 -0.094183296 -0.045679796 -0.099824674 -0.068548046 -0.12828696
-0.0018633377 -0.16118173 -0.04896674 -0.11425429 0.1430207 -0.0026575236 -0.034286108 -0.27662075
0.13559046 -0.019734912 -0.018759768 -0.095661536 0.0024798755 -0.032611784 0.009610643 -0.006030055
-0.09228985 0.003456276 0.019722644 0.07775656 -0.06058047 -0.035141293 -0.0139360465 0.1894305
0.07634544 -0.010832465 -0.035545453 -0.038419664 -0.028853154 -0.05071216 -0.05535125 0.14968559
0.10121635 -0.02265258 -0.028836638 0.012166738 0.0505997 0.015491179 -0.12373449 0.08974818
-0.08988252 0.06756209 -0.09640214 -0.01453439 0.10917129 -0.12993135 -0.04858952 -0.11158338
-0.07744248 -0.011938223 0.02567715 0.02928664 -0.1810796 0.17371322 0.09162779 0.18484682
0.06861313 -0.10209931 0.1317022 0.16445397 -0.18839948 0.050920676 -0.029443787 0.039108284
0.053783964 0.036550693 0.044412926 0.008405577 -0.052372687 -0.10629426 0.06942077 -0.21528307
-0.0059605273 -0.0031133816 -0.015624515 0.021038849 0.06104405 0.060023338 -0.15973157 0.016037824
-0.08655345 -0.22792417 -0.12249566 0.12895405 -0.0256122 -0.008995654 0.08437973 0.11995179
-0.056514487 0.07962034 -0.013353469 -0.059117623 0.06986254 0.06730467 0.055194948 -0.04925054
0.12315069 0.019176051 0.008176366 0.03251076 -0.0985985 0.072884806 0.12734279 -0.0151022645
-0.027713878 0.11277988 0.08449141 -0.08813082 0.13496952 0.05761767 0.01902454 -0.12925696
-0.035692878 -0.061726846 0.018118482 -0.008316936 0.017540382 -0.20814319 -0.06107674 0.100828044
0.01814377 0.09700481 -0.03188277 0.036486313 0.096018635 0.06684833 -0.11688637 0.11414044
