results/Test2/MoveToGoal.onnx (onnx, 71782 bytes, 6 tensors)

action_model._discrete_distribution.branches.0.bias f4 [5]
0.0 0.0 0.0 0.0 0.0
00000000: 0000 0000 0000 0000 0000 0000 0000 0000
00000010: 0000 0000

action_model._discrete_distribution.branches.0.weight f4 [5, 128]
-0.012097897 0.0129964305 0.0067347125 -0.012004527 0.010064236 0.0034288284 0.0049775876 0.008112366
0.0044352626 0.0027410418 -0.0028661857 0.0072347014 -0.009554698 -0.0052460735 -0.009580466 -0.0035443555
0.0027988828 0.0153086325 0.024992248 -0.008819083 -0.005619696 0.011047499 0.00770338 0.006682475
0.010939472 -0.002498258 0.0072399923 -0.015425928 0.012625008 -0.005043888 -0.008051209 -0.00014015356
-0.005342243 0.0032742762 -0.0067150234 0.008115666 -0.0067406073 -0.00839039 0.013532302 0.011002145
-0.01276387 0.006202143 -0.0100343665 0.0109444065 0.008069682 0.0074974904 0.007995433 -0.009413112
0.021167893 -0.003266446 -0.01242829 0.006259291 -0.0012871971 0.007093242 -0.012518534 0.004128246
0.008610222 -2.932763e-05 0.010855515 -0.0067082676 -0.011419988 -0.0014940954 0.0051424983 0.005697481
0.0012785924 0.003284317 -0.0084385285 -0.011288668 -0.007961021 0.004900393 -0.0010228776 -0.0032831111
-0.014511905 -0.0052451747 0.0012629711 0.00016633297 0.003580434 -0.00081355183 0.004642596 0.0062905746
-0.0030933735 0.011313296 -0.012770699 0.0054219365 0.032848474 -0.007193576 -0.008444014 -0.008455569
0.009289691 0.003206764 0.011746404 0.016620172 -0.009690021 -0.0060912925 -3.1578875e-05 0.00021633993
0.013092088 0.0061559784 0.0072882934 0.009637131 -0.012519007 -0.016225155 -0.006748089 0.012778661
-0.0052633337 0.0041941884 -0.00071631005 -3.8195267e-05 0.016213587 -0.008227854 0.016617745 0.007541424
-0.011403589 -0.010880741 0.004756802 0.0011501024 0.0007523128 0.0033439936 0.008905707 -0.009724592
-0.00857255 -0.0037240249 -0.021321416 -0.011334899 -0.0004455981 0.0053418656 -0.0009331369 0.0063379393
0.02952585 -0.0018505463 0.0042151394 0.0063622603 -0.004015472 -0.00705886 -0.0038651235 0.016109925
0.0076935114 -0.006885705 0.0062313466 -0.003340371 -0.013002874 0.008920288 0.007889125 -0.0051298807
0.010691534 -0.0067485194 -0.017973948 0.01831984 0.006254642 0.0023332566 0.00045233066 -0.0011350012
0.00017218666 0.0049459557 0.01170562 -0.008552571 0.004528246 0.016821725 0.011504571 -0.0013281149
0.0007793522 0.0032162033 -0.0015181394 0.002090845 -0.0042080744 -4.9170718e-05 -0.0141074285 0.0040118275
0.010138544 0.018529717 -0.0071995454 -0.011564827 0.012040499 0.0045747757 -0.008904948 0.002600259
-0.0078071686 0.008092857 0.0012159406 0.0003328691 0.015017286 0.009985236 0.01058704 -0.0059443596
-0.0058935913 -0.012658431 -0.007625562 0.009473324 -0.015753694 0.0035567682 0.013152218 0.013060676
0.0047677774 -0.00774103 0.00094545673 -0.007227681 -0.002861777 0.000200864 -0.0043306686 -0.0006201236
-0.004021776 0.014696329 0.010007914 -0.0020237481 -0.016401118 0.005618067 0.010307396 -0.0034560286
-0.0053797225 -0.004051019 -0.00896694 -0.007490027 0.0021759241 0.007613788 -0.011754214 -0.003357105
0.003460982 -7.549013e-06 0.010856613 0.005186157 0.0005334955 0.0039500413 0.0036773365 -0.0018439883
0.001331806 0.01605095 0.0068484354 -0.00036055717 -0.0031055908 0.007940898 -0.011168051 -0.0027713669
-0.0001216043 0.003981137 0.008982128 -0.0015284289 0.013217953 0.00050733436 -0.0017739646 -0.015620246
-0.0015138378 0.0043210373 -0.0071724067 0.01281389 0.0024201244 0.0029162567 0.012300885 -0.0011051699
-0.00679467 -0.001439765 -0.007088618 0.004090296 -0.007350465 -0.0018477043 -0.007396586 0.0027610809
00000000: 4236 46bc fbee 543c ddae dc3b a3ae 44bc
00000010: 77e4 243c 32b6 603b 081b a33b bbe9 043c
00000020: ae55 913b 0da3 333b 9ed6 3bbb 1311 ed3b
00000030: 4f8b 1cbc 41e7 abbb 63f7 1cbc 6b48 68bb
00000040: 766d 373b 0fd1 7a3c 8bbc cc3c ea7d 10bc
00000050: 6d25 b8bb 9200 353c a36c fc3b aaf8 da3b
00000060: 793b 333c d0b9 23bb 753d ed3b 08bd 7cbc
00000070: 1fd9 4e3c 3347 a5bb 38e9 03bc 2ff6 12b9
00000080: fb0d afbb 3d95 563b b309 dcbb 92f7 043c
00000090: 50e0 dcbb d977 09bc 97b6 5d3c 5742 343c
000000a0: 8d1f 51bc 593b cb3b 2f67 24bc 2b50 333c
000000b0: b336 043c 82ad f53b 47ff 023c 7439 1abc
000000c0: 4a68 ad3c df11 56bb 07a0 4bbc bd1a cd3b
000000d0: 2bb7 a8ba 6d6e e83b 8a1a 4dbc 3d46 873b
000000e0: e311 0d3c 9b04 f6b7 54db 313c 07d1 dbbb
000000f0: e71a 3bbc 86d5 c3ba 6782 a83b efb1 ba3b
00000100: 7196 a73a b23d 573b c141 0abc 1bf4 38bc
00000110: f16e 02bc 7a93 a03b 1412 86ba 7729 57bb
00000120: 57c3 6dbc b7df abbb 478a a53a ab69 2e39
00000130: b7a5 6a3b 8a44 55ba eb20 983b 2a21 ce3b
00000140: 32ba 4abb 675b 393c 323c 51bc 80aa b13b
00000150: 1f8c 063d 17b8 ebbb c358 0abc 3a89 0abc
00000160: ca33 183c 9328 523b fd73 403c 0727 883c
00000170: e5c2 1ebc 7799 c7bb 8f73 04b8 4fd9 6239
00000180: 3280 563c 17b8 c93b a3d2 ee3b 0fe5 1d3c
00000190: 851c 4dbc 9eea 84bc 131f ddbb 975d 513c
000001a0: 0b78 acbb 676f 893b c1c6 3bba db33 20b8
000001b0: 5bd2 843c 1fce 06bc f021 883c 0d1e f73b
000001c0: 1ed6 3abc 2345 32bc f3de 9b3b 08bf 963a
000001d0: db36 453a e726 5b3b 3ee9 113c e553 1fbc
000001e0: e173 0cbc c50e 74bb 40aa aebc 03b6 39bc
000001f0: 2a9f e9b9 d10a af3b c29d 74ba 7dae cf3b
00000200: 32e0 f13c 088e f2ba 271f 8a3b 827a d03b
00000210: 3894 83bb 024e e7bb 034e 7dbb f6f8 833c
00000220: da19 fc3b 7ba1 e1bb 5330 cc3b 20ea 5abb
00000230: 020a 55bc 6626 123c 6341 013c 8f18 a8bb
00000240: 8b2b 2f3c af22 ddbb 1a3e 93bc 7d13 963c
00000250: bdf3 cc3b 8de9 183b cb26 ed39 52c4 94ba
00000260: 018d 3439 af11 a23b eec8 3f3c 1520 0cbc
00000270: ae61 943b b7cd 893c ab7d 3c3c 2414 aeba
00000280: 714d 4c3a f0c6 523b 4efc c6ba 8f06 093b
00000290: e3e3 89bb a83c 4eb8 d822 67bc a675 833b
000002a0: 231c 263c a2cb 973c 2aea ebbb 667a 3dbc
000002b0: 8345 453c 00e8 953b 0fe6 11bc 1b69 2a3b
000002c0: 47d3 ffbb e797 043c 3260 9f3a ef84 ae39
000002d0: 100b 763c 1e99 233c 4475 2d3c e7c8 c2bb
000002e0: 071f c1bb 4f65 4fbc dadf f9bb 0036 1b3c
000002f0: e40d 81bc ab18 693b 677c 573c 72fc 553c
00000300: 043b 9c3b 77a8 fdbb 87d8 773a 2fd6 ecbb
00000310: a78c 3bbb 059f 5239 48e8 8dbb ca8f 22ba
00000320: 1ac9 83bb dfc8 703c 3cf8 233c dca0 04bb
00000330: a35b 86bc c317 b83b 5ae0 283c 8a7e 62bb
00000340: 6248 b0bb 69be 84bb 13ea 12bc e76e f5bb
00000350: f399 0e3b 157d f93b bf94 40bc e002 5cbb
00000360: a5d1 623b 874d fdb6 efdf 313c a3f0 a93b
00000370: 47da 0b3a 596f 813b 78ff 703b fbb1 f1ba
00000380: fe8f ae3a 487d 833c d768 e03b 2a09 bdb9
00000390: 2b87 4bbb 8a1a 023c 33fa 36bc d29f 35bb
000003a0: d005 ffb8 3374 823b c729 133c 9055 c8ba
000003b0: 1d90 583c a2fe 043a 6084 e8ba 0fec 7fbc
000003c0: f86b c6ba 7d97 8d3b 8206 ebbb 5af1 513c
000003d0: f39a 1e3b ab1e 3f3b a789 493c 59db 90ba
000003e0: d3a5 debb 7fb6 bcba a347 e8bb e407 863b
000003f0: 2bdc f0bb ab2e f2ba 0f5f f2bb 40f3 343b

network_body._body_endoder.seq_layers.0.bias f4 [128]
0.0 0.0 0.0 0.0 0.0 0.0 0.0 0.0
0.0 0.0 0.0 0.0 0.0 0.0 0.0 0.0
0.0 0.0 0.0 0.0 0.0 0.0 0.0 0.0
0.0 0.0 0.0 0.0 0.0 0.0 0.0 0.0
0.0 0.0 0.0 0.0 0.0 0.0 0.0 0.0
0.0 0.0 0.0 0.0 0.0 0.0 0.0 0.0
0.0 0.0 0.0 0.0 0.0 0.0 0.0 0.0
0.0 0.0 0.0 0.0 0.0 0.0 0.0 0.0
0.0 0.0 0.0 0.0 0.0 0.0 0.0 0.0
0.0 0.0 0.0 0.0 0.0 0.0 0.0 0.0
0.0 0.0 0.0 0.0 0.0 0.0 0.0 0.0
0.0 0.0 0.0 0.0 0.0 0.0 0.0 0.0
0.0 0.0 0.0 0.0 0.0 0.0 0.0 0.0
0.0 0.0 0.0 0.0 0.0 0.0 0.0 0.0
0.0 0.0 0.0 0.0 0.0 0.0 0.0 0.0
0.0 0.0 0.0 0.0 0.0 0.0 0.0 0.0
00000000: 0000 0000 0000 0000 0000 0000 0000 0000
00000010: 0000 0000 0000 0000 0000 0000 0000 0000
00000020: 0000 0000 0000 0000 0000 0000 0000 0000
00000030: 0000 0000 0000 0000 0000 0000 0000 0000
00000040: 0000 0000 0000 0000 0000 0000 0000 0000
00000050: 0000 0000 0000 0000 0000 0000 0000 0000
00000060: 0000 0000 0000 0000 0000 0000 0000 0000
00000070: 0000 0000 0000 0000 0000 0000 0000 0000
00000080: 0000 0000 0000 0000 0000 0000 0000 0000
00000090: 0000 0000 0000 0000 0000 0000 0000 0000
000000a0: 0000 0000 0000 0000 0000 0000 0000 0000
000000b0: 0000 0000 0000 0000 0000 0000 0000 0000
000000c0: 0000 0000 0000 0000 0000 0000 0000 0000
000000d0: 0000 0000 0000 0000 0000 0000 0000 0000
000000e0: 0000 0000 0000 0000 0000 0000 0000 0000
000000f0: 0000 0000 0000 0000 0000 0000 0000 0000
00000100: 0000 0000 0000 0000 0000 0000 0000 0000
00000110: 0000 0000 0000 0000 0000 0000 0000 0000
00000120: 0000 0000 0000 0000 0000 0000 0000 0000
00000130: 0000 0000 0000 0000 0000 0000 0000 0000
00000140: 0000 0000 0000 0000 0000 0000 0000 0000
00000150: 0000 0000 0000 0000 0000 0000 0000 0000
00000160: 0000 0000 0000 0000 0000 0000 0000 0000
00000170: 0000 0000 0000 0000 0000 0000 0000 0000
00000180: 0000 0000 0000 0000 0000 0000 0000 0000
00000190: 0000 0000 0000 0000 0000 0000 0000 0000
000001a0: 0000 0000 0000 0000 0000 0000 0000 0000
000001b0: 0000 0000 0000 0000 0000 0000 0000 0000
000001c0: 0000 0000 0000 0000 0000 0000 0000 0000
000001d0: 0000 0000 0000 0000 0000 0000 0000 0000
000001e0: 0000 0000 0000 0000 0000 0000 0000 0000
000001f0: 0000 0000 0000 0000 0000 0000 0000 0000

network_body._body_endoder.seq_layers.0.weight f4 [128, 1]
-0.6532786 -0.31688017 0.2803968 -2.8456378 0.33216992 1.322332 -1.0738863 0.17119385
1.1724848 0.12627634 -0.16693138 -0.3256307 1.7699627 -1.4033308 2.1248538 0.44715083
-2.2993007 0.9454915 1.0828474 -0.59180915 -2.1573913 -1.5550929 -0.3388206 -0.014773752
0.038347762 0.09301034 2.1412058 0.9703974 -0.2818907 -2.0130436 -0.8499266 0.79890466
1.0284851 0.49770617 -1.722117 -1.8534864 1.8210161 -0.72017926 -1.7604921 -0.30281046
0.2919458 0.4297949 -0.11320765 -0.4327911 -0.38598958 0.8994755 0.5929988 -0.06459854
0.5847083 -0.9859549 -0.36845294 -0.9612198 -0.45796654 1.5130954 -0.2993257 0.8924498
-1.6737441 1.1393449 -0.8939826 1.6131539 0.25749588 0.43898275 0.709478 -1.5851171
-0.076519065 -0.16336973 -0.52220184 1.2845151 0.83042526 -0.1439865 0.57755375 -0.26290482
-0.6538567 0.16636306 -0.90579295 0.7791396 -1.0572045 -0.9884182 0.12614498 0.58581424
-0.61285406 -0.6987878 -0.62091964 1.6907467 0.79240096 0.21362782 -1.7299821 -0.5777905
2.0329885 -0.2640435 2.5140707 -1.8010505 0.9939038 -1.0143442 1.7217543 -0.11410998
0.18293726 -0.07023676 -1.4880059 -0.4136534 -0.21679153 1.7273111 1.1050549 1.6391472
1.0772963 -1.3415902 -1.0990205 -1.0098166 -0.33935994 0.92832285 0.7532064 0.9038372
0.6432537 -0.6671181 -0.24127834 -1.0648197 -0.21437885 -0.7501574 -0.2758289 0.083143316
0.5708945 -0.16848002 -0.04335471 1.1502496 -1.0907443 1.0538638 0.9715357 -0.5031142
00000000: 443d 27bf 1e3e a2be 2b90 8f3e ee1e 36c0
00000010: 2d12 aa3e 2d42 a93f 1b75 89bf 714d 2f3e
00000020: fb13 963f 964e 013e 0ff0 2abe 11b9 a6be
00000030: 238e e23f 58a0 b3bf 9bfd 0740 f4f0 e43e
00000040: be27 13c0 bb0b 723f be9a 8a3f ce80 17bf
00000050: b312 0ac0 490d c7bf e579 adbe 9b0d 72bc
00000060: 8b12 1d3d 357c be3d 8409 0940 f76b 783f
00000070: fa53 90be b5d5 00c0 ca94 59bf 0485 4c3f
00000080: 66a5 833f 58d3 fe3e 546e dcbf 0b3f edbf
00000090: 0e17 e93f ab5d 38bf ce57 e1bf f909 9bbe
000000a0: eb79 953e 140e dc3e 6ad9 e7bd cc96 ddbe
000000b0: 6da0 c5be 0744 663f c5ce 173f 3d4c 84bd
000000c0: 71af 153f 8a67 7cbf dda5 bcbe 8012 76bf
000000d0: 977a eabe 1cad c13f 3841 99be 9777 643f
000000e0: 3f3d d6bf 0ed6 913f 0bdc 64bf d47b ce3f
000000f0: 80d6 833e 59c2 e03e 5aa0 353f 1ee5 cabf
00000100: 07b6 9cbd 654a 27be 05af 05bf fe6a a43f
00000110: c096 543f 3271 13be 90da 133f 769b 86be
00000120: 2763 27bf 145b 2a3e 0ce2 67bf b175 473f
00000130: 7a52 87bf fa08 7dbf 262c 013e ecf7 153f
00000140: 01e4 1cbf c2e3 32bf 97f4 1ebf 636a d83f
00000150: cada 4a3f 40c1 5a3e 0e70 ddbf 14ea 13bf
00000160: 7c1c 0240 b630 87be 89e6 2040 d388 e6bf
00000170: 7b70 7e3f 08d6 81bf 7262 dc3f 7eb2 e9bd
00000180: e853 3b3e 4ad8 8fbd fa76 bebf 61ca d3be
00000190: 99fe 5dbe 8818 dd3f 7072 8d3f 93cf d13f
000001a0: d8e4 893f 3ab9 abbf b4ac 8cbf ac41 81bf
000001b0: 96c0 adbe 91a6 6d3f 22d2 403f e061 673f
000001c0: 46ac 243f 40c8 2abf ab11 77be 034c 88bf
000001d0: 2186 5bbe 510a 40bf 7239 8dbe 0b47 aa3d
000001e0: 2426 123f 0786 2cbe b594 31bd 613b 933f
000001f0: 829d 8bbf 02e5 863f 90b6 783f 18cc 00bf

network_body._body_endoder.seq_layers.2.bias f4 [128]
0.0 0.0 0.0 0.0 0.0 0.0 0.0 0.0
0.0 0.0 0.0 0.0 0.0 0.0 0.0 0.0
0.0 0.0 0.0 0.0 0.0 0.0 0.0 0.0
0.0 0.0 0.0 0.0 0.0 0.0 0.0 0.0
0.0 0.0 0.0 0.0 0.0 0.0 0.0 0.0
0.0 0.0 0.0 0.0 0.0 0.0 0.0 0.0
0.0 0.0 0.0 0.0 0.0 0.0 0.0 0.0
0.0 0.0 0.0 0.0 0.0 0.0 0.0 0.0
0.0 0.0 0.0 0.0 0.0 0.0 0.0 0.0
0.0 0.0 0.0 0.0 0.0 0.0 0.0 0.0
0.0 0.0 0.0 0.0 0.0 0.0 0.0 0.0
0.0 0.0 0.0 0.0 0.0 0.0 0.0 0.0
0.0 0.0 0.0 0.0 0.0 0.0 0.0 0.0
0.0 0.0 0.0 0.0 0.0 0.0 0.0 0.0
0.0 0.0 0.0 0.0 0.0 0.0 0.0 0.0
0.0 0.0 0.0 0.0 0.0 0.0 0.0 0.0
00000000: 0000 0000 0000 0000 0000 0000 0000 0000
00000010: 0000 0000 0000 0000 0000 0000 0000 0000
00000020: 0000 0000 0000 0000 0000 0000 0000 0000
00000030: 0000 0000 0000 0000 0000 0000 0000 0000
00000040: 0000 0000 0000 0000 0000 0000 0000 0000
00000050: 0000 0000 0000 0000 0000 0000 0000 0000
00000060: 0000 0000 0000 0000 0000 0000 0000 0000
00000070: 0000 0000 0000 0000 0000 0000 0000 0000
00000080: 0000 0000 0000 0000 0000 0000 0000 0000
00000090: 0000 0000 0000 0000 0000 0000 0000 0000
000000a0: 0000 0000 0000 0000 0000 0000 0000 0000
000000b0: 0000 0000 0000 0000 0000 0000 0000 0000
000000c0: 0000 0000 0000 0000 0000 0000 0000 0000
000000d0: 0000 0000 0000 0000 0000 0000 0000 0000
000000e0: 0000 0000 0000 0000 0000 0000 0000 0000
000000f0: 0000 0000 0000 0000 0000 0000 0000 0000
00000100: 0000 0000 0000 0000 0000 0000 0000 0000
00000110: 0000 0000 0000 0000 0000 0000 0000 0000
00000120: 0000 0000 0000 0000 0000 0000 0000 0000
00000130: 0000 0000 0000 0000 0000 0000 0000 0000
00000140: 0000 0000 0000 0000 0000 0000 0000 0000
00000150: 0000 0000 0000 0000 0000 0000 0000 0000
00000160: 0000 0000 0000 0000 0000 0000 0000 0000
00000170: 0000 0000 0000 0000 0000 0000 0000 0000
00000180: 0000 0000 0000 0000 0000 0000 0000 0000
00000190: 0000 0000 0000 0000 0000 0000 0000 0000
000001a0: 0000 0000 0000 0000 0000 0000 0000 0000
000001b0: 0000 0000 0000 0000 0000 0000 0000 0000
000001c0: 0000 0000 0000 0000 0000 0000 0000 0000
000001d0: 0000 0000 0000 0000 0000 0000 0000 0000
000001e0: 0000 0000 0000 0000 0000 0000 0000 0000
000001f0: 0000 0000 0000 0000 0000 0000 0000 0000

network_body._body_endoder.seq_layers.2.weight f4 [128, 128]
-0.039640144 -0.08862525 -0.041667927 0.12125642 -0.117450155 -0.16480047 0.012945038 -0.0001471023
0.10529016 -0.12336186 0.15806365 0.10287577 0.023688251 0.0097566815 -0.13300423 -0.14142615
-0.008003027 -0.09887679 0.051821847 0.17446247 0.12733786 -0.06709534 -0.17944701 -0.05525465
0.12654744 -0.0046152365 -0.039685477 -0.05357594 0.078748256 0.05748175 0.0010381328 -0.08084318
0.03208541 -0.053554624 -0.011641411 0.015853507 0.003991458 0.11711256 0.0018252755 0.027847612
0.11276702 0.056439407 -0.259269 -0.06054334 -0.038816858 -0.06821332 -0.08439045 0.053957976
0.035051305 0.14991944 -0.04911177 0.03587566 0.025295319 0.111371264 -0.0105054695 0.0505613
0.06434352 0.13003537 -0.019273408 0.25966802 -0.0214755 0.07630446 0.012350836 -0.009714231
-0.08612823 -0.011769932 0.028740505 0.025555607 0.060724266 -0.0013684845 -0.13712749 -0.0509556
0.1461301 -0.050583445 -0.091950335 0.018419866 -0.007819496 0.014472727 0.16210869 -0.009875065
-0.05635007 -0.16195796 -0.20765501 0.05368332 -0.04916593 0.008410394 0.09957107 -0.13295603
0.1265389 -0.058356788 0.037170563 0.17296986 -0.025150584 -0.024208048 0.070188306 0.13980883
0.01430496 -0.009756701 -0.0001626529 -0.011835861 0.14567925 0.12464892 0.010959141 -0.08551554
-0.1285737 0.18742807 0.050157037 0.10068274 0.12891868 0.0074404436 -0.08472633 -0.0655079
0.10098793 -0.21866803 -0.09506072 0.03650278 -0.19644237 -0.19894882 0.010253844 0.20648232
-0.08635992 -0.1274606 0.12867616 0.11480955 -0.012737288 -0.06153576 -0.07970907 0.0771552
-0.111756854 -0.10469303 0.12171031 0.06104816 0.07070569 -0.13023697 -0.11543148 -0.15446663
-0.040763624 -0.20442547 0.24475972 -0.13620174 -0.12357577 0.0014342396 -0.02158615 -0.13392843
0.035019692 -0.06494282 0.10216881 0.028721852 0.014749058 0.084796555 -0.111119024 0.08640617
-0.14429972 0.061039653 -0.017361542 0.12278774 -0.14605673 0.003893448 0.008941785 -0.163833
-0.01821621 0.06873192 -0.17278904 0.036608186 -0.00020835444 0.010903507 -0.10744419 0.16545923
0.054640125 -0.1820436 -0.059351165 -0.0714706 -0.025250157 -0.043913305 0.0073258895 0.029865406
-0.040823665 -0.059903983 -0.02045147 -0.075809084 0.06230945 0.008862232 -0.028171893 -0.006939076
0.019594215 0.024291687 -0.054315105 -0.013017553 -0.051850036 -0.036713365 0.05330948 0.049838126
-0.060388636 0.16805324 0.02558303 -0.03086847 0.10669659 -0.080494314 -0.010557202 -0.15806355
-0.034014504 -0.090884484 -0.076365255 -0.114979565 -0.009265665 0.045063335 -0.025777876 -0.2419946
0.089407876 -0.18992676 -0.01827049 0.034345362 0.008024162 -0.09833395 -0.03161134 0.06631773
0.027430931 -0.0067917136 -0.11538813 -0.17221089 0.051534962 0.02420553 0.093098976 -0.083436854
0.011443355 -0.017537802 0.09319472 0.060472865 0.09500082 0.032317273 -0.14139585 0.19773659
0.051603258 0.068175524 -0.012673651 -0.025996065 -0.0032462932 0.10527867 -0.0010334819 -0.005102737
-0.18207559 0.048150502 -0.012593275 0.10069395 0.08143168 -0.099766985 -0.051364146 -0.09809478
-0.0070355437 0.16684906 -0.01421299 0.024563633 0.051436204 0.1238509 -0.004413884 -0.012400621
00000000: b45d 22bd 2881 b5bd fdab 2abd 4955 f83d
00000010: b589 f0bd 74c1 28be 6d17 543c 793f 1ab9
00000020: 5ea2 d73d 25a5 fcbd 70db 213e 88b0 d23d
00000030: dd0d c23c 7dda 1f3c 4332 08be 04d2 10be
00000040: 211f 03bc ea7f cabd 2543 543d 4aa6 323e
00000050: db64 023e 4869 89bd f5c0 37be b352 62bd
00000060: a795 013e 693b 97bb 3d8d 22bd 7272 5bbd
00000070: c446 a13d fc71 6b3d f511 883a 1c91 a5bd
00000080: fe6b 033d 185c 5bbd 9ebb 3ebc 37df 813c
00000090: c7ca 823b b6d8 ef3d 153e ef3a ad20 e43c
000000a0: 65f2 e63d 022d 673d e8be 84be 4bfc 77bd
000000b0: 6dfe 1ebd 6db3 8bbd e6d4 acbd 0a03 5d3d
000000c0: f591 0f3d 7b84 193e 6c29 49bd 5bf2 123d
000000d0: 2138 cf3c 9e16 e43d 221f 2cbc 5e19 4f3d
000000e0: 89c6 833d fe27 053e 44e3 9dbc 35f3 843e
000000f0: 63ed afbc 8345 9c3d 295b 4a3c 7028 1fbc
00000100: ff63 b0bd acd6 40bc 3571 eb3c fe59 d13c
00000110: 02ba 783d b85e b3ba 266b 0cbe d2b6 50bd
00000120: 21a3 153e 9630 4fbd 7550 bcbd 42e5 963c
00000130: 581d 00bc 041f 6d3c d2ff 253e 06cb 21bc
00000140: 55cf 66bd 4fd8 25be 84a3 54be 0ae3 5b3d
00000150: 3762 49bd c0cb 093c ebeb cb3d a025 08be
00000160: 6a93 013e 8707 6fbd 2940 183d 031f 313e
00000170: 9908 cebc f54f c6bc e3be 8f3d 0c2a 0f3e
00000180: 5a5f 6a3c 92da 1fbc ce8d 2ab9 33eb 41bc
00000190: f12c 153e ef47 ff3d f88d 333c c522 afbd
000001a0: d3a8 03be 25ed 3f3e 7771 4d3d c132 ce3d
000001b0: 4203 043e f7ce f33b 0085 adbd 0229 86bd
000001c0: c3d2 ce3d 83ea 5fbe 32af c2bd f083 153d
000001d0: 3028 49be 3db9 4bbe bdff 273c 1a70 533e
000001e0: 78dd b0bd 0885 02be afc3 033e 4521 eb3d
000001f0: 0fb0 50bc ec0c 7cbd 823e a3bd 8c03 9e3d
00000200: c7e0 e4bd 4d69 d6bd 4143 f93d a30d 7a3d
00000210: 25ce 903d d75c 05be 5767 ecbd 802c 1ebe
00000220: c2f7 26bd e954 51be 4ba2 7a3e 7878 0bbe
00000230: 4b15 fdbd 18fd bb3a 70d5 b0bc 8924 09be
00000240: cf70 0f3d be00 85bd e23d d13d 174a eb3c
00000250: 08a6 713c d1a9 ad3d 5f92 e3bd b8f5 b03d
00000260: 4ec3 13be b704 7a3d cb39 8ebc 2378 fb3d
00000270: e58f 15be 3829 7f3b 9180 123c d7c3 27be
00000280: 293a 95bc 52c3 8c3d 9cef 30be 77f2 153d
00000290: b879 5ab9 9fa4 323c b30b dcbd 256e 293e
000002a0: 53ce 5f3d a369 3abe 351a 73bd 2e5f 92bd
000002b0: 6bd9 cebc 70de 33bd 040e f03b 4ca8 f43c
000002c0: b736 27bd e15d 75bd d789 a7bc cb41 9bbd
000002d0: 3238 7f3d e532 113c bec8 e6bc 3061 e3bb
000002e0: 0c84 a03c 5cff c63c 8479 5ebd 9347 55bc
000002f0: b460 54bd c160 16bd 0b5b 5a3d 1023 4c3d
00000300: 135a 77bd 2616 2c3e 8193 d13c e0df fcbc
00000310: be83 da3d 34da a4bd 1df8 2cbc 69db 21be
00000320: cb52 0bbd a521 babd 6365 9cbd 687a ebbd
00000330: 04cf 17bc 5594 383d 202c d3bc 6fcd 77be
00000340: 7a1b b73d 297c 42be ffab 95bc b9ad 0c3d
00000350: c677 033c 4f63 c9bd e47a 01bd 97d1 873d
00000360: d5b6 e03c 068d debb 9d50 ecbd 0d58 30be
00000370: 5316 533d ad4a c63c adaa be3d f1e0 aabd
00000380: e97c 3b3c 70ab 8fbc e0dc be3d 65b2 773d
00000390: ca8f c23d 1e5f 043d 13ca 10be 767b 4a3e
000003a0: f05d 533d 9c9f 8b3d 25a5 4fbc b3f5 d4bc
000003b0: c3bf 54bb 589c d73d e675 87ba dc34 a7bb
000003c0: 0672 3abe 7639 453d 0654 4ebc a138 ce3d
000003d0: a7c5 a63d a252 ccbd 3663 52bd ebe5 c8bd
000003e0: 6b8a e6bb 7bda 2a3e 9add 68bc ac39 c93c
000003f0: c5ae 523d 8aa5 fd3d 58a2 90bb f92b 4bbc
