results/SnakeImitation2/SnakeAgent.onnx (onnx, 101509 bytes, 6 tensors)

action_model._discrete_distribution.branches.0.bias f4 [3]
0.16172975 -0.05665116 -0.16199538
00000000: 7c9c 253e 0c0b 68bd 1ee2 25be

action_model._discrete_distribution.branches.0.weight f4 [3, 128]
-0.3715823 0.041742995 -0.34348363 0.14656323 -0.23561975 -0.8187086 0.008279598 0.17992672
-0.23208943 0.45292738 -0.45961922 -0.7213691 -0.06256035 0.016270155 0.10748713 -0.5044682
0.09405419 0.072599545 0.11607525 -0.08205309 0.37094572 -0.3865021 0.10245605 -0.045830138
0.052510668 0.6809818 0.11651039 0.12919681 -0.3803097 0.10225111 0.0036835927 -0.13459344
-0.38199183 0.010323354 0.16393049 0.06874403 -0.3897586 -0.21577547 -0.42429385 0.26316136
0.18963955 0.15920718 0.26074302 0.2173365 0.17849721 -0.56587243 -0.6740636 0.09070033
-0.2411164 0.084688 -0.6809507 0.081879735 -0.19778407 0.105484486 0.08206955 0.08143154
0.08934221 0.07955818 -0.6256922 0.008557677 0.17028224 0.049244326 -0.3088608 0.36962566
-0.8629326 0.05700489 0.14204071 -0.28250155 0.1347098 0.04159146 -0.11812559 0.18962556
-0.23644783 -0.33327776 0.39971685 0.10149305 0.46969044 0.08598353 -0.37645298 -0.08045715
-0.4019013 -0.17380388 -0.23532894 -0.20360224 0.021036107 0.021270702 0.31566498 -0.31117323
-0.46519473 0.1099431 0.4357586 -0.04261127 0.018566968 -0.03526349 0.1919748 0.37192354
-0.18021828 -0.1482063 0.08918131 -0.5197797 0.1642726 0.19461913 -0.39440733 -0.21645097
0.24076866 -0.11750579 0.016659195 0.20835507 -0.16721165 0.089989066 0.37574357 -0.34774935
0.021768348 0.101151295 0.53000146 0.06155584 -0.274123 0.11790488 0.08903546 0.28201637
0.08109919 0.11274726 -0.07390603 -0.17313018 -0.15027358 -0.48643842 -0.9909275 -0.2841376
-0.011591987 0.095294714 -0.14045402 -0.20131779 -0.043033365 0.68832976 0.052372016 -0.082226045
0.35595798 -0.48176807 0.8755966 0.22066802 -0.38985762 0.18159233 -0.10436198 0.27001753
0.10029649 -0.3613786 -0.47423226 -0.27254963 -0.40038684 0.27971992 -0.42152074 0.2537562
-0.48812532 -1.0535301 -0.25000963 -0.5010431 0.026430972 -0.017991597 -0.4817749 0.07377431
0.33611873 0.25790614 -0.37372914 0.17460336 -0.2279734 0.38487375 0.1455353 -0.29325268
0.102955155 0.06888599 -0.3607544 -0.051209047 0.06611911 1.0631347 0.46293622 -0.38315302
-0.3108304 0.08123799 0.28932676 -0.45017385 -0.02684304 -0.023223627 0.13079691 0.015785241
0.045219876 -0.23394975 0.22386484 -0.0008256617 -0.4886523 -0.45820767 0.37895513 -0.5552855
0.27507097 -0.50960004 -0.029576663 0.109306194 -0.08969626 -0.35115296 0.40498278 -0.08514191
0.12576744 0.090648964 -0.19789688 -0.12377693 -0.27240747 -0.0968515 0.47230485 0.13243192
0.34830707 -0.17735171 0.2909983 -0.30163807 0.0860894 0.104337916 -0.1649242 0.23024389
0.27549267 0.07592228 -0.56244516 0.24715833 0.24167381 0.2739356 -0.05464645 -0.4455858
-0.16189358 0.32912537 0.13938652 -0.21411392 -0.27393728 -0.2010201 -0.17206258 0.5314131
-0.37169227 -0.39326018 0.14910915 -0.0072122514 0.39789623 -0.26103702 -0.19988702 0.06599314
0.09831425 0.288672 -0.5197968 -0.27471417 -0.26558805 -0.21902564 -0.08032946 -0.3997644
0.0137319835 -0.18385915 0.51479787 0.09447442 -0.26387367 -0.06682842 1.1508715 -0.51726425
00000000: 0940 bebe b4fa 2a3d 16dd afbe ac14 163e
00000010: 4e46 71be e396 51bf 27a7 073c b63e 383e
00000020: daa8 6dbe 19e6 e73e 3653 ebbe a5ab 38bf
00000030: a41f 80bd fd48 853c 3622 dc3d d424 01bf
00000040: 7c9f c03d 12af 943d dcb8 ed3d 730b a8bd
00000050: 99ec bd3e 9ae3 c5be 7ad4 d13d 62b8 3bbd
00000060: 6d15 573d d354 2e3f 009d ee3d 2b4c 043e
00000070: f4b7 c2be 0869 d13d 6e68 713b ddd2 09be
00000080: 6f94 c3be 4923 293c 65dd 273e acc9 8c3d
00000090: 708e c7be 3ff4 5cbe 0b3d d9be 16bd 863e
000000a0: df30 423e 3507 233e 1c80 853e 768d 5e3e
000000b0: f9c7 363e 04dd 10bf 6f8f 2cbf 18c1 b93d
000000c0: 38e7 76be e770 ad3d c952 2ebf 90b0 a73d
000000d0: e887 4abe 4008 d83d 1514 a83d 94c5 a63d
000000e0: 0cf9 b63d 66ef a23d 5d2d 20bf 8035 0c3c
000000f0: 785e 2e3e 6bb4 493d 0123 9ebe 933f bd3e
00000100: 27e9 5cbf f67d 693d 1f73 113e 0ba4 90be
00000110: 5ef1 093e cf5b 2a3d d4eb f1bd 342d 423e
00000120: 611f 72be 62a3 aabe b0a7 cc3e 97db cf3d
00000130: 447b f03e 2218 b03d 72be c0be b8c6 a4bd
00000140: 02c6 cdbe a5f9 31be 12fa 70be 1b7d 50be
00000150: ea53 ac3c e53f ae3c d79e a13e 1952 9fbe
00000160: 012e eebe d929 e13d c01b df3e 2889 2ebd
00000170: c119 983c 7370 10bd 0b95 443e c36c be3e
00000180: 248b 38be 64c3 17be b1a4 b63d 4810 05bf
00000190: 1437 283e 3d4a 473e c2ef c9be 53a5 5dbe
000001a0: 0f8c 763e e0a6 f0bd dd78 883c 085b 553e
000001b0: 8839 2bbe 304c b83d 7661 c03e 340c b2be
000001c0: 8953 b23c 6928 cf3d 2dae 073f fa21 7c3d
000001d0: da59 8cbe 1d78 f13d 3958 b63d 7364 903e
000001e0: 5517 a63d 09e8 e63d 0b5c 97bd 0a49 31be
000001f0: 51e1 19be 750e f9be 6dad 7dbf 7c7a 91be
00000200: 51ec 3dbc e029 c33d 2ed3 0fbe 4026 4ebe
00000210: c143 30bd 6136 303f 0a84 563d 2166 a8bd
00000220: 2040 b63e 4eaa f6be 1927 603f ccf6 613e
00000230: 6b9b c7be 57f3 393e bcbb d5bd bd3f 8a3e
00000240: 3f68 cd3d 9e06 b9be 92ce f2be a08b 8bbe
00000250: 81ff ccbe 7337 8f3e 91d1 d7be 55ec 813e
00000260: 90eb f9be 13da 86bf 4301 80be 5c44 00bf
00000270: c485 d83c 1d63 93bc 33ab f6be fc16 973d
00000280: c117 ac3e 460c 843e 6d59 bfbe 39cb 323e
00000290: dc71 69be 2c0e c53e 3507 153e 3725 96be
000002a0: 27da d23d 1914 8d3d cdb4 b8be 94c0 51bd
000002b0: 7569 873d cc14 883f fa05 ed3e a22c c4be
000002c0: 2a25 9fbe 1a60 a63d a322 943e 307d e6be
000002d0: efe5 dbbc 7a3f bebc a0ef 053e 0d50 813c
000002e0: 7a38 393d 8690 6fbe d33c 653e 3871 58ba
000002f0: a230 fabe 329a eabe 6806 c23e 3127 0ebf
00000300: 1ad6 8c3e 2675 02bf c24a f2bc eddb df3d
00000310: acb2 b7bd 52ca b3be e759 cf3e e25e aebd
00000320: 2ec9 003e 2aa6 b93d 7ba5 4abe c27e fdbd
00000330: fe78 8bbe 145a c6bd f1d1 f13e 3c9c 073e
00000340: 4e55 b23e b09b 35be bbfd 943e 4e70 9abe
00000350: a44f b03d 1eaf d53d e4e1 28be 0ec5 6b3e
00000360: 600d 8d3e 247d 9b3d 68fc 0fbf 1317 7d3e
00000370: 5779 773e 4941 8c3e f5d4 5fbd d223 e4be
00000380: 6ec7 25be 1f83 a83e 57bb 0e3e ae40 5bbe
00000390: 8241 8cbe 37d8 4dbe 2c31 30be b00a 083f
000003a0: 734e bebe 6659 c9be 12b0 183e c054 ecbb
000003b0: 0eb9 cb3e a5a6 85be 2faf 4cbe 6927 873d
000003c0: fb58 c93d d1cc 933e 6711 05bf 56a7 8cbe
000003d0: 28fb 87be 4248 60be c683 a4bd ebad ccbe
000003e0: 1dfc 603c 9345 3cbe cbc9 033f ce7b c13d
000003f0: 731a 87be 57dd 88bd c24f 933f 6e6b 04bf

network_body._body_endoder.seq_layers.0.bias f4 [128]
0.010120683 -0.12548608 0.093787804 0.04519395 0.06662634 -0.10495681 -0.06946842 0.0664475
0.066094436 0.115633026 0.0016544904 0.035306565 0.05807153 0.055160563 0.007746805 0.05981231
0.19512647 -0.041284256 -0.04627497 -0.035346624 0.027368097 0.054447986 -0.042269696 -0.11193096
-0.054626416 0.056267172 0.033498053 -0.078795 -0.034671344 -0.117481746 -0.03824394 -0.023884663
-0.026998289 -0.063496634 0.091428496 0.032406963 0.08161691 0.01773326 0.060083825 0.04985768
-0.11526692 0.012874383 0.12704287 0.12077325 0.13535298 0.04186625 -0.1298648 0.030038323
0.07024662 0.02725937 -0.009389596 -0.04604953 0.098729216 -0.014378167 -0.033732533 0.051709536
0.04807341 0.056192216 -0.065545395 0.008126557 0.034462087 0.005492323 0.036184847 -0.013541684
-0.06324362 -0.056627396 -0.044938788 0.18525064 0.04013039 -0.03137038 0.003720902 0.016539622
0.030068578 -0.08398754 0.04973589 -0.027494894 0.032450303 0.034343906 0.0033324456 -0.025571918
0.042358685 0.020467406 0.09349524 -0.049404234 -0.04726218 -0.046550497 0.040851064 0.042046305
0.06375617 0.027382223 0.15064494 0.023411855 -0.028793719 -0.028326025 -0.050345097 -0.06567634
-0.020771412 0.0644137 -0.060242157 0.12118973 0.049190074 -0.009780415 0.034409232 -0.07746348
-0.023848128 0.08654318 -0.059261817 -0.008510565 -0.06104572 0.15111789 -0.019536551 0.017677361
0.09299013 -0.00029267833 0.07304387 0.11512265 -0.052663404 -0.02110313 0.007410806 0.19216938
0.01830012 0.028321382 0.09837736 -0.093439244 -0.0040633418 0.12547266 0.13010985 -0.10424617
00000000: 39d1 253c 6c7f 00be d213 c03d 4b1d 393d
00000010: 6473 883d 99f3 d6bd 7645 8ebd a015 883d
00000020: 855c 873d 02d1 ec3d 7cdb d83a 9e9d 103d
00000030: 6adc 6d3d 0bf0 613d e9d8 fd3b c1fd 743d
00000040: 3ccf 473e ae19 29bd d38a 3dbd 9fc7 10bd
00000050: 0f33 e03c da04 5f3d fd22 2dbd 0f3c e5bd
00000060: f3bf 5fbd 6878 663d 4135 093d 465f a1bd
00000070: 8a03 0ebd 459a f0bd ada5 1cbd c5a9 c3bc
00000080: 842b ddbc 860a 82bd dd3e bb3d 2abd 043d
00000090: c426 a73d 5745 913c 751a 763d 9137 4c3d
000000a0: 1011 ecbd 13ef 523c 8717 023e f757 f73d
000000b0: f999 0a3e f27b 2b3d 47fb 04be ee12 f63c
000000c0: 76dd 8f3d 0b4f df3c d2d6 19bc 6f9e 3cbd
000000d0: 8b32 ca3d 6792 6bbc 202b 0abd 61cd 533d
000000e0: a0e8 443d cf29 663d aa3c 86bd 4025 053c
000000f0: 1e28 0d3d f2f8 b33b 9036 143d f0dd 5dbc
00000100: df85 81bd 21f2 67bd bc11 38bd 58b2 3d3e
00000110: c45f 243d 3a7e 00bd 60da 733b 1a7e 873c
00000120: 6152 f63c a901 acbd dcb7 4b3d f93c e1bc
00000130: 9cea 043d 32ac 0c3d 2965 5a3b 337c d1bc
00000140: 4d80 2d3d 43ab a73c 6f7a bf3d 185c 4abd
00000150: fd95 41bd bcab 3ebd 7253 273d bf38 2c3d
00000160: 9892 823d af50 e03c ab42 1a3e 38ca bf3c
00000170: cee0 ebbc fb0b e8bc a936 4ebd 5181 86bd
00000180: cf28 aabc 54eb 833d 7bc0 76bd 5232 f83d
00000190: 887b 493d 093e 20bc b2f0 0c3d 2ca5 9ebd
000001a0: 265d c3bc 8d3d b13d 85bc 72bd e66f 0bbc
000001b0: 140b 7abd a6be 1a3e 1e0b a0bc 1dd0 903c
000001c0: 9c71 be3d 9f72 99b9 0698 953d 6dc5 eb3d
000001d0: 95b5 57bd 79e0 acbc 59d6 f23b 0dc8 443e
000001e0: 22ea 953c 3e02 e83c 127a c93d 135d bfbd
000001f0: c825 85bb e87b 003e 843b 053e 047f d5bd

network_body._body_endoder.seq_layers.0.weight f4 [128, 61]
-0.2658976 0.2694874 0.14659335 0.5392979 0.17613932 0.6476376 -0.59737974 0.18339078
-0.11409634 0.49994445 0.18128446 -0.09869676 -0.8817734 -0.052251205 0.14978528 0.3033594
-0.33882895 0.06810823 -0.19776663 0.1633216 -0.01023466 0.38200396 0.3295491 -0.6556302
0.12924503 0.18285756 -0.60544896 0.15901218 -0.5361891 -0.06355129 0.054557752 -0.27333283
-0.10825998 -0.05945295 -0.117673 -0.22679381 0.333449 -0.040890887 0.26364815 0.11969951
-0.046135686 -0.10112873 -0.1413696 0.15379006 -0.21736856 -0.16708604 0.60882014 0.1997629
-0.62736565 0.14598894 0.09385114 0.079964705 -0.1119278 -0.15853739 0.10384565 -0.020087227
0.029314768 -0.20044644 -0.08768917 0.121925116 -0.1605503 0.11434577 -0.3776273 -0.47942507
0.6467228 0.17088 0.101614036 -0.20275106 0.10122893 -0.25876984 -0.016898932 -0.13974983
0.51631796 -0.06427727 0.22200459 -0.20770943 -0.14494133 0.023313595 -0.17377257 -0.15787157
-0.2617437 0.1004072 -0.29702947 1.0639466 -0.6883386 -0.30622736 0.0042865677 -0.2012054
-0.42704454 -0.60618967 0.3100508 0.23538685 -0.6750207 -1.0130662 -0.17605807 -0.29245466
0.0071139927 0.061489932 -0.13134319 0.11510758 -0.26652223 0.13334718 -1.0916581 0.23098682
-0.09310904 -0.18939514 -0.07709601 -0.16941269 -0.3173208 -0.09987159 0.13861997 0.027448019
-1.2677425 -0.48236516 0.13583285 0.19485722 -0.38168308 -0.36836386 0.12879543 -0.18276305
-0.3728769 0.09764296 -0.39056346 0.29671225 -0.32170925 -0.60887617 -0.3101199 0.19614589
0.0027165315 -0.658696 0.27767712 -0.16166873 0.19524081 -0.4317243 -0.22734728 0.09537119
-0.16595262 -0.17165188 -0.22281429 -0.037261896 -0.18184115 -0.17579697 -0.014237129 0.0025634991
-0.009949083 0.034094017 -0.066429004 -0.07958904 -0.22429156 0.2954872 0.0876077 0.14897448
-0.17314148 -0.1219652 -0.50436944 0.10662573 -0.040581018 0.074693464 0.39225632 -0.03774945
-0.14439999 0.05562797 -0.1999108 -0.13557935 0.23002586 0.58377737 0.16189975 0.60614747
-0.5909459 -0.11070656 -0.07232397 -0.0363177 -0.18134376 0.0878734 0.2228389 0.5019215
0.16539055 -0.004292785 0.056940958 0.18716204 -0.057210237 0.16871026 0.30579212 -0.39680636
0.3981981 -0.49647403 0.0762197 0.13263427 -0.2548931 0.1406823 -1.5257206 -0.41993454
0.12812456 -0.2950313 0.5361943 0.06943591 0.52950054 0.30995372 0.04022072 0.56498104
-0.28023043 -0.76289207 0.19770886 -0.24030451 -0.33959872 0.1627366 0.24106587 0.6552109
-0.22513096 0.24572738 -0.2732386 0.2109802 0.23827283 -0.14210692 0.40399674 0.00043228548
0.113583714 0.6313885 0.10889879 -0.0254429 -0.13914926 -0.33514905 -0.28670067 -0.17393814
0.82300705 -0.11862307 0.33425084 0.26147267 0.3124276 -0.5170816 -0.15845148 0.03126986
-0.35612857 0.2946558 0.01925032 -0.18047526 0.047093265 0.13729694 -0.018271936 -0.027086534
-0.2432205 0.12099234 0.081379406 -0.43994942 -0.011938669 -0.09519696 -0.38743842 0.18609679
0.13754761 -0.3336459 0.35010937 -0.31232163 0.52419376 -0.25272056 -0.16974671 0.54276
00000000: bb23 88be 41fa 893e 911c 163e 6d0f 0a3f
00000010: de5d 343e 94cb 253f e1ed 18bf cbca 3b3e
00000020: 58ab e9bd b8f8 ff3e a2a2 393e 8721 cabd
00000030: e7bb 61bf 5c05 56bd 5061 193e ec51 9b3e
00000040: fd7a adbe 547c 8b3d 5683 4abe c73d 273e
00000050: 46af 27bc 0696 c33e a9ba a83e 61d7 27bf
00000060: cf58 043e 033f 3b3e b4fe 1abf 17d4 223e
00000070: b043 09bf 2e27 82bd f377 5f3d 48f2 8bbe
00000080: 69b7 ddbd f084 73bd 8bfe f0bd a33c 68be
00000090: d4b9 aa3e 347d 27bd e4fc 863e 0425 f53d
000000a0: c6f8 3cbd 941c cfbd 31c3 10be 247b 1d3e
000000b0: dd95 5ebe 9a18 2bbe a3db 1b3f a58e 4c3e
000000c0: 099b 20bf 207e 153e 0735 c03d 89c4 a33d
000000d0: 673a e5bd a057 22be 07ad d43d f88d a4bc
000000e0: 8625 f03c d541 4dbe 6196 b3bd e0b3 f93d
000000f0: 4c67 24be 1d2e ea3d 5e58 c1be 3477 f5be
00000100: a08f 253f 2bfb 2e3e 051b d03d f99d 4fbe
00000110: 1d51 cf3d 7b7d 84be a16f 8abc 941a 0fbe
00000120: 6a2d 043f cda3 83bd 2c55 633e c8b1 54be
00000130: 806b 14be 27fc be3c 70f1 31be 16a9 21be
00000140: 4503 86be 4aa2 cd3d 3f14 98be 672f 883f
00000150: f536 30bf d5c9 9cbe 5676 8c3b ca08 4ebe
00000160: 95a5 dabe 3f2f 1bbf fabe 9e3e 4009 713e
00000170: 28ce 2cbf 27ac 81bf 9148 34be 9ebc 95be
00000180: 7f1c e93b dedc 7b3d d47e 06be 86bd eb3d
00000190: 9a75 88be 2a8c 083e 74bb 8bbf cf87 6c3e
000001a0: f4af bebd cdf0 41be 83e4 9dbd 857a 2dbe
000001b0: df77 a2be 7a89 ccbd 65f2 0d3e abda e03c
000001c0: 6345 a2bf 91f8 f6be c417 0b3e a788 473e
000001d0: f76b c3be 309a bcbe f3e2 033e 3d26 3bbe
000001e0: b9e9 bebe 08f9 c73d eff7 c7be abea 973e
000001f0: 13b7 a4be 4fdf 1bbf 09c8 9ebe 78da 483e
00000200: d607 323b 4da0 28bf b22b 8e3e 7d8c 25be
00000210: 35ed 473e f80a ddbe bacd 68be f851 c33d
00000220: 7cef 29be 83c5 2fbe 6e29 64be ee9f 18bd
00000230: 9134 3abe 1f04 34be d942 69bc 6100 283b
00000240: 7b01 23bc 2ba6 0b3d ee0b 88bd 94ff a2bd
00000250: b0ac 65be 194a 973e aa6b b33d c48c 183e
00000260: 004c 31be e4c8 f9bd 5b1e 01bf 975e da3d
00000270: 4838 26bd e3f8 983d d2d5 c83e 2b9f 1abd
00000280: 97dd 13be 27da 633d 6bb5 4cbe 50d5 0abe
00000290: e68b 6b3e 6f72 153f 0cc9 253e 7b2c 1b3f
000002a0: 3b48 17bf 1fba e2bd 971e 94bd dec1 14bd
000002b0: 2eb2 39be f8f6 b33d e12f 643e ed7d 003f
000002c0: 245c 293e 7eaa 8cbb ec3a 693d 68a7 3f3e
000002d0: 4855 6abd 62c2 2c3e c990 9c3e 342a cbbe
000002e0: 9fe0 cb3e d831 febe 1319 9c3d 47d1 073e
000002f0: 5981 82be 050f 103e d04a c3bf a901 d7be
00000300: 1633 033e 580e 97be 0844 093f 6a34 8e3d
00000310: 598d 073f 41b2 9e3e 7bbe 243d 99a2 103f
00000320: 5d7a 8fbe e54c 43bf 3174 4a3e 6312 76be
00000330: e2df adbe 6ca4 263e f9d9 763e e7bb 273f
00000340: bb88 66be f59f 7b3e eee5 8bbe 320b 583e
00000350: cbfd 733e 7a84 11be a9d8 ce3e 60a4 e239
00000360: 949e e83d ada2 213f 5406 df3d a16d d0bc
00000370: 257d 0ebe a898 abbe 6eca 92be d71c 32be
00000380: 97b0 523f a7f0 f2bd ed22 ab3e bfdf 853e
00000390: 83f6 9f3e 765f 04bf 1b41 22be d314 003d
000003a0: 7c56 b6be 20dd 963e d9b2 9d3c 82ce 38be
000003b0: dee4 403d 9297 0c3e 07af 95bc 94e4 ddbc
000003c0: cb0e 79be d5ca f73d 3faa a63d 0d41 e1be
000003d0: 689a 43bc a0f6 c2bd 545e c6be 2890 3e3e
000003e0: 48d9 0c3e a3d3 aabe 8941 b33e 9fe8 9fbe
000003f0: 9031 063f 9764 81be 15d2 2dbe 52f2 0a3f

network_body._body_endoder.seq_layers.2.bias f4 [128]
-0.074754395 0.10166675 -0.011166792 0.037418474 0.02728482 -0.09775864 0.05365642 0.13647734
-0.018192844 0.09216201 -0.047352172 0.07610206 0.020099398 0.07283453 0.12430212 -0.023439229
0.07800474 -0.002293499 0.0064137783 -0.006267319 0.18830508 -0.029467309 -0.037698545 0.0341431
-0.025740027 0.115147695 0.070830904 0.008625187 -0.102738634 0.058104996 -0.002478737 -0.12968534
0.061053194 0.15360999 0.1467059 0.13120833 -0.087502055 0.03317994 0.0069127264 -0.01367683
0.17174746 0.11367365 0.13028891 0.16645332 0.012705089 0.08287651 -0.08549182 0.014205235
0.0053434772 0.073560804 -0.081455685 0.06150679 -0.086590506 0.13727953 0.105967246 0.08808866
0.080553785 0.076520815 -0.029900795 -0.011002079 -0.011792805 -0.0015525556 -0.1007114 0.10255608
-0.24632598 0.110434465 0.15511052 0.024143595 0.006507791 -0.06693736 -0.016697867 0.16831711
-0.025280591 -0.08123266 0.14855617 0.05207205 0.07348464 0.11795998 0.024873994 -0.15910679
-0.1462645 -0.11766289 -0.023786835 0.069056615 0.03839133 0.0058312328 0.10455092 -0.044072885
0.032556355 0.082601555 0.108701445 -0.051938705 0.0974673 -0.032562822 0.13517043 0.21374473
-0.046339333 -0.058537524 0.13548142 -0.20043875 0.033689402 0.055543285 -0.016496656 0.07655269
0.16326448 -0.0069391313 0.09466359 0.19237898 0.030748717 0.07067067 0.09699306 -0.046436682
0.050119862 0.0038046362 0.10332872 -0.08031932 -0.048526015 0.031905554 0.12923604 0.12925623
0.114406705 0.018153466 0.01996644 -0.09342786 -0.08516627 0.0039601633 0.07129319 -0.0579259
00000000: d518 99bd a836 d03d ecf4 36bc 1d44 193d
00000010: 6a84 df3c af35 c8bd d6c6 5b3d b7c0 0b3e
00000020: 2909 95bc 70bf bc3d 5af4 41bd 66db 9b3d
00000030: 7ea7 a43c 452a 953d 1c92 fe3d a003 c0bc
00000040: f3c0 9f3d 874e 16bb ac2a d23b 155e cdbb
00000050: 0cd3 403e 6d65 f1bc ca69 1abd a3d9 0b3d
00000060: c0dc d2bc 8ed2 eb3d cb0f 913d a850 0d3c
00000070: a268 d2bd 81ff 6d3d 4e72 22bb 3ccc 04be
00000080: ea12 7a3d f04b 1d3e 123a 163e 7a5b 063e
00000090: 4734 b3bd b0e7 073d 2784 e23b c814 60bc
000000a0: 91de 2f3e bbcd e83d 756a 053e bd72 2a3e
000000b0: 0129 503c 29bb a93d 5616 afbd 13bd 683c
000000c0: 5618 af3b 0ca7 963d 3dd2 a6bd 8bee 7b3d
000000d0: 5d56 b1bd 0193 0c3e 5b05 d93d d467 b43d
000000e0: 62f9 a43d f2b6 9c3d 83f2 f4bc 1042 34bc
000000f0: 9c36 41bc 1f7f cbba c741 cebd ec08 d23d
00000100: e13c 7cbe 772b e23d 4bd5 1e3e cac8 c53c
00000110: 4f3f d53b 7416 89bd f7c9 88bc 525b 2c3e
00000120: 3e19 cfbc 4f5d a6bd 1c1f 183e 8049 553d
00000130: 1d7f 963d 0195 f13d 8cc4 cb3c e4ec 22be
00000140: 5cc6 15be 3ef9 f0bd 9cdc c2bc 8e6d 8d3d
00000150: 3a40 1d3d ed13 bf3b cb1e d63d c585 34bd
00000160: d059 053d 012b a93d dd9e de3d aebd 54bd
00000170: f09c c73d 9860 05bd 1e6a 0a3e e6df 5a3e
00000180: 50ce 3dbd 0bc5 6fbd a4bb 0a3e d13f 4dbe
00000190: e6fd 093d 5b81 633d ff23 87bc a8c7 9c3d
000001a0: ce2e 273e a761 e3bb fcde c13d fffe 443e
000001b0: bce4 fb3c c9bb 903d 4ca4 c63d 6434 3ebd
000001c0: 7c4a 4d3d 3457 793b 029e d33d 757e a4bd
000001d0: 37c3 46bd 66af 023d 7456 043e bf5b 043e
000001e0: 104e ea3d 94b6 943c a990 a33c 1b57 bfbd
000001f0: a76b aebd 42c4 813b 2a02 923d b543 6dbd

network_body._body_endoder.seq_layers.2.weight f4 [128, 128]
-0.06570484 0.058147874 0.13727674 0.15232955 -0.18446049 0.08343216 -0.2439284 0.06537202
-0.26204467 0.14737822 0.0075334953 -0.0030473478 -0.0041846707 -0.105438225 0.16942304 -0.125674
-0.34541622 -0.012350855 0.08068374 -0.2437938 0.41763362 0.31079298 -0.11787922 0.06383944
-0.11042235 0.28507066 0.25489348 -0.11334748 0.17123148 0.056469753 0.2791012 -0.03205349
0.09441922 -0.14384042 -0.063199185 0.1234379 -0.13641648 0.1099969 0.18251222 -0.4858996
0.12230953 0.14072268 -0.042051848 0.14817142 0.21346661 -0.16112731 -0.33248785 -0.03758152
0.03928857 -0.022728862 0.15369022 0.31948417 -0.057164356 0.0020127546 0.24494214 0.2144274
-0.17565188 -0.20035437 0.061984535 0.06999078 -0.14401262 -0.09493621 0.24172647 -0.2399468
-0.12288897 0.020320019 0.27274925 0.15306866 0.023113964 0.16839659 0.18250377 0.10406202
-0.20379785 0.116898075 -0.15915634 -0.3784951 0.13727675 0.1872882 0.20891047 0.07861212
-0.123467095 -0.14482683 -0.1364589 0.22989164 0.051257458 0.057320952 0.12146152 0.084882736
-0.42145386 -0.2287537 -0.6223572 -0.07438824 0.14501391 0.09152015 -0.04407605 0.32237232
0.17504448 -0.1640204 -0.24142602 0.17932911 0.010497168 0.0631204 0.013498804 -0.14424162
0.2767904 0.041200977 0.052591372 0.02664896 -0.0763477 0.013028874 -0.35375598 -0.1305216
-1.1397786 -0.09123677 -0.0487714 -0.110167384 0.1853885 0.0891666 -0.024876248 0.07155953
0.0070104967 -0.09196439 0.10461937 -0.028696911 0.049783304 0.094646364 -0.27102745 -0.015375277
0.18643884 0.050652646 -0.035722755 0.09795332 0.13265613 0.013760537 0.07918681 0.1868924
-0.039867494 -0.057878155 0.08074103 0.10321737 -0.06329378 0.14153485 0.05364891 0.13866363
0.12342887 0.25346246 -0.036918025 0.071989365 0.022382114 -0.03364684 -0.23708509 -0.08765867
0.063109525 -0.08252199 -0.04025565 -0.23429717 -0.092534445 -0.04215139 -0.09950539 -0.08416015
-0.00044792044 0.2887106 0.32407862 -0.095518135 0.16647896 -0.02086516 -0.07187717 0.021412067
0.08147042 0.037734173 0.10913315 0.03573564 0.11238343 -0.1600709 0.058290116 0.027095413
0.1171352 0.043744758 -0.014945194 -0.1628318 0.08195147 -0.08423329 -0.16102327 -0.06889987
0.09895889 0.05999453 0.19146615 -0.19050589 0.059215717 -0.1270034 -0.054825496 -0.05329297
0.17319523 -0.1069717 0.1727391 0.190697 0.18606935 -0.1114996 0.0011956372 -0.16545533
-0.009288264 0.02707839 0.103883475 0.03846633 0.06106391 0.0062716026 0.08531442 0.054229476
0.16169378 0.055122524 0.17163569 -0.20567024 0.058216866 0.0854149 -0.12055359 -0.18304579
0.012803344 0.12797649 0.12947905 -0.035390202 0.17578688 0.036026053 0.05991806 0.06670087
0.17738114 0.041207273 0.25680384 0.02522168 0.0019687917 0.15932213 0.11568901 -0.055243928
-0.18187858 -0.027510878 -0.08792518 0.09866082 0.06847757 -0.10013479 0.041014712 0.10808737
0.028943574 -0.18329434 -0.15296414 0.22862637 -0.02717605 -0.06490177 -0.2648321 0.13960244
0.011149835 -0.07578476 0.20013033 0.109458104 0.29206285 0.07331811 0.09064273 0.22692768
00000000: 4290 86bd 772c 6e3d 4692 0c3e 47fc 1b3e
00000010: 36e3 3cbe 7bde aa3d 5ec8 79be c4e1 853d
00000020: b82a 86be 51ea 163e 8adb f63b 03b6 47bb
00000030: 901f 89bb ffef d7bd 3c7d 2d3e afb0 00be
00000040: 65da b0be 3e5b 4abc 843d a53d 15a5 79be
00000050: 13d4 d53e 4220 9f3e a96a f1bd 41be 823d
00000060: 1d25 e2bd c8f4 913e 6681 823e b922 e8bd
00000070: 4e57 2f3e d44c 673d 5ae6 8e3e 854a 03bd
00000080: dd5e c13d e74a 13be 936e 81bd 02cd fc3d
00000090: c3b0 0bbe 0e46 e13d 7ce4 3a3e d5c7 f8be
000000a0: 6b7d fa3d 9b19 103e 8f3e 2cbd 40ba 173e
000000b0: fe96 5a3e 8ffe 24be d93b aabe 14ef 19bd
000000c0: 0ded 203d e131 babc f860 1d3e 6e93 a33e
000000d0: 2c25 6abd 6be8 033b 1dd2 7a3e db92 5b3e
000000e0: 16de 33be b229 4dbe 7fe3 7d3d 5357 8f3d
000000f0: 0b78 13be ea6d c2bd 2587 773e 9db4 75be
00000100: 36ad fbbd 2b76 a63c caa5 8b3e 08be 1c3e
00000110: 7f59 bd3c 2870 2c3e 45e2 3a3e 781e d53d
00000120: 62b0 50be 4268 ef3d e1f9 22be 1cca c1be
00000130: 4792 0c3e 7ac8 3f3e a0ec 553e 64ff a03d
00000140: 51dc fcbd 7c4d 14be e2bb 0bbe b768 6b3e
00000150: 57f3 513d 60c9 6a3d d1c0 f83d 00d7 ad3d
00000160: cdc8 d7be 693e 6abe cd52 1fbf dd58 98bd
00000170: 877e 143e eb6e bb3d 1789 34bd fc0d a53e
00000180: dc3e 333e f7f4 27be 6238 77be 0da2 373e
00000190: 50fc 2b3c 4545 813d 162a 5d3c 13b4 13be
000001a0: 79b7 8d3e 5bc2 283d 0d6a 573d eb4e da3c
000001b0: 2f5c 9cbd 0f77 553c 811f b5be 74a7 05be
000001c0: 44e4 91bf 58da babd 85c4 47bd 709f e1bd
000001d0: 7cd6 3d3e fa9c b63d 46c9 cbbc ce8d 923d
000001e0: 4fb8 e53b d357 bcbd ae42 d63d c915 ebbc
000001f0: 94e9 4b3d f4d5 c13d 1cc4 8abe 96e8 7bbc
00000200: d3e9 3e3e 2679 4f3d 0652 12bd c09b c83d
00000210: 02d7 073e e073 613c b22c a23d b960 3f3e
00000220: 194c 23bd a511 6dbd 8e5b a53d a163 d33d
00000230: 2ba0 81bd 83ee 103e f6be 5b3d d7fd 0d3e
00000240: 47c8 fc3d d5c5 813e 5b37 17bd 296f 933d
00000250: b25a b73c 45d1 09bd 6fc6 72be 6486 b3bd
00000260: 913f 813d 4a01 a9bd 1ce3 24bd 99eb 6fbe
00000270: b382 bdbd f0a6 2cbd 7bc9 cbbd 285c acbd
00000280: ddd6 eab9 e0d1 933e a2ed a53e 039f c3bd
00000290: 7679 2a3e 69ed aabc 5634 93bd 5c68 af3c
000002a0: f7d9 a63d 268f 1a3d 3381 df3d 895f 123d
000002b0: 4929 e63d a0e9 23be 9ec1 6e3d 33f7 dd3c
000002c0: 94e4 ef3d b42d 333d b0dc 74bc 61bd 26be
000002d0: 2cd6 a73d 8182 acbd 49e3 24be 601b 8dbd
000002e0: f5aa ca3d d3bc 753d b40f 443e fa13 43be
000002f0: 2e8c 723d 2e0d 02be b390 60bd bb49 5abd
00000300: 175a 313e fb13 dbbd 85e2 303e 1346 433e
00000310: f788 3e3e e759 e4bd edb6 9c3a 1f6d 29be
00000320: ce2d 18bc 80d3 dd3c dcc0 d43d df8e 1d3d
00000330: 271e 7a3d 0482 cd3b 54b9 ae3d ba1f 5e3d
00000340: 0e93 253e 28c8 613d 44c1 2f3e 389b 52be
00000350: cf74 6e3d 02ee ae3d cde4 f6bd 5b70 3bbe
00000360: 1ec5 513c 450c 033e 2896 043e 51f5 10bd
00000370: 7a01 343e 0e90 133d a46c 753d 779a 883d
00000380: 67a3 353e f5c8 283d cb7b 833e b29d ce3c
00000390: d806 013b 5725 233e 5cee ec3d 7547 62bd
000003a0: 613e 3abe 7e5e e1bc 1e12 b4bd af0e ca3d
000003b0: f83d 8c3d 7813 cdbd 0bff 273d e95c dd3d
000003c0: 131b ed3c 83b1 3bbe a2a2 1cbe 081d 6a3e
000003d0: 4fa0 debc 38eb 84bd 1398 87be f1f3 0e3e
000003e0: ccad 363c 0a35 9bbd f7ee 4c3e 922b e03d
000003f0: 4389 953e ce27 963d e5a2 b93d bb5f 683e
