results/Test2/MoveToGoal/MoveToGoal-832.pt (torch, 145735 bytes, 11 tensors)

network_body._body_endoder.seq_layers.0.weight f4 [128, 1]
000000 44 3d 27 bf 1e 3e a2 be 2b 90 8f 3e ee 1e 36 c0
       -0.6532786 -0.31688017 0.2803968 -2.8456378
000010 2d 12 aa 3e 2d 42 a9 3f 1b 75 89 bf 71 4d 2f 3e
       0.33216992 1.322332 -1.0738863 0.17119385
000020 fb 13 96 3f 96 4e 01 3e 0f f0 2a be 11 b9 a6 be
       1.1724848 0.12627634 -0.16693138 -0.3256307
000030 23 8e e2 3f 58 a0 b3 bf 9b fd 07 40 f4 f0 e4 3e
       1.7699627 -1.4033308 2.1248538 0.44715083
000040 be 27 13 c0 bb 0b 72 3f be 9a 8a 3f ce 80 17 bf
       -2.2993007 0.9454915 1.0828474 -0.59180915
000050 b3 12 0a c0 49 0d c7 bf e5 79 ad be 9b 0d 72 bc
       -2.1573913 -1.5550929 -0.3388206 -0.014773752
000060 8b 12 1d 3d 35 7c be 3d 84 09 09 40 f7 6b 78 3f
       0.038347762 0.09301034 2.1412058 0.9703974
000070 fa 53 90 be b5 d5 00 c0 ca 94 59 bf 04 85 4c 3f
       -0.2818907 -2.0130436 -0.8499266 0.79890466
000080 66 a5 83 3f 58 d3 fe 3e 54 6e dc bf 0b 3f ed bf
       1.0284851 0.49770617 -1.722117 -1.8534864
000090 0e 17 e9 3f ab 5d 38 bf ce 57 e1 bf f9 09 9b be
       1.8210161 -0.72017926 -1.7604921 -0.30281046
0000a0 eb 79 95 3e 14 0e dc 3e 6a d9 e7 bd cc 96 dd be
       0.2919458 0.4297949 -0.11320765 -0.4327911
0000b0 6d a0 c5 be 07 44 66 3f c5 ce 17 3f 3d 4c 84 bd
       -0.38598958 0.8994755 0.5929988 -0.06459854
0000c0 71 af 15 3f 8a 67 7c bf dd a5 bc be 80 12 76 bf
       0.5847083 -0.9859549 -0.36845294 -0.9612198
0000d0 97 7a ea be 1c ad c1 3f 38 41 99 be 97 77 64 3f
       -0.45796654 1.5130954 -0.2993257 0.8924498
0000e0 3f 3d d6 bf 0e d6 91 3f 0b dc 64 bf d4 7b ce 3f
       -1.6737441 1.1393449 -0.8939826 1.6131539
0000f0 80 d6 83 3e 59 c2 e0 3e 5a a0 35 3f 1e e5 ca bf
       0.25749588 0.43898275 0.709478 -1.5851171
000100 07 b6 9c bd 65 4a 27 be 05 af 05 bf fe 6a a4 3f
       -0.076519065 -0.16336973 -0.52220184 1.2845151
000110 c0 96 54 3f 32 71 13 be 90 da 13 3f 76 9b 86 be
       0.83042526 -0.1439865 0.57755375 -0.26290482
000120 27 63 27 bf 14 5b 2a 3e 0c e2 67 bf b1 75 47 3f
       -0.6538567 0.16636306 -0.90579295 0.7791396
000130 7a 52 87 bf fa 08 7d bf 26 2c 01 3e ec f7 15 3f
       -1.0572045 -0.9884182 0.12614498 0.58581424
000140 01 e4 1c bf c2 e3 32 bf 97 f4 1e bf 63 6a d8 3f
       -0.61285406 -0.6987878 -0.62091964 1.6907467
000150 ca da 4a 3f 40 c1 5a 3e 0e 70 dd bf 14 ea 13 bf
       0.79240096 0.21362782 -1.7299821 -0.5777905
000160 7c 1c 02 40 b6 30 87 be 89 e6 20 40 d3 88 e6 bf
       2.0329885 -0.2640435 2.5140707 -1.8010505
000170 7b 70 7e 3f 08 d6 81 bf 72 62 dc 3f 7e b2 e9 bd
       0.9939038 -1.0143442 1.7217543 -0.11410998
000180 e8 53 3b 3e 4a d8 8f bd fa 76 be bf 61 ca d3 be
       0.18293726 -0.07023676 -1.4880059 -0.4136534
000190 99 fe 5d be 88 18 dd 3f 70 72 8d 3f 93 cf d1 3f
       -0.21679153 1.7273111 1.1050549 1.6391472
0001a0 d8 e4 89 3f 3a b9 ab bf b4 ac 8c bf ac 41 81 bf
       1.0772963 -1.3415902 -1.0990205 -1.0098166
0001b0 96 c0 ad be 91 a6 6d 3f 22 d2 40 3f e0 61 67 3f
       -0.33935994 0.92832285 0.7532064 0.9038372
0001c0 46 ac 24 3f 40 c8 2a bf ab 11 77 be 03 4c 88 bf
       0.6432537 -0.6671181 -0.24127834 -1.0648197
0001d0 21 86 5b be 51 0a 40 bf 72 39 8d be 0b 47 aa 3d
       -0.21437885 -0.7501574 -0.2758289 0.083143316
0001e0 24 26 12 3f 07 86 2c be b5 94 31 bd 61 3b 93 3f
       0.5708945 -0.16848002 -0.04335471 1.1502496
0001f0 82 9d 8b bf 02 e5 86 3f 90 b6 78 3f 18 cc 00 bf
       -1.0907443 1.0538638 0.9715357 -0.5031142

network_body._body_endoder.seq_layers.0.bias f4 [128]
000000 00 00 00 00 00 00 00 00 00 00 00 00 00 00 00 00
       0.0 0.0 0.0 0.0
000010 00 00 00 00 00 00 00 00 00 00 00 00 00 00 00 00
       0.0 0.0 0.0 0.0
000020 00 00 00 00 00 00 00 00 00 00 00 00 00 00 00 00
       0.0 0.0 0.0 0.0
000030 00 00 00 00 00 00 00 00 00 00 00 00 00 00 00 00
       0.0 0.0 0.0 0.0
000040 00 00 00 00 00 00 00 00 00 00 00 00 00 00 00 00
       0.0 0.0 0.0 0.0
000050 00 00 00 00 00 00 00 00 00 00 00 00 00 00 00 00
       0.0 0.0 0.0 0.0
000060 00 00 00 00 00 00 00 00 00 00 00 00 00 00 00 00
       0.0 0.0 0.0 0.0
000070 00 00 00 00 00 00 00 00 00 00 00 00 00 00 00 00
       0.0 0.0 0.0 0.0
000080 00 00 00 00 00 00 00 00 00 00 00 00 00 00 00 00
       0.0 0.0 0.0 0.0
000090 00 00 00 00 00 00 00 00 00 00 00 00 00 00 00 00
       0.0 0.0 0.0 0.0
0000a0 00 00 00 00 00 00 00 00 00 00 00 00 00 00 00 00
       0.0 0.0 0.0 0.0
0000b0 00 00 00 00 00 00 00 00 00 00 00 00 00 00 00 00
       0.0 0.0 0.0 0.0
0000c0 00 00 00 00 00 00 00 00 00 00 00 00 00 00 00 00
       0.0 0.0 0.0 0.0
0000d0 00 00 00 00 00 00 00 00 00 00 00 00 00 00 00 00
       0.0 0.0 0.0 0.0
0000e0 00 00 00 00 00 00 00 00 00 00 00 00 00 00 00 00
       0.0 0.0 0.0 0.0
0000f0 00 00 00 00 00 00 00 00 00 00 00 00 00 00 00 00
       0.0 0.0 0.0 0.0
000100 00 00 00 00 00 00 00 00 00 00 00 00 00 00 00 00
       0.0 0.0 0.0 0.0
000110 00 00 00 00 00 00 00 00 00 00 00 00 00 00 00 00
       0.0 0.0 0.0 0.0
000120 00 00 00 00 00 00 00 00 00 00 00 00 00 00 00 00
       0.0 0.0 0.0 0.0
000130 00 00 00 00 00 00 00 00 00 00 00 00 00 00 00 00
       0.0 0.0 0.0 0.0
000140 00 00 00 00 00 00 00 00 00 00 00 00 00 00 00 00
       0.0 0.0 0.0 0.0
000150 00 00 00 00 00 00 00 00 00 00 00 00 00 00 00 00
       0.0 0.0 0.0 0.0
000160 00 00 00 00 00 00 00 00 00 00 00 00 00 00 00 00
       0.0 0.0 0.0 0.0
000170 00 00 00 00 00 00 00 00 00 00 00 00 00 00 00 00
       0.0 0.0 0.0 0.0
000180 00 00 00 00 00 00 00 00 00 00 00 00 00 00 00 00
       0.0 0.0 0.0 0.0
000190 00 00 00 00 00 00 00 00 00 00 00 00 00 00 00 00
       0.0 0.0 0.0 0.0
0001a0 00 00 00 00 00 00 00 00 00 00 00 00 00 00 00 00
       0.0 0.0 0.0 0.0
0001b0 00 00 00 00 00 00 00 00 00 00 00 00 00 00 00 00
       0.0 0.0 0.0 0.0
0001c0 00 00 00 00 00 00 00 00 00 00 00 00 00 00 00 00
       0.0 0.0 0.0 0.0
0001d0 00 00 00 00 00 00 00 00 00 00 00 00 00 00 00 00
       0.0 0.0 0.0 0.0
0001e0 00 00 00 00 00 00 00 00 00 00 00 00 00 00 00 00
       0.0 0.0 0.0 0.0
0001f0 00 00 00 00 00 00 00 00 00 00 00 00 00 00 00 00
       0.0 0.0 0.0 0.0

network_body._body_endoder.seq_layers.2.weight f4 [128, 128]
000000 b4 5d 22 bd 28 81 b5 bd fd ab 2a bd 49 55 f8 3d
       -0.039640144 -0.08862525 -0.041667927 0.12125642
000010 b5 89 f0 bd 74 c1 28 be 6d 17 54 3c 79 3f 1a b9
       -0.117450155 -0.16480047 0.012945038 -0.0001471023
000020 5e a2 d7 3d 25 a5 fc bd 70 db 21 3e 88 b0 d2 3d
       0.10529016 -0.12336186 0.15806365 0.10287577
000030 dd 0d c2 3c 7d da 1f 3c 43 32 08 be 04 d2 10 be
       0.023688251 0.0097566815 -0.13300423 -0.14142615
000040 21 1f 03 bc ea 7f ca bd 25 43 54 3d 4a a6 32 3e
       -0.008003027 -0.09887679 0.051821847 0.17446247
000050 db 64 02 3e 48 69 89 bd f5 c0 37 be b3 52 62 bd
       0.12733786 -0.06709534 -0.17944701 -0.05525465
000060 a7 95 01 3e 69 3b 97 bb 3d 8d 22 bd 72 72 5b bd
       0.12654744 -0.0046152365 -0.039685477 -0.05357594
000070 c4 46 a1 3d fc 71 6b 3d f5 11 88 3a 1c 91 a5 bd
       0.078748256 0.05748175 0.0010381328 -0.08084318
000080 fe 6b 03 3d 18 5c 5b bd 9e bb 3e bc 37 df 81 3c
       0.03208541 -0.053554624 -0.011641411 0.015853507
000090 c7 ca 82 3b b6 d8 ef 3d 15 3e ef 3a ad 20 e4 3c
       0.003991458 0.11711256 0.0018252755 0.027847612
0000a0 65 f2 e6 3d 02 2d 67 3d e8 be 84 be 4b fc 77 bd
       0.11276702 0.056439407 -0.259269 -0.06054334
0000b0 6d fe 1e bd 6d b3 8b bd e6 d4 ac bd 0a 03 5d 3d
       -0.038816858 -0.06821332 -0.08439045 0.053957976
0000c0 f5 91 0f 3d 7b 84 19 3e 6c 29 49 bd 5b f2 12 3d
       0.035051305 0.14991944 -0.04911177 0.03587566
0000d0 21 38 cf 3c 9e 16 e4 3d 22 1f 2c bc 5e 19 4f 3d
       0.025295319 0.111371264 -0.0105054695 0.0505613
0000e0 89 c6 83 3d fe 27 05 3e 44 e3 9d bc 35 f3 84 3e
       0.06434352 0.13003537 -0.019273408 0.25966802
0000f0 63 ed af bc 83 45 9c 3d 29 5b 4a 3c 70 28 1f bc
       -0.0214755 0.07630446 0.012350836 -0.009714231
000100 ff 63 b0 bd ac d6 40 bc 35 71 eb 3c fe 59 d1 3c
       -0.08612823 -0.011769932 0.028740505 0.025555607
000110 02 ba 78 3d b8 5e b3 ba 26 6b 0c be d2 b6 50 bd
       0.060724266 -0.0013684845 -0.13712749 -0.0509556
000120 21 a3 15 3e 96 30 4f bd 75 50 bc bd 42 e5 96 3c
       0.1461301 -0.050583445 -0.091950335 0.018419866
000130 58 1d 00 bc 04 1f 6d 3c d2 ff 25 3e 06 cb 21 bc
       -0.007819496 0.014472727 0.16210869 -0.009875065
000140 55 cf 66 bd 4f d8 25 be 84 a3 54 be 0a e3 5b 3d
       -0.05635007 -0.16195796 -0.20765501 0.05368332
000150 37 62 49 bd c0 cb 09 3c eb eb cb 3d a0 25 08 be
       -0.04916593 0.008410394 0.09957107 -0.13295603
000160 6a 93 01 3e 87 07 6f bd 29 40 18 3d 03 1f 31 3e
       0.1265389 -0.058356788 0.037170563 0.17296986
000170 99 08 ce bc f5 4f c6 bc e3 be 8f 3d 0c 2a 0f 3e
       -0.025150584 -0.024208048 0.070188306 0.13980883
000180 5a 5f 6a 3c 92 da 1f bc ce 8d 2a b9 33 eb 41 bc
       0.01430496 -0.009756701 -0.0001626529 -0.011835861
000190 f1 2c 15 3e ef 47 ff 3d f8 8d 33 3c c5 22 af bd
       0.14567925 0.12464892 0.010959141 -0.08551554
0001a0 d3 a8 03 be 25 ed 3f 3e 77 71 4d 3d c1 32 ce 3d
       -0.1285737 0.18742807 0.050157037 0.10068274
0001b0 42 03 04 3e f7 ce f3 3b 00 85 ad bd 02 29 86 bd
       0.12891868 0.0074404436 -0.08472633 -0.0655079
0001c0 c3 d2 ce 3d 83 ea 5f be 32 af c2 bd f0 83 15 3d
       0.10098793 -0.21866803 -0.09506072 0.03650278
0001d0 30 28 49 be 3d b9 4b be bd ff 27 3c 1a 70 53 3e
       -0.19644237 -0.19894882 0.010253844 0.20648232
0001e0 78 dd b0 bd 08 85 02 be af c3 03 3e 45 21 eb 3d
       -0.08635992 -0.1274606 0.12867616 0.11480955
0001f0 0f b0 50 bc ec 0c 7c bd 82 3e a3 bd 8c 03 9e 3d
       -0.012737288 -0.06153576 -0.07970907 0.0771552
000200 c7 e0 e4 bd 4d 69 d6 bd 41 43 f9 3d a3 0d 7a 3d
       -0.111756854 -0.10469303 0.12171031 0.06104816
000210 25 ce 90 3d d7 5c 05 be 57 67 ec bd 80 2c 1e be
       0.07070569 -0.13023697 -0.11543148 -0.15446663
000220 c2 f7 26 bd e9 54 51 be 4b a2 7a 3e 78 78 0b be
       -0.040763624 -0.20442547 0.24475972 -0.13620174
000230 4b 15 fd bd 18 fd bb 3a 70 d5 b0 bc 89 24 09 be
       -0.12357577 0.0014342396 -0.02158615 -0.13392843
000240 cf 70 0f 3d be 00 85 bd e2 3d d1 3d 17 4a eb 3c
       0.035019692 -0.06494282 0.10216881 0.028721852
000250 08 a6 71 3c d1 a9 ad 3d 5f 92 e3 bd b8 f5 b0 3d
       0.014749058 0.084796555 -0.111119024 0.08640617
000260 4e c3 13 be b7 04 7a 3d cb 39 8e bc 23 78 fb 3d
       -0.14429972 0.061039653 -0.017361542 0.12278774
000270 e5 8f 15 be 38 29 7f 3b 91 80 12 3c d7 c3 27 be
       -0.14605673 0.003893448 0.008941785 -0.163833
000280 29 3a 95 bc 52 c3 8c 3d 9c ef 30 be 77 f2 15 3d
       -0.01821621 0.06873192 -0.17278904 0.036608186
000290 b8 79 5a b9 9f a4 32 3c b3 0b dc bd 25 6e 29 3e
       -0.00020835444 0.010903507 -0.10744419 0.16545923
0002a0 53 ce 5f 3d a3 69 3a be 35 1a 73 bd 2e 5f 92 bd
       0.054640125 -0.1820436 -0.059351165 -0.0714706
0002b0 6b d9 ce bc 70 de 33 bd 04 0e f0 3b 4c a8 f4 3c
       -0.025250157 -0.043913305 0.0073258895 0.029865406
0002c0 b7 36 27 bd e1 5d 75 bd d7 89 a7 bc cb 41 9b bd
       -0.040823665 -0.059903983 -0.02045147 -0.075809084
0002d0 32 38 7f 3d e5 32 11 3c be c8 e6 bc 30 61 e3 bb
       0.06230945 0.008862232 -0.028171893 -0.006939076
0002e0 0c 84 a0 3c 5c ff c6 3c 84 79 5e bd 93 47 55 bc
       0.019594215 0.024291687 -0.054315105 -0.013017553
0002f0 b4 60 54 bd c1 60 16 bd 0b 5b 5a 3d 10 23 4c 3d
       -0.051850036 -0.036713365 0.05330948 0.049838126
000300 13 5a 77 bd 26 16 2c 3e 81 93 d1 3c e0 df fc bc
       -0.060388636 0.16805324 0.02558303 -0.03086847
000310 be 83 da 3d 34 da a4 bd 1d f8 2c bc 69 db 21 be
       0.10669659 -0.080494314 -0.010557202 -0.15806355
000320 cb 52 0b bd a5 21 ba bd 63 65 9c bd 68 7a eb bd
       -0.034014504 -0.090884484 -0.076365255 -0.114979565
000330 04 cf 17 bc 55 94 38 3d 20 2c d3 bc 6f cd 77 be
       -0.009265665 0.045063335 -0.025777876 -0.2419946
000340 7a 1b b7 3d 29 7c 42 be ff ab 95 bc b9 ad 0c 3d
       0.089407876 -0.18992676 -0.01827049 0.034345362
000350 c6 77 03 3c 4f 63 c9 bd e4 7a 01 bd 97 d1 87 3d
       0.008024162 -0.09833395 -0.03161134 0.06631773
000360 d5 b6 e0 3c 06 8d de bb 9d 50 ec bd 0d 58 30 be
       0.027430931 -0.0067917136 -0.11538813 -0.17221089
000370 53 16 53 3d ad 4a c6 3c ad aa be 3d f1 e0 aa bd
       0.051534962 0.02420553 0.093098976 -0.083436854
000380 e9 7c 3b 3c 70 ab 8f bc e0 dc be 3d 65 b2 77 3d
       0.011443355 -0.017537802 0.09319472 0.060472865
000390 ca 8f c2 3d 1e 5f 04 3d 13 ca 10 be 76 7b 4a 3e
       0.09500082 0.032317273 -0.14139585 0.19773659
0003a0 f0 5d 53 3d 9c 9f 8b 3d 25 a5 4f bc b3 f5 d4 bc
       0.051603258 0.068175524 -0.012673651 -0.025996065
0003b0 c3 bf 54 bb 58 9c d7 3d e6 75 87 ba dc 34 a7 bb
       -0.0032462932 0.10527867 -0.0010334819 -0.005102737
0003c0 06 72 3a be 76 39 45 3d 06 54 4e bc a1 38 ce 3d
       -0.18207559 0.048150502 -0.012593275 0.10069395
0003d0 a7 c5 a6 3d a2 52 cc bd 36 63 52 bd eb e5 c8 bd
       0.08143168 -0.099766985 -0.051364146 -0.09809478
0003e0 6b 8a e6 bb 7b da 2a 3e 9a dd 68 bc ac 39 c9 3c
       -0.0070355437 0.16684906 -0.01421299 0.024563633
0003f0 c5 ae 52 3d 8a a5 fd 3d 58 a2 90 bb f9 2b 4b bc
       0.051436204 0.1238509 -0.004413884 -0.012400621

network_body._body_endoder.seq_layers.2.bias f4 [128]
000000 00 00 00 00 00 00 00 00 00 00 00 00 00 00 00 00
       0.0 0.0 0.0 0.0
000010 00 00 00 00 00 00 00 00 00 00 00 00 00 00 00 00
       0.0 0.0 0.0 0.0
000020 00 00 00 00 00 00 00 00 00 00 00 00 00 00 00 00
       0.0 0.0 0.0 0.0
000030 00 00 00 00 00 00 00 00 00 00 00 00 00 00 00 00
       0.0 0.0 0.0 0.0
000040 00 00 00 00 00 00 00 00 00 00 00 00 00 00 00 00
       0.0 0.0 0.0 0.0
000050 00 00 00 00 00 00 00 00 00 00 00 00 00 00 00 00
       0.0 0.0 0.0 0.0
000060 00 00 00 00 00 00 00 00 00 00 00 00 00 00 00 00
       0.0 0.0 0.0 0.0
000070 00 00 00 00 00 00 00 00 00 00 00 00 00 00 00 00
       0.0 0.0 0.0 0.0
000080 00 00 00 00 00 00 00 00 00 00 00 00 00 00 00 00
       0.0 0.0 0.0 0.0
000090 00 00 00 00 00 00 00 00 00 00 00 00 00 00 00 00
       0.0 0.0 0.0 0.0
0000a0 00 00 00 00 00 00 00 00 00 00 00 00 00 00 00 00
       0.0 0.0 0.0 0.0
0000b0 00 00 00 00 00 00 00 00 00 00 00 00 00 00 00 00
       0.0 0.0 0.0 0.0
0000c0 00 00 00 00 00 00 00 00 00 00 00 00 00 00 00 00
       0.0 0.0 0.0 0.0
0000d0 00 00 00 00 00 00 00 00 00 00 00 00 00 00 00 00
       0.0 0.0 0.0 0.0
0000e0 00 00 00 00 00 00 00 00 00 00 00 00 00 00 00 00
       0.0 0.0 0.0 0.0
0000f0 00 00 00 00 00 00 00 00 00 00 00 00 00 00 00 00
       0.0 0.0 0.0 0.0
000100 00 00 00 00 00 00 00 00 00 00 00 00 00 00 00 00
       0.0 0.0 0.0 0.0
000110 00 00 00 00 00 00 00 00 00 00 00 00 00 00 00 00
       0.0 0.0 0.0 0.0
000120 00 00 00 00 00 00 00 00 00 00 00 00 00 00 00 00
       0.0 0.0 0.0 0.0
000130 00 00 00 00 00 00 00 00 00 00 00 00 00 00 00 00
       0.0 0.0 0.0 0.0
000140 00 00 00 00 00 00 00 00 00 00 00 00 00 00 00 00
       0.0 0.0 0.0 0.0
000150 00 00 00 00 00 00 00 00 00 00 00 00 00 00 00 00
       0.0 0.0 0.0 0.0
000160 00 00 00 00 00 00 00 00 00 00 00 00 00 00 00 00
       0.0 0.0 0.0 0.0
000170 00 00 00 00 00 00 00 00 00 00 00 00 00 00 00 00
       0.0 0.0 0.0 0.0
000180 00 00 00 00 00 00 00 00 00 00 00 00 00 00 00 00
       0.0 0.0 0.0 0.0
000190 00 00 00 00 00 00 00 00 00 00 00 00 00 00 00 00
       0.0 0.0 0.0 0.0
0001a0 00 00 00 00 00 00 00 00 00 00 00 00 00 00 00 00
       0.0 0.0 0.0 0.0
0001b0 00 00 00 00 00 00 00 00 00 00 00 00 00 00 00 00
       0.0 0.0 0.0 0.0
0001c0 00 00 00 00 00 00 00 00 00 00 00 00 00 00 00 00
       0.0 0.0 0.0 0.0
0001d0 00 00 00 00 00 00 00 00 00 00 00 00 00 00 00 00
       0.0 0.0 0.0 0.0
0001e0 00 00 00 00 00 00 00 00 00 00 00 00 00 00 00 00
       0.0 0.0 0.0 0.0
0001f0 00 00 00 00 00 00 00 00 00 00 00 00 00 00 00 00
       0.0 0.0 0.0 0.0

action_model._discrete_distribution.branches.0.weight f4 [5, 128]
000000 42 36 46 bc fb ee 54 3c dd ae dc 3b a3 ae 44 bc
       -0.012097897 0.0129964305 0.0067347125 -0.012004527
000010 77 e4 24 3c 32 b6 60 3b 08 1b a3 3b bb e9 04 3c
       0.010064236 0.0034288284 0.0049775876 0.008112366
000020 ae 55 91 3b 0d a3 33 3b 9e d6 3b bb 13 11 ed 3b
       0.0044352626 0.0027410418 -0.0028661857 0.0072347014
000030 4f 8b 1c bc 41 e7 ab bb 63 f7 1c bc 6b 48 68 bb
       -0.009554698 -0.0052460735 -0.009580466 -0.0035443555
000040 76 6d 37 3b 0f d1 7a 3c 8b bc cc 3c ea 7d 10 bc
       0.0027988828 0.0153086325 0.024992248 -0.008819083
000050 6d 25 b8 bb 92 00 35 3c a3 6c fc 3b aa f8 da 3b
       -0.005619696 0.011047499 0.00770338 0.006682475
000060 79 3b 33 3c d0 b9 23 bb 75 3d ed 3b 08 bd 7c bc
       0.010939472 -0.002498258 0.0072399923 -0.015425928
000070 1f d9 4e 3c 33 47 a5 bb 38 e9 03 bc 2f f6 12 b9
       0.012625008 -0.005043888 -0.008051209 -0.00014015356
000080 fb 0d af bb 3d 95 56 3b b3 09 dc bb 92 f7 04 3c
       -0.005342243 0.0032742762 -0.0067150234 0.008115666
000090 50 e0 dc bb d9 77 09 bc 97 b6 5d 3c 57 42 34 3c
       -0.0067406073 -0.00839039 0.013532302 0.011002145
0000a0 8d 1f 51 bc 59 3b cb 3b 2f 67 24 bc 2b 50 33 3c
       -0.01276387 0.006202143 -0.0100343665 0.0109444065
0000b0 b3 36 04 3c 82 ad f5 3b 47 ff 02 3c 74 39 1a bc
       0.008069682 0.0074974904 0.007995433 -0.009413112
0000c0 4a 68 ad 3c df 11 56 bb 07 a0 4b bc bd 1a cd 3b
       0.021167893 -0.003266446 -0.01242829 0.006259291
0000d0 2b b7 a8 ba 6d 6e e8 3b 8a 1a 4d bc 3d 46 87 3b
       -0.0012871971 0.007093242 -0.012518534 0.004128246
0000e0 e3 11 0d 3c 9b 04 f6 b7 54 db 31 3c 07 d1 db bb
       0.008610222 -2.932763e-05 0.010855515 -0.0067082676
0000f0 e7 1a 3b bc 86 d5 c3 ba 67 82 a8 3b ef b1 ba 3b
       -0.011419988 -0.0014940954 0.0051424983 0.005697481
000100 71 96 a7 3a b2 3d 57 3b c1 41 0a bc 1b f4 38 bc
       0.0012785924 0.003284317 -0.0084385285 -0.011288668
000110 f1 6e 02 bc 7a 93 a0 3b 14 12 86 ba 77 29 57 bb
       -0.007961021 0.004900393 -0.0010228776 -0.0032831111
000120 57 c3 6d bc b7 df ab bb 47 8a a5 3a ab 69 2e 39
       -0.014511905 -0.0052451747 0.0012629711 0.00016633297
000130 b7 a5 6a 3b 8a 44 55 ba eb 20 98 3b 2a 21 ce 3b
       0.003580434 -0.00081355183 0.004642596 0.0062905746
000140 32 ba 4a bb 67 5b 39 3c 32 3c 51 bc 80 aa b1 3b
       -0.0030933735 0.011313296 -0.012770699 0.0054219365
000150 1f 8c 06 3d 17 b8 eb bb c3 58 0a bc 3a 89 0a bc
       0.032848474 -0.007193576 -0.008444014 -0.008455569
000160 ca 33 18 3c 93 28 52 3b fd 73 40 3c 07 27 88 3c
       0.009289691 0.003206764 0.011746404 0.016620172
000170 e5 c2 1e bc 77 99 c7 bb 8f 73 04 b8 4f d9 62 39
       -0.009690021 -0.0060912925 -3.1578875e-05 0.00021633993
000180 32 80 56 3c 17 b8 c9 3b a3 d2 ee 3b 0f e5 1d 3c
       0.013092088 0.0061559784 0.0072882934 0.009637131
000190 85 1c 4d bc 9e ea 84 bc 13 1f dd bb 97 5d 51 3c
       -0.012519007 -0.016225155 -0.006748089 0.012778661
0001a0 0b 78 ac bb 67 6f 89 3b c1 c6 3b ba db 33 20 b8
       -0.0052633337 0.0041941884 -0.00071631005 -3.8195267e-05
0001b0 5b d2 84 3c 1f ce 06 bc f0 21 88 3c 0d 1e f7 3b
       0.016213587 -0.008227854 0.016617745 0.007541424
0001c0 1e d6 3a bc 23 45 32 bc f3 de 9b 3b 08 bf 96 3a
       -0.011403589 -0.010880741 0.004756802 0.0011501024
0001d0 db 36 45 3a e7 26 5b 3b 3e e9 11 3c e5 53 1f bc
       0.0007523128 0.0033439936 0.008905707 -0.009724592
0001e0 e1 73 0c bc c5 0e 74 bb 40 aa ae bc 03 b6 39 bc
       -0.00857255 -0.0037240249 -0.021321416 -0.011334899
0001f0 2a 9f e9 b9 d1 0a af 3b c2 9d 74 ba 7d ae cf 3b
       -0.0004455981 0.0053418656 -0.0009331369 0.0063379393
000200 32 e0 f1 3c 08 8e f2 ba 27 1f 8a 3b 82 7a d0 3b
       0.02952585 -0.0018505463 0.0042151394 0.0063622603
000210 38 94 83 bb 02 4e e7 bb 03 4e 7d bb f6 f8 83 3c
       -0.004015472 -0.00705886 -0.0038651235 0.016109925
000220 da 19 fc 3b 7b a1 e1 bb 53 30 cc 3b 20 ea 5a bb
       0.0076935114 -0.006885705 0.0062313466 -0.003340371
000230 02 0a 55 bc 66 26 12 3c 63 41 01 3c 8f 18 a8 bb
       -0.013002874 0.008920288 0.007889125 -0.0051298807
000240 8b 2b 2f 3c af 22 dd bb 1a 3e 93 bc 7d 13 96 3c
       0.010691534 -0.0067485194 -0.017973948 0.01831984
000250 bd f3 cc 3b 8d e9 18 3b cb 26 ed 39 52 c4 94 ba
       0.006254642 0.0023332566 0.00045233066 -0.0011350012
000260 01 8d 34 39 af 11 a2 3b ee c8 3f 3c 15 20 0c bc
       0.00017218666 0.0049459557 0.01170562 -0.008552571
000270 ae 61 94 3b b7 cd 89 3c ab 7d 3c 3c 24 14 ae ba
       0.004528246 0.016821725 0.011504571 -0.0013281149
000280 71 4d 4c 3a f0 c6 52 3b 4e fc c6 ba 8f 06 09 3b
       0.0007793522 0.0032162033 -0.0015181394 0.002090845
000290 e3 e3 89 bb a8 3c 4e b8 d8 22 67 bc a6 75 83 3b
       -0.0042080744 -4.9170718e-05 -0.0141074285 0.0040118275
0002a0 23 1c 26 3c a2 cb 97 3c 2a ea eb bb 66 7a 3d bc
       0.010138544 0.018529717 -0.0071995454 -0.011564827
0002b0 83 45 45 3c 00 e8 95 3b 0f e6 11 bc 1b 69 2a 3b
       0.012040499 0.0045747757 -0.008904948 0.002600259
0002c0 47 d3 ff bb e7 97 04 3c 32 60 9f 3a ef 84 ae 39
       -0.0078071686 0.008092857 0.0012159406 0.0003328691
0002d0 10 0b 76 3c 1e 99 23 3c 44 75 2d 3c e7 c8 c2 bb
       0.015017286 0.009985236 0.01058704 -0.0059443596
0002e0 07 1f c1 bb 4f 65 4f bc da df f9 bb 00 36 1b 3c
       -0.0058935913 -0.012658431 -0.007625562 0.009473324
0002f0 e4 0d 81 bc ab 18 69 3b 67 7c 57 3c 72 fc 55 3c
       -0.015753694 0.0035567682 0.013152218 0.013060676
000300 04 3b 9c 3b 77 a8 fd bb 87 d8 77 3a 2f d6 ec bb
       0.0047677774 -0.00774103 0.00094545673 -0.007227681
000310 a7 8c 3b bb 05 9f 52 39 48 e8 8d bb ca 8f 22 ba
       -0.002861777 0.000200864 -0.0043306686 -0.0006201236
000320 1a c9 83 bb df c8 70 3c 3c f8 23 3c dc a0 04 bb
       -0.004021776 0.014696329 0.010007914 -0.0020237481
000330 a3 5b 86 bc c3 17 b8 3b 5a e0 28 3c 8a 7e 62 bb
       -0.016401118 0.005618067 0.010307396 -0.0034560286
000340 62 48 b0 bb 69 be 84 bb 13 ea 12 bc e7 6e f5 bb
       -0.0053797225 -0.004051019 -0.00896694 -0.007490027
000350 f3 99 0e 3b 15 7d f9 3b bf 94 40 bc e0 02 5c bb
       0.0021759241 0.007613788 -0.011754214 -0.003357105
000360 a5 d1 62 3b 87 4d fd b6 ef df 31 3c a3 f0 a9 3b
       0.003460982 -7.549013e-06 0.010856613 0.005186157
000370 47 da 0b 3a 59 6f 81 3b 78 ff 70 3b fb b1 f1 ba
       0.0005334955 0.0039500413 0.0036773365 -0.0018439883
000380 fe 8f ae 3a 48 7d 83 3c d7 68 e0 3b 2a 09 bd b9
       0.001331806 0.01605095 0.0068484354 -0.00036055717
000390 2b 87 4b bb 8a 1a 02 3c 33 fa 36 bc d2 9f 35 bb
       -0.0031055908 0.007940898 -0.011168051 -0.0027713669
0003a0 d0 05 ff b8 33 74 82 3b c7 29 13 3c 90 55 c8 ba
       -0.0001216043 0.003981137 0.008982128 -0.0015284289
0003b0 1d 90 58 3c a2 fe 04 3a 60 84 e8 ba 0f ec 7f bc
       0.013217953 0.00050733436 -0.0017739646 -0.015620246
0003c0 f8 6b c6 ba 7d 97 8d 3b 82 06 eb bb 5a f1 51 3c
       -0.0015138378 0.0043210373 -0.0071724067 0.01281389
0003d0 f3 9a 1e 3b ab 1e 3f 3b a7 89 49 3c 59 db 90 ba
       0.0024201244 0.0029162567 0.012300885 -0.0011051699
0003e0 d3 a5 de bb 7f b6 bc ba a3 47 e8 bb e4 07 86 3b
       -0.00679467 -0.001439765 -0.007088618 0.004090296
0003f0 2b dc f0 bb ab 2e f2 ba 0f 5f f2 bb 40 f3 34 3b
       -0.007350465 -0.0018477043 -0.007396586 0.0027610809

action_model._discrete_distribution.branches.0.bias f4 [5]
000000 00 00 00 00 00 00 00 00 00 00 00 00 00 00 00 00
       0.0 0.0 0.0 0.0
000010 00 00 00 00
       0.0

network_body._body_endoder.seq_layers.0.weight f4 [128, 1]
000000 6c 05 b8 3f a9 b0 d3 be 68 5b ae 3f 3a 4b 68 bf
       1.4376655 -0.41345719 1.3621645 -0.90739787
000010 cf 37 9d 3e 63 ad 05 40 f2 f6 47 3f 42 b7 4d bf
       0.3070664 2.0887077 0.78111184 -0.80357754
000020 cb 7f b2 3b 9a b6 11 3f 75 77 79 bf d6 fd c5 3e
       0.005447363 0.5691925 -0.974479 0.38670224
000030 bc f3 3c bd 7d b8 74 bf 58 78 c6 3e b4 3f af bf
       -0.04613088 -0.95594007 0.3876369 -1.3691316
000040 d0 9c 96 3e e4 32 5c bf c7 49 11 40 c0 3b 36 be
       0.29416513 -0.8601515 2.270128 -0.1779623
000050 99 79 3e bf bc bc 0f bf 54 ab c9 3e 68 7f 59 be
       -0.74404293 -0.5614736 0.39388525 -0.21240008
000060 e1 97 ad bf c2 eb 94 bf fd 8d a7 3f e2 5f 02 c0
       -1.3561975 -1.1634448 1.3090206 -2.0371022
000070 6b e0 55 3f 84 cb 0f c0 fb e0 12 3f 71 b5 2e bf
       0.8354556 -2.2467966 0.5737454 -0.6824561
000080 b1 86 20 bf 09 6d ff bf f6 72 69 be 53 74 a7 3e
       -0.6270552 -1.995515 -0.2279776 0.32705936
000090 2a 88 d5 3f b0 96 bd bd 99 e6 f1 3e 0d ce 27 40
       1.6682179 -0.09257257 0.47246245 2.6219513
0000a0 4c 62 dd be d2 f3 a3 be 4e 86 04 40 32 e2 33 c0
       -0.43239057 -0.32021958 2.0706973 -2.8106809
0000b0 ae bf 7e bf dd 75 16 40 77 b8 b9 3f 9b c1 00 bf
       -0.9951123 2.3509438 1.4509419 -0.5029542
0000c0 3a eb 4a 3f 5e 56 69 3f f3 e1 e9 bc 06 b3 66 be
       0.7926518 0.9114741 -0.028550124 -0.2252923
0000d0 0c 8a a7 bd b7 80 47 be 9f b5 a0 3f 4d 36 30 3f
       -0.08180627 -0.19482695 1.2555426 0.68832856
0000e0 69 f3 e5 bf 37 a5 12 3f a0 96 8f 3f 19 ba c6 3e
       -1.7964908 0.5728335 1.1217842 0.38813856
0000f0 61 c1 e8 bf f7 56 b9 bf 44 56 24 bf 02 93 a9 3e
       -1.8184015 -1.4479665 -0.6419413 0.3311997
000100 b9 c4 d7 3e bf 4f 07 3f ff 2c bd be 94 75 90 3f
       0.42142275 0.5285606 -0.36948392 1.1285882
000110 68 52 a3 3e 72 46 00 c0 33 5f 4b bf 16 db a4 3f
       0.31898808 -2.0042996 -0.7944214 1.287936
000120 88 a5 ec bd 70 5c 47 bf 64 de 43 3f 5a 0f aa be
       -0.1155501 -0.77875423 0.76511216 -0.33214837
000130 9a ec 0e 40 24 5c fb be 5a 5b 8c bf 2d 8a c1 bf
       2.233191 -0.49093735 -1.0965378 -1.5120293
000140 da 42 ad be 29 ba 39 3f 26 fb ce 3e d1 5c 86 3f
       -0.33840066 0.7254968 0.40425986 1.0497075
000150 5b 84 22 be 17 e7 d4 be 56 e9 b9 bf ec c8 8f bf
       -0.15870802 -0.41582558 -1.4524333 -1.1233191
000160 2f 38 21 3d 5e 7e 99 bf dd 24 15 40 a7 5b 1f 3e
       0.03936022 -1.1991689 2.330375 0.15562306
000170 9d cc 03 3f c0 19 87 3f 5b 4f ae 3e ff 45 47 3f
       0.5148409 1.0554733 0.34044918 0.7784118
000180 18 a1 81 3f db 9b 7f 3f 20 dd 42 3f 8d 1b 38 3f
       1.0127287 0.9984719 0.7611866 0.7191704
000190 c0 af a7 3e 77 db 2f be bd 81 3b 3f 41 6c 34 bf
       0.32751274 -0.17173563 0.7324484 -0.7047768
0001a0 d8 48 d1 3e fc bc 62 3f 6c 4c a3 3e 8b e6 16 3f
       0.40875888 0.8856962 0.31894243 0.5894553
0001b0 e6 30 74 bf 91 94 b0 bf d9 ff b5 bf 0f 22 1d 3f
       -0.95387113 -1.3795339 -1.4218704 0.61380094
0001c0 81 44 2a bf f6 d9 8a 3f e8 70 ab bf fa 4d bf 3e
       -0.6651078 1.0847766 -1.3393831 0.3736418
0001d0 e1 e6 f6 3f b7 fe d4 3f 55 5a ba bf 42 64 ab bf
       1.9289209 1.6640233 -1.4558817 -1.3389971
0001e0 ae 36 0d c0 65 c7 03 3e 45 90 4c c0 e6 2e 3a 3d
       -2.2064624 0.12869032 -3.1963055 0.045454882
0001f0 ce 6f 0c c0 23 4e 2c be 79 c7 64 be c6 d4 6a 3e
       -2.194324 -0.16826682 -0.22341718 0.22932729

network_body._body_endoder.seq_layers.0.bias f4 [128]
000000 00 00 00 00 00 00 00 00 00 00 00 00 00 00 00 00
       0.0 0.0 0.0 0.0
000010 00 00 00 00 00 00 00 00 00 00 00 00 00 00 00 00
       0.0 0.0 0.0 0.0
000020 00 00 00 00 00 00 00 00 00 00 00 00 00 00 00 00
       0.0 0.0 0.0 0.0
000030 00 00 00 00 00 00 00 00 00 00 00 00 00 00 00 00
       0.0 0.0 0.0 0.0
000040 00 00 00 00 00 00 00 00 00 00 00 00 00 00 00 00
       0.0 0.0 0.0 0.0
000050 00 00 00 00 00 00 00 00 00 00 00 00 00 00 00 00
       0.0 0.0 0.0 0.0
000060 00 00 00 00 00 00 00 00 00 00 00 00 00 00 00 00
       0.0 0.0 0.0 0.0
000070 00 00 00 00 00 00 00 00 00 00 00 00 00 00 00 00
       0.0 0.0 0.0 0.0
000080 00 00 00 00 00 00 00 00 00 00 00 00 00 00 00 00
       0.0 0.0 0.0 0.0
000090 00 00 00 00 00 00 00 00 00 00 00 00 00 00 00 00
       0.0 0.0 0.0 0.0
0000a0 00 00 00 00 00 00 00 00 00 00 00 00 00 00 00 00
       0.0 0.0 0.0 0.0
0000b0 00 00 00 00 00 00 00 00 00 00 00 00 00 00 00 00
       0.0 0.0 0.0 0.0
0000c0 00 00 00 00 00 00 00 00 00 00 00 00 00 00 00 00
       0.0 0.0 0.0 0.0
0000d0 00 00 00 00 00 00 00 00 00 00 00 00 00 00 00 00
       0.0 0.0 0.0 0.0
0000e0 00 00 00 00 00 00 00 00 00 00 00 00 00 00 00 00
       0.0 0.0 0.0 0.0
0000f0 00 00 00 00 00 00 00 00 00 00 00 00 00 00 00 00
       0.0 0.0 0.0 0.0
000100 00 00 00 00 00 00 00 00 00 00 00 00 00 00 00 00
       0.0 0.0 0.0 0.0
000110 00 00 00 00 00 00 00 00 00 00 00 00 00 00 00 00
       0.0 0.0 0.0 0.0
000120 00 00 00 00 00 00 00 00 00 00 00 00 00 00 00 00
       0.0 0.0 0.0 0.0
000130 00 00 00 00 00 00 00 00 00 00 00 00 00 00 00 00
       0.0 0.0 0.0 0.0
000140 00 00 00 00 00 00 00 00 00 00 00 00 00 00 00 00
       0.0 0.0 0.0 0.0
000150 00 00 00 00 00 00 00 00 00 00 00 00 00 00 00 00
       0.0 0.0 0.0 0.0
000160 00 00 00 00 00 00 00 00 00 00 00 00 00 00 00 00
       0.0 0.0 0.0 0.0
000170 00 00 00 00 00 00 00 00 00 00 00 00 00 00 00 00
       0.0 0.0 0.0 0.0
000180 00 00 00 00 00 00 00 00 00 00 00 00 00 00 00 00
       0.0 0.0 0.0 0.0
000190 00 00 00 00 00 00 00 00 00 00 00 00 00 00 00 00
       0.0 0.0 0.0 0.0
0001a0 00 00 00 00 00 00 00 00 00 00 00 00 00 00 00 00
       0.0 0.0 0.0 0.0
0001b0 00 00 00 00 00 00 00 00 00 00 00 00 00 00 00 00
       0.0 0.0 0.0 0.0
0001c0 00 00 00 00 00 00 00 00 00 00 00 00 00 00 00 00
       0.0 0.0 0.0 0.0
0001d0 00 00 00 00 00 00 00 00 00 00 00 00 00 00 00 00
       0.0 0.0 0.0 0.0
0001e0 00 00 00 00 00 00 00 00 00 00 00 00 00 00 00 00
       0.0 0.0 0.0 0.0
0001f0 00 00 00 00 00 00 00 00 00 00 00 00 00 00 00 00
       0.0 0.0 0.0 0.0

network_body._body_endoder.seq_layers.2.weight f4 [128, 128]
000000 6c 0c dd 3c 54 bd 96 3d b8 6f 17 bc f5 ef 33 be
       0.026983462 0.0736033 -0.009242944 -0.17572005
000010 45 6c c5 3c 3d ed db 3a d8 3c ab 3d c3 4c 16 3d
       0.024099478 0.0016779077 0.083612144 0.0366943
000020 a5 1f 4f 3d 12 f6 12 bc ed a8 25 be 5c ee 95 bc
       0.050567288 -0.008969801 -0.16177721 -0.018302135
000030 41 9c b6 3d f5 70 c4 bd 92 f8 5d 3d 93 d4 23 bd
       0.08916522 -0.09591857 0.054192133 -0.03999765
000040 3f 66 54 bd b3 25 d3 3c ab 5a 4b bd 7e 5b 1a 3e
       -0.051855322 0.025774812 -0.049647015 0.15073964
000050 7b 1e 57 3d d1 e1 e5 3d 88 d4 a4 bd 8b 3c bb bd
       0.052519303 0.11224712 -0.080483496 -0.09142407
000060 88 21 eb bd ed 75 0c be 41 20 e9 3c 15 6c 47 3d
       -0.11481005 -0.1371686 0.028457763 0.04868706
000070 cf 1b 85 bd 3b 28 3a 3d 44 5f aa 3d 5a af 59 3d
       -0.06499445 0.045448523 0.08318952 0.053145744
000080 55 3f 8d bd 54 41 5f bd 45 ac 86 bc ee 40 be bd
       -0.06896845 -0.05450566 -0.016439566 -0.09289728
000090 29 01 c7 bc 95 d2 9a bd 02 5e 08 3e 3e 2b ab 3d
       -0.024292545 -0.075596966 0.13317111 0.08357857
0000a0 30 a9 7d bd fa 13 aa bd 73 f4 a6 3b 98 97 7d 3d
       -0.061928928 -0.083045915 0.0050950586 0.06191215
0000b0 3a 99 89 3d 3d d5 a7 bc 5a 8e 30 be 6f c2 ff bd
       0.06718679 -0.020487422 -0.17241803 -0.12488257
0000c0 b9 81 42 3e 8a 41 83 3e 26 6d 3b bd 69 ec 0e 3d
       0.18994798 0.2563594 -0.04575839 0.034893427
0000d0 f9 f0 ea bc b2 6e 77 bd 27 3c c1 bd 72 3f b5 bd
       -0.028679358 -0.0604083 -0.09435301 -0.08849992
0000e0 ab 1d be bc 58 b4 60 bb 53 94 2a bd f9 81 a6 3d
       -0.023207506 -0.003428718 -0.04164536 0.08130259
0000f0 09 92 14 bd 66 f4 15 3e 50 2d d3 bd 0f fd 33 bd
       -0.036272082 0.14644012 -0.10311377 -0.043942507
000100 12 06 af bd f9 a2 b4 bd ea 0f 96 3c 02 ad 34 3c
       -0.0854608 -0.08820147 0.018318135 0.011027576
000110 5e a6 a0 bd b0 f7 52 3d 2c 58 6e be a6 af a2 3d
       -0.07844232 0.051505744 -0.23275822 0.079436585
000120 51 11 34 bd 3a eb e8 3c 24 26 84 bd 40 e0 70 bd
       -0.043961827 0.028432477 -0.06452587 -0.05880761
000130 76 f1 d2 bc d3 34 b9 bd df d9 87 bd 36 34 fa bc
       -0.025749903 -0.090432785 -0.066333525 -0.030542474
000140 14 5c f7 bd 8b 8e 1f bc c2 bb b5 3b f9 c2 d6 3c
       -0.120781094 -0.009738575 0.005546064 0.026216017
000150 9e 57 1c 3e 69 76 78 bc 55 eb dc 3d 49 8f 05 bd
       0.15267798 -0.01516495 0.107870735 -0.03260735
000160 e0 2f c0 bd 16 04 fd 3d 64 cc 67 3d 59 2b ac 3d
       -0.093841314 0.12354295 0.056591406 0.084067054
000170 89 c3 bd 3d 6c 35 55 3c ab 7b 92 bd 9b 64 14 be
       0.09265811 0.013013225 -0.07152494 -0.14491503
000180 9b 18 52 bd fc 07 e3 bd 49 5e 64 3d 62 81 6d bc
       -0.051292997 -0.11085507 0.05575398 -0.014496179
000190 6c 34 9c bd d1 22 92 bc cb d9 35 3e d4 33 9e bb
       -0.07627186 -0.017838867 0.17758863 -0.0048279557
0001a0 80 22 83 3d 1a c5 f9 3c 1f d0 e5 3d ac c5 04 bd
       0.06403065 0.030489493 0.112213366 -0.032415077
0001b0 dc 55 61 bd 66 db 3c bd fb af eb bd 61 5c 11 be
       -0.055013523 -0.046107672 -0.11508175 -0.14195396
0001c0 f0 39 df 3d 17 bd 9e be 80 e3 24 be 8d 92 e4 bb
       0.108997226 -0.3100364 -0.1610241 -0.006975478
0001d0 ba 88 64 3e b5 84 00 3b 57 50 65 bd 22 78 93 bc
       0.22317782 0.001961035 -0.05598482 -0.01800162
0001e0 3b f6 ee 3c 70 0d bd bb dd 73 12 3d e7 db 42 bd
       0.029170146 -0.005769424 0.035755027 -0.047572996
0001f0 6b 7b a7 bb 66 df 2b 3d a8 f0 91 bd 5a 60 d8 3d
       -0.005111148 0.041961096 -0.0712598 0.105652526
000200 a5 48 84 bd 97 da 5b bc b8 97 b7 bb 0a 26 c3 3d
       -0.06459168 -0.013418815 -0.005602803 0.0952874
000210 b9 cf 60 3c aa 9d cf 3d b1 dd 85 bd e8 ea ad 3d
       0.0137214 0.10137494 -0.06536425 0.084920704
000220 29 fc 12 be f7 62 59 3e f4 37 2e be 4e 8b 39 bd
       -0.14354004 0.21229158 -0.17013532 -0.045298867
000230 05 b0 4b be 04 87 e4 3c 26 f6 c2 bc 8d 0b b2 3c
       -0.19891365 0.027896412 -0.023799013 0.021734023
000240 7a fd ba 3d 8e f2 4d 3d 57 4b f3 3d 5a 32 c3 3d
       0.09130378 0.050280146 0.11879604 0.09531088
000250 27 51 de bd 40 45 c8 3d 16 7a a7 3d cd a8 be 3d
       -0.10855322 0.097788334 0.08177583 0.0930954
000260 45 1f 39 3d 76 ba dc bd fd 8f 84 bd 42 ba ad bd
       0.045195837 -0.10777752 -0.06472776 -0.084827915
000270 cb dc c5 3b 77 99 9a 3d a6 61 6b 3d 65 c6 df 3d
       0.0060382835 0.07548802 0.05746617 0.10926513
000280 53 6a d6 bd 4c 9e 5e 3c 17 57 77 3c 70 8b a5 3d
       -0.104694985 0.013587546 0.015096447 0.08083236
000290 0d b6 fc 3b 17 4c ef 3c 57 81 cb bc af a7 33 3c
       0.007712132 0.029211087 -0.024841947 0.010965272
0002a0 8d cb b3 3d 86 0b 61 3c 5c 70 fc 3d 16 9c 2d 3d
       0.087790586 0.013735658 0.12326118 0.042385183
0002b0 c2 3e 96 bd 34 7b cd bc a1 04 50 3e 88 21 a5 bc
       -0.07336189 -0.025083162 0.20314266 -0.02015759
0002c0 9f c5 0d bc 6f 54 8a bd 39 7e 8b 3d 6e 60 1f be
       -0.008653074 -0.06754386 0.068111844 -0.15564129
0002d0 b7 56 f3 3d a4 fc 4c 3d d1 01 eb bc 3b 96 96 3d
       0.11881774 0.050045624 -0.02868739 0.07352873
0002e0 db 60 34 3d d3 b6 47 3c f2 11 f8 3d 19 ea 02 3e
       0.04403768 0.012189585 0.12112798 0.12784614
0002f0 7a 10 79 3d 1e 87 7e 3c f4 bd ae bd 76 6d 1d 3c
       0.06080673 0.015535144 -0.085323244 0.009608617
000300 3e e3 b7 bd ad 83 0b 3c d7 0f 64 3e d2 10 ad 3d
       -0.0897889 0.008515281 0.22271667 0.08450474
000310 21 26 68 bd f2 05 dd 3d 4d 32 45 3d 10 5f 15 3d
       -0.056676988 0.107921496 0.048143674 0.03646761
000320 79 01 2b 3d 5c 80 93 bd ad 2e 9f bc 46 74 95 bd
       0.04174945 -0.07202217 -0.019431436 -0.07297568
000330 f5 4a 5c 3d 12 b4 18 3d d5 61 98 3d f3 d8 5d bd
       0.053782422 0.037281103 0.07440535 -0.054161977
000340 7d 8b 22 bc 31 ec 9d 3c 4b cc 39 3d 4d 03 a0 bd
       -0.009920952 0.019277664 0.045360845 -0.078131296
000350 33 b3 b3 bd 63 9f 9e bd fa 58 2f 3c 9f 8a 14 3e
       -0.08774414 -0.07745244 0.010702366 0.14506005
000360 8a ff 50 3d 2d b6 f8 bd bb fa f6 3d 80 48 38 3d
       0.05102495 -0.12144122 0.12059542 0.044991016
000370 d0 1c 59 bd 93 0b ce bd f0 f2 98 bd 40 5d 4f bd
       -0.053005993 -0.10060801 -0.07468212 -0.05062604
000380 5d 4c 3f be fc 3d 94 3c 0c bb 94 3d 27 a4 df bd
       -0.18681474 0.018095963 0.07262239 -0.109199814
000390 9e 42 0a bd 86 68 23 3e 73 59 90 bd 3d a1 bb 3d
       -0.033754937 0.15957841 -0.07048311 0.09161613
0003a0 4d c0 1d 3d a1 2a 95 3d 17 04 37 bd be 40 2a 3c
       0.03851347 0.072835214 -0.044681635 0.010391412
0003b0 d6 18 c5 bd 87 b8 61 3e 5b 2a 9e 3c 25 48 f1 bd
       -0.09623878 0.22043048 0.019307306 -0.117813386
0003c0 94 f9 9f bd a4 a1 36 3d 00 5d 82 bd 7a 51 4e bd
       -0.07811275 0.044587746 -0.063653946 -0.05037067
0003d0 f2 be 5b bc c2 48 2a 3e 45 d8 1d be 91 a1 16 3e
       -0.013412224 0.16629317 -0.15414532 0.1471007
0003e0 90 f8 a3 3c 84 2f df bd a4 7c 3b 3d f1 e7 7f be
       0.020015985 -0.10897735 0.045773163 -0.24990822
0003f0 3d 60 62 bc 0e b0 d2 3d b4 34 65 3d d6 3b 63 3d
       -0.01381689 0.10287486 0.055958465 0.055476986

network_body._body_endoder.seq_layers.2.bias f4 [128]
000000 00 00 00 00 00 00 00 00 00 00 00 00 00 00 00 00
       0.0 0.0 0.0 0.0
000010 00 00 00 00 00 00 00 00 00 00 00 00 00 00 00 00
       0.0 0.0 0.0 0.0
000020 00 00 00 00 00 00 00 00 00 00 00 00 00 00 00 00
       0.0 0.0 0.0 0.0
000030 00 00 00 00 00 00 00 00 00 00 00 00 00 00 00 00
       0.0 0.0 0.0 0.0
000040 00 00 00 00 00 00 00 00 00 00 00 00 00 00 00 00
       0.0 0.0 0.0 0.0
000050 00 00 00 00 00 00 00 00 00 00 00 00 00 00 00 00
       0.0 0.0 0.0 0.0
000060 00 00 00 00 00 00 00 00 00 00 00 00 00 00 00 00
       0.0 0.0 0.0 0.0
000070 00 00 00 00 00 00 00 00 00 00 00 00 00 00 00 00
       0.0 0.0 0.0 0.0
000080 00 00 00 00 00 00 00 00 00 00 00 00 00 00 00 00
       0.0 0.0 0.0 0.0
000090 00 00 00 00 00 00 00 00 00 00 00 00 00 00 00 00
       0.0 0.0 0.0 0.0
0000a0 00 00 00 00 00 00 00 00 00 00 00 00 00 00 00 00
       0.0 0.0 0.0 0.0
0000b0 00 00 00 00 00 00 00 00 00 00 00 00 00 00 00 00
       0.0 0.0 0.0 0.0
0000c0 00 00 00 00 00 00 00 00 00 00 00 00 00 00 00 00
       0.0 0.0 0.0 0.0
0000d0 00 00 00 00 00 00 00 00 00 00 00 00 00 00 00 00
       0.0 0.0 0.0 0.0
0000e0 00 00 00 00 00 00 00 00 00 00 00 00 00 00 00 00
       0.0 0.0 0.0 0.0
0000f0 00 00 00 00 00 00 00 00 00 00 00 00 00 00 00 00
       0.0 0.0 0.0 0.0
000100 00 00 00 00 00 00 00 00 00 00 00 00 00 00 00 00
       0.0 0.0 0.0 0.0
000110 00 00 00 00 00 00 00 00 00 00 00 00 00 00 00 00
       0.0 0.0 0.0 0.0
000120 00 00 00 00 00 00 00 00 00 00 00 00 00 00 00 00
       0.0 0.0 0.0 0.0
000130 00 00 00 00 00 00 00 00 00 00 00 00 00 00 00 00
       0.0 0.0 0.0 0.0
000140 00 00 00 00 00 00 00 00 00 00 00 00 00 00 00 00
       0.0 0.0 0.0 0.0
000150 00 00 00 00 00 00 00 00 00 00 00 00 00 00 00 00
       0.0 0.0 0.0 0.0
000160 00 00 00 00 00 00 00 00 00 00 00 00 00 00 00 00
       0.0 0.0 0.0 0.0
000170 00 00 00 00 00 00 00 00 00 00 00 00 00 00 00 00
       0.0 0.0 0.0 0.0
000180 00 00 00 00 00 00 00 00 00 00 00 00 00 00 00 00
       0.0 0.0 0.0 0.0
000190 00 00 00 00 00 00 00 00 00 00 00 00 00 00 00 00
       0.0 0.0 0.0 0.0
0001a0 00 00 00 00 00 00 00 00 00 00 00 00 00 00 00 00
       0.0 0.0 0.0 0.0
0001b0 00 00 00 00 00 00 00 00 00 00 00 00 00 00 00 00
       0.0 0.0 0.0 0.0
0001c0 00 00 00 00 00 00 00 00 00 00 00 00 00 00 00 00
       0.0 0.0 0.0 0.0
0001d0 00 00 00 00 00 00 00 00 00 00 00 00 00 00 00 00
       0.0 0.0 0.0 0.0
0001e0 00 00 00 00 00 00 00 00 00 00 00 00 00 00 00 00
       0.0 0.0 0.0 0.0
0001f0 00 00 00 00 00 00 00 00 00 00 00 00 00 00 00 00
       0.0 0.0 0.0 0.0

value_heads.value_heads.extrinsic.weight f4 [1, 128]
000000 4d d3 2d be 22 63 16 be 96 fa ca bd 7b ac 3b be
       -0.16975136 -0.14686254 -0.09911077 -0.18327515
000010 b7 6c 53 3e 9c c9 59 3e 25 90 86 bd 37 d0 a3 bd
       0.2064694 0.21268314 -0.06570462 -0.07998698
000020 45 b9 40 3d 5d e6 3c 3d 26 49 de 3d 3b 09 52 3e
       0.047051687 0.04611813 0.10853796 0.20511334
000030 c5 17 ec bd dd 54 48 3e c2 25 9b bd cd 79 65 bd
       -0.11527971 0.19563623 -0.07575561 -0.05602436
000040 43 0d 3e be ee 72 d1 bc dd d6 4c 3c 1b 1e 03 be
       -0.18559746 -0.025567498 0.012502399 -0.12804453
000050 bb af c2 3d 44 83 31 be 26 73 ed bd 1c 5a da bd
       0.09506174 -0.1733523 -0.115942284 -0.10661718
000060 a4 9d 9f bc 8e 13 25 3e e9 8a 08 3e 1e a9 d6 3d
       -0.019484349 0.16120741 0.1333424 0.10481475
000070 eb ee 03 3e 3e b8 54 be ba 8f 87 bd 8d 71 c7 bd
       0.12884109 -0.20773408 -0.066192105 -0.09738455
000080 e7 b0 ac 3c ef 3d 82 bd e2 fe ad bd 32 71 15 3e
       0.021080447 -0.06359469 -0.08495881 0.14593962
000090 f9 fb 74 bc 42 4e 50 be 04 e8 76 bd 02 10 01 be
       -0.014952653 -0.20342353 -0.06027986 -0.12603763
0000a0 5c 33 24 be ec 6b 36 be f4 2e 2f be 53 5f 0a be
       -0.16035217 -0.17814606 -0.17107755 -0.13512926
0000b0 af e2 1d 3e 24 e9 35 3e e5 19 a3 bd cf ed 29 3e
       0.15418504 0.17764717 -0.07963923 0.16594623
0000c0 43 a8 01 3e 12 b0 04 3e 4f b7 a1 bd a1 a5 21 3e
       0.12661843 0.1295779 -0.078962915 0.15785839
0000d0 9d c3 1e be 21 94 d9 3d da 23 82 3c 48 c0 37 be
       -0.15504308 0.106239565 0.015886236 -0.17944443
0000e0 65 d0 88 bd dc d2 d8 bd 21 5f a9 3c d5 76 55 be
       -0.06680373 -0.10587093 0.020675244 -0.20846112
0000f0 ea d2 88 3d 96 aa d9 3c d5 8a bb bd 96 fb 39 be
       0.06680854 0.0265706 -0.091573395 -0.18162379
000100 7d 74 7d 3c 24 93 f0 3d 8d 87 ac 3c f6 09 5b 3e
       0.0154696675 0.11746815 0.02106073 0.21390519
000110 44 95 6e 3d 38 98 17 3e 2f 39 bc bb 9f 05 cd 3d
       0.05824782 0.1480416 -0.0057441215 0.10010838
000120 2c 0e 19 3d 36 60 9d bd 83 ad 6c bd 8a 8c 41 be
       0.03736703 -0.076843664 -0.05778266 -0.18901268
000130 9a 42 4f be dd ad a3 bd 73 cf 21 3e fc 3e 4e 3e
       -0.2024025 -0.07992146 0.15801792 0.20141214
000140 e0 55 04 be 18 4a cb bd 25 b5 b5 bc cb 18 05 be
       -0.12923384 -0.09926242 -0.022181103 -0.12997739
000150 8e cf 47 3c b6 06 12 3d c4 c6 4e 3e b6 a2 4d be
       0.012195481 0.03565093 0.2019301 -0.200816
000160 76 73 fb 3d a4 e0 35 3e 2a a9 e5 3d d5 24 6c 3d
       0.12277882 0.17761475 0.11213906 0.057652313
000170 96 d6 43 3d 6d 17 e8 3b 0d d4 43 3e 09 dd 44 3e
       0.047812067 0.0070828707 0.1912386 0.19224943
000180 74 3f 64 bd f4 c1 ea bc 4f 1a 28 3d c6 a4 43 3e
       -0.055724576 -0.028656937 0.041040715 0.19105825
000190 cd ae 2c bc 7d 4f 59 3e c8 8f a5 bb f9 84 2a 3d
       -0.010539723 0.21221729 -0.0050525405 0.04163072
0001a0 b5 27 0d 3d c5 7d c2 bd 44 50 f1 bc 97 c7 c0 bd
       0.034461696 -0.09496645 -0.029457219 -0.09413069
0001b0 df 36 30 3d 5c 5a 0d 3d c3 4f 11 be b4 d7 e6 3c
       0.04302108 0.03451 -0.14190583 0.028179027
0001c0 38 54 01 3c 1e d6 e0 3c 1a c9 c5 bd 0f 53 07 3e
       0.0078936145 0.027445849 -0.09657498 0.13215278
0001d0 9e 69 d9 bc c8 3d 08 3e 02 d0 38 bd 8a a8 43 bc
       -0.02653962 0.13304818 -0.045120247 -0.011942038
0001e0 e6 72 11 3e 31 3e 4d bd 82 b5 12 3c c8 83 46 be
       0.14203987 -0.05010814 0.008954408 -0.19386208
0001f0 2f d1 14 be 85 63 40 be c0 cd 2f be 6a 9a 82 3b
       -0.14532922 -0.18787964 -0.17168331 0.0039856927
