results/Test/MoveToGoal.onnx (onnx, 72639 bytes, 7 tensors)

action_model._continuous_distribution.log_sigma f4 [1, 2]
0	0x00000000	0.0
1	0x00000000	0.0

action_model._continuous_distribution.mu.bias f4 [2]
0	0x00000000	0.0
1	0x00000000	0.0

action_model._continuous_distribution.mu.weight f4 [2, 128]
0	0xbc4b68eb	-0.012415151
1	0x3d0d26d4	0.034460858
2	0xbca744df	-0.020418582
3	0xbbd1e5b7	-0.006405558
4	0x3c9e98a9	0.019359903
5	0xbc922acd	-0.017842675
6	0xbcaa2301	-0.020768644
7	0x3c56b72f	0.013105198
8	0xbb971e1a	-0.0046117427
9	0xbcb60f8c	-0.02222421
10	0xbc275eea	-0.0102155
11	0x3bb303a3	0.00546308
12	0x3c3c244b	0.011483262
13	0x3c5812a7	0.013188041
14	0xbbd36598	-0.00645132
15	0xbc0e2623	-0.008676085
16	0x3cc4b4ee	0.024012055
17	0x3d1deb9c	0.038554773
18	0x3aac7710	0.0013158042
19	0xbc3e2ea3	-0.011607799
20	0x3cbc842f	0.023012249
21	0x3b3971b2	0.0028296527
22	0xba91523f	-0.0011087133
23	0xbc55b9ed	-0.013044816
24	0xbc7fddb8	-0.015616827
25	0xbc88b257	-0.016686602
26	0xbd051ea0	-0.03249991
27	0x3c6d6b57	0.014490924
28	0x3bf63ee7	0.0075148228
29	0x3983d58e	0.00025145378
30	0x3cd5e9f2	0.02611253
31	0x3c5b40c0	0.013382137
32	0xbc0652bb	-0.008198435
33	0x3c8d3e52	0.01724163
34	0xbc883c53	-0.016630327
35	0xbccbe6a4	-0.024890251
36	0x3bb61c99	0.0055576083
37	0x3cda7e0b	0.02667143
38	0x3cd12e65	0.025534818
39	0x3c83c6ca	0.016086001
40	0x3c863921	0.016384663
41	0x3c03f2d2	0.008053498
42	0x3bbf81ad	0.005844316
43	0x3c4ecc6f	0.012621983
44	0xbcd00e08	-0.025397316
45	0xbb46f251	-0.0030356834
46	0x3c9e84ab	0.01935037
47	0x3caff4df	0.021479068
48	0xbba41e44	-0.0050084908
49	0xbbaf64a3	-0.005352573
50	0x3c2ef55c	0.010678615
51	0x3c51cb2b	0.012804787
52	0xbc793d7f	-0.015212416
53	0x3bb64246	0.0055620996
54	0xbc8850e2	-0.01664013
55	0x3a49c76a	0.00076972565
56	0x3acfcaaf	0.0015853251
57	0x3b0e8515	0.0021746804
58	0xbbf0aa97	-0.0073445546
59	0x3bbb2c57	0.005712073
60	0xbac8c3dd	-0.0015317161
61	0x3c2b4483	0.010453346
62	0x3c82a450	0.01594749
63	0x3c51040a	0.012757311
64	0x3c0a5adf	0.008444517
65	0xbb8f46d5	-0.0043724575
66	0x3c56c9fd	0.013109681
67	0xbc71f5f7	-0.014768115
68	0xbc0f5dd5	-0.008750399
69	0xbbb8f91c	-0.0056449305
70	0xbca69aab	-0.020337423
71	0x3c147212	0.0090604
72	0xbcd19098	-0.025581643
73	0x3c2f05a3	0.010682496
74	0x3cc11269	0.023568349
75	0x3bca5c5d	0.0061755613
76	0x3cdb9b70	0.026807517
77	0xbc3253e9	-0.010884264
78	0x3c44ac5f	0.012003987
79	0x3c83203f	0.016006587
80	0xbd536c65	-0.051617045
81	0xbb7d0b3a	-0.0038611428
82	0xbb21d438	-0.0024693143
83	0xbd3f444f	-0.046696004
84	0xbccf21ef	-0.025284735
85	0x3c76646b	0.01503859
86	0xbcf577f5	-0.029964427
87	0xbc0691d3	-0.008213478
88	0xbc50a56f	-0.012734755
89	0xbc09f6fb	-0.008420701
90	0x3c6fa415	0.014626523
91	0x3c6d7ceb	0.014495115
92	0xbc0bcc96	-0.008532664
93	0x3a097697	0.00052438065
94	0x3c93e353	0.018052733
95	0xbb97ebc2	-0.004636259
96	0x3c536a1d	0.012903717
97	0xbccb2742	-0.024798993
98	0x3c684320	0.01417616
99	0x3bb3888a	0.005478923
100	0xbc863538	-0.016382799
101	0xbca4ed6f	-0.020132748
102	0x3cc2f463	0.023798173
103	0x3c44c7af	0.012010499
104	0xbcae0d35	-0.021246532
105	0xba39ec67	-0.00070924166
106	0x3c73375f	0.0148447445
107	0x3c68961a	0.014195943
108	0x3b21858b	0.0024646248
109	0xbb967db3	-0.0045926212
110	0x3adb2440	0.0016719177
111	0x3c6b2e77	0.01435434
112	0x3c4abd37	0.012374214
113	0xba935ed6	-0.0011243473
114	0x3abad2a9	0.0014253455
115	0x3b856d74	0.0040718857
116	0xbccb44cb	-0.024813076
117	0xbcb331f0	-0.021874398
118	0x3d026e87	0.03184369
119	0xbc8063f3	-0.01567266
120	0xbc00a5bd	-0.007852015
121	0xbc53876b	-0.012910704
122	0x3bf64de2	0.0075166086
123	0x3c61588d	0.013754022
124	0x3c7ba8eb	0.015360097
125	0x3c135452	0.0089922715
126	0xbcc0bf9a	-0.023528863
127	0x3bb732bb	0.0055907643
128	0x3c7a3522	0.015271457
129	0x3a89cf0f	0.0010513979
130	0xbc65a44f	-0.014016225
131	0x3bd726f8	0.0065659247
132	0xbbf5feb7	-0.007507171
133	0xbc8c09f1	-0.017094584
134	0x3c82158b	0.015879413
135	0xbb2c7f51	-0.0026321004
136	0xbc493137	-0.0122798
137	0xbbd14ff5	-0.0063877054
138	0xbc5c3213	-0.013439673
139	0x3c0c4a4d	0.008562637
140	0xbd0592af	-0.03261059
141	0x3c45041a	0.012024904
142	0x3cc53d1e	0.024076995
143	0x3a25dc49	0.00063270755
144	0xbcb108ec	-0.0216107
145	0x3c0c5218	0.008564495
146	0xbbcb4845	-0.0062036836
147	0xbb5caeb3	-0.0033673465
148	0xbc4f1c9f	-0.012641101
149	0xbbe1c958	-0.006890457
150	0x3cf5a0f5	0.029983977
151	0xbcc2e8c9	-0.023792641
152	0x3ab40dad	0.0013736986
153	0xbcce27f0	-0.025165528
154	0xbd2a6074	-0.04159589
155	0xbccaa51d	-0.024736935
156	0x3b7ebc35	0.0038869504
157	0xbcf8cb7b	-0.030370465
158	0xbc191f3d	-0.009345827
159	0x3c0a9373	0.008458006
160	0xbcdf4d67	-0.027258588
161	0xbc782908	-0.015146501
162	0x3c26f0d7	0.010189257
163	0x3c68a85b	0.014200295
164	0x3d1dc07f	0.038513657
165	0x3b064d2c	0.0020492775
166	0xbcc8ec1d	-0.02452665
167	0xba1f3ff4	-0.00060748984
168	0x3c1e94db	0.009679045
169	0xbc8a1c9f	-0.01685935
170	0xbc9d1604	-0.019175537
171	0xbd0529f9	-0.03251073
172	0xbce8b862	-0.028408233
173	0xbcab41a7	-0.020905329
174	0xbb6c9562	-0.0036099781
175	0xbc0186ba	-0.0079056565
176	0x3cd55a0b	0.026043912
177	0x3c8fc195	0.017548362
178	0xbc2fb390	-0.010723963
179	0xbc3de4a7	-0.0115901595
180	0xbcbda1ff	-0.023148535
181	0x3cb7f2b4	0.022454597
182	0xbd1555ef	-0.036458906
183	0xbc1cd0ad	-0.009571237
184	0x3cca3a98	0.024686143
185	0xbd3251c3	-0.043535005
186	0x3bad9284	0.005297007
187	0xbc08c2d6	-0.008347234
188	0xbbb5f25b	-0.0055525727
189	0xbad4f00f	-0.001624586
190	0xbc273ba6	-0.010207092
191	0x3c41b04a	0.011821816
192	0x3c703008	0.014659889
193	0xbc7b69c2	-0.015345039
194	0x3d1a0ab2	0.037607856
195	0x3c7109b7	0.014711789
196	0x3a5255f8	0.00080236746
197	0x3d15565f	0.036459323
198	0xbd03df89	-0.0321956
199	0xbc407e44	-0.011748854
200	0xbd042685	-0.032263298
201	0x3ad01df0	0.0015878063
202	0xbc209912	-0.00980212
203	0xb9ba3f68	-0.00035523926
204	0xbca5705f	-0.020195184
205	0xbba6e43f	-0.005093127
206	0xbc5b1d07	-0.01337362
207	0x3bb041f1	0.0053789546
208	0x3cfd6bc7	0.030935181
209	0xbc6c785a	-0.014432991
210	0xbb4b6b12	-0.003103916
211	0x3c730afb	0.014834161
212	0x3bfb452d	0.0076681585
213	0x3a83deb3	0.0010060876
214	0xbbd3a5e2	-0.0064589838
215	0x3c86bedd	0.016448433
216	0xbc41e180	-0.011833549
217	0x3a8580f7	0.0010185529
218	0x3b116216	0.0022183708
219	0xbd12b224	-0.03581442
220	0xbbcc3691	-0.0062320908
221	0xbc3ee54e	-0.01165135
222	0x3c62318a	0.013805756
223	0x3bc9b82d	0.0061559887
224	0xbc29a02e	-0.010353131
225	0xbca4e264	-0.020127483
226	0x3c041614	0.008061904
227	0x3c12a908	0.008951433
228	0xbc4526a1	-0.012033136
229	0xbba047ca	-0.0048913704
230	0xbcb27edb	-0.021789005
231	0x3bf9c74a	0.007622634
232	0x3c04fdf7	0.008117191
233	0x3d07e1b2	0.033174224
234	0x3bbde4ee	0.005795113
235	0xbb631c65	-0.0034654376
236	0xbc5a12ea	-0.0133101735
237	0xbc9dbd77	-0.019255383
238	0x3c06505c	0.00819787
239	0x3c411ae2	0.0117861945
240	0xbbe25de3	-0.006908165
241	0xbb85198d	-0.004061884
242	0x3c9ccf06	0.019141685
243	0xbcbeea6e	-0.023305144
244	0xbc836284	-0.016038187
245	0xbb265883	-0.0025382347
246	0xbcc34cdb	-0.023840358
247	0x3c9b36c6	0.018947016
248	0x3cd55722	0.026042525
249	0x3ab4156b	0.0013739293
250	0xbc21cae6	-0.009875035
251	0x3cb3fa92	0.021970067
252	0xbbdc316b	-0.0067197583
253	0x3beb527a	0.007181463
254	0x3be773d2	0.0070633674
255	0x3d12e530	0.0358631

network_body._body_endoder.seq_layers.0.bias f4 [128]
0	0x00000000	0.0
1	0x00000000	0.0
2	0x00000000	0.0
3	0x00000000	0.0
4	0x00000000	0.0
5	0x00000000	0.0
6	0x00000000	0.0
7	0x00000000	0.0
8	0x00000000	0.0
9	0x00000000	0.0
10	0x00000000	0.0
11	0x00000000	0.0
12	0x00000000	0.0
13	0x00000000	0.0
14	0x00000000	0.0
15	0x00000000	0.0
16	0x00000000	0.0
17	0x00000000	0.0
18	0x00000000	0.0
19	0x00000000	0.0
20	0x00000000	0.0
21	0x00000000	0.0
22	0x00000000	0.0
23	0x00000000	0.0
24	0x00000000	0.0
25	0x00000000	0.0
26	0x00000000	0.0
27	0x00000000	0.0
28	0x00000000	0.0
29	0x00000000	0.0
30	0x00000000	0.0
31	0x00000000	0.0
32	0x00000000	0.0
33	0x00000000	0.0
34	0x00000000	0.0
35	0x00000000	0.0
36	0x00000000	0.0
37	0x00000000	0.0
38	0x00000000	0.0
39	0x00000000	0.0
40	0x00000000	0.0
41	0x00000000	0.0
42	0x00000000	0.0
43	0x00000000	0.0
44	0x00000000	0.0
45	0x00000000	0.0
46	0x00000000	0.0
47	0x00000000	0.0
48	0x00000000	0.0
49	0x00000000	0.0
50	0x00000000	0.0
51	0x00000000	0.0
52	0x00000000	0.0
53	0x00000000	0.0
54	0x00000000	0.0
55	0x00000000	0.0
56	0x00000000	0.0
57	0x00000000	0.0
58	0x00000000	0.0
59	0x00000000	0.0
60	0x00000000	0.0
61	0x00000000	0.0
62	0x00000000	0.0
63	0x00000000	0.0
64	0x00000000	0.0
65	0x00000000	0.0
66	0x00000000	0.0
67	0x00000000	0.0
68	0x00000000	0.0
69	0x00000000	0.0
70	0x00000000	0.0
71	0x00000000	0.0
72	0x00000000	0.0
73	0x00000000	0.0
74	0x00000000	0.0
75	0x00000000	0.0
76	0x00000000	0.0
77	0x00000000	0.0
78	0x00000000	0.0
79	0x00000000	0.0
80	0x00000000	0.0
81	0x00000000	0.0
82	0x00000000	0.0
83	0x00000000	0.0
84	0x00000000	0.0
85	0x00000000	0.0
86	0x00000000	0.0
87	0x00000000	0.0
88	0x00000000	0.0
89	0x00000000	0.0
90	0x00000000	0.0
91	0x00000000	0.0
92	0x00000000	0.0
93	0x00000000	0.0
94	0x00000000	0.0
95	0x00000000	0.0
96	0x00000000	0.0
97	0x00000000	0.0
98	0x00000000	0.0
99	0x00000000	0.0
100	0x00000000	0.0
101	0x00000000	0.0
102	0x00000000	0.0
103	0x00000000	0.0
104	0x00000000	0.0
105	0x00000000	0.0
106	0x00000000	0.0
107	0x00000000	0.0
108	0x00000000	0.0
109	0x00000000	0.0
110	0x00000000	0.0
111	0x00000000	0.0
112	0x00000000	0.0
113	0x00000000	0.0
114	0x00000000	0.0
115	0x00000000	0.0
116	0x00000000	0.0
117	0x00000000	0.0
118	0x00000000	0.0
119	0x00000000	0.0
120	0x00000000	0.0
121	0x00000000	0.0
122	0x00000000	0.0
123	0x00000000	0.0
124	0x00000000	0.0
125	0x00000000	0.0
126	0x00000000	0.0
127	0x00000000	0.0

network_body._body_endoder.seq_layers.0.weight f4 [128, 6]
0	0xbe000e87	-0.12505542
1	0x3f71b2a9	0.9441324
2	0x3f237ff2	0.63867104
3	0xbedf2388	-0.43581796
4	0xbf05512f	-0.52077
5	0xbf32180f	-0.6956796
6	0x3ead0ea6	0.33800238
7	0xbe7c9ac6	-0.24668416
8	0x3d9204cc	0.07129821
9	0x3fb056a4	1.3776441
10	0x3e609048	0.21930039
11	0xbe8ceccb	-0.2752441
12	0x3e6307a3	0.22170882
13	0x3ef75a72	0.48311192
14	0x3d0fd92a	0.035119213
15	0x3f4a61c8	0.7905545
16	0xbe94f9f5	-0.29096952
17	0x3e30369f	0.17208336
18	0x3dc324b2	0.095284835
19	0x3dfbb47f	0.12290286
20	0x3edd46fe	0.43218225
21	0xbedd6485	-0.43240753
22	0x3e4a0770	0.197294
23	0x3ece0881	0.40240863
24	0x3e50a0f0	0.20373893
25	0x3e20ffee	0.1572263
26	0xbe804368	-0.25051427
27	0x3e4426ad	0.19155379
28	0x3ab23342	0.0013595598
29	0xbeeb82ea	-0.45998317
30	0x3ea2ceb7	0.31798336
31	0xbee379ae	-0.44428772
32	0xbd220dea	-0.03956405
33	0x3f14872e	0.5801877
34	0x3f2ee00a	0.68310606
35	0xbe40ed0e	-0.18840429
36	0xbd9bb541	-0.07602931
37	0x3e61bc95	0.22044595
38	0xbe3b4b03	-0.18290333
39	0x3ecc036a	0.39846355
40	0xbd91cb17	-0.071188144
41	0xbe946045	-0.28979698
42	0xbf3377a0	-0.7010441
43	0xbe3d8e24	-0.18511254
44	0x3e35916f	0.1773126
45	0xbeeac77a	-0.45855314
46	0xbca5f019	-0.020256089
47	0xbee27565	-0.4423019
48	0x3f092ee8	0.535872
49	0xbf485cb8	-0.7826648
50	0x3ed87516	0.4227683
51	0xbe2b7a20	-0.16745806
52	0x3da86fb8	0.08224434
53	0xbe3f973a	-0.18710032
54	0xbea2ef35	-0.31823125
55	0x3ec7aa38	0.38997054
56	0x3f0d695a	0.5523888
57	0xbf96b66b	-1.177442
58	0x3e0a921c	0.13532299
59	0x3e5f8ae5	0.21830328
60	0xbf1dfe7b	-0.6171643
61	0xbf083777	-0.5320963
62	0x3e1de16c	0.15418023
63	0x3e5f4441	0.2180338
64	0x3de3ff31	0.11132658
65	0xbe9ceebc	-0.3065089
66	0xbe627e0d	-0.22118397
67	0x3c33c7f7	0.010972968
68	0x3e674556	0.22585043
69	0x3dc96e84	0.09835532
70	0x3f0dc6d4	0.5538151
71	0x3eb0ae49	0.3450797
72	0xbf1958b9	-0.59901005
73	0xbd98b4aa	-0.07456334
74	0x3e49f967	0.19724046
75	0xbeb6f0f5	-0.3573071
76	0x3f0fcc5c	0.561712
77	0x3f04907e	0.5178298
78	0xbe9b2599	-0.30302122
79	0xbede5ab6	-0.43428582
80	0xbdcd3ba5	-0.10021142
81	0x3e540d90	0.20708299
82	0xbe3c8191	-0.184088
83	0xbdbf8bf2	-0.09352864
84	0x3eb18e47	0.34678861
85	0x3cfe05ca	0.03100862
86	0x3dcc76a0	0.099835634
87	0xbefe020c	-0.49610937
88	0xbf01ad3e	-0.5065497
89	0x3ebbe077	0.3669469
90	0xbe2575c9	-0.16158213
91	0xbeb01a10	-0.34394884
92	0x3d916473	0.07099237
93	0x3dbba35c	0.09162018
94	0xbe949ae3	-0.2902442
95	0xbe4d2399	-0.2003311
96	0x3e90cfad	0.28283444
97	0xbc694297	-0.014237068
98	0xbf309009	-0.6896978
99	0x3f5e804c	0.86914515
100	0x3f10650f	0.56404203
101	0xbe465ed8	-0.19372118
102	0x3d81c072	0.06335534
103	0xbe74d95e	-0.23911044
104	0xbf05d271	-0.52274233
105	0xbd827870	-0.06370628
106	0x3e90bf80	0.28271103
107	0x3ebc1f2a	0.36742526
108	0x3dc40d6d	0.09572873
109	0xbc417b8c	-0.011809241
110	0xbe19ba73	-0.15012531
111	0xbaa1814f	-0.0012321862
112	0xbf29e128	-0.66359186
113	0xbedcf474	-0.43155253
114	0xbdcb9968	-0.09941369
115	0x3eb2b8e6	0.3490669
116	0x3e33bbfe	0.17552182
117	0x3dc97103	0.098360084
118	0xbf1113c9	-0.56670815
119	0x3edbce5d	0.4293088
120	0xbe95a2a6	-0.29225653
121	0x3ea679df	0.32514855
122	0x3e9a9523	0.30191907
123	0x3f0c8424	0.5488913
124	0xbee1150d	-0.43961373
125	0x3f01e488	0.50739336
126	0xbe4e858c	-0.20168132
127	0x3de3d960	0.11125445
128	0xbef1ba49	-0.47212437
129	0x3e85225e	0.26002783
130	0xbe0f441e	-0.13990828
131	0xbeccacf5	-0.39975706
132	0x3f32fbe6	0.69915617
133	0x3f12688e	0.5719079
134	0xbda43295	-0.0801746
135	0xbd5e998b	-0.05434565
136	0xbd927ecf	-0.07153093
137	0x3f05fbdb	0.52337426
138	0x3f2af7d9	0.66784436
139	0xbe49294a	-0.19644657
140	0xbd5b17e0	-0.053489566
141	0x3ddfad45	0.109217204
142	0xbe32f74f	-0.17477153
143	0xbf0b5b31	-0.5443602
144	0xbec13228	-0.3773358
145	0x3e88fee5	0.2675697
146	0x3a364f6d	0.00069545844
147	0x3f81873f	1.0119399
148	0xbe7a5f68	-0.24450457
149	0xbe586d5d	-0.21135469
150	0x3f08ba10	0.5340891
151	0x3df4b84b	0.119492136
152	0x3e8a635b	0.27028927
153	0x3ebfeb21	0.37484077
154	0xbe1e37ee	-0.15451023
155	0x3e385231	0.18000104
156	0xbe990b82	-0.29891592
157	0xbe6fd99b	-0.23422854
158	0x3edca50d	0.43094674
159	0xbdc7de0c	-0.09759149
160	0xbd8a7f3c	-0.06762549
161	0x3f8dee51	1.1088353
162	0x3f963486	1.1734779
163	0xbed8d89e	-0.42352766
164	0xbe23c88a	-0.15994468
165	0xbec66573	-0.38749275
166	0xbeb879a6	-0.3603031
167	0x3e7cd810	0.24691796
168	0x3db856e6	0.090009496
169	0x3e337134	0.17523652
170	0xbc5d6393	-0.01351251
171	0xbf1836ff	-0.5945892
172	0xbe6e08d0	-0.23245549
173	0x3de91d8c	0.11382589
174	0x3e73e83a	0.23819056
175	0xbeed7df0	-0.46385145
176	0xbe66d295	-0.22541268
177	0xbe877f5f	-0.26464364
178	0xbc1e196a	-0.009649614
179	0xbef28ece	-0.47374576
180	0x3f195a61	0.5990353
181	0xbe0237c4	-0.12716585
182	0xbd975d3b	-0.07390829
183	0xbe9ca58d	-0.30595055
184	0xbf1264fc	-0.5718534
185	0x3da0c45c	0.078499526
186	0xbf0f7b97	-0.5604796
187	0x3e8dff00	0.27733612
188	0x3e8cbc09	0.2748721
189	0xbd7f10c4	-0.06227185
190	0xbf04fb83	-0.51946276
191	0x3e3105cc	0.17287368
192	0x3dd762d5	0.105168976
193	0xbf02348b	-0.50861424
194	0xbee1f1b8	-0.4412973
195	0xbbb487a8	-0.0055093355
196	0x3f3053a0	0.688776
197	0xbdbefcf1	-0.093255885
198	0x3ca35f06	0.019942772
199	0x3ef988a6	0.48737067
200	0x3eb5954e	0.35465473
201	0x3e206641	0.15664007
202	0x3e36336e	0.17793056
203	0xbd1976d7	-0.03746685
204	0xbf0c19b4	-0.5472672
205	0x3e49656b	0.19667594
206	0x3e52b5c2	0.20577148
207	0x3db3da86	0.087819144
208	0x3e30b73a	0.17257395
209	0xbed520d9	-0.41626623
210	0xbf09a913	-0.5377361
211	0x3f22a978	0.6353984
212	0xbfa9e401	-1.3272706
213	0xbef51a73	-0.47871742
214	0x3dcfe5be	0.10151242
215	0x3e44b1f7	0.19208513
216	0xbef20912	-0.47272545
217	0xbe6f4033	-0.23364334
218	0x3f1e9876	0.61951387
219	0x3e92bbc0	0.28658867
220	0x3ecc6a98	0.39925075
221	0x3e8bdc6a	0.273166
222	0xbec74117	-0.38916847
223	0x3d2ef844	0.042717233
224	0x3ceeec3a	0.029165376
225	0x3e8699ca	0.26289207
226	0x3ef5c81a	0.48004228
227	0x3f1647d1	0.58703333
228	0x3e916916	0.28400487
229	0xbf143225	-0.57889014
230	0xbe3f24a7	-0.18666326
231	0x3eb815bc	0.35954082
232	0x3e72175a	0.2364172
233	0xbe23b7c2	-0.15988067
234	0x3f412ec2	0.7546197
235	0x3f205ddc	0.6264322
236	0x3e5eccb4	0.21757776
237	0xbf038533	-0.5137512
238	0xbc1f0118	-0.009704851
239	0x3dc59386	0.096472785
240	0x3e2b9d15	0.16759141
241	0xbe7cdcba	-0.24693576
242	0x3c82c147	0.015961302
243	0x3eb65d56	0.35618085
244	0xbe227b69	-0.1586739
245	0x3f5db0b7	0.8659777
246	0xbf439508	-0.7639928
247	0x3e4e810b	0.20166413
248	0xbec0fc8c	-0.37692678
249	0x3eaacac9	0.33357838
250	0x3f2109ea	0.6290575
251	0xbef35fa6	-0.4753391
252	0xbf1a0074	-0.6015694
253	0xbe4f3eca	-0.20238796
254	0x3dd4f1a8	0.10397655
255	0x3eafdefa	0.34349805

network_body._body_endoder.seq_layers.2.bias f4 [128]
0	0x00000000	0.0
1	0x00000000	0.0
2	0x00000000	0.0
3	0x00000000	0.0
4	0x00000000	0.0
5	0x00000000	0.0
6	0x00000000	0.0
7	0x00000000	0.0
8	0x00000000	0.0
9	0x00000000	0.0
10	0x00000000	0.0
11	0x00000000	0.0
12	0x00000000	0.0
13	0x00000000	0.0
14	0x00000000	0.0
15	0x00000000	0.0
16	0x00000000	0.0
17	0x00000000	0.0
18	0x00000000	0.0
19	0x00000000	0.0
20	0x00000000	0.0
21	0x00000000	0.0
22	0x00000000	0.0
23	0x00000000	0.0
24	0x00000000	0.0
25	0x00000000	0.0
26	0x00000000	0.0
27	0x00000000	0.0
28	0x00000000	0.0
29	0x00000000	0.0
30	0x00000000	0.0
31	0x00000000	0.0
32	0x00000000	0.0
33	0x00000000	0.0
34	0x00000000	0.0
35	0x00000000	0.0
36	0x00000000	0.0
37	0x00000000	0.0
38	0x00000000	0.0
39	0x00000000	0.0
40	0x00000000	0.0
41	0x00000000	0.0
42	0x00000000	0.0
43	0x00000000	0.0
44	0x00000000	0.0
45	0x00000000	0.0
46	0x00000000	0.0
47	0x00000000	0.0
48	0x00000000	0.0
49	0x00000000	0.0
50	0x00000000	0.0
51	0x00000000	0.0
52	0x00000000	0.0
53	0x00000000	0.0
54	0x00000000	0.0
55	0x00000000	0.0
56	0x00000000	0.0
57	0x00000000	0.0
58	0x00000000	0.0
59	0x00000000	0.0
60	0x00000000	0.0
61	0x00000000	0.0
62	0x00000000	0.0
63	0x00000000	0.0
64	0x00000000	0.0
65	0x00000000	0.0
66	0x00000000	0.0
67	0x00000000	0.0
68	0x00000000	0.0
69	0x00000000	0.0
70	0x00000000	0.0
71	0x00000000	0.0
72	0x00000000	0.0
73	0x00000000	0.0
74	0x00000000	0.0
75	0x00000000	0.0
76	0x00000000	0.0
77	0x00000000	0.0
78	0x00000000	0.0
79	0x00000000	0.0
80	0x00000000	0.0
81	0x00000000	0.0
82	0x00000000	0.0
83	0x00000000	0.0
84	0x00000000	0.0
85	0x00000000	0.0
86	0x00000000	0.0
87	0x00000000	0.0
88	0x00000000	0.0
89	0x00000000	0.0
90	0x00000000	0.0
91	0x00000000	0.0
92	0x00000000	0.0
93	0x00000000	0.0
94	0x00000000	0.0
95	0x00000000	0.0
96	0x00000000	0.0
97	0x00000000	0.0
98	0x00000000	0.0
99	0x00000000	0.0
100	0x00000000	0.0
101	0x00000000	0.0
102	0x00000000	0.0
103	0x00000000	0.0
104	0x00000000	0.0
105	0x00000000	0.0
106	0x00000000	0.0
107	0x00000000	0.0
108	0x00000000	0.0
109	0x00000000	0.0
110	0x00000000	0.0
111	0x00000000	0.0
112	0x00000000	0.0
113	0x00000000	0.0
114	0x00000000	0.0
115	0x00000000	0.0
116	0x00000000	0.0
117	0x00000000	0.0
118	0x00000000	0.0
119	0x00000000	0.0
120	0x00000000	0.0
121	0x00000000	0.0
122	0x00000000	0.0
123	0x00000000	0.0
124	0x00000000	0.0
125	0x00000000	0.0
126	0x00000000	0.0
127	0x00000000	0.0

network_body._body_endoder.seq_layers.2.weight f4 [128, 128]
0	0x3e413097	0.18866192
1	0xbc00d051	-0.0078621665
2	0x3c9b1dd6	0.018935125
3	0x3d9e7aca	0.07738264
4	0xbe3e260b	-0.185692
5	0x3e1b608c	0.15173548
6	0xbdd6030f	-0.10449802
7	0x3b9138d0	0.0044318214
8	0xbd0174a5	-0.03160538
9	0x3dae3aa0	0.085072756
10	0x3d4dba75	0.050226647
11	0x3d59c40e	0.053165488
12	0x3d0117f2	0.031516977
13	0x3d69d6da	0.057089664
14	0x3e0942bd	0.13404365
15	0xbc9fd82e	-0.019512262
16	0x3de60f2f	0.11233365
17	0xbcdcb64d	-0.026942397
18	0xbcf580d5	-0.029968658
19	0x3ddd1d9d	0.10796664
20	0xbdf21195	-0.1181976
21	0xbcc9c1e0	-0.02462858
22	0xbc2f5131	-0.01070051
23	0x3d63fc65	0.055660624
24	0xbd5d61a7	-0.054048207
25	0xbb3e1956	-0.00290068
26	0xbe08507d	-0.13311954
27	0xbd98f877	-0.07469266
28	0xbcf0e181	-0.029404404
29	0xbd96ae2a	-0.07357438
30	0x3c534899	0.012895727
31	0x3c726bd4	0.014796216
32	0x3d911a08	0.07085043
33	0x3d8c0a03	0.06837847
34	0xbc6b96cd	-0.014379215
35	0x3d0f1d50	0.034940064
36	0x3c05fb6d	0.00817762
37	0xbd301fc5	-0.042999048
38	0x3dcfe350	0.10150778
39	0xbcd98f97	-0.026557727
40	0x3d16f7be	0.03685736
41	0xbe15214a	-0.1456348
42	0x3e19472a	0.14968553
43	0xbdc0a52b	-0.09406503
44	0x3de5f6ea	0.11228736
45	0x3d1a6164	0.037690535
46	0xbd84d1c1	-0.0648532
47	0xbdabd2e2	-0.08389832
48	0xbcdcea95	-0.026967326
49	0x3c06fee0	0.008239478
50	0x3e053e20	0.1301198
51	0xbdeb7403	-0.11496737
52	0x3ba6d28b	0.0050910166
53	0xbd7801eb	-0.060548704
54	0xbc614c76	-0.01375114
55	0x3dd9db34	0.10637513
56	0xbd66d360	-0.056353927
57	0xbc836c87	-0.01604296
58	0x3d2a2a03	0.04154397
59	0x3e214acd	0.1575119
60	0xbd815d86	-0.06316666
61	0x3dd0856e	0.101817
62	0x3c1ff7cc	0.009763669
63	0x3d616978	0.055032223
64	0xbd7595db	-0.059957366
65	0xbe2592d8	-0.16169298
66	0xbb802dd5	-0.0039117136
67	0x3dd5d2e6	0.10440616
68	0x3d7f303f	0.06230187
69	0xbce256dc	-0.027629308
70	0xbd64d102	-0.055863388
71	0xbc60db08	-0.013724096
72	0xbd3db7e2	-0.046317942
73	0xbd971ab6	-0.073781416
74	0xbdc293f7	-0.09500878
75	0xbe1262cc	-0.142955
76	0xbd8ab3e4	-0.06772593
77	0xbd9448d6	-0.07240455
78	0x3d810a10	0.063007474
79	0x3d37256f	0.044713434
80	0x3e099e70	0.13439345
81	0x3d712032	0.058868594
82	0x3dce966c	0.100872844
83	0xbdc523ff	-0.09626006
84	0x3d7813b6	0.060565673
85	0xbc8f137d	-0.017465347
86	0xbd397a1b	-0.045282464
87	0x3da519e2	0.080615774
88	0xbd1c3bf1	-0.038143102
89	0xbe065c44	-0.13121134
90	0xbd8bd602	-0.06827928
91	0x3d08e0ee	0.033417635
92	0x387332c9	5.7983012e-05
93	0x3cea6e98	0.028617188
94	0x3c0640c8	0.008194156
95	0xbd86f7f9	-0.06590266
96	0xbd5c3a6f	-0.053766664
97	0x3d96bc74	0.07360163
98	0xbd9ec169	-0.07751734
99	0xbe2380e2	-0.15967134
100	0xbd0a39b1	-0.033746425
101	0x3d9b059d	0.0756943
102	0x3d54bc5c	0.051937446
103	0x3d4bac9e	0.049725167
104	0x3dae50b4	0.08511487
105	0xbd960a52	-0.07326187
106	0xbdf579f4	-0.11986151
107	0x3d1eb0c2	0.038742788
108	0x3e0017dc	0.12509102
109	0xbe1b2d2a	-0.15153947
110	0x3d810b6e	0.06301008
111	0xbbfc13a8	-0.007692773
112	0xbd8f5a5f	-0.06999659
113	0xbdc49902	-0.095994964
114	0xbdb27f5a	-0.08715697
115	0xbde868c8	-0.113481104
116	0xbdc7a287	-0.097477965
117	0x3c9ea92e	0.01936778
118	0xbd2228f5	-0.03958984
119	0x3e1c70a2	0.15277341
120	0x3c48ee27	0.012263811
121	0xbcd9d5a1	-0.026591124
122	0xbe1cb43e	-0.15303132
123	0x3ca7fb0c	0.02050545
124	0xbd81b833	-0.06333961
125	0xbda28d1e	-0.07937072
126	0x3d0aae64	0.033857718
127	0x3df583d5	0.119880356
128	0x3cf389ac	0.029728733
129	0x3e767012	0.24066189
130	0x3cf64405	0.030061731
131	0x3d8f6322	0.0700133
132	0x3ce1eb89	0.027578132
133	0x3caeaa00	0.021321297
134	0x3e053faa	0.13012567
135	0x3e0d5940	0.13803577
136	0x3d31204a	0.043243684
137	0xbe41e4f6	-0.18934998
138	0x3d2e9e17	0.042631235
139	0xbde2b4ce	-0.11069642
140	0x3de265b7	0.11054557
141	0x3d7e9587	0.06215432
142	0xbe1ea778	-0.15493572
143	0xbdd6da6d	-0.1049088
144	0x3d727489	0.059193168
145	0x3dc45af2	0.09587659
146	0xbccba6bd	-0.02485978
147	0x3d4bed7c	0.04978703
148	0xbe146eed	-0.1449544
149	0x3b7befb2	0.003844243
150	0x3c03e0af	0.008049174
151	0x3dce072a	0.1005996
152	0x3e11842d	0.14210577
153	0xbd110d6e	-0.0354132
154	0xbc910ba7	-0.017705752
155	0x3d520220	0.051271558
156	0xbd2f17bf	-0.042747255
157	0x3d7d9c02	0.06191636
158	0xbdfe1aaf	-0.12407433
159	0x3aaff60f	0.0013424772
160	0x3d610bd7	0.054942932
161	0x3b9ede9e	0.0048483154
162	0xbe420a7a	-0.18949309
163	0xbd5ed3b2	-0.054401107
164	0x3d9bd925	0.076097764
165	0xbd85fb77	-0.06542104
166	0x3da6f141	0.08151484
167	0x3e3478cc	0.17624205
168	0x3dd1d222	0.10245158
169	0x3cb45d72	0.022017214
170	0x3dc6b05f	0.09701609
171	0xbd125e33	-0.035734367
172	0x3d430a02	0.047616966
173	0x3cb3e5d9	0.021960186
174	0x3da480ab	0.08032354
175	0x3d2bbd22	0.041928418
176	0x3dcb37c4	0.09922746
177	0x3dd3efbf	0.10348462
178	0x3db1185d	0.08647225
179	0x3c7c1b07	0.015387303
180	0x3cf607af	0.03003296
181	0xbd9f957a	-0.07792182
182	0x3e18f346	0.14936551
183	0xbc1130a7	-0.008861697
184	0x3d515e27	0.05111518
185	0xbe3e329f	-0.18573998
186	0x3d4a6826	0.04941573
187	0xbb27e3e6	-0.0025618016
188	0x3cf7e978	0.030262694
189	0xbd8c44e1	-0.06849075
190	0xbd663110	-0.056199133
191	0x3df282a3	0.11841323
192	0xbdf74938	-0.12074512
193	0x3dd308eb	0.10304435
194	0xbe12d035	-0.14337237
195	0x3cd32b2b	0.02577742
196	0xbdf5fe73	-0.12011423
197	0xbdc23af7	-0.09483903
198	0xbe07ac80	-0.13249397
199	0xbbdbac88	-0.006703917
200	0xbd5588ef	-0.052132543
201	0x3cc310eb	0.023811778
202	0xbd8b3c54	-0.06798616
203	0x3ada91f5	0.0016675579
204	0xbcb7e0f7	-0.022446139
205	0x3ba02aaa	0.0048878985
206	0xb9de51a9	-0.0004240398
207	0xbc36e981	-0.01116407
208	0x3cfd575c	0.030925445
209	0xbe533cc9	-0.20628656
210	0x3d72cece	0.059279256
211	0x3dad1a37	0.08452266
212	0x3c001166	0.007816648
213	0xbc7be003	-0.015373233
214	0x3e09a28e	0.13440916
215	0xbc6e1109	-0.014530429
216	0x3cc70430	0.024293989
217	0xbe02b351	-0.12763716
218	0x3ceaf5ca	0.028681654
219	0xbd74bfe0	-0.0597533
220	0xbdf8680d	-0.12129221
221	0xbd6d9af0	-0.058009088
222	0x3d91704f	0.07101499
223	0xbd070e86	-0.032972835
224	0xbcfa8543	-0.030581122
225	0x3e2081b9	0.15674485
226	0xbd806318	-0.06268901
227	0x3c14fb48	0.009093113
228	0xbe110eb0	-0.14165759
229	0xbde10e79	-0.109890886
230	0x3e225b09	0.1585504
231	0x3d6d075b	0.057868343
232	0xbd0e4515	-0.03473385
233	0x3dd118d7	0.10209816
234	0xbdb102b0	-0.08643091
235	0xbe456e23	-0.19280295
236	0x3e419a8e	0.18906614
237	0x3ce3f92a	0.027828772
238	0xbc1989ac	-0.009371202
239	0xbcbab9be	-0.022793647
240	0xbd8b671a	-0.068067744
241	0x3d5aa427	0.053379204
242	0x3e4aab80	0.19791985
243	0x3d254f91	0.040359084
244	0xbd5cddaa	-0.053922333
245	0xbe03ad8c	-0.12859172
246	0xbd9c3f40	-0.076292515
247	0xbce69b06	-0.028150093
248	0xbdfbfad9	-0.12303705
249	0x3bb639f4	0.005561108
250	0xbc139b7e	-0.00900924
251	0xbbf9b1d4	-0.0076200757
252	0x3d96f235	0.07370416
253	0x3d005b24	0.03133692
254	0xbcbbc3cc	-0.022920512
255	0x3c98d283	0.018655067
