results/NewBirdAgent6/BirdAgent/BirdAgent-499964.pt (torch, 618247 bytes, 33 tensors)

network_body._body_endoder.seq_layers.0.weight f4 [128, 64]
000000 1a 0f 5c be 17 d4 a6 3d d9 6c 89 bd 64 f6 8f 3d
       -0.21490136 0.08145922 -0.06710214 0.07029417
000010 b2 34 f8 bb 0f a0 e0 3d 97 54 94 3d f4 d6 28 3e
       -0.007574641 0.10968029 0.07242697 0.16488248
000020 43 01 08 bd 82 c0 0c 3d 92 24 cd bc d2 50 1c 3e
       -0.03320433 0.034363277 -0.025041852 0.15265206
000030 ca d5 29 3d fb 03 ee 3c 65 fa 58 3e ff b9 ba bd
       0.04146365 0.029054632 0.21189268 -0.09117507
000040 75 c9 32 3e 77 00 3f 3d 51 a5 fb 3d 56 56 23 be
       0.17459662 0.046631303 0.12287391 -0.15950903
000050 02 05 b0 3d 07 b4 c0 bd 52 d0 07 3d 5d ac 23 3e
       0.08594705 -0.094093375 0.033157654 0.1598372
000060 25 30 4d bd 93 66 94 3a 67 fa 26 3d 56 4a 36 3c
       -0.050094742 0.0011322073 0.040766146 0.0111261215
000070 f4 4f 60 3e 15 00 fc 3d ca dd 34 3e 24 70 d4 bd
       0.219055 0.12304703 0.17662731 -0.103729516
000080 7e 5f 0a bb 89 e6 ab bd 7a b9 d6 3d 0c 59 4a 3e
       -0.0021114047 -0.083935805 0.104845956 0.19760531
000090 dc 15 55 bd 6d d6 16 3d c8 b6 0f 3d 45 14 ec 3d
       -0.0520228 0.036825586 0.035086423 0.115273036
0000a0 98 fb 8b 3b e1 17 7d be e6 cb 83 3b 9c 97 40 3d
       0.0042719357 -0.2471614 0.0040221093 0.047019586
0000b0 b9 04 22 3d ae 3c d7 bd 49 23 bd bd 8c 8a 49 3e
       0.039555285 -0.105096206 -0.09235246 0.19681758
0000c0 66 9e a2 3e ea f6 17 3d 4f e3 18 3d 1b 8d f0 bd
       0.31761473 0.03710071 0.037326153 -0.11745664
0000d0 1a 81 e0 3d 6d 34 86 bd bb 34 50 be 34 91 83 3e
       0.10962124 -0.06552968 -0.20332615 0.2569672
0000e0 de 3d a7 bd f2 1e e8 bd ce eb 26 3d 6d c8 03 3e
       -0.08166097 -0.11334027 0.040752225 0.12869425
0000f0 00 95 49 be ed a8 2c 3e 9d 12 63 3e b5 d8 3a bd
       -0.19685745 0.16861315 0.22175069 -0.045616824
000100 22 bb b8 bd 2c 42 16 be 1a 12 86 bd 66 02 59 3d
       -0.09020068 -0.1467368 -0.06546421 0.052980803
000110 e2 3c 25 be 65 4c 80 3c 2a 64 c8 3c 3d 12 1e be
       -0.16136506 0.015661428 0.024461824 -0.15436645
000120 4a e1 66 3d 18 cc e7 3c 40 de 89 3d 93 ed 9c 3d
       0.056367196 0.028295562 0.06731844 0.07662501
000130 bd d0 c7 bd 24 26 aa 3c 49 17 6e 3e d4 98 af bd
       -0.097566105 0.02077014 0.2325107 -0.085740715
000140 c1 51 c8 bb a7 ee 00 3e f7 42 34 bd 93 cb c9 3d
       -0.0061132615 0.12591039 -0.044009175 0.09853282
000150 bd 9e 01 3d 9c 28 17 3e c7 d3 34 3e 2e 9e 94 3b
       0.031645525 0.14761585 0.17658912 0.004535458
000160 37 7f 4e 3c 23 c5 0e be 63 9c 82 be 8a 0c c0 bc
       0.012603573 -0.13942389 -0.2550994 -0.02344348
000170 9b ba b5 3d 25 d4 b9 3d 9f c4 bc bd 33 bc 48 3d
       0.08873483 0.090736665 -0.0921719 0.049007606
000180 a5 2c 4d be d3 34 91 bc 96 ff 4c be 6f f1 fc 3b
       -0.20036562 -0.017725384 -0.20019373 0.007719211
000190 68 c5 99 3d 3d 42 7c bd e5 3c b3 3d e4 da 0c 3d
       0.075083554 -0.061586607 0.08751849 0.034388438
0001a0 1b 34 67 3d 71 9d e5 bc eb 5e 83 be e1 9f a8 bd
       0.056446176 -0.028029175 -0.25658354 -0.082336195
0001b0 92 4b 0f 3d b4 72 67 bd 51 8d 8d 3c c4 92 d4 3d
       0.03498418 -0.056505874 0.017279299 0.10379556
0001c0 c1 1f 25 be 9c 97 63 3e bd 3f 81 bd da 88 0c 3e
       -0.16125394 0.22225803 -0.06310985 0.1372408
0001d0 d8 a8 04 3e cc 3b 26 3c 97 1e 26 3c 16 ea f7 bd
       0.12955034 0.010146093 0.010139129 -0.12105195
0001e0 6c a4 10 be ac 68 73 be 2a 31 3a 3e be db de 3d
       -0.14125222 -0.23770398 0.18182817 0.10881756
0001f0 88 2f 1a 3d 88 78 87 3d 67 2a 99 be 86 d0 e6 bd
       0.037642986 0.066147864 -0.29915163 -0.112702414
000200 a6 af 7a bc 24 37 32 3e 1a f8 41 3d 04 9d 91 3c
       -0.015300667 0.17403847 0.04735575 0.017775066
000210 09 b6 b2 3e b9 9c c7 bd b0 34 89 bc 9a a3 29 3e
       0.34904507 -0.09746689 -0.016748756 0.16566315
000220 86 2e 13 bd 1c 04 39 3e d5 24 ad 3d 64 d1 43 3e
       -0.03593304 0.18067974 0.08454291 0.19122845
000230 6f bc 62 3d 01 70 85 3a 0c a3 2c 3e ca 05 12 3d
       0.055355486 0.0010180474 0.16859072 0.035650052
000240 4d 9e ff 3c 6b 2c 85 3e 31 26 4c 3c f2 51 27 bd
       0.031203413 0.2601045 0.012460277 -0.040849634
000250 d8 b4 8d bd 93 93 1a 3d a1 65 72 bd 8c 7b d6 3c
       -0.06919259 0.037738394 -0.059178952 0.026181959
000260 47 0a c8 3c b4 2a 7c 3a 3f 6b 24 be 6f 72 a8 3e
       0.024418963 0.00096194004 -0.16056536 0.32899806
000270 cf 5d fd bc 53 ca 95 3a a4 bb a2 bd 36 70 54 be
       -0.03092852 0.0011428095 -0.07945946 -0.2074593
000280 55 11 c7 bc 36 ab 90 bd 60 9c 49 3e ad e1 25 3e
       -0.024300257 -0.07063906 0.19688559 0.1619937
000290 bf d2 f2 3c ff 5f 0e 3e 22 1e 12 be 98 20 f0 3d
       0.029641507 0.13903807 -0.14269307 0.11724967
0002a0 02 43 56 3e f3 eb 55 be 15 ae 63 3e 0b d5 6c bd
       0.20923999 -0.20890789 0.22234376 -0.05782036
0002b0 bc 87 75 3d 95 1d e2 3c d4 fd 85 bd df 17 4d 3e
       0.0599439 0.027601996 -0.065425545 0.20028637
0002c0 91 72 b6 bd f7 ee 13 be a7 6c da 3d 7a 6a bd bd
       -0.089085706 -0.14446627 0.10665255 -0.092488244
0002d0 00 15 b8 3d 0f 12 b9 3d cd 89 c8 bd b0 56 0d bd
       0.089883804 0.090366475 -0.097919084 -0.0345065
0002e0 c5 2c 17 bd 5e 34 85 bc 3d 9b 14 3d 35 6f 17 be
       -0.03690793 -0.016260322 0.03628086 -0.14788516
0002f0 0c d7 81 3b a4 1b 37 3e 8d 4f 39 bd f4 a2 2a bd
       0.003962403 0.17881638 -0.04524188 -0.04165931
000300 cd 9c 4f bd c2 cd a2 3d ab 90 20 3d e5 54 e7 bc
       -0.050686646 0.079494014 0.039200466 -0.028238723
000310 87 54 a6 bc 80 47 30 3b 6c fb f4 3d 6f 6a 31 bd
       -0.020303978 0.0026898086 0.119620174 -0.043314394
000320 6f 35 6b 3d 2a 5b df be 3d 70 ba 3e 3d 32 7d be
       0.057424005 -0.4362424 0.36413756 -0.24726196
000330 05 0e 07 3d 88 4d 50 3d 99 97 11 bc 36 bc 83 bd
       0.032972354 0.05085519 -0.008886241 -0.06432383
000340 af a9 76 3d 45 0a 85 be e6 41 34 be 11 28 e6 3d
       0.060220417 -0.25984398 -0.17603263 0.11238111
000350 58 33 6a bd e4 a6 3e be 92 d9 4a bc 3a 57 bc bc
       -0.05717787 -0.18618351 -0.012380974 -0.022990812
000360 d5 5a 43 bc 17 74 44 be ba 85 f4 3d fb fb 66 3d
       -0.0119235115 -0.1918491 0.11939569 0.05639265
000370 1e 6a 50 bb 9b 4c a5 bd 9d 2d 0f bd ed 8f fa 3d
       -0.0031801532 -0.08071252 -0.03495561 0.12234483
000380 3f 87 2b 3e bf 06 50 3e 53 9c 0a bd 86 e6 18 bc
       0.16750811 0.20315073 -0.03384049 -0.009332305
000390 a4 a7 2e bd 89 ab 92 bd e2 2e 00 3d e4 ae 42 bd
       -0.042640343 -0.07161624 0.03129471 -0.04753007
0003a0 49 f4 39 3e af 78 fe 3d c3 9c 5d bd 87 80 43 3e
       0.18159594 0.12425362 -0.054104578 0.19091998
0003b0 e2 0a 4f 3d a9 7e 9a 3d 06 2c 30 3d 7c 8f 60 3d
       0.050547488 0.0754369 0.043010734 0.054824337
0003c0 e4 3f 63 3d 66 4d 49 3e 12 0a 4f bb b2 00 f7 3d
       0.055480853 0.19658431 -0.0031591696 0.120606795
0003d0 89 a6 cb bd c9 33 3b bd be fc f0 bd 29 0c c1 3d
       -0.099438734 -0.045703683 -0.11766957 0.094261475
0003e0 a7 08 18 bd ff 8d 86 3e 19 1b 28 bd 4b 4b 62 bd
       -0.037117627 0.2628021 -0.041041467 -0.055247586
0003f0 77 9b 8c 3e 16 92 26 be bb bb 96 3d 4d fc 5e 3d
       0.2746236 -0.16266665 0.073600255 0.05443983

network_body._body_endoder.seq_layers.0.bias f4 [128]
000000 60 92 32 3c d1 52 87 3c ae 73 8c 3d 2e 49 72 bc
       0.010899156 0.016518982 0.06858002 -0.014787955
000010 35 90 d1 3c b3 55 a1 3c 1c ee 6a 3c f6 bd 8c 3c
       0.025581459 0.019694185 0.014338996 0.017180424
000020 36 38 32 bc 3f 35 58 3a 7e 52 15 3d 44 df 9c 3d
       -0.01087766 0.00082476804 0.036455624 0.07659772
000030 f1 59 d8 3b be f5 89 3c 8e 8f 8d 3c 52 aa 60 3d
       0.0066025187 0.016840812 0.017280366 0.05484993
000040 b7 a0 ab 3b 59 5d bb 3c 97 c0 a7 bb cd 04 f8 3c
       0.0052376646 0.02287166 -0.005119394 0.030275727
000050 94 da 70 bc 82 83 2b 3c 49 93 21 3d a7 5b 29 3c
       -0.014700551 0.010468366 0.039447103 0.010336793
000060 95 ad 1e 3d 40 84 19 ba fe ce 1c 3c 4e 40 1e 3d
       0.03873976 -0.00058561936 0.009570835 0.038635544
000070 ce 75 52 bc e8 f7 08 3d 5a a4 b8 3c 9a ea 7a 3b
       -0.01284547 0.033439547 0.022539306 0.0038286806
000080 75 45 5d 3c 39 69 e8 3c 12 cf 50 3c 37 c7 c1 3c
       0.013505329 0.028370487 0.012744682 0.023654563
000090 66 3b ae 3c ff 90 28 3c ce 43 1d 3c 39 c9 89 3b
       0.021268558 0.010288476 0.009598685 0.004204896
0000a0 0b 3c c2 bc ff e4 56 ba 82 08 a2 bc 7e 71 94 3c
       -0.023710271 -0.0008197575 -0.019779447 0.018120524
0000b0 e0 f1 e9 bb 0d 5f 64 bb ad 88 0b 3d 30 ff b3 3c
       -0.0071394295 -0.0034846694 0.03406589 0.021972269
0000c0 3a 4e 7f 3c cc 1c 8a bc 9b b0 d5 39 31 12 25 3d
       0.0155826155 -0.016859435 0.00040758107 0.04030055
0000d0 bc af a1 bc ed 62 32 bc f2 65 a1 3c 62 eb 6d 3d
       -0.019737117 -0.010887844 0.019701932 0.058085807
0000e0 d1 15 c7 3c 6a 76 aa 3b 79 b4 e5 bb 23 e7 b8 3c
       0.024302395 0.0052021043 -0.0070100394 0.022571152
0000f0 6e 52 1b 3c a0 9d 35 bc 1b e1 c3 3c e7 2f 71 3d
       0.009480102 -0.011084944 0.02391105 0.058883574
000100 15 1b 18 3d 65 57 ae 3c fc 3d 02 bb da e6 37 3c
       0.037135202 0.021281907 -0.0019873371 0.011224473
000110 85 eb 1f bb bf ec 2b bc 02 e5 1e 3d 63 ed 95 3c
       -0.0024401855 -0.010493456 0.038792618 0.018301671
000120 20 ef 17 3d 8d 0b 41 3c d5 6d 71 3d c8 74 10 3c
       0.03709328 0.011782539 0.058942635 0.008816905
000130 33 0a 58 bb 8e ab 32 3d 1d 46 9e 3a 64 de d9 bc
       -0.0032965064 0.04362064 0.0012075339 -0.026595302
000140 a0 2c fc bb ea 7d 08 3d 73 b5 3c 3c f2 64 39 bc
       -0.0076957494 0.033323206 0.01151787 -0.011315571
000150 cc 2a ef 3c ee 2f 9b 3c 46 b4 73 ba ef 02 c8 3c
       0.029195212 0.018943753 -0.0009296577 0.024415461
000160 a2 e4 b2 3b 82 a7 b3 bc 34 df 68 3c 1e b6 86 3d
       0.005459384 -0.02193046 0.014213372 0.06577705
000170 06 17 d2 3c cb a9 b6 3c 4c 46 e4 3c 30 67 d9 bb
       0.025645744 0.02229776 0.027865551 -0.0066346154
000180 7e ad b7 bb 87 d0 e3 3b b0 e2 73 3c 32 c3 f8 3b
       -0.0056053987 0.0069523486 0.0148855895 0.0075916285
000190 8a d8 71 3c 84 3c 95 bc 34 01 a7 3b 9d a1 94 bc
       0.0147611 -0.018217333 0.005096579 -0.01814347
0001a0 2b 21 74 3c b1 55 cb bc 16 0f 52 3b bb a0 4c 3c
       0.014900486 -0.024821134 0.003205245 0.012489493
0001b0 5e b9 79 bc 8d 1f eb 3b f2 f0 e2 3a a3 f2 2d 39
       -0.015241949 0.007175392 0.0017314239 0.00016588955
0001c0 04 fb 2c bb c3 a6 1e 3c c4 49 f0 3c ba 6c 95 3c
       -0.0026394734 0.009683314 0.02933205 0.018240321
0001d0 8f 6c 89 3c 62 ca 84 ba 8c 27 bc 3b a6 68 07 3d
       0.016775398 -0.0010131116 0.005742019 0.033058785
0001e0 cb f6 c1 3c 41 88 4e 3d fe 2f a3 ba e5 83 57 ba
       0.02367725 0.05042291 -0.0012450216 -0.0008221253
0001f0 d8 de d8 3c bc 67 23 3d 4b f0 15 3d a0 f5 88 3a
       0.026473448 0.03989385 0.036606114 0.0010449179

network_body._body_endoder.seq_layers.2.weight f4 [128, 128]
000000 37 8b e8 3d e5 70 b7 3d 3d a2 9e 3d 0e fa a5 bc
       0.11354678 0.0895708 0.07745788 -0.020260837
000010 14 11 ab 3c dc 9c 6a 3c be 27 45 3d 54 76 d0 bc
       0.020882167 0.014319625 0.048133604 -0.025447048
000020 6a 36 43 3c 96 01 83 bd 16 c4 71 be 47 95 61 3d
       0.011914829 -0.06396787 -0.23609957 0.055074003
000030 7c bf 20 3c 06 da e4 3d 9c ff 00 bc 94 da e3 3d
       0.009811278 0.11174397 -0.007873442 0.11125675
000040 68 81 06 bc 8e 84 e7 3d 02 e3 d9 3d c8 67 e0 3d
       -0.008209564 0.1130458 0.106390014 0.10957295
000050 1f c8 13 3d 65 c7 bb bc dd 8c 0a 3d a0 5a 1c 3c
       0.036079522 -0.022922227 0.033825744 0.009543091
000060 3b 02 34 3c 8a 1b 91 3d b3 c8 2d be b6 c5 98 3c
       0.01098686 0.07085331 -0.16971092 0.018648963
000070 e3 5e 8a 39 cb 7b de 3d 8e de 8d 3c ff ea b9 3d
       0.00026392107 0.108634554 0.017318036 0.09078025
000080 ae 08 3d 3e 64 76 4e bd 96 23 b0 3d 13 2f 6c 3d
       0.18460342 -0.050405875 0.086005375 0.05766208
000090 8b 83 4a bd 9d 53 9b bb c9 55 ec bd 38 6f 25 be
       -0.049441855 -0.004740192 -0.115398 -0.16155708
0000a0 3e f2 a5 bb 80 4a 86 3d e8 83 a2 3d d1 d6 3a ba
       -0.005064278 0.065571785 0.07935315 -0.0007127347
0000b0 54 5c 8e bd d6 52 a9 3d ba c8 1c 3e 3e e0 b9 3d
       -0.06951204 0.08267753 0.15310946 0.09075974
0000c0 58 ef 00 be 47 11 c8 3c a5 c9 d8 bd 9f 7a 26 3d
       -0.12591302 0.024422301 -0.10585336 0.040644284
0000d0 84 dd 8e 3c bf 0a cc 3d 5f e9 2c be e9 86 c8 bd
       0.017439611 0.09962987 -0.16885899 -0.09791357
0000e0 c3 8b 8b bd 33 f8 a8 3d 43 e8 fa 3d 57 55 9f 3d
       -0.06813767 0.08250465 0.12251332 0.07779949
0000f0 4d e6 89 3d 08 2c 6a bd cd 19 4d 3d dc 87 14 bd
       0.067333795 -0.057170898 0.050073434 -0.036262378
000100 82 a6 36 be f4 0e 96 bd 0a 4c 99 3c f1 70 4d 3d
       -0.17836955 -0.07327071 0.018713016 0.050156537
000110 8d d4 89 bd f4 a2 c4 bc db d8 25 3b cf b9 8a 3e
       -0.06729994 -0.024003483 0.0025306258 0.27094886
000120 4e 3b 69 be 60 bb 2b bd 21 ed 99 bc 55 81 10 3c
       -0.22776529 -0.04192674 -0.01878983 0.008819898
000130 5c bd 0d 3e 75 39 ac 3d a6 80 1b be 03 cc 11 3e
       0.13841766 0.084093966 -0.15185794 0.1423798
000140 7c 70 8e 3d 26 3a a4 be aa fa 1d 3c 54 27 15 be
       0.069550484 -0.32075614 0.0096422825 -0.14565784
000150 04 99 8c bd 4e b3 f7 3d 0d 93 0b bd ad 8f e8 3d
       -0.06865123 0.120947465 -0.034075785 0.11355529
000160 e3 96 52 be cf cb ac bc bd ef 3a bd 76 86 8f bb
       -0.20565371 -0.021093277 -0.04563879 -0.0043800427
000170 41 24 24 bb 54 b7 11 bd 0a 7c 1f 3e 74 46 6a be
       -0.0025046023 -0.035575226 0.15574661 -0.22878438
000180 57 0e 2e 3c b0 31 cf 3c d0 ae 5e bd 18 ad 8c 3d
       0.010623536 0.025292248 -0.054365933 0.068689525
000190 03 36 f9 bd 43 70 46 3e 4e af bc bd 1e 43 0b 3e
       -0.12168505 0.19378762 -0.09213124 0.13599822
0001a0 fa 86 08 be 53 f9 97 3d 0b 7e f5 3d 41 52 4d bd
       -0.1333274 0.07420602 0.119869314 -0.05012727
0001b0 8c 5b 48 bc ae 64 6a 3d 8c 5d c2 bd c7 66 a2 3c
       -0.012228858 0.057224922 -0.09490499 0.019824399
0001c0 4e c5 b0 3d ce 1b e6 bd da 48 96 3d d8 4b 25 bc
       0.08631383 -0.11235772 0.07338114 -0.010088883
0001d0 af 45 83 be 45 d2 5c bd f1 f0 34 be b3 97 c4 3d
       -0.25639102 -0.053911466 -0.17670037 0.09599247
0001e0 03 e6 27 be 4b 10 68 bd ea db c7 bd 8f 84 2f 3d
       -0.16396336 -0.056656163 -0.09758742 0.042851027
0001f0 d0 d8 ba 3d df 3b b0 3c dd b2 19 bb 99 ad 2f bc
       0.09123385 0.021512924 -0.0023452558 -0.010722541
000200 12 6b 1e 3e e2 db 3f 3b b5 49 65 bc 19 e2 70 bd
       0.15470532 0.0029275347 -0.013994624 -0.058809374
000210 81 51 3f 3e 68 e1 43 bd d5 ac 20 3e ce 41 52 3e
       0.18683435 -0.047822386 0.1569093 0.20532915
000220 4b 72 89 bd 85 8c b8 bc ba bd 9c bd 55 bb 0c be
       -0.06711253 -0.022527942 -0.07653375 -0.13743336
000230 3b 45 20 3e f1 5f 52 be 24 84 9c bd 75 69 4a 3d
       0.1565141 -0.20544411 -0.07642391 0.049416978
000240 af ae b7 bc 04 69 5b be d0 5a c7 3d 2f 1f b2 bd
       -0.022422163 -0.21426779 0.09734118 -0.08697354
000250 39 41 82 3d a6 02 31 3d 44 84 9a 3d 5c 48 92 bd
       0.063600965 0.043215416 0.07544759 -0.07142708
000260 87 13 54 3c aa bf a6 3d 97 78 6a bc b8 b5 ab 3d
       0.012944109 0.08142026 -0.014310977 0.083842695
000270 64 26 47 be 89 c6 9e bc 84 eb 09 bb 0b 91 0b bd
       -0.19448239 -0.019381778 -0.002104492 -0.03407387
000280 bd 0b 47 bc 88 a8 fd 3d d8 2c 85 bc 3a 0e 4e 3d
       -0.012148795 0.123856604 -0.016256735 0.050306536
000290 8d 34 01 3d 07 b4 3d bd 3e 8e 7e bd 83 9b 05 bd
       0.031544257 -0.046314266 -0.06214737 -0.03261901
0002a0 fe 6b b7 3d e6 2d 36 bd 73 35 9b 3d b7 50 93 3d
       0.08956145 -0.044477366 0.07578554 0.071931295
0002b0 bf a4 3c 3c 9d f0 ef 3d 46 2a cb bd 85 ad ec 3d
       0.011513888 0.11715815 -0.099201724 0.11556534
0002c0 72 25 d8 3d 9e 52 db bc 4a 58 3c bd d5 14 1b be
       0.10554017 -0.026772793 -0.045982637 -0.15144666
0002d0 2f e2 18 bd 22 a4 15 bd cf 0d 83 3b e5 22 08 be
       -0.03732508 -0.036533482 0.003999449 -0.13294561
0002e0 5b e9 c3 3d e6 1b 40 3d a4 fc 25 3e 1d ac f9 bc
       0.095659934 0.046901606 0.16209656 -0.030477578
0002f0 40 e1 c0 3d b4 8c 3e bd eb 0d 89 bd 85 b4 83 3d
       0.09417963 -0.046520904 -0.06692108 0.06430916
000300 d5 1e 86 bc d7 5d 2f bc bb 3d 9b bd e0 e4 1e 3e
       -0.016372124 -0.0107035255 -0.075801335 0.15516996
000310 ae 7b 48 bd 7b ba 93 bd ae 60 4c bd 00 c9 56 bd
       -0.048946075 -0.07213303 -0.04989689 -0.052437782
000320 6a e5 bd bd bf ab 91 bc fa 31 d8 3d 7e 49 bb bd
       -0.09272273 -0.01778209 0.10556407 -0.09144877
000330 8d db 32 3c 40 d8 09 3e 02 9f af bc c5 30 b7 bd
       0.010916603 0.13461399 -0.021438126 -0.08944849
000340 48 ce 64 3d aa bf 97 bd d8 32 4d bc 3e a3 ad bc
       0.055860788 -0.07409604 -0.012524329 -0.021196004
000350 66 e0 42 be 33 7c 8d bd 29 62 0d 3e 06 af db 3d
       -0.19030914 -0.06908455 0.13806976 0.107267424
000360 3e 73 a5 bc ef c2 51 bd 7d da d5 bb ce 86 83 3d
       -0.020196553 -0.051211294 -0.00652629 0.06422196
000370 57 79 36 3d 05 4c 7b bd 47 3a d3 3d bb e7 8a 3d
       0.044549312 -0.061351795 0.1031385 0.0678248
000380 83 70 93 3d b8 f3 de bc 11 1d 7a 3e 8a 27 95 bd
       0.07199194 -0.027215824 0.2442515 -0.07282932
000390 7a 1f c3 bd c2 ea 68 3c 4f 2a 07 3b 18 c3 a6 bd
       -0.09527488 0.014216127 0.0020624583 -0.0814268
0003a0 6b 66 cb bc 90 94 05 3e 58 14 05 bd 05 4a 3c 3d
       -0.02482911 0.13044953 -0.032490104 0.045969028
0003b0 c7 c4 aa bd 32 90 af 3c 1e ec 12 bd 69 28 cf 3d
       -0.083383135 0.021431062 -0.03586971 0.101151295
0003c0 a0 6a 6a 3d 03 d3 05 bd 51 2c d8 3d 01 ee ab 3d
       0.05723059 -0.03267194 0.10555328 0.08395005
0003d0 e2 91 2d 3d 6c 13 92 3c 51 67 5b 3d e6 1c a6 bd
       0.042375453 0.017831527 0.053565327 -0.08110981
0003e0 f5 39 e4 3c 7d 38 30 be 62 ee 66 3e c5 76 03 3e
       0.027859667 -0.17209049 0.22551873 0.12838276
0003f0 86 61 03 be 03 1a 85 bd 42 46 81 3d 62 c4 26 be
       -0.12830171 -0.06499102 0.06312229 -0.16285852

network_body._body_endoder.seq_layers.2.bias f4 [128]
000000 a7 ed 7c 3b 6f 3f 61 bb c0 5b 4f bc 19 9e 35 3b
       0.00385938 -0.0034370085 -0.012656152 0.0027712642
000010 7b 07 2a bc 88 5b 90 3c 42 58 e5 3a 37 36 a7 3c
       -0.01037776 0.01762177 0.0017497616 0.020411594
000020 b7 80 b9 3a 10 60 89 3c 8b f4 de 3b e7 be 66 3d
       0.001415274 0.016769439 0.006804054 0.056334402
000030 40 ed b0 3c 7e 99 a1 3c 00 ec bf 3c d8 95 14 3b
       0.021597505 0.019726511 0.023427963 0.0022672322
000040 23 55 24 3c 40 55 24 bb f5 50 a3 bb 7c 76 82 bc
       0.010030064 -0.0025075227 -0.004984016 -0.015925638
000050 33 85 88 bc a4 c9 38 bc 67 75 d1 bb ca 4a 0e bb
       -0.016665077 -0.011278544 -0.0063921693 -0.0021712058
000060 7f 99 7a bc 02 48 83 bc 8a c5 09 3d 9f 4d ce 3c
       -0.015295385 -0.016025547 0.033635654 0.025183497
000070 ee e8 a7 3c 30 e8 22 3d fc 72 54 3c e4 06 3e 3b
       0.020496812 0.039772213 0.012966868 0.0028995806
000080 03 62 3a 3c db 3a 84 3c 0d 07 07 bc d4 cd 75 3b
       0.011375907 0.016141346 -0.008241427 0.0037506716
000090 9f 62 ef bb cd 70 68 bb 5c ec 29 3d 9e 92 62 3d
       -0.0073054577 -0.0035467625 0.041485175 0.055315606
0000a0 56 2b ac bb db 42 49 3c 92 26 26 bb a7 0f 74 3c
       -0.0052541895 0.012284006 -0.002535258 0.01489631
0000b0 52 d1 6f bc f4 df 2c 3c b3 13 dd 3c f4 2f 5b bc
       -0.014637308 0.010551441 0.026986932 -0.013378132
0000c0 ae db 26 bc b5 cd 8a 3c ae 4e c1 3b 74 b0 fc 3c
       -0.010184212 0.016943792 0.005899272 0.030845858
0000d0 bd 41 b7 3c e2 2a 5c 3d cf a2 7f 3c 1f 5b 88 bc
       0.022370214 0.053751834 0.015602781 -0.016645012
0000e0 af 3a 78 3c 5e de b0 3c 11 02 82 3b 44 fc a9 bb
       0.01515071 0.021590408 0.0039675315 -0.005187543
0000f0 1b 6d 6e 3c 7e ae 94 b9 6b e0 59 3d 95 b8 20 3c
       0.01455238 -0.00028358767 0.053192537 0.009809633
000100 94 63 df 3c b0 05 35 3a ea 9d 43 3d a3 b0 b2 3b
       0.027269162 0.00069054496 0.04775802 0.0054531856
000110 e5 a2 bc 3a bf 78 8c 3c 51 8d 26 bc 6f 71 0c 3d
       0.0014391808 0.01714742 -0.010165528 0.034287866
000120 04 5b 2c 3d 03 84 05 bb 48 46 3e 3c 05 17 80 3c
       0.042078987 -0.0020372875 0.011613436 0.015635977
000130 95 b7 c2 3b b1 12 20 3c 5c fb a9 3b 80 f3 4e 3d
       0.005942295 0.009770081 0.005187435 0.05052519
000140 ab 8a 4c bc 65 6e 18 3b 63 29 06 3d 81 8c 90 3c
       -0.012484233 0.002325916 0.032754313 0.017645122
000150 e5 38 30 3c fe 40 11 bc 0d 59 15 bc 3f a2 af 3c
       0.010755752 -0.008865593 -0.00911547 0.02143967
000160 dd cf d7 3b 98 24 89 3c 14 23 93 3b c8 ca 14 3c
       0.0065860585 0.016741082 0.0044902656 0.00908155
000170 a6 9c b4 3c 71 c2 51 ba a2 2d c2 3b 92 7c 49 3c
       0.022047352 -0.00080016913 0.00592585 0.012297766
000180 d8 ec fb 3c 3a 09 88 3c db 79 6a 3c 2e f1 a8 bb
       0.030752584 0.016605962 0.014311279 -0.005155704
000190 ca b2 ad 3a 8b cb a8 3c 68 0a cc 3c 72 08 8c 3b
       0.0013252136 0.02060487 0.024907306 0.0042734677
0001a0 3e fb 84 3c 92 96 a2 3b 92 e9 1a 3d 13 94 64 3b
       0.016233083 0.004961797 0.037820406 0.0034878298
0001b0 71 aa 05 3d fa fe 6d 3c d5 c6 a0 3c fe 3b 6a 3c
       0.03263325 0.014526123 0.01962606 0.01429653
0001c0 4c 55 a0 ba ea c1 4d 3d d8 c8 ad bb 0f e5 63 bc
       -0.0012232452 0.05023376 -0.0053034835 -0.013909592
0001d0 c1 32 41 3b b7 be d1 bb 07 c7 81 3d 55 8b 0c 3d
       0.0029479715 -0.006400909 0.063367896 0.034312565
0001e0 7d 07 43 bb df 83 a8 3c 14 47 e6 bb 63 f7 c8 39
       -0.0029759102 0.020570694 -0.007027516 0.0003833129
0001f0 00 ec d8 bc 2d 69 a8 3c 69 a3 86 3c 75 88 6f bc
       -0.026479721 0.020557964 0.016435342 -0.014619936

action_model._discrete_distribution.branches.0.weight f4 [3, 128]
000000 6f ba 81 3c 8a 56 39 3c 42 5d 17 3b 19 c9 b4 3c
       0.015835969 0.011312136 0.0023096357 0.022068547
000010 1a ef 28 3c 1c 3f ef 3c 75 f1 cb 3c 63 12 a0 3c
       0.0103109125 0.029204898 0.02489541 0.019540017
000020 f8 91 dc 3c bc 76 0b bc 2c 22 b5 3c d6 a7 52 bd
       0.026925072 -0.008512195 0.022111021 -0.051429592
000030 f4 59 61 3c 65 03 d1 3b b8 25 0a 3d 24 19 8c bc
       0.013754357 0.0063785785 0.033727378 -0.017101832
000040 ff 88 a9 bc 35 be 9a 3b 5b 54 3d bc 66 b4 bd 3b
       -0.020695208 0.0047223815 -0.011555756 0.0057893274
000050 40 b7 0c bc 02 43 15 3c a8 6a 0a bc 94 eb 0e 3c
       -0.008588612 0.009110214 -0.00844828 0.008723158
000060 4b e3 98 39 55 fa 3d 3b 06 16 07 bd 65 25 27 3c
       0.00029161046 0.002898832 -0.032979988 0.010201787
000070 08 c4 98 bc ce 1f bf bc 6e 76 fd 3b d5 1c fc 3b
       -0.018648162 -0.023330595 0.007735065 0.0076938667
000080 62 37 b7 b9 42 2a 0d bc 68 f5 3a bb 54 95 2a bc
       -0.00034945743 -0.008616032 -0.0028527621 -0.010411579
000090 66 0b 84 3b e8 b9 1d bc 35 aa 31 bc e8 a4 98 bc
       0.004029679 -0.009626843 -0.010843803 -0.01863332
0000a0 b4 d8 f1 3b 53 d6 e4 bc 64 46 8e 3c d6 94 df 3c
       0.0073805694 -0.027934229 0.01736755 0.02729265
0000b0 e5 23 83 3b 32 46 ec bb 55 b8 42 bc 29 86 b2 3b
       0.0040020817 -0.0072105164 -0.0118847685 0.005448122
0000c0 9d eb 81 3b 90 b8 d1 3c d3 92 29 37 c6 02 c6 bc
       0.003964855 0.025600702 1.010737e-05 -0.024171244
0000d0 59 20 15 3d d9 1e 2d bd a0 d0 e2 3c f8 70 66 3b
       0.036407802 -0.042265747 0.02768737 0.003516255
0000e0 7a 1b 1a 3d 4b 4f 3e 3c f8 db a0 bb 65 f9 79 3b
       0.03762386 0.011615585 -0.004909035 0.0038143035
0000f0 2d 7e 8b 3c db 30 c0 3b fd db d0 bc 7c b0 2d 3c
       0.017027939 0.005865199 -0.025495524 0.010601159
000100 cb c0 bd bc 6c d2 e0 3a b4 89 af bc a6 a5 bd 3c
       -0.02316322 0.0017152554 -0.021427967 0.023150276
000110 6f 29 fe bc ac 69 5d bc e1 30 a0 3b 3e c3 0c bd
       -0.031025616 -0.013513964 0.0048886393 -0.034365885
000120 24 12 c3 bc 9c 6f 8a 3c 5d 45 69 bc 14 7e c1 3c
       -0.023812361 0.016898923 -0.014237729 0.023619689
000130 3d e2 e8 bb ee 95 9e bc 05 6b 5c bc 30 47 05 bd
       -0.007107048 -0.019358601 -0.01345325 -0.032538593
000140 32 bb 83 3c 97 01 cb 3c 76 4e b4 bc a6 dd 30 3c
       0.016080473 0.024781032 -0.02201007 0.010795033
000150 d7 ae 33 3d f3 57 66 bb 79 ed 4f ba b4 7c 00 3d
       0.043867912 -0.0035147637 -0.00079318095 0.031368926
000160 5c 6b 81 bc c0 1f 95 bb 06 78 b4 bc f3 a2 2c bc
       -0.015798263 -0.004550904 -0.022029888 -0.010536897
000170 a2 35 d4 bc 50 2b fd 3b 1a b8 b9 38 55 f9 9e 3c
       -0.02590448 0.0077261105 8.855779e-05 0.019406
000180 4c ba 5e bc f0 25 ac bc 99 67 fb bc 3a 9f 2c bc
       -0.013594221 -0.021014184 -0.030689048 -0.010536009
000190 20 25 13 bb 7d d3 0d bd 5a 11 3f bc d2 81 84 3c
       -0.0022452548 -0.03462552 -0.011661852 0.016175184
0001a0 87 19 03 3d 86 a2 8d 3c 96 b9 8e bc 2a 43 8c 3c
       0.032006767 0.017289411 -0.017422479 0.01712187
0001b0 61 0a 0b bd ec cb bf 3c ed 13 0a 3d 02 e3 eb 3c
       -0.033945445 0.023412667 0.03371041 0.02879477
0001c0 6a 3e b3 3c 55 ef 83 bc cc c9 50 3c 57 83 d1 ba
       0.021880347 -0.016105333 0.012743425 -0.0015984577
0001d0 c1 cf 44 3c 9e 7c 40 bc 36 28 eb bc 13 a7 b9 bc
       0.012012423 -0.011748461 -0.028705698 -0.022662675
0001e0 e2 62 c5 3b 22 4d 4f bc a7 60 98 3b 06 a8 a7 3c
       0.0060237506 -0.012652667 0.0046501937 0.020465862
0001f0 23 36 5a bc 53 79 dc 3c fc 11 38 b9 b1 83 b8 bb
       -0.013318571 0.02691332 -0.00017554307 -0.005630933
000200 3c 5d 84 3b c8 8a 0f bc da d4 34 bc 9e 58 82 bc
       0.0040394347 -0.008761115 -0.011037076 -0.015911397
000210 a8 ad ab 3a 69 3e 38 bd 40 cf 8e bc 61 8d 81 bd
       0.0013098018 -0.044981394 -0.017432809 -0.06325794
000220 1e 04 de bb dc 27 93 3c 58 90 3f bd c4 25 ca 3d
       -0.006775393 0.017963342 -0.046768516 0.098704845
000230 7a e1 53 bd d7 45 23 bd 00 96 9c bd 4e d6 2d 3c
       -0.051728703 -0.039861526 -0.07645798 0.010610176
000240 85 59 93 3a 40 66 95 3a 8a db 06 bc 1e 57 86 3c
       0.0011241889 0.0011398271 -0.008231053 0.016398963
000250 88 77 6f bc 4e 5e 84 bb 9a 60 7f ba 80 01 20 bd
       -0.014615901 -0.0040395623 -0.0009741873 -0.03906393
000260 6e fc 18 bb 69 64 a9 bc af 1a 53 3d 86 00 31 bd
       -0.002334382 -0.020677762 0.05153912 -0.04321339
000270 79 9a 2c 3d 9e f7 4d 3d 8c 66 ff bc d2 38 33 38
       0.042139504 0.050284974 -0.031176828 4.2729844e-05
000280 4a cc 55 3c da d0 d3 3c 79 9f 74 bb 6e 66 90 3c
       0.013049195 0.025856424 -0.0037326498 0.017626967
000290 c5 b5 ad bc fe e7 c3 bb 78 16 7b 3c 46 7b 9e 3d
       -0.021204839 -0.0059785834 0.015325181 0.07738356
0002a0 6f fe bf bb 55 52 e8 3c d9 b1 ae bc c2 6e 57 bd
       -0.0058591883 0.028359571 -0.021325039 -0.05259586
0002b0 44 36 2a 3c 05 4d 13 3c 9b 57 d4 3c 90 6a c5 bb
       0.0103889145 0.008990531 0.02592068 -0.006024666
0002c0 c5 1c 21 bd bf c5 60 bd fd 37 10 bd f7 6e 30 3d
       -0.039334077 -0.054876085 -0.035209645 0.043074574
0002d0 c8 a1 48 bd 2e a2 86 3d a6 56 59 bd ad 18 68 bc
       -0.04898241 0.06573902 -0.05306115 -0.014166039
0002e0 3a 39 6b bd fd 4d 64 bd 32 b4 8d 3c 0e 41 1a 3b
       -0.057427622 -0.055738438 0.017297838 0.002353731
0002f0 e7 07 2d bd 55 fd 20 3c 0a 40 48 3d 43 42 36 bd
       -0.042243864 0.009826024 0.048889197 -0.044496786
000300 9c d0 15 3d fb 3c c7 bc 70 3b 19 3d a1 96 ac 3c
       0.0365759 -0.02432107 0.0374102 0.02106792
000310 bd 14 41 bc f1 18 30 3a 2d c5 b2 b9 9e 13 50 3d
       -0.01178473 0.0006717584 -0.00034097713 0.05079996
000320 86 77 c0 3c bc 2c be bc 4f e7 52 3d 67 35 4a bd
       0.023494493 -0.02321469 0.051490124 -0.049367335
000330 5a 8d a2 3c da 5f 7b 3c 79 5a ac 3c 11 71 5e 3d
       0.019842792 0.015342677 0.021039234 0.054307047
000340 62 59 8a 3b 24 f8 12 bc a4 2c 12 3d 21 cb 38 bd
       0.004222081 -0.008970294 0.035687104 -0.045115594
000350 2d 6c 56 bd 60 df 0e bc 0e 3e e5 bb 8a 3d 1d bd
       -0.05234926 -0.008720249 -0.006995923 -0.038388766
000360 be 7e 02 3c e4 96 ca 3c 2e 28 88 3c eb fe 6a 3c
       0.007964788 0.024730153 0.016620722 0.014343004
000370 03 28 db 3c f7 7a e4 3a c3 58 db 3c f4 09 0f bd
       0.026752478 0.0017431666 0.026775723 -0.0349216
000380 c6 4b 98 3c 3d 45 3d 3d a0 41 ed 3b f6 1b 7f bb
       0.01859082 0.04620861 0.007240489 -0.0038926578
000390 d0 9a 60 3b 34 bc a8 3c da 39 b8 3c 09 ba df bc
       0.0034271963 0.020597555 0.022488523 -0.027310388
0003a0 b6 f9 3b bd de 87 31 bd 3b a7 81 3d e1 f7 06 bd
       -0.04589244 -0.043342464 0.06330725 -0.03295124
0003b0 cc 30 07 3d 9e 47 35 bd c6 dc ec bc 5a 15 48 bd
       0.03300552 -0.044257753 -0.028913867 -0.048848487
0003c0 42 c0 60 bc bc ae 4d 3d 2a 8f 45 bc 01 cd 16 bc
       -0.013717713 0.050215468 -0.012058059 -0.00920415
0003d0 d4 33 f8 ba 80 ea f3 3b fd a4 7b 3d aa 88 ed 3c
       -0.0018936344 0.007443726 0.061436642 0.02899583
0003e0 ee 6a c4 bc 30 09 ba 3c 91 14 5b b9 b9 ac ed bb
       -0.02397677 0.022709459 -0.00020893129 -0.007253256
0003f0 3b 24 8b 3c b1 f8 21 bd 7d 72 28 3b ed 89 4a bc
       0.01698505 -0.03954381 0.0025703006 -0.012361986

action_model._discrete_distribution.branches.0.bias f4 [3]
000000 59 ae 81 3b 4a 01 9f 3b 3d 0f 02 bb
       0.0039575514 0.0048524486 -0.0019845509

exp_avg f4 [128, 64]
000000 00 00 00 00 8a 55 1e b9 8f ea 0a b8 50 ed a4 34
       0.0 -0.0001509992 -3.3120214e-05 3.0720048e-07
000010 81 2e 15 b8 00 00 00 00 1f cf 22 b9 f8 6b 6d b7
       -3.556768e-05 0.0 -0.00015526683 -1.4151439e-05
000020 95 0a c8 b2 03 47 12 b8 00 00 00 00 48 98 1a b9
       -2.3287877e-08 -3.4875247e-05 0.0 -0.00014743314
000030 df 21 15 b8 ae 07 97 b0 b9 9e 3b b8 00 00 00 00
       -3.5555913e-05 -1.0988879e-09 -4.4732096e-05 0.0
000040 c1 1d 80 b9 40 e9 9b 38 26 bc f1 b3 96 ae 64 b8
       -0.0002443623 7.434422e-05 -1.1256661e-07 -5.4522032e-05
000050 00 00 00 00 c8 d7 20 b9 cf 05 0d b8 c6 b2 b3 36
       0.0 -0.00015339174 -3.362243e-05 5.3554277e-06
000060 a4 e5 2d b8 00 00 00 00 34 d2 d1 b8 f6 b3 64 b8
       -4.1460284e-05 0.0 -0.0001000505 -5.4527038e-05
000070 8f 47 e3 b6 6c e1 8c b8 00 00 00 00 c6 17 ba b8
       -6.7734577e-06 -6.717708e-05 0.0 -8.873599e-05
000080 02 2a 47 b8 e3 da 0d b8 a8 2d 5f b8 00 00 00 00
       -4.748442e-05 -3.3820874e-05 -5.3209864e-05 0.0
000090 44 b6 9f b8 91 bd 86 b8 ea a8 23 b7 85 5c 95 b8
       -7.6156604e-05 -6.4249274e-05 -9.7548855e-06 -7.122107e-05
0000a0 00 00 00 00 03 5f 98 37 b4 fb 26 b9 69 8c 00 b8
       0.0 1.8164055e-05 -0.0001592476 -3.0648345e-05
0000b0 86 96 58 b8 00 00 00 00 a2 49 34 b7 34 4f 1e b9
       -5.16386e-05 0.0 -1.074598e-05 -0.0001509756
0000c0 6f 47 0b b7 45 ec 8a b8 00 00 00 00 f7 f3 1d 38
       -8.301678e-06 -6.6243614e-05 0.0 3.7658927e-05
0000d0 ce 5f 46 b9 23 ec ac b7 7b ee 34 b8 00 00 00 00
       -0.00018918441 -2.0613958e-05 -4.3137446e-05 0.0
0000e0 8a a3 aa ba 00 00 00 00 b4 3f 52 ba 65 68 6a ba
       -0.0013018709 0.0 -0.0008020357 -0.00089419476
0000f0 00 00 00 00 b5 b0 0f b9 bd 2d 0a 39 0d 55 74 ba
       0.0 -0.00013703371 0.00013177744 -0.0009320535
000100 00 00 00 00 31 68 21 bb d5 d0 36 b9 81 dc 1f b5
       0.0 -0.0024628753 -0.00017434669 -5.955299e-07
000110 9e e4 5c ba 00 00 00 00 a1 68 bc ba 52 f3 9d ba
       -0.00084264006 0.0 -0.0014374444 -0.0012050665
000120 c0 dc 7a 34 db 80 19 ba 00 00 00 00 55 ba 2d bb
       2.3363373e-07 -0.0005855688 0.0 -0.0026508768
000130 e3 6d 1f 38 8b 94 75 31 99 c0 79 ba 00 00 00 00
       3.8010894e-05 3.573663e-09 -0.00095272955 0.0
000140 dd f9 43 ba 32 5b f8 ba 33 6c 34 b6 0c 13 d6 b9
       -0.0007475892 -0.0018948077 -2.688507e-06 -0.00040831452
000150 00 00 00 00 b3 0f 24 bb 39 d6 6c b8 f0 6c d6 34
       0.0 -0.0025033772 -5.6466295e-05 3.993987e-07
000160 2e ef 88 ba 00 00 00 00 25 86 ff b9 17 f0 0c bb
       -0.0010447258 0.0 -0.00048737336 -0.002150541
000170 28 bf ec b6 68 f4 b1 b9 00 00 00 00 63 26 d5 ba
       -7.0556016e-06 -0.00033942168 0.0 -0.001626205
000180 44 a3 6e ba 8e 1d 06 37 9a 5b 88 ba 00 00 00 00
       -0.0009103308 7.993904e-06 -0.0010403276 0.0
000190 5b cf 6a b9 41 64 1c bb f4 bf 2d b8 a3 43 a6 b9
       -0.00022393225 -0.0023863467 -4.1425184e-05 -0.0003171238
0001a0 00 00 00 00 12 a5 8d ba 1d 07 be ba c5 a1 5f 37
       0.0 -0.0010806641 -0.001449797 1.3329501e-05
0001b0 24 07 8a ba 00 00 00 00 9f f6 33 b9 dc 8d 22 bb
       -0.0010530693 0.0 -0.00017162644 -0.0024803793
0001c0 5a 79 68 36 d7 0b 8b b9 00 00 00 00 79 9d ad b9
       3.464133e-06 -0.00026520967 0.0 -0.00033114458
0001d0 3a a8 0f bb d4 05 64 37 ea 6e 92 ba 00 00 00 00
       -0.002192034 1.3591216e-05 -0.0011171971 0.0
0001e0 2b bc b9 bb 00 00 00 00 d9 2f 95 bc 7a 7b 62 bc
       -0.0056681833 0.0 -0.018211292 -0.013823384
0001f0 00 00 00 00 8e 6b 1c ba 5c 1a 0d 3d da 92 a3 bc
       0.0 -0.00059669546 0.034448966 -0.019967485
000200 00 00 00 00 f5 1c 06 bc b8 48 45 ba 96 cd f9 b6
       0.0 -0.008185615 -0.00075257896 -7.4447116e-06
000210 c4 b0 45 bb 00 00 00 00 a4 05 81 bb a1 f2 a4 bb
       -0.0030165175 0.0 -0.00393744 -0.0050338064
000220 d6 2f 91 b5 df d8 01 bb 00 00 00 00 5e 30 14 bc
       -1.0817264e-06 -0.0019813103 0.0 -0.009044735
000230 03 e3 58 39 9b d1 26 32 4a 50 62 bb 00 00 00 00
       0.00020683934 9.7101305e-09 -0.003453272 0.0
000240 c8 9a c9 ba c8 a9 f3 bb e0 b5 2e b7 49 dd ab ba
       -0.0015381211 -0.007436011 -1.0413554e-05 -0.0013112213
000250 00 00 00 00 c0 32 0c bc 00 25 46 b8 61 1f c6 b6
       0.0 -0.008557022 -4.7241338e-05 -5.904513e-06
000260 89 61 79 bb 00 00 00 00 11 cd 56 ba 32 47 05 bc
       -0.003805252 0.0 -0.00081940094 -0.00813465
000270 a5 30 03 b8 c0 df 88 ba 00 00 00 00 94 56 ad bb
       -3.1278138e-05 -0.0010442659 0.0 -0.005289862
000280 8f e4 53 bb 67 4a 69 38 2c 7d 74 bb 00 00 00 00
       -0.0032332276 5.562082e-05 -0.0037306054 0.0
000290 cb 0c 84 b9 0b 62 0c bc 92 0c 36 b9 8e d1 80 ba
       -0.00025186533 -0.008568297 -0.00017361555 -0.0009828077
0002a0 00 00 00 00 13 b4 4d bb c9 a5 af bb 6e e1 88 38
       0.0 -0.003138785 -0.0053603393 6.526975e-05
0002b0 a7 8e 74 bb 00 00 00 00 27 02 a5 b9 b1 ab 0e bc
       -0.0037316473 0.0 -0.00031472856 -0.008707927
0002c0 c0 5a 94 37 88 52 4a ba 00 00 00 00 0d 42 69 ba
       1.7685234e-05 -0.00077179866 0.0 -0.0008898087
0002d0 f0 41 f8 bb a9 39 86 38 08 94 7f bb 00 00 00 00
       -0.0075762197 6.400358e-05 -0.0038998146 0.0
0002e0 32 54 89 bc 00 00 00 00 b2 f9 81 bd a6 b0 3f bd
       -0.01676378 0.0 -0.06346454 -0.046799324
0002f0 00 00 00 00 c5 4e e7 ba e3 ec 04 3e cd 0f 90 bd
       0.0 -0.0017647377 0.1298099 -0.07034264
000300 00 00 00 00 9c f8 a2 b8 e0 79 9d b7 d9 1d 4c 34
       0.0 -7.771069e-05 -1.8772611e-05 1.9009839e-07
000310 da 26 33 b8 00 00 00 00 78 fc c7 b7 be 1a 8d b8
       -4.271311e-05 0.0 -2.3840214e-05 -6.728385e-05
000320 26 da 9c b4 9f 31 e6 b7 00 00 00 00 33 2a c3 b8
       -2.9215988e-07 -2.7441243e-05 0.0 -9.306185e-05
000330 5c c5 25 b6 e5 8a 9e 2f af be 4c b8 00 00 00 00
       -2.4701794e-06 2.8838723e-10 -4.8814978e-05 0.0
000340 d0 4b 55 b6 7a 5a b8 b8 ba eb ce b4 aa 9b ad b7
       -3.1783602e-06 -8.790656e-05 -3.8542004e-07 -2.0695694e-05
000350 00 00 00 00 44 d7 aa b8 79 60 4c b7 6b 44 83 35
       0.0 -8.146328e-05 -1.2181809e-05 9.780173e-07
000360 5a 1f 5b b8 00 00 00 00 b7 3d e5 36 ec 5b c9 b8
       -5.2242867e-05 0.0 6.8319164e-06 -9.601549e-05
000370 7f 7e 99 b5 da 39 90 b7 00 00 00 00 d1 2f 0b b8
       -1.1436204e-06 -1.7193077e-05 0.0 -3.3184715e-05
000380 6c 21 55 b8 f1 ab 08 b7 83 fb 54 b8 00 00 00 00
       -5.0814284e-05 -8.146265e-06 -5.0778977e-05 0.0
000390 75 7b b6 35 87 8c b7 b8 3c 8c 78 b6 ce 11 86 b7
       1.3595987e-06 -8.752295e-05 -3.7036507e-06 -1.5982336e-05
0003a0 00 00 00 00 ea 3a 83 b5 ec a4 ad b8 e5 d4 06 b7
       0.0 -9.777407e-07 -8.280002e-05 -8.036591e-06
0003b0 2f a3 43 b8 00 00 00 00 73 89 b2 b4 25 13 b7 b8
       -4.66436e-05 0.0 -3.325509e-07 -8.729686e-05
0003c0 0c 16 5c b6 76 f2 73 b7 00 00 00 00 20 85 13 36
       -3.2795388e-06 -1.4540381e-05 0.0 2.1982196e-06
0003d0 43 3a b6 b8 fd 8d eb b6 7b a5 35 b8 00 00 00 00
       -8.6892884e-05 -7.0200754e-06 -4.330788e-05 0.0
0003e0 a8 4b 9b b9 00 00 00 00 96 f3 50 ba 7c 3c 05 ba
       -0.00029620272 0.0 -0.00079708674 -0.000508256
0003f0 00 00 00 00 1e c8 02 b8 a5 6d c3 3a e5 94 67 ba
       0.0 -3.118079e-05 0.0014909996 -0.00088341377

exp_avg_sq f4 [128, 64]
000000 00 00 00 00 94 03 75 33 fe 87 83 32 15 4a 78 30
       0.0 5.7046762e-08 1.531225e-08 9.032715e-10
000010 a0 22 80 32 00 00 00 00 94 c8 73 33 f6 eb 73 32
       1.4916907e-08 0.0 5.676027e-08 1.4198113e-08
000020 1d 0b e7 2f e4 45 83 32 00 00 00 00 f7 b2 2b 33
       4.2026552e-10 1.528219e-08 0.0 3.9976808e-08
000030 3b 15 f3 32 1b ff 79 30 45 1d 61 32 00 00 00 00
       2.8298578e-08 9.09482e-10 1.3103379e-08 0.0
000040 7b 51 4f 33 46 d2 cd 32 e4 92 f5 2f c7 4f 81 32
       4.827005e-08 2.3960762e-08 4.4669612e-10 1.5053855e-08
000050 00 00 00 00 42 dd ef 32 93 6c 2c 33 65 e3 62 31
       0.0 2.7923878e-08 4.014562e-08 3.3016587e-09
000060 b5 1c 57 32 00 00 00 00 e4 2b 09 33 29 35 17 33
       1.2521174e-08 0.0 3.1937716e-08 3.5205776e-08
000070 40 45 1b 31 0b 41 87 32 00 00 00 00 ba a0 85 32
       2.2594833e-09 1.5745647e-08 0.0 1.5556328e-08
000080 c7 31 36 33 12 b0 15 32 9e 4b 7e 32 00 00 00 00
       4.242045e-08 8.712975e-09 1.4801939e-08 0.0
000090 df 7e 90 32 00 30 42 33 87 40 4d 31 40 c6 8a 32
       1.68215e-08 4.52128e-08 2.9868106e-09 1.6155468e-08
0000a0 00 00 00 00 71 8b 10 32 f8 0b 4e 33 ad 24 83 32
       0.0 8.4136085e-09 4.7973998e-08 1.5267085e-08
0000b0 81 64 a7 32 00 00 00 00 a5 fa f4 31 d8 d5 7f 33
       1.9487063e-08 0.0 7.1298296e-09 5.9566304e-08
0000c0 bb da 2b 31 ea 78 86 32 00 00 00 00 b1 9d 4b 31
       2.500811e-09 1.5654638e-08 0.0 2.9630025e-09
0000d0 87 96 5e 33 d1 50 93 32 f4 a0 b6 32 00 00 00 00
       5.1825307e-08 1.7149803e-08 2.1260782e-08 0.0
0000e0 5d 31 a3 36 00 00 00 00 e8 8f 91 36 58 4f 09 36
       4.863525e-06 0.0 4.3380896e-06 2.0460775e-06
0000f0 00 00 00 00 c5 74 67 33 45 3f 1a 36 1a 87 bf 36
       0.0 5.389008e-08 2.2984616e-06 5.7079715e-06
000100 00 00 00 00 06 f8 2d 35 b0 dd 69 32 15 7b 1c 2e
       0.0 6.4808444e-07 1.3612791e-08 3.5579612e-11
000110 9f fb 0d 34 00 00 00 00 43 87 51 34 17 2c 89 34
       1.3223188e-07 0.0 1.951385e-07 2.5550318e-07
000120 04 28 ae 2e 57 47 b1 33 00 00 00 00 be df 42 35
       7.919712e-11 8.2551814e-08 0.0 7.259622e-07
000130 6c 4b dc 32 74 d1 66 2a f8 89 28 34 00 00 00 00
       2.5645669e-08 2.0500772e-13 1.5696412e-07 0.0
000140 40 75 94 33 5c f5 f8 34 bd 62 e7 2f 18 d3 4a 33
       6.913115e-08 4.6372122e-07 4.2088813e-10 4.722378e-08
000150 00 00 00 00 14 55 11 35 aa de d8 33 7b 4a a9 2b
       0.0 5.4140514e-07 1.0098786e-07 1.2028845e-12
000160 ee d1 2d 34 00 00 00 00 1c e5 1b 33 42 fd 15 35
       1.6188253e-07 0.0 3.6297124e-08 5.5875364e-07
000170 01 db cd 31 4f 92 20 33 00 00 00 00 c7 43 62 34
       5.991183e-09 3.738597e-08 0.0 2.1072547e-07
000180 d7 e2 94 34 76 e7 21 30 de 11 13 34 00 00 00 00
       2.7732196e-07 5.8900385e-10 1.3696942e-07 0.0
000190 67 be 05 32 f9 cd 2e 35 95 5b 12 32 2e 35 12 33
       7.784911e-09 6.511978e-07 8.519142e-09 3.404164e-08
0001a0 00 00 00 00 2a b7 b6 33 81 43 de 34 51 d2 8c 30
       0.0 8.508353e-08 4.1399838e-07 1.0246116e-09
0001b0 2f 95 05 34 00 00 00 00 bf 84 b9 31 bb f1 35 35
       1.2440863e-07 0.0 5.3993e-09 6.777952e-07
0001c0 c7 e4 40 32 c4 0e 15 33 00 00 00 00 28 af 71 32
       1.1227889e-08 3.4705195e-08 0.0 1.4067872e-08
0001d0 d6 16 1b 35 dd 04 90 30 b5 bb 08 34 00 00 00 00
       5.777523e-07 1.0478761e-09 1.2734274e-07 0.0
0001e0 72 49 d2 36 00 00 00 00 e6 95 46 38 66 40 aa 37
       6.267038e-06 0.0 4.7346482e-05 2.0295567e-05
0001f0 00 00 00 00 29 22 95 33 0f 1d dc 38 73 df 62 38
       0.0 6.944567e-08 0.0001049583 5.4090702e-05
000200 00 00 00 00 cf 1f 1a 37 39 5d b2 34 5c 4c 38 32
       0.0 9.186521e-06 3.3222912e-07 1.0727572e-08
000210 0e 13 0d 36 00 00 00 00 c7 d9 07 36 1d cb a6 36
       2.1021729e-06 0.0 2.024333e-06 4.970831e-06
000220 61 33 a8 31 3b 18 a2 35 00 00 00 00 90 62 31 37
       4.8952846e-09 1.2076993e-06 0.0 1.05729705e-05
000230 92 16 f6 34 cf a6 b7 2e 81 10 2d 36 00 00 00 00
       4.5837493e-07 8.351508e-11 2.5788615e-06 0.0
000240 9e 82 29 35 82 f1 07 37 53 48 70 32 dd c6 37 35
       6.314748e-07 8.1028575e-06 1.3986283e-08 6.8462197e-07
000250 00 00 00 00 6a c3 00 37 cf 0f b8 35 a0 ca ac 30
       0.0 7.674893e-06 1.3713669e-06 1.2572237e-09
000260 5f 5d 37 36 00 00 00 00 f4 d3 92 34 38 4f 1c 37
       2.7323474e-06 0.0 2.7348835e-07 9.316769e-06
000270 e8 09 28 34 91 38 1f 35 00 00 00 00 1c 89 2a 36
       1.5649823e-07 5.931443e-07 0.0 2.5411782e-06
000280 6b b1 94 36 7f 19 85 32 f5 c6 17 36 00 00 00 00
       4.431398e-06 1.5494832e-08 2.2616562e-06 0.0
000290 78 bc 74 33 9f 66 29 37 44 9c 6d 34 9e 24 18 35
       5.698209e-08 1.0097078e-05 2.2129194e-07 5.66777e-07
0002a0 00 00 00 00 c9 f5 53 35 64 25 e5 36 ab 6a 19 33
       0.0 7.896129e-07 6.8290847e-06 3.5720102e-08
0002b0 72 87 05 36 00 00 00 00 ac 50 0a 33 ef 6f 2b 37
       1.9897384e-06 0.0 3.2204e-08 1.0218456e-05
0002c0 18 88 98 34 5e 72 20 35 00 00 00 00 d9 e4 08 34
       2.8411228e-07 5.977107e-07 0.0 1.2749241e-07
0002d0 e5 fa 12 37 04 3d 20 33 20 3a 04 36 00 00 00 00
       8.760694e-06 3.7308396e-08 1.9703366e-06 0.0
0002e0 6d 52 b0 38 00 00 00 00 71 c1 40 3a 83 71 9a 39
       8.407687e-05 0.0 0.0007353044 0.00029457742
0002f0 00 00 00 00 05 15 7a 35 53 84 e4 3a dc 92 5e 3a
       0.0 9.3162845e-07 0.0017434455 0.00084905117
000300 00 00 00 00 19 67 26 31 fd 79 e6 30 d4 68 a0 2f
       0.0 2.4214784e-09 1.6769374e-09 2.9178315e-10
000310 a6 c6 90 30 00 00 00 00 7c c2 07 31 a3 01 11 31
       1.0533838e-09 0.0 1.9755637e-09 2.1101207e-09
000320 75 51 f2 2e 93 e3 83 30 00 00 00 00 55 0f b0 30
       1.10193556e-10 9.596185e-10 0.0 1.2810043e-09
000330 93 ed 05 31 9f 0d 34 2f eb 9b 84 30 00 00 00 00
       1.9489093e-09 1.6375744e-10 9.648579e-10 0.0
000340 1e 10 b7 30 08 5e 08 31 55 2a 06 2f 70 b8 5a 30
       1.3319583e-09 1.9844055e-09 1.2202268e-10 7.957004e-10
000350 00 00 00 00 cc e9 6e 30 f8 17 0e 31 90 d0 a2 2f
       0.0 8.691614e-10 2.0677344e-09 2.961582e-10
000360 ac 43 7b 30 00 00 00 00 22 9d 84 30 f7 6a 29 31
       9.1409436e-10 0.0 9.648924e-10 2.465354e-09
000370 af d0 78 2f 65 ac 69 30 00 00 00 00 d8 3b ae 2f
       2.2629608e-10 8.5009894e-10 0.0 3.1692937e-10
000380 fe be 1d 31 1a 20 47 30 10 d8 a1 30 00 00 00 00
       2.2955073e-09 7.24414e-10 1.17757e-09 0.0
000390 71 e6 1a 30 53 10 33 31 85 51 bf 2f 7a fb 86 30
       5.635235e-10 2.6057208e-09 3.480062e-10 9.821257e-10
0003a0 00 00 00 00 1e cf 30 2f 15 f0 25 31 4c 52 bf 30
       0.0 1.608069e-10 2.414713e-09 1.3920469e-09
0003b0 93 ec e0 30 00 00 00 00 d9 91 97 2f 1d 7a 41 31
       1.6365383e-09 0.0 2.757037e-10 2.815461e-09
0003c0 77 84 e5 2f fe bb 94 30 00 00 00 00 37 ba ca 2e
       4.174898e-10 1.0821848e-09 0.0 9.218975e-11
0003d0 03 8c 21 31 db 85 d9 30 68 db f6 30 00 00 00 00
       2.350817e-09 1.5826872e-09 1.7961215e-09 0.0
0003e0 c0 ac 9f 34 00 00 00 00 fc ff 68 34 cc 84 b7 33
       2.974175e-07 0.0 2.169981e-07 8.545757e-08
0003f0 00 00 00 00 28 79 62 31 ad d4 a5 34 b7 e0 c9 34
       0.0 3.2956198e-09 3.0888387e-07 3.760267e-07

exp_avg f4 [128]
000000 a8 d3 35 b9 23 06 2d bb 4e b1 12 bc fd 09 cd b8
       -0.00017340353 -0.0026401363 -0.008953406 -9.777022e-05
000010 39 33 3c b8 92 d3 21 3a 79 3c 8c 3a b2 cb e7 b8
       -4.4870398e-05 0.0006173189 0.0010699175 -0.000110528796
000020 e2 91 30 39 26 c6 85 36 06 15 8b bb a9 de ae bb
       0.00016839014 3.9867764e-06 -0.0042444495 -0.0053366018
000030 90 c0 1c 3b d4 4a bc 3a 32 7f 2e 37 cb 9d ee ba
       0.0023918487 0.0014365562 1.0400823e-05 -0.0018204985
000040 8f a6 c7 3a d2 1b df ba eb b6 3d ba 25 ac 7d bb
       0.0015232133 -0.0017021841 -0.0007237035 -0.0038707342
000050 73 90 5d 37 c3 9f aa 3b 09 c2 06 ba a6 66 97 3b
       1.3206259e-05 0.0052070334 -0.0005140608 0.004620391
000060 0e 11 00 bb a0 fc 09 bb 96 45 ff 38 dc 85 8d b8
       -0.0019541415 -0.0021055117 0.00012172309 -6.748337e-05
000070 3a 37 a9 3b ed a9 fb b4 56 4a dd 3a d1 6d be 3a
       0.005164054 -4.687603e-07 0.0016883116 0.0014528577
000080 10 6a 45 39 ce e8 63 bb b5 4b 13 bb 2f f3 92 3a
       0.00018826895 -0.0034776214 -0.0022475545 0.001121139
000090 b1 12 ba 3a 9e 1f 88 bb ac d7 72 3b cb a1 76 b9
       0.0014196244 -0.0041541597 0.003705482 -0.00023520661
0000a0 bd 41 69 b9 48 0a 02 39 9a e5 71 38 18 e6 0d 39
       -0.00022245101 0.00012401596 5.767271e-05 0.00013532524
0000b0 aa cb 05 b7 13 a8 71 bb 43 67 6e 3b 0e 02 b2 3b
       -7.974837e-06 -0.0036873862 0.0036377467 0.005432374
0000c0 f6 b8 61 3b 92 8f 51 39 cb 78 ec b8 ee c6 bf bb
       0.003444252 0.00019985277 -0.000112758564 -0.0058525717
0000d0 93 bd 90 38 71 ab 33 b9 57 57 da 39 53 a8 98 bb
       6.901766e-05 -0.00017134637 0.00041645273 -0.0046587377
0000e0 1b 16 9b 39 c0 39 e9 b8 4b 3c 09 3a 94 d7 67 3b
       0.00029580374 -0.000111210626 0.00052351196 0.0035376297
0000f0 bf 88 0f 3a 47 f9 e2 3a 7e f2 b0 bb 1a b4 2e ba
       0.0005475394 0.0017316722 -0.005400001 -0.00066644105
000100 1e 05 06 3a 40 fa ff ba e1 ef 00 3a e0 43 a5 b9
       0.0005112457 -0.0019529536 0.0004918557 -0.00031521823
000110 78 a9 0a 3b 4d fd 0a 3b f6 30 b5 39 2b 9d be ba
       0.002115814 0.0021208108 0.0003455949 -0.0014542689
000120 6d ea 39 bb 92 4e ae 37 56 62 55 bb af 80 0d 3a
       -0.0028368488 2.0779004e-05 -0.0032559833 0.00053978985
000130 9b 7d e0 39 4b eb 72 ba ee 5a 6a b8 08 52 2f b8
       0.00042818193 -0.0009266629 -5.5874632e-05 -4.179965e-05
000140 84 f1 14 3b 30 f9 93 bb ec 27 83 38 e0 19 98 39
       0.0022726962 -0.0045157894 6.254003e-05 0.00029010978
000150 95 48 eb ba 1e 3d e4 38 9c cd 24 3b ed 58 b1 ba
       -0.0017950708 0.00010883271 0.0025146967 -0.001353053
000160 54 67 05 3b c7 0a 0d 3b ca 09 9d bb c8 ce 8b 39
       0.0020355778 0.0021521316 -0.0047924267 0.0002666621
000170 cb bf 1c bb 46 43 59 3b 97 b3 ab bb 80 f6 b3 ba
       -0.0023918028 0.003315167 -0.0052399146 -0.0013730079
000180 e4 c1 5c 3b c6 1c 23 b9 d2 b4 13 bb 1c ad 99 ba
       0.0033684904 -0.0001555561 -0.0022538197 -0.0011724564
000190 eb d7 57 b8 75 98 13 3b 93 ab 29 3a 81 ff e1 3a
       -5.1461084e-05 0.0022521291 0.0006472405 0.0017242284
0001a0 bd 70 28 3b 4d cd ea 38 e0 5c a8 39 43 37 7b 3b
       0.0025701963 0.0001119623 0.00032112654 0.00383325
0001b0 71 77 43 3a 8c 22 6c 3b ce 9b 30 b9 94 92 07 ba
       0.0007456458 0.0036031334 -0.0001684271 -0.0005171683
0001c0 92 7a c4 b9 8b 0f 1d 3b b8 9e 14 bb 57 f9 36 b9
       -0.00037475355 0.0023965563 -0.0022677612 -0.00017449759
0001d0 3e 00 df 39 82 80 0a 3a e4 04 41 b9 70 af 71 b9
       0.00042534055 0.00052834314 -0.00018407736 -0.00023048907
0001e0 8a 50 38 3b 88 10 84 3a 94 99 80 ba 78 01 a3 3a
       0.0028124177 0.0010075727 -0.0009811395 0.0012436351
0001f0 9b 5f 28 3a 7b ff 0f 3a 46 62 0a 3a 62 34 24 39
       0.0006422938 0.00054930866 0.0005278926 0.00015659773

exp_avg_sq f4 [128]
000000 3c 6a a3 33 ba ee 45 35 01 14 34 37 a7 a3 7c 31
       7.609603e-08 7.373561e-07 1.0733494e-05 3.6763852e-09
000010 99 0f f8 2f 84 a7 9a 33 99 34 09 35 72 93 dd 30
       4.512202e-10 7.201655e-08 5.1113017e-07 1.6121773e-09
000020 12 f7 cb 33 6b 3e 3f 31 6e 4a 14 36 47 f8 74 36
       9.497866e-08 2.7829639e-09 2.2097042e-06 3.650335e-06
000030 02 f4 81 35 4a 4f 99 34 86 3c 5b 30 1b d1 da 34
       9.682265e-07 2.855616e-07 7.9757745e-10 4.0757809e-07
000040 db 5e 58 35 c1 fe af 34 ae 8c b5 34 c5 f1 02 36
       8.0604303e-07 3.2781648e-07 3.3816235e-07 1.9512238e-06
000050 18 e0 45 31 1f 41 1f 36 4e 72 28 34 c3 03 48 36
       2.8794656e-09 2.3730752e-06 1.5687803e-07 2.9804512e-06
000060 b0 42 60 35 bd bf 26 35 a4 de 2d 34 2a a4 8e 33
       8.3543546e-07 6.2118835e-07 1.6192877e-07 6.6422515e-08
000070 7c a1 1b 36 6c 5e e7 30 78 0c 52 35 34 2d 61 34
       2.3190796e-06 1.6834298e-09 7.824924e-07 2.0971203e-07
000080 e2 a9 6f 33 4c df bf 35 d7 ae 09 35 1a 57 cf 35
       5.580103e-08 1.4295597e-06 5.12909e-07 1.5448052e-06
000090 f3 94 2a 35 1b 93 0b 36 35 b1 16 36 eb 73 1a 32
       6.3546685e-07 2.079824e-06 2.245489e-06 8.9903365e-09
0000a0 95 ee b9 31 e7 bd b1 32 ae 51 40 30 71 e4 de 31
       5.4113323e-09 2.069187e-08 6.9965267e-10 6.487021e-09
0000b0 4f d0 de 30 85 fd cd 35 49 37 0e 36 d3 a8 c1 36
       1.6211831e-09 1.5347474e-06 2.119183e-06 5.771502e-06
0000c0 16 96 06 36 4d 22 5a 33 3e 1f 1f 31 17 51 8a 36
       2.0054918e-06 5.0788277e-08 2.3155304e-09 4.1221606e-06
0000d0 9d 45 48 33 ec e5 e9 31 aa f9 d4 33 71 90 f3 35
       4.662944e-08 6.8073316e-09 9.917433e-08 1.8146949e-06
0000e0 3a f0 9d 33 ad 2f 56 31 31 ef 5e 33 31 20 f3 35
       7.354579e-08 3.11682e-09 5.1905946e-08 1.811428e-06
0000f0 9d 3b 10 33 93 1a ba 35 fc 1b 80 36 6c ad 30 35
       3.358183e-08 1.3865814e-06 3.817955e-06 6.581747e-07
000100 a0 01 52 34 d3 2e 51 35 1a dc c1 33 38 60 de 33
       1.9558365e-07 7.7926705e-07 9.027299e-08 1.0355183e-07
000110 30 16 22 35 89 0d e3 34 82 56 85 34 ad ca b1 34
       6.038199e-07 4.2291893e-07 2.4836123e-07 3.3116285e-07
000120 8b ab 83 35 45 8d c8 32 ee 61 d2 35 71 74 10 34
       9.810186e-07 2.3347306e-08 1.567472e-06 1.3453406e-07
000130 ad 74 6b 33 cb d4 b3 33 ec 29 09 31 6b 92 b6 31
       5.4821317e-08 8.374044e-08 1.9959954e-09 5.313543e-09
000140 0d 95 d5 34 86 a7 06 36 7d 2d e4 32 32 cd 01 33
       3.978279e-07 2.0065067e-06 2.6563379e-08 3.0221777e-08
000150 35 2a 50 35 10 e6 9c 31 c4 de 17 35 28 64 d9 34
       7.754746e-07 4.5663526e-09 5.657605e-07 4.0492273e-07
000160 10 be 1e 35 e3 d8 02 35 51 d6 3c 36 2a 5c ce 32
       5.9136164e-07 4.8744386e-07 2.8138932e-06 2.4023468e-08
000170 37 28 18 35 27 6d 82 35 89 1a 5c 36 50 9e 71 34
       5.668293e-07 9.717522e-07 3.2798e-06 2.2502468e-07
000180 68 d1 9d 35 6c 42 a6 32 2f b0 f3 34 c3 89 39 34
       1.1758357e-06 1.9355149e-08 4.5390468e-07 1.7279585e-07
000190 46 64 14 34 06 85 05 35 e9 bb 80 34 d8 f2 03 35
       1.3820053e-07 4.9739936e-07 2.397858e-07 4.9154687e-07
0001a0 92 24 39 35 a4 38 e3 31 4a d8 84 33 cd 20 11 36
       6.897109e-07 6.613009e-09 6.186072e-08 2.1625776e-06
0001b0 44 7a 68 33 01 ef d1 35 9b e9 7a 32 ad bd 81 33
       5.412791e-08 1.5641273e-06 1.4605031e-08 6.0415324e-08
0001c0 a7 86 5c 33 fb f1 49 35 f3 58 39 35 50 33 36 32
       5.1345207e-08 7.5230463e-07 6.904731e-07 1.0605461e-08
0001d0 6a c6 3e 34 8a 42 26 33 15 99 8a 31 6d ca b5 31
       1.7767312e-07 3.8710404e-08 4.033732e-09 5.2908065e-09
0001e0 1b ad c5 35 39 94 d6 34 70 aa 96 34 2b 7f 45 34
       1.4728024e-06 3.9968452e-07 2.8063687e-07 1.8393318e-07
0001f0 99 74 17 34 5f ed 26 34 80 3e 82 33 93 10 41 33
       1.4105389e-07 1.554631e-07 6.0649654e-08 4.495139e-08
