results/Test/MoveToGoal/MoveToGoal-6208.pt (torch, 149519 bytes, 12 tensors)

network_body._body_endoder.seq_layers.0.weight f4 [128, 6]
0	0xbe000e87	-0.12505542
1	0x3f71b2a9	0.9441324
2	0x3f237ff2	0.63867104
3	0xbedf2388	-0.43581796
4	0xbf05512f	-0.52077
5	0xbf32180f	-0.6956796
6	0x3ead0ea6	0.33800238
7	0xbe7c9ac6	-0.24668416
8	0x3d9204cc	0.07129821
9	0x3fb056a4	1.3776441
10	0x3e609048	0.21930039
11	0xbe8ceccb	-0.2752441
12	0x3e6307a3	0.22170882
13	0x3ef75a72	0.48311192
14	0x3d0fd92a	0.035119213
15	0x3f4a61c8	0.7905545
16	0xbe94f9f5	-0.29096952
17	0x3e30369f	0.17208336
18	0x3dc324b2	0.095284835
19	0x3dfbb47f	0.12290286
20	0x3edd46fe	0.43218225
21	0xbedd6485	-0.43240753
22	0x3e4a0770	0.197294
23	0x3ece0881	0.40240863
24	0x3e50a0f0	0.20373893
25	0x3e20ffee	0.1572263
26	0xbe804368	-0.25051427
27	0x3e4426ad	0.19155379
28	0x3ab23342	0.0013595598
29	0xbeeb82ea	-0.45998317
30	0x3ea2ceb7	0.31798336
31	0xbee379ae	-0.44428772
32	0xbd220dea	-0.03956405
33	0x3f14872e	0.5801877
34	0x3f2ee00a	0.68310606
35	0xbe40ed0e	-0.18840429
36	0xbd9bb541	-0.07602931
37	0x3e61bc95	0.22044595
38	0xbe3b4b03	-0.18290333
39	0x3ecc036a	0.39846355
40	0xbd91cb17	-0.071188144
41	0xbe946045	-0.28979698
42	0xbf3377a0	-0.7010441
43	0xbe3d8e24	-0.18511254
44	0x3e35916f	0.1773126
45	0xbeeac77a	-0.45855314
46	0xbca5f019	-0.020256089
47	0xbee27565	-0.4423019
48	0x3f092ee8	0.535872
49	0xbf485cb8	-0.7826648
50	0x3ed87516	0.4227683
51	0xbe2b7a20	-0.16745806
52	0x3da86fb8	0.08224434
53	0xbe3f973a	-0.18710032
54	0xbea2ef35	-0.31823125
55	0x3ec7aa38	0.38997054
56	0x3f0d695a	0.5523888
57	0xbf96b66b	-1.177442
58	0x3e0a921c	0.13532299
59	0x3e5f8ae5	0.21830328
60	0xbf1dfe7b	-0.6171643
61	0xbf083777	-0.5320963
62	0x3e1de16c	0.15418023
63	0x3e5f4441	0.2180338
64	0x3de3ff31	0.11132658
65	0xbe9ceebc	-0.3065089
66	0xbe627e0d	-0.22118397
67	0x3c33c7f7	0.010972968
68	0x3e674556	0.22585043
69	0x3dc96e84	0.09835532
70	0x3f0dc6d4	0.5538151
71	0x3eb0ae49	0.3450797
72	0xbf1958b9	-0.59901005
73	0xbd98b4aa	-0.07456334
74	0x3e49f967	0.19724046
75	0xbeb6f0f5	-0.3573071
76	0x3f0fcc5c	0.561712
77	0x3f04907e	0.5178298
78	0xbe9b2599	-0.30302122
79	0xbede5ab6	-0.43428582
80	0xbdcd3ba5	-0.10021142
81	0x3e540d90	0.20708299
82	0xbe3c8191	-0.184088
83	0xbdbf8bf2	-0.09352864
84	0x3eb18e47	0.34678861
85	0x3cfe05ca	0.03100862
86	0x3dcc76a0	0.099835634
87	0xbefe020c	-0.49610937
88	0xbf01ad3e	-0.5065497
89	0x3ebbe077	0.3669469
90	0xbe2575c9	-0.16158213
91	0xbeb01a10	-0.34394884
92	0x3d916473	0.07099237
93	0x3dbba35c	0.09162018
94	0xbe949ae3	-0.2902442
95	0xbe4d2399	-0.2003311
96	0x3e90cfad	0.28283444
97	0xbc694297	-0.014237068
98	0xbf309009	-0.6896978
99	0x3f5e804c	0.86914515
100	0x3f10650f	0.56404203
101	0xbe465ed8	-0.19372118
102	0x3d81c072	0.06335534
103	0xbe74d95e	-0.23911044
104	0xbf05d271	-0.52274233
105	0xbd827870	-0.06370628
106	0x3e90bf80	0.28271103
107	0x3ebc1f2a	0.36742526
108	0x3dc40d6d	0.09572873
109	0xbc417b8c	-0.011809241
110	0xbe19ba73	-0.15012531
111	0xbaa1814f	-0.0012321862
112	0xbf29e128	-0.66359186
113	0xbedcf474	-0.43155253
114	0xbdcb9968	-0.09941369
115	0x3eb2b8e6	0.3490669
116	0x3e33bbfe	0.17552182
117	0x3dc97103	0.098360084
118	0xbf1113c9	-0.56670815
119	0x3edbce5d	0.4293088
120	0xbe95a2a6	-0.29225653
121	0x3ea679df	0.32514855
122	0x3e9a9523	0.30191907
123	0x3f0c8424	0.5488913
124	0xbee1150d	-0.43961373
125	0x3f01e488	0.50739336
126	0xbe4e858c	-0.20168132
127	0x3de3d960	0.11125445
128	0xbef1ba49	-0.47212437
129	0x3e85225e	0.26002783
130	0xbe0f441e	-0.13990828
131	0xbeccacf5	-0.39975706
132	0x3f32fbe6	0.69915617
133	0x3f12688e	0.5719079
134	0xbda43295	-0.0801746
135	0xbd5e998b	-0.05434565
136	0xbd927ecf	-0.07153093
137	0x3f05fbdb	0.52337426
138	0x3f2af7d9	0.66784436
139	0xbe49294a	-0.19644657
140	0xbd5b17e0	-0.053489566
141	0x3ddfad45	0.109217204
142	0xbe32f74f	-0.17477153
143	0xbf0b5b31	-0.5443602
144	0xbec13228	-0.3773358
145	0x3e88fee5	0.2675697
146	0x3a364f6d	0.00069545844
147	0x3f81873f	1.0119399
148	0xbe7a5f68	-0.24450457
149	0xbe586d5d	-0.21135469
150	0x3f08ba10	0.5340891
151	0x3df4b84b	0.119492136
152	0x3e8a635b	0.27028927
153	0x3ebfeb21	0.37484077
154	0xbe1e37ee	-0.15451023
155	0x3e385231	0.18000104
156	0xbe990b82	-0.29891592
157	0xbe6fd99b	-0.23422854
158	0x3edca50d	0.43094674
159	0xbdc7de0c	-0.09759149
160	0xbd8a7f3c	-0.06762549
161	0x3f8dee51	1.1088353
162	0x3f963486	1.1734779
163	0xbed8d89e	-0.42352766
164	0xbe23c88a	-0.15994468
165	0xbec66573	-0.38749275
166	0xbeb879a6	-0.3603031
167	0x3e7cd810	0.24691796
168	0x3db856e6	0.090009496
169	0x3e337134	0.17523652
170	0xbc5d6393	-0.01351251
171	0xbf1836ff	-0.5945892
172	0xbe6e08d0	-0.23245549
173	0x3de91d8c	0.11382589
174	0x3e73e83a	0.23819056
175	0xbeed7df0	-0.46385145
176	0xbe66d295	-0.22541268
177	0xbe877f5f	-0.26464364
178	0xbc1e196a	-0.009649614
179	0xbef28ece	-0.47374576
180	0x3f195a61	0.5990353
181	0xbe0237c4	-0.12716585
182	0xbd975d3b	-0.07390829
183	0xbe9ca58d	-0.30595055
184	0xbf1264fc	-0.5718534
185	0x3da0c45c	0.078499526
186	0xbf0f7b97	-0.5604796
187	0x3e8dff00	0.27733612
188	0x3e8cbc09	0.2748721
189	0xbd7f10c4	-0.06227185
190	0xbf04fb83	-0.51946276
191	0x3e3105cc	0.17287368
192	0x3dd762d5	0.105168976
193	0xbf02348b	-0.50861424
194	0xbee1f1b8	-0.4412973
195	0xbbb487a8	-0.0055093355
196	0x3f3053a0	0.688776
197	0xbdbefcf1	-0.093255885
198	0x3ca35f06	0.019942772
199	0x3ef988a6	0.48737067
200	0x3eb5954e	0.35465473
201	0x3e206641	0.15664007
202	0x3e36336e	0.17793056
203	0xbd1976d7	-0.03746685
204	0xbf0c19b4	-0.5472672
205	0x3e49656b	0.19667594
206	0x3e52b5c2	0.20577148
207	0x3db3da86	0.087819144
208	0x3e30b73a	0.17257395
209	0xbed520d9	-0.41626623
210	0xbf09a913	-0.5377361
211	0x3f22a978	0.6353984
212	0xbfa9e401	-1.3272706
213	0xbef51a73	-0.47871742
214	0x3dcfe5be	0.10151242
215	0x3e44b1f7	0.19208513
216	0xbef20912	-0.47272545
217	0xbe6f4033	-0.23364334
218	0x3f1e9876	0.61951387
219	0x3e92bbc0	0.28658867
220	0x3ecc6a98	0.39925075
221	0x3e8bdc6a	0.273166
222	0xbec74117	-0.38916847
223	0x3d2ef844	0.042717233
224	0x3ceeec3a	0.029165376
225	0x3e8699ca	0.26289207
226	0x3ef5c81a	0.48004228
227	0x3f1647d1	0.58703333
228	0x3e916916	0.28400487
229	0xbf143225	-0.57889014
230	0xbe3f24a7	-0.18666326
231	0x3eb815bc	0.35954082
232	0x3e72175a	0.2364172
233	0xbe23b7c2	-0.15988067
234	0x3f412ec2	0.7546197
235	0x3f205ddc	0.6264322
236	0x3e5eccb4	0.21757776
237	0xbf038533	-0.5137512
238	0xbc1f0118	-0.009704851
239	0x3dc59386	0.096472785
240	0x3e2b9d15	0.16759141
241	0xbe7cdcba	-0.24693576
242	0x3c82c147	0.015961302
243	0x3eb65d56	0.35618085
244	0xbe227b69	-0.1586739
245	0x3f5db0b7	0.8659777
246	0xbf439508	-0.7639928
247	0x3e4e810b	0.20166413
248	0xbec0fc8c	-0.37692678
249	0x3eaacac9	0.33357838
250	0x3f2109ea	0.6290575
251	0xbef35fa6	-0.4753391
252	0xbf1a0074	-0.6015694
253	0xbe4f3eca	-0.20238796
254	0x3dd4f1a8	0.10397655
255	0x3eafdefa	0.34349805

network_body._body_endoder.seq_layers.0.bias f4 [128]
0	0x00000000	0.0
1	0x00000000	0.0
2	0x00000000	0.0
3	0x00000000	0.0
4	0x00000000	0.0
5	0x00000000	0.0
6	0x00000000	0.0
7	0x00000000	0.0
8	0x00000000	0.0
9	0x00000000	0.0
10	0x00000000	0.0
11	0x00000000	0.0
12	0x00000000	0.0
13	0x00000000	0.0
14	0x00000000	0.0
15	0x00000000	0.0
16	0x00000000	0.0
17	0x00000000	0.0
18	0x00000000	0.0
19	0x00000000	0.0
20	0x00000000	0.0
21	0x00000000	0.0
22	0x00000000	0.0
23	0x00000000	0.0
24	0x00000000	0.0
25	0x00000000	0.0
26	0x00000000	0.0
27	0x00000000	0.0
28	0x00000000	0.0
29	0x00000000	0.0
30	0x00000000	0.0
31	0x00000000	0.0
32	0x00000000	0.0
33	0x00000000	0.0
34	0x00000000	0.0
35	0x00000000	0.0
36	0x00000000	0.0
37	0x00000000	0.0
38	0x00000000	0.0
39	0x00000000	0.0
40	0x00000000	0.0
41	0x00000000	0.0
42	0x00000000	0.0
43	0x00000000	0.0
44	0x00000000	0.0
45	0x00000000	0.0
46	0x00000000	0.0
47	0x00000000	0.0
48	0x00000000	0.0
49	0x00000000	0.0
50	0x00000000	0.0
51	0x00000000	0.0
52	0x00000000	0.0
53	0x00000000	0.0
54	0x00000000	0.0
55	0x00000000	0.0
56	0x00000000	0.0
57	0x00000000	0.0
58	0x00000000	0.0
59	0x00000000	0.0
60	0x00000000	0.0
61	0x00000000	0.0
62	0x00000000	0.0
63	0x00000000	0.0
64	0x00000000	0.0
65	0x00000000	0.0
66	0x00000000	0.0
67	0x00000000	0.0
68	0x00000000	0.0
69	0x00000000	0.0
70	0x00000000	0.0
71	0x00000000	0.0
72	0x00000000	0.0
73	0x00000000	0.0
74	0x00000000	0.0
75	0x00000000	0.0
76	0x00000000	0.0
77	0x00000000	0.0
78	0x00000000	0.0
79	0x00000000	0.0
80	0x00000000	0.0
81	0x00000000	0.0
82	0x00000000	0.0
83	0x00000000	0.0
84	0x00000000	0.0
85	0x00000000	0.0
86	0x00000000	0.0
87	0x00000000	0.0
88	0x00000000	0.0
89	0x00000000	0.0
90	0x00000000	0.0
91	0x00000000	0.0
92	0x00000000	0.0
93	0x00000000	0.0
94	0x00000000	0.0
95	0x00000000	0.0
96	0x00000000	0.0
97	0x00000000	0.0
98	0x00000000	0.0
99	0x00000000	0.0
100	0x00000000	0.0
101	0x00000000	0.0
102	0x00000000	0.0
103	0x00000000	0.0
104	0x00000000	0.0
105	0x00000000	0.0
106	0x00000000	0.0
107	0x00000000	0.0
108	0x00000000	0.0
109	0x00000000	0.0
110	0x00000000	0.0
111	0x00000000	0.0
112	0x00000000	0.0
113	0x00000000	0.0
114	0x00000000	0.0
115	0x00000000	0.0
116	0x00000000	0.0
117	0x00000000	0.0
118	0x00000000	0.0
119	0x00000000	0.0
120	0x00000000	0.0
121	0x00000000	0.0
122	0x00000000	0.0
123	0x00000000	0.0
124	0x00000000	0.0
125	0x00000000	0.0
126	0x00000000	0.0
127	0x00000000	0.0

network_body._body_endoder.seq_layers.2.weight f4 [128, 128]
0	0x3e413097	0.18866192
1	0xbc00d051	-0.0078621665
2	0x3c9b1dd6	0.018935125
3	0x3d9e7aca	0.07738264
4	0xbe3e260b	-0.185692
5	0x3e1b608c	0.15173548
6	0xbdd6030f	-0.10449802
7	0x3b9138d0	0.0044318214
8	0xbd0174a5	-0.03160538
9	0x3dae3aa0	0.085072756
10	0x3d4dba75	0.050226647
11	0x3d59c40e	0.053165488
12	0x3d0117f2	0.031516977
13	0x3d69d6da	0.057089664
14	0x3e0942bd	0.13404365
15	0xbc9fd82e	-0.019512262
16	0x3de60f2f	0.11233365
17	0xbcdcb64d	-0.026942397
18	0xbcf580d5	-0.029968658
19	0x3ddd1d9d	0.10796664
20	0xbdf21195	-0.1181976
21	0xbcc9c1e0	-0.02462858
22	0xbc2f5131	-0.01070051
23	0x3d63fc65	0.055660624
24	0xbd5d61a7	-0.054048207
25	0xbb3e1956	-0.00290068
26	0xbe08507d	-0.13311954
27	0xbd98f877	-0.07469266
28	0xbcf0e181	-0.029404404
29	0xbd96ae2a	-0.07357438
30	0x3c534899	0.012895727
31	0x3c726bd4	0.014796216
32	0x3d911a08	0.07085043
33	0x3d8c0a03	0.06837847
34	0xbc6b96cd	-0.014379215
35	0x3d0f1d50	0.034940064
36	0x3c05fb6d	0.00817762
37	0xbd301fc5	-0.042999048
38	0x3dcfe350	0.10150778
39	0xbcd98f97	-0.026557727
40	0x3d16f7be	0.03685736
41	0xbe15214a	-0.1456348
42	0x3e19472a	0.14968553
43	0xbdc0a52b	-0.09406503
44	0x3de5f6ea	0.11228736
45	0x3d1a6164	0.037690535
46	0xbd84d1c1	-0.0648532
47	0xbdabd2e2	-0.08389832
48	0xbcdcea95	-0.026967326
49	0x3c06fee0	0.008239478
50	0x3e053e20	0.1301198
51	0xbdeb7403	-0.11496737
52	0x3ba6d28b	0.0050910166
53	0xbd7801eb	-0.060548704
54	0xbc614c76	-0.01375114
55	0x3dd9db34	0.10637513
56	0xbd66d360	-0.056353927
57	0xbc836c87	-0.01604296
58	0x3d2a2a03	0.04154397
59	0x3e214acd	0.1575119
60	0xbd815d86	-0.06316666
61	0x3dd0856e	0.101817
62	0x3c1ff7cc	0.009763669
63	0x3d616978	0.055032223
64	0xbd7595db	-0.059957366
65	0xbe2592d8	-0.16169298
66	0xbb802dd5	-0.0039117136
67	0x3dd5d2e6	0.10440616
68	0x3d7f303f	0.06230187
69	0xbce256dc	-0.027629308
70	0xbd64d102	-0.055863388
71	0xbc60db08	-0.013724096
72	0xbd3db7e2	-0.046317942
73	0xbd971ab6	-0.073781416
74	0xbdc293f7	-0.09500878
75	0xbe1262cc	-0.142955
76	0xbd8ab3e4	-0.06772593
77	0xbd9448d6	-0.07240455
78	0x3d810a10	0.063007474
79	0x3d37256f	0.044713434
80	0x3e099e70	0.13439345
81	0x3d712032	0.058868594
82	0x3dce966c	0.100872844
83	0xbdc523ff	-0.09626006
84	0x3d7813b6	0.060565673
85	0xbc8f137d	-0.017465347
86	0xbd397a1b	-0.045282464
87	0x3da519e2	0.080615774
88	0xbd1c3bf1	-0.038143102
89	0xbe065c44	-0.13121134
90	0xbd8bd602	-0.06827928
91	0x3d08e0ee	0.033417635
92	0x387332c9	5.7983012e-05
93	0x3cea6e98	0.028617188
94	0x3c0640c8	0.008194156
95	0xbd86f7f9	-0.06590266
96	0xbd5c3a6f	-0.053766664
97	0x3d96bc74	0.07360163
98	0xbd9ec169	-0.07751734
99	0xbe2380e2	-0.15967134
100	0xbd0a39b1	-0.033746425
101	0x3d9b059d	0.0756943
102	0x3d54bc5c	0.051937446
103	0x3d4bac9e	0.049725167
104	0x3dae50b4	0.08511487
105	0xbd960a52	-0.07326187
106	0xbdf579f4	-0.11986151
107	0x3d1eb0c2	0.038742788
108	0x3e0017dc	0.12509102
109	0xbe1b2d2a	-0.15153947
110	0x3d810b6e	0.06301008
111	0xbbfc13a8	-0.007692773
112	0xbd8f5a5f	-0.06999659
113	0xbdc49902	-0.095994964
114	0xbdb27f5a	-0.08715697
115	0xbde868c8	-0.113481104
116	0xbdc7a287	-0.097477965
117	0x3c9ea92e	0.01936778
118	0xbd2228f5	-0.03958984
119	0x3e1c70a2	0.15277341
120	0x3c48ee27	0.012263811
121	0xbcd9d5a1	-0.026591124
122	0xbe1cb43e	-0.15303132
123	0x3ca7fb0c	0.02050545
124	0xbd81b833	-0.06333961
125	0xbda28d1e	-0.07937072
126	0x3d0aae64	0.033857718
127	0x3df583d5	0.119880356
128	0x3cf389ac	0.029728733
129	0x3e767012	0.24066189
130	0x3cf64405	0.030061731
131	0x3d8f6322	0.0700133
132	0x3ce1eb89	0.027578132
133	0x3caeaa00	0.021321297
134	0x3e053faa	0.13012567
135	0x3e0d5940	0.13803577
136	0x3d31204a	0.043243684
137	0xbe41e4f6	-0.18934998
138	0x3d2e9e17	0.042631235
139	0xbde2b4ce	-0.11069642
140	0x3de265b7	0.11054557
141	0x3d7e9587	0.06215432
142	0xbe1ea778	-0.15493572
143	0xbdd6da6d	-0.1049088
144	0x3d727489	0.059193168
145	0x3dc45af2	0.09587659
146	0xbccba6bd	-0.02485978
147	0x3d4bed7c	0.04978703
148	0xbe146eed	-0.1449544
149	0x3b7befb2	0.003844243
150	0x3c03e0af	0.008049174
151	0x3dce072a	0.1005996
152	0x3e11842d	0.14210577
153	0xbd110d6e	-0.0354132
154	0xbc910ba7	-0.017705752
155	0x3d520220	0.051271558
156	0xbd2f17bf	-0.042747255
157	0x3d7d9c02	0.06191636
158	0xbdfe1aaf	-0.12407433
159	0x3aaff60f	0.0013424772
160	0x3d610bd7	0.054942932
161	0x3b9ede9e	0.0048483154
162	0xbe420a7a	-0.18949309
163	0xbd5ed3b2	-0.054401107
164	0x3d9bd925	0.076097764
165	0xbd85fb77	-0.06542104
166	0x3da6f141	0.08151484
167	0x3e3478cc	0.17624205
168	0x3dd1d222	0.10245158
169	0x3cb45d72	0.022017214
170	0x3dc6b05f	0.09701609
171	0xbd125e33	-0.035734367
172	0x3d430a02	0.047616966
173	0x3cb3e5d9	0.021960186
174	0x3da480ab	0.08032354
175	0x3d2bbd22	0.041928418
176	0x3dcb37c4	0.09922746
177	0x3dd3efbf	0.10348462
178	0x3db1185d	0.08647225
179	0x3c7c1b07	0.015387303
180	0x3cf607af	0.03003296
181	0xbd9f957a	-0.07792182
182	0x3e18f346	0.14936551
183	0xbc1130a7	-0.008861697
184	0x3d515e27	0.05111518
185	0xbe3e329f	-0.18573998
186	0x3d4a6826	0.04941573
187	0xbb27e3e6	-0.0025618016
188	0x3cf7e978	0.030262694
189	0xbd8c44e1	-0.06849075
190	0xbd663110	-0.056199133
191	0x3df282a3	0.11841323
192	0xbdf74938	-0.12074512
193	0x3dd308eb	0.10304435
194	0xbe12d035	-0.14337237
195	0x3cd32b2b	0.02577742
196	0xbdf5fe73	-0.12011423
197	0xbdc23af7	-0.09483903
198	0xbe07ac80	-0.13249397
199	0xbbdbac88	-0.006703917
200	0xbd5588ef	-0.052132543
201	0x3cc310eb	0.023811778
202	0xbd8b3c54	-0.06798616
203	0x3ada91f5	0.0016675579
204	0xbcb7e0f7	-0.022446139
205	0x3ba02aaa	0.0048878985
206	0xb9de51a9	-0.0004240398
207	0xbc36e981	-0.01116407
208	0x3cfd575c	0.030925445
209	0xbe533cc9	-0.20628656
210	0x3d72cece	0.059279256
211	0x3dad1a37	0.08452266
212	0x3c001166	0.007816648
213	0xbc7be003	-0.015373233
214	0x3e09a28e	0.13440916
215	0xbc6e1109	-0.014530429
216	0x3cc70430	0.024293989
217	0xbe02b351	-0.12763716
218	0x3ceaf5ca	0.028681654
219	0xbd74bfe0	-0.0597533
220	0xbdf8680d	-0.12129221
221	0xbd6d9af0	-0.058009088
222	0x3d91704f	0.07101499
223	0xbd070e86	-0.032972835
224	0xbcfa8543	-0.030581122
225	0x3e2081b9	0.15674485
226	0xbd806318	-0.06268901
227	0x3c14fb48	0.009093113
228	0xbe110eb0	-0.14165759
229	0xbde10e79	-0.109890886
230	0x3e225b09	0.1585504
231	0x3d6d075b	0.057868343
232	0xbd0e4515	-0.03473385
233	0x3dd118d7	0.10209816
234	0xbdb102b0	-0.08643091
235	0xbe456e23	-0.19280295
236	0x3e419a8e	0.18906614
237	0x3ce3f92a	0.027828772
238	0xbc1989ac	-0.009371202
239	0xbcbab9be	-0.022793647
240	0xbd8b671a	-0.068067744
241	0x3d5aa427	0.053379204
242	0x3e4aab80	0.19791985
243	0x3d254f91	0.040359084
244	0xbd5cddaa	-0.053922333
245	0xbe03ad8c	-0.12859172
246	0xbd9c3f40	-0.076292515
247	0xbce69b06	-0.028150093
248	0xbdfbfad9	-0.12303705
249	0x3bb639f4	0.005561108
250	0xbc139b7e	-0.00900924
251	0xbbf9b1d4	-0.0076200757
252	0x3d96f235	0.07370416
253	0x3d005b24	0.03133692
254	0xbcbbc3cc	-0.022920512
255	0x3c98d283	0.018655067

network_body._body_endoder.seq_layers.2.bias f4 [128]
0	0x00000000	0.0
1	0x00000000	0.0
2	0x00000000	0.0
3	0x00000000	0.0
4	0x00000000	0.0
5	0x00000000	0.0
6	0x00000000	0.0
7	0x00000000	0.0
8	0x00000000	0.0
9	0x00000000	0.0
10	0x00000000	0.0
11	0x00000000	0.0
12	0x00000000	0.0
13	0x00000000	0.0
14	0x00000000	0.0
15	0x00000000	0.0
16	0x00000000	0.0
17	0x00000000	0.0
18	0x00000000	0.0
19	0x00000000	0.0
20	0x00000000	0.0
21	0x00000000	0.0
22	0x00000000	0.0
23	0x00000000	0.0
24	0x00000000	0.0
25	0x00000000	0.0
26	0x00000000	0.0
27	0x00000000	0.0
28	0x00000000	0.0
29	0x00000000	0.0
30	0x00000000	0.0
31	0x00000000	0.0
32	0x00000000	0.0
33	0x00000000	0.0
34	0x00000000	0.0
35	0x00000000	0.0
36	0x00000000	0.0
37	0x00000000	0.0
38	0x00000000	0.0
39	0x00000000	0.0
40	0x00000000	0.0
41	0x00000000	0.0
42	0x00000000	0.0
43	0x00000000	0.0
44	0x00000000	0.0
45	0x00000000	0.0
46	0x00000000	0.0
47	0x00000000	0.0
48	0x00000000	0.0
49	0x00000000	0.0
50	0x00000000	0.0
51	0x00000000	0.0
52	0x00000000	0.0
53	0x00000000	0.0
54	0x00000000	0.0
55	0x00000000	0.0
56	0x00000000	0.0
57	0x00000000	0.0
58	0x00000000	0.0
59	0x00000000	0.0
60	0x00000000	0.0
61	0x00000000	0.0
62	0x00000000	0.0
63	0x00000000	0.0
64	0x00000000	0.0
65	0x00000000	0.0
66	0x00000000	0.0
67	0x00000000	0.0
68	0x00000000	0.0
69	0x00000000	0.0
70	0x00000000	0.0
71	0x00000000	0.0
72	0x00000000	0.0
73	0x00000000	0.0
74	0x00000000	0.0
75	0x00000000	0.0
76	0x00000000	0.0
77	0x00000000	0.0
78	0x00000000	0.0
79	0x00000000	0.0
80	0x00000000	0.0
81	0x00000000	0.0
82	0x00000000	0.0
83	0x00000000	0.0
84	0x00000000	0.0
85	0x00000000	0.0
86	0x00000000	0.0
87	0x00000000	0.0
88	0x00000000	0.0
89	0x00000000	0.0
90	0x00000000	0.0
91	0x00000000	0.0
92	0x00000000	0.0
93	0x00000000	0.0
94	0x00000000	0.0
95	0x00000000	0.0
96	0x00000000	0.0
97	0x00000000	0.0
98	0x00000000	0.0
99	0x00000000	0.0
100	0x00000000	0.0
101	0x00000000	0.0
102	0x00000000	0.0
103	0x00000000	0.0
104	0x00000000	0.0
105	0x00000000	0.0
106	0x00000000	0.0
107	0x00000000	0.0
108	0x00000000	0.0
109	0x00000000	0.0
110	0x00000000	0.0
111	0x00000000	0.0
112	0x00000000	0.0
113	0x00000000	0.0
114	0x00000000	0.0
115	0x00000000	0.0
116	0x00000000	0.0
117	0x00000000	0.0
118	0x00000000	0.0
119	0x00000000	0.0
120	0x00000000	0.0
121	0x00000000	0.0
122	0x00000000	0.0
123	0x00000000	0.0
124	0x00000000	0.0
125	0x00000000	0.0
126	0x00000000	0.0
127	0x00000000	0.0

action_model._continuous_distribution.log_sigma f4 [1, 2]
0	0x00000000	0.0
1	0x00000000	0.0

action_model._continuous_distribution.mu.weight f4 [2, 128]
0	0xbc4b68eb	-0.012415151
1	0x3d0d26d4	0.034460858
2	0xbca744df	-0.020418582
3	0xbbd1e5b7	-0.006405558
4	0x3c9e98a9	0.019359903
5	0xbc922acd	-0.017842675
6	0xbcaa2301	-0.020768644
7	0x3c56b72f	0.013105198
8	0xbb971e1a	-0.0046117427
9	0xbcb60f8c	-0.02222421
10	0xbc275eea	-0.0102155
11	0x3bb303a3	0.00546308
12	0x3c3c244b	0.011483262
13	0x3c5812a7	0.013188041
14	0xbbd36598	-0.00645132
15	0xbc0e2623	-0.008676085
16	0x3cc4b4ee	0.024012055
17	0x3d1deb9c	0.038554773
18	0x3aac7710	0.0013158042
19	0xbc3e2ea3	-0.011607799
20	0x3cbc842f	0.023012249
21	0x3b3971b2	0.0028296527
22	0xba91523f	-0.0011087133
23	0xbc55b9ed	-0.013044816
24	0xbc7fddb8	-0.015616827
25	0xbc88b257	-0.016686602
26	0xbd051ea0	-0.03249991
27	0x3c6d6b57	0.014490924
28	0x3bf63ee7	0.0075148228
29	0x3983d58e	0.00025145378
30	0x3cd5e9f2	0.02611253
31	0x3c5b40c0	0.013382137
32	0xbc0652bb	-0.008198435
33	0x3c8d3e52	0.01724163
34	0xbc883c53	-0.016630327
35	0xbccbe6a4	-0.024890251
36	0x3bb61c99	0.0055576083
37	0x3cda7e0b	0.02667143
38	0x3cd12e65	0.025534818
39	0x3c83c6ca	0.016086001
40	0x3c863921	0.016384663
41	0x3c03f2d2	0.008053498
42	0x3bbf81ad	0.005844316
43	0x3c4ecc6f	0.012621983
44	0xbcd00e08	-0.025397316
45	0xbb46f251	-0.0030356834
46	0x3c9e84ab	0.01935037
47	0x3caff4df	0.021479068
48	0xbba41e44	-0.0050084908
49	0xbbaf64a3	-0.005352573
50	0x3c2ef55c	0.010678615
51	0x3c51cb2b	0.012804787
52	0xbc793d7f	-0.015212416
53	0x3bb64246	0.0055620996
54	0xbc8850e2	-0.01664013
55	0x3a49c76a	0.00076972565
56	0x3acfcaaf	0.0015853251
57	0x3b0e8515	0.0021746804
58	0xbbf0aa97	-0.0073445546
59	0x3bbb2c57	0.005712073
60	0xbac8c3dd	-0.0015317161
61	0x3c2b4483	0.010453346
62	0x3c82a450	0.01594749
63	0x3c51040a	0.012757311
64	0x3c0a5adf	0.008444517
65	0xbb8f46d5	-0.0043724575
66	0x3c56c9fd	0.013109681
67	0xbc71f5f7	-0.014768115
68	0xbc0f5dd5	-0.008750399
69	0xbbb8f91c	-0.0056449305
70	0xbca69aab	-0.020337423
71	0x3c147212	0.0090604
72	0xbcd19098	-0.025581643
73	0x3c2f05a3	0.010682496
74	0x3cc11269	0.023568349
75	0x3bca5c5d	0.0061755613
76	0x3cdb9b70	0.026807517
77	0xbc3253e9	-0.010884264
78	0x3c44ac5f	0.012003987
79	0x3c83203f	0.016006587
80	0xbd536c65	-0.051617045
81	0xbb7d0b3a	-0.0038611428
82	0xbb21d438	-0.0024693143
83	0xbd3f444f	-0.046696004
84	0xbccf21ef	-0.025284735
85	0x3c76646b	0.01503859
86	0xbcf577f5	-0.029964427
87	0xbc0691d3	-0.008213478
88	0xbc50a56f	-0.012734755
89	0xbc09f6fb	-0.008420701
90	0x3c6fa415	0.014626523
91	0x3c6d7ceb	0.014495115
92	0xbc0bcc96	-0.008532664
93	0x3a097697	0.00052438065
94	0x3c93e353	0.018052733
95	0xbb97ebc2	-0.004636259
96	0x3c536a1d	0.012903717
97	0xbccb2742	-0.024798993
98	0x3c684320	0.01417616
99	0x3bb3888a	0.005478923
100	0xbc863538	-0.016382799
101	0xbca4ed6f	-0.020132748
102	0x3cc2f463	0.023798173
103	0x3c44c7af	0.012010499
104	0xbcae0d35	-0.021246532
105	0xba39ec67	-0.00070924166
106	0x3c73375f	0.0148447445
107	0x3c68961a	0.014195943
108	0x3b21858b	0.0024646248
109	0xbb967db3	-0.0045926212
110	0x3adb2440	0.0016719177
111	0x3c6b2e77	0.01435434
112	0x3c4abd37	0.012374214
113	0xba935ed6	-0.0011243473
114	0x3abad2a9	0.0014253455
115	0x3b856d74	0.0040718857
116	0xbccb44cb	-0.024813076
117	0xbcb331f0	-0.021874398
118	0x3d026e87	0.03184369
119	0xbc8063f3	-0.01567266
120	0xbc00a5bd	-0.007852015
121	0xbc53876b	-0.012910704
122	0x3bf64de2	0.0075166086
123	0x3c61588d	0.013754022
124	0x3c7ba8eb	0.015360097
125	0x3c135452	0.0089922715
126	0xbcc0bf9a	-0.023528863
127	0x3bb732bb	0.0055907643
128	0x3c7a3522	0.015271457
129	0x3a89cf0f	0.0010513979
130	0xbc65a44f	-0.014016225
131	0x3bd726f8	0.0065659247
132	0xbbf5feb7	-0.007507171
133	0xbc8c09f1	-0.017094584
134	0x3c82158b	0.015879413
135	0xbb2c7f51	-0.0026321004
136	0xbc493137	-0.0122798
137	0xbbd14ff5	-0.0063877054
138	0xbc5c3213	-0.013439673
139	0x3c0c4a4d	0.008562637
140	0xbd0592af	-0.03261059
141	0x3c45041a	0.012024904
142	0x3cc53d1e	0.024076995
143	0x3a25dc49	0.00063270755
144	0xbcb108ec	-0.0216107
145	0x3c0c5218	0.008564495
146	0xbbcb4845	-0.0062036836
147	0xbb5caeb3	-0.0033673465
148	0xbc4f1c9f	-0.012641101
149	0xbbe1c958	-0.006890457
150	0x3cf5a0f5	0.029983977
151	0xbcc2e8c9	-0.023792641
152	0x3ab40dad	0.0013736986
153	0xbcce27f0	-0.025165528
154	0xbd2a6074	-0.04159589
155	0xbccaa51d	-0.024736935
156	0x3b7ebc35	0.0038869504
157	0xbcf8cb7b	-0.030370465
158	0xbc191f3d	-0.009345827
159	0x3c0a9373	0.008458006
160	0xbcdf4d67	-0.027258588
161	0xbc782908	-0.015146501
162	0x3c26f0d7	0.010189257
163	0x3c68a85b	0.014200295
164	0x3d1dc07f	0.038513657
165	0x3b064d2c	0.0020492775
166	0xbcc8ec1d	-0.02452665
167	0xba1f3ff4	-0.00060748984
168	0x3c1e94db	0.009679045
169	0xbc8a1c9f	-0.01685935
170	0xbc9d1604	-0.019175537
171	0xbd0529f9	-0.03251073
172	0xbce8b862	-0.028408233
173	0xbcab41a7	-0.020905329
174	0xbb6c9562	-0.0036099781
175	0xbc0186ba	-0.0079056565
176	0x3cd55a0b	0.026043912
177	0x3c8fc195	0.017548362
178	0xbc2fb390	-0.010723963
179	0xbc3de4a7	-0.0115901595
180	0xbcbda1ff	-0.023148535
181	0x3cb7f2b4	0.022454597
182	0xbd1555ef	-0.036458906
183	0xbc1cd0ad	-0.009571237
184	0x3cca3a98	0.024686143
185	0xbd3251c3	-0.043535005
186	0x3bad9284	0.005297007
187	0xbc08c2d6	-0.008347234
188	0xbbb5f25b	-0.0055525727
189	0xbad4f00f	-0.001624586
190	0xbc273ba6	-0.010207092
191	0x3c41b04a	0.011821816
192	0x3c703008	0.014659889
193	0xbc7b69c2	-0.015345039
194	0x3d1a0ab2	0.037607856
195	0x3c7109b7	0.014711789
196	0x3a5255f8	0.00080236746
197	0x3d15565f	0.036459323
198	0xbd03df89	-0.0321956
199	0xbc407e44	-0.011748854
200	0xbd042685	-0.032263298
201	0x3ad01df0	0.0015878063
202	0xbc209912	-0.00980212
203	0xb9ba3f68	-0.00035523926
204	0xbca5705f	-0.020195184
205	0xbba6e43f	-0.005093127
206	0xbc5b1d07	-0.01337362
207	0x3bb041f1	0.0053789546
208	0x3cfd6bc7	0.030935181
209	0xbc6c785a	-0.014432991
210	0xbb4b6b12	-0.003103916
211	0x3c730afb	0.014834161
212	0x3bfb452d	0.0076681585
213	0x3a83deb3	0.0010060876
214	0xbbd3a5e2	-0.0064589838
215	0x3c86bedd	0.016448433
216	0xbc41e180	-0.011833549
217	0x3a8580f7	0.0010185529
218	0x3b116216	0.0022183708
219	0xbd12b224	-0.03581442
220	0xbbcc3691	-0.0062320908
221	0xbc3ee54e	-0.01165135
222	0x3c62318a	0.013805756
223	0x3bc9b82d	0.0061559887
224	0xbc29a02e	-0.010353131
225	0xbca4e264	-0.020127483
226	0x3c041614	0.008061904
227	0x3c12a908	0.008951433
228	0xbc4526a1	-0.012033136
229	0xbba047ca	-0.0048913704
230	0xbcb27edb	-0.021789005
231	0x3bf9c74a	0.007622634
232	0x3c04fdf7	0.008117191
233	0x3d07e1b2	0.033174224
234	0x3bbde4ee	0.005795113
235	0xbb631c65	-0.0034654376
236	0xbc5a12ea	-0.0133101735
237	0xbc9dbd77	-0.019255383
238	0x3c06505c	0.00819787
239	0x3c411ae2	0.0117861945
240	0xbbe25de3	-0.006908165
241	0xbb85198d	-0.004061884
242	0x3c9ccf06	0.019141685
243	0xbcbeea6e	-0.023305144
244	0xbc836284	-0.016038187
245	0xbb265883	-0.0025382347
246	0xbcc34cdb	-0.023840358
247	0x3c9b36c6	0.018947016
248	0x3cd55722	0.026042525
249	0x3ab4156b	0.0013739293
250	0xbc21cae6	-0.009875035
251	0x3cb3fa92	0.021970067
252	0xbbdc316b	-0.0067197583
253	0x3beb527a	0.007181463
254	0x3be773d2	0.0070633674
255	0x3d12e530	0.0358631

action_model._continuous_distribution.mu.bias f4 [2]
0	0x00000000	0.0
1	0x00000000	0.0

network_body._body_endoder.seq_layers.0.weight f4 [128, 6]
0	0xbea9973f	-0.33123204
1	0x3f673e2c	0.9032924
2	0xbf65b795	-0.8973325
3	0x3f55a61f	0.83456606
4	0x3f3d64d7	0.73981994
5	0x3e8f4855	0.27984872
6	0xbdfe46fa	-0.124158815
7	0x3e37f8bb	0.17965977
8	0xbf0b80dd	-0.54493505
9	0x3e6b3b25	0.2297178
10	0xbe0df36e	-0.13862392
11	0xbecc9380	-0.39956284
12	0x3e8a05df	0.26957604
13	0x3ea16a83	0.31526574
14	0xbe8c3d19	-0.27390364
15	0xbe0a28aa	-0.13492075
16	0xbe3117a1	-0.1729417
17	0x3e36643c	0.17811674
18	0x3eb3489f	0.35016343
19	0x3d8bea56	0.068318054
20	0x3e1170b4	0.14203149
21	0x3ca0871f	0.01959568
22	0x3be4235d	0.0069622234
23	0xbee2bd50	-0.4428506
24	0x3f943254	1.1577859
25	0x3ba5de48	0.0050618984
26	0xbf46b4b6	-0.77619493
27	0xbe6be1fa	-0.23035422
28	0xbd9ae315	-0.07562844
29	0x3eea1105	0.4571611
30	0xbd2845ed	-0.04108231
31	0x39df6755	0.00042610863
32	0xbd9c3231	-0.07626761
33	0x3f252ffc	0.64526343
34	0xbe40ef06	-0.1884118
35	0xbf1d4d18	-0.6144576
36	0xbe7aeb2f	-0.24503778
37	0x3f103a73	0.56339186
38	0x3f046f93	0.5173275
39	0xbd848693	-0.064709805
40	0x3db1244f	0.086495034
41	0x3e5ad387	0.21369754
42	0xbd2c3f32	-0.042052455
43	0xbd76b8ad	-0.060234714
44	0x3f2c7a40	0.6737404
45	0xbeb664ef	-0.3562388
46	0x3cf34729	0.029697018
47	0x3f3d12d6	0.73856866
48	0xbe752ea5	-0.23943575
49	0x3e8abcc9	0.27097157
50	0xbf1283ff	-0.5723266
51	0xbf5eba43	-0.8700296
52	0x3e0dea8a	0.13859001
53	0x3def6b6e	0.116904125
54	0xbe8cfd23	-0.27536878
55	0x3f2766d3	0.6539127
56	0xbf8660be	-1.0498273
57	0x3f16fbd5	0.58978015
58	0xbdd404e3	-0.103524946
59	0xbea3990b	-0.319527
60	0x3dedeb10	0.116171
61	0xbf1a3dd5	-0.602506
62	0x3f026862	0.50940526
63	0xbe63f705	-0.22262199
64	0x3e2cb0be	0.16864297
65	0xbde54bf2	-0.11196126
66	0x3e83be8a	0.25731307
67	0xbeae78c3	-0.3407651
68	0x3e84b6a0	0.25920582
69	0xbeefce3b	-0.4683703
70	0x3f1703f6	0.5899042
71	0xbe1e27a3	-0.15444808
72	0x3f404e3d	0.7511938
73	0x3f06fa49	0.52725655
74	0xbe169f68	-0.14709246
75	0xbeaeb76d	-0.34124318
76	0xbdc33d7a	-0.0953321
77	0xbcd4e46e	-0.02598783
78	0xbe1ba6aa	-0.15200296
79	0xbed2bbbc	-0.41158855
80	0xbe9ac5ff	-0.30229184
81	0x3eb85f48	0.36010194
82	0x3ecc07e8	0.39849782
83	0x3ea161f3	0.31520042
84	0x3de16551	0.11005653
85	0x3cb794ca	0.022409815
86	0x3edafc21	0.42770484
87	0x3cbf37c3	0.023342019
88	0x3f37a1d8	0.7173133
89	0xbe8e82bf	-0.27834126
90	0x3ede5578	0.43424582
91	0x3d8d9819	0.06913776
92	0xbcd6ab5b	-0.026204756
93	0xbde8acb6	-0.11361067
94	0x3f2c4447	0.6729168
95	0xbdacf50b	-0.08445176
96	0x3e042af2	0.12907007
97	0xbdce04f5	-0.10059539
98	0x3d571893	0.05251367
99	0x3e07baf4	0.1325491
100	0x3f88764d	1.0661103
101	0x3ec41da5	0.38303867
102	0xbf29e6df	-0.66367906
103	0xbe0fa224	-0.14026695
104	0xbe2e1743	-0.17001061
105	0xbf0a661c	-0.54062057
106	0xbf49385c	-0.7860162
107	0xbea4d2c6	-0.32192057
108	0x3ef2a09f	0.4738817
109	0x3e4d2d32	0.20036772
110	0xbe11c503	-0.1423531
111	0x3f339e56	0.70163476
112	0x3ef1f04a	0.47253639
113	0x3f412997	0.75454086
114	0xbd74216d	-0.05960219
115	0xbe69d02e	-0.2283332
116	0xbf1b778f	-0.60729307
117	0xbd46413f	-0.048402067
118	0xbf3e917f	-0.7444076
119	0x3f117b02	0.5682832
120	0xbd81a9c6	-0.0633121
121	0xbe9b3d6f	-0.30320308
122	0xbed96d09	-0.42466
123	0xbec1100b	-0.37707552
124	0x3e9c2751	0.30498746
125	0x3ed0a2d6	0.40749234
126	0x3d13fde4	0.0361308
127	0xbf3d80f6	-0.74024904
128	0x3ea5e40f	0.32400557
129	0x3f1767ec	0.5914295
130	0x3ce46994	0.027882375
131	0x3ebec8a2	0.37262446
132	0x3f330cce	0.69941413
133	0x3e1b3060	0.15155172
134	0xbea64bcd	-0.32479706
135	0xbeddd398	-0.43325496
136	0xbd95276c	-0.0728291
137	0x3ee929ac	0.45539606
138	0xbef24bf9	-0.47323588
139	0xbece3b95	-0.40279832
140	0x3ecc84e2	0.39945132
141	0xbeaff47b	-0.3436621
142	0x3ea40d48	0.32041383
143	0x3eb85f30	0.36010122
144	0xbd096866	-0.033546828
145	0x3d85db94	0.06536022
146	0x3ec0fd16	0.3769309
147	0xbe407ebf	-0.1879835
148	0x3c8a86d0	0.016909987
149	0x3e8f0bd3	0.2793871
150	0x3efc9877	0.4933507
151	0x3e77ab37	0.24186407
152	0xbd34c454	-0.044132546
153	0xbe91bdea	-0.28465205
154	0x3d983bc2	0.07433273
155	0xbf06bc72	-0.52631295
156	0xbeaeb1b9	-0.34119967
157	0x3e16f316	0.14741167
158	0x3d83f589	0.064433165
159	0x3f04ba7d	0.5184706
160	0x3eb2c01e	0.349122
161	0x3ed31c05	0.41232315
162	0x3f3a9ec0	0.72898483
163	0x3ecb3270	0.39686918
164	0x3e1cd701	0.15316392
165	0x3e1ba4da	0.15199605
166	0xbdac7d05	-0.08422283
167	0x3da7d84a	0.08195551
168	0x3e171edb	0.14757864
169	0xbebdf3f2	-0.37100178
170	0xbee23055	-0.441775
171	0x3e15434c	0.14576453
172	0x3db47999	0.088122554
173	0x3eb58b74	0.35457957
174	0xbe55356f	-0.20821165
175	0xbd8c0437	-0.068367414
176	0xbf25a850	-0.6470995
177	0xbeaf8a8d	-0.34285393
178	0x3eab0850	0.3340478
179	0xbe4baff7	-0.19891344
180	0x3e621355	0.22077687
181	0xbdf68c72	-0.120385066
182	0xbee3144b	-0.4435142
183	0x3e01e6af	0.12685655
184	0x3e7c6075	0.2464617
185	0xbf3087b1	-0.6895705
186	0xbe40f4ac	-0.18843335
187	0xbefecfa9	-0.49767807
188	0x3d3a64f1	0.04550642
189	0x3dcfdcb8	0.10149521
190	0x3f07c679	0.5303722
191	0xbe2e5a19	-0.17026557
192	0xbd0c5047	-0.034256246
193	0xbd29583f	-0.041343924
194	0xbebb65cc	-0.36601102
195	0x3e937cf2	0.28806263
196	0x3ce1afa7	0.027549578
197	0xbcd70190	-0.026245862
198	0xbe6ff382	-0.23432735
199	0xbf278be8	-0.65447855
200	0x3e3abfdb	0.1823725
201	0xbecf94e7	-0.4054329
202	0x3ed03ae0	0.40669918
203	0xbec5fbf1	-0.3866878
204	0xbd3b6211	-0.04574782
205	0x3d8a4bf3	0.067527674
206	0xbcdf0523	-0.027224129
207	0x3d6ceed1	0.05784494
208	0x3ed92c98	0.42416835
209	0x3f361b50	0.71135426
210	0xbf198eee	-0.5998372
211	0x3ea47bb7	0.32125637
212	0x3ed8fd83	0.42380914
213	0xbd746624	-0.05966772
214	0x3e5e4b31	0.21708371
215	0xbe85c2d4	-0.26125205
216	0x3df0dc41	0.1176076
217	0x3dd5c4a5	0.104378976
218	0xbd95d3a3	-0.07315757
219	0xbf1cb5cd	-0.61214906
220	0xbdfba09f	-0.122864954
221	0xbe13055d	-0.14357515
222	0xbd94f869	-0.07273943
223	0x3c8e59f7	0.017376883
224	0x3e58a112	0.21155193
225	0x3eececb8	0.46274352
226	0xbe3a27a3	-0.18179183
227	0xbe64b0d6	-0.22333083
228	0xbe87accf	-0.2649903
229	0x3c846bae	0.016164627
230	0xbf4a490f	-0.7901773
231	0x3dadc68e	0.08485137
232	0xbf2e4fff	-0.68090814
233	0xbed5b307	-0.4173815
234	0x3e1c887e	0.15286443
235	0x3e2d6930	0.16934657
236	0x3effeb72	0.49984318
237	0x3e820fe8	0.2540276
238	0x3ecdcfad	0.40197507
239	0xbf0e842f	-0.55670446
240	0x3e74b704	0.2389794
241	0xbf0fd961	-0.5619107
242	0xbeb7eed0	-0.35924387
243	0x3f77d43e	0.9680823
244	0x3f164c4e	0.5871018
245	0xbd9d56e2	-0.07682587
246	0xbe0ca489	-0.1373464
247	0x3dfa8263	0.122319005
248	0x3c9446ca	0.018100161
249	0x3e087714	0.13326675
250	0xbe748d81	-0.23882104
251	0x3e5b05bc	0.21388906
252	0xbc2afbed	-0.01043604
253	0xbf2ab765	-0.6668609
254	0x3ee963af	0.45583865
255	0x3e89f6c3	0.26946077

network_body._body_endoder.seq_layers.0.bias f4 [128]
0	0x00000000	0.0
1	0x00000000	0.0
2	0x00000000	0.0
3	0x00000000	0.0
4	0x00000000	0.0
5	0x00000000	0.0
6	0x00000000	0.0
7	0x00000000	0.0
8	0x00000000	0.0
9	0x00000000	0.0
10	0x00000000	0.0
11	0x00000000	0.0
12	0x00000000	0.0
13	0x00000000	0.0
14	0x00000000	0.0
15	0x00000000	0.0
16	0x00000000	0.0
17	0x00000000	0.0
18	0x00000000	0.0
19	0x00000000	0.0
20	0x00000000	0.0
21	0x00000000	0.0
22	0x00000000	0.0
23	0x00000000	0.0
24	0x00000000	0.0
25	0x00000000	0.0
26	0x00000000	0.0
27	0x00000000	0.0
28	0x00000000	0.0
29	0x00000000	0.0
30	0x00000000	0.0
31	0x00000000	0.0
32	0x00000000	0.0
33	0x00000000	0.0
34	0x00000000	0.0
35	0x00000000	0.0
36	0x00000000	0.0
37	0x00000000	0.0
38	0x00000000	0.0
39	0x00000000	0.0
40	0x00000000	0.0
41	0x00000000	0.0
42	0x00000000	0.0
43	0x00000000	0.0
44	0x00000000	0.0
45	0x00000000	0.0
46	0x00000000	0.0
47	0x00000000	0.0
48	0x00000000	0.0
49	0x00000000	0.0
50	0x00000000	0.0
51	0x00000000	0.0
52	0x00000000	0.0
53	0x00000000	0.0
54	0x00000000	0.0
55	0x00000000	0.0
56	0x00000000	0.0
57	0x00000000	0.0
58	0x00000000	0.0
59	0x00000000	0.0
60	0x00000000	0.0
61	0x00000000	0.0
62	0x00000000	0.0
63	0x00000000	0.0
64	0x00000000	0.0
65	0x00000000	0.0
66	0x00000000	0.0
67	0x00000000	0.0
68	0x00000000	0.0
69	0x00000000	0.0
70	0x00000000	0.0
71	0x00000000	0.0
72	0x00000000	0.0
73	0x00000000	0.0
74	0x00000000	0.0
75	0x00000000	0.0
76	0x00000000	0.0
77	0x00000000	0.0
78	0x00000000	0.0
79	0x00000000	0.0
80	0x00000000	0.0
81	0x00000000	0.0
82	0x00000000	0.0
83	0x00000000	0.0
84	0x00000000	0.0
85	0x00000000	0.0
86	0x00000000	0.0
87	0x00000000	0.0
88	0x00000000	0.0
89	0x00000000	0.0
90	0x00000000	0.0
91	0x00000000	0.0
92	0x00000000	0.0
93	0x00000000	0.0
94	0x00000000	0.0
95	0x00000000	0.0
96	0x00000000	0.0
97	0x00000000	0.0
98	0x00000000	0.0
99	0x00000000	0.0
100	0x00000000	0.0
101	0x00000000	0.0
102	0x00000000	0.0
103	0x00000000	0.0
104	0x00000000	0.0
105	0x00000000	0.0
106	0x00000000	0.0
107	0x00000000	0.0
108	0x00000000	0.0
109	0x00000000	0.0
110	0x00000000	0.0
111	0x00000000	0.0
112	0x00000000	0.0
113	0x00000000	0.0
114	0x00000000	0.0
115	0x00000000	0.0
116	0x00000000	0.0
117	0x00000000	0.0
118	0x00000000	0.0
119	0x00000000	0.0
120	0x00000000	0.0
121	0x00000000	0.0
122	0x00000000	0.0
123	0x00000000	0.0
124	0x00000000	0.0
125	0x00000000	0.0
126	0x00000000	0.0
127	0x00000000	0.0

network_body._body_endoder.seq_layers.2.weight f4 [128, 128]
0	0xbcec48d3	-0.028843319
1	0xbd909ace	-0.07060777
2	0xbe086bdf	-0.133224
3	0xbe7bd66d	-0.24593516
4	0x3d4f9195	0.050675947
5	0x3d30f4c1	0.043202166
6	0x3d866c56	0.06563632
7	0xbdf32b9d	-0.11873553
8	0x3aac9066	0.0013165593
9	0xbd105b10	-0.035243094
10	0xbc94a766	-0.018146228
11	0xbcde8bcc	-0.02716627
12	0xbd88885f	-0.06666636
13	0xbd07d8b0	-0.033165634
14	0xbe4eb29d	-0.20185323
15	0xbd2a6647	-0.041601446
16	0xbb73ca86	-0.003719957
17	0x3d95478b	0.07289036
18	0x3dbe71ef	0.09299075
19	0xbd3ec5e6	-0.04657545
20	0x3cdf5298	0.027261063
21	0x3dd32149	0.10309083
22	0x3dc30a38	0.095234334
23	0xbbbbe3b8	-0.0057339333
24	0x3e2a2dd1	0.1661904
25	0xbb98cdca	-0.004663204
26	0xbdc75f6d	-0.09734998
27	0x3d2c2b89	0.042033706
28	0xbcd4e240	-0.02598679
29	0x3d1fbc74	0.038998082
30	0x3dd3957c	0.10331246
31	0x39c7cb0d	0.00038107522
32	0x3d6dc5fa	0.058050133
33	0xbe1e08ed	-0.15433092
34	0xbe0c1540	-0.13679981
35	0x3d36f8e0	0.04467094
36	0x3e4653d1	0.19367911
37	0x3dcef479	0.10105223
38	0x3e13dd48	0.14439881
39	0x3b6a7851	0.003577728
40	0xbda54524	-0.08069828
41	0x3e0a130a	0.13483825
42	0xbc6b2956	-0.014353117
43	0xbd0c20de	-0.034211032
44	0xbe87d109	-0.2652667
45	0x3daf7c7c	0.085686654
46	0x3cd785e4	0.026308961
47	0xbcc70ba2	-0.02429754
48	0xbcfc8624	-0.030825682
49	0xbce51b53	-0.02796713
50	0x3e2d947f	0.16951178
51	0x3d91ee1c	0.07125494
52	0xbe52a2b7	-0.20569883
53	0x3dcab995	0.09898678
54	0xbdc319c2	-0.09526397
55	0xbda5cd2d	-0.08095775
56	0x3e200de0	0.15630293
57	0x3de47544	0.11155179
58	0x3c7bb986	0.015364056
59	0x3db8fcc9	0.0903259
60	0x3e02df3c	0.1278047
61	0x3cdda74d	0.027057314
62	0xbd9c9bf1	-0.07646931
63	0x3db7b851	0.089707024
64	0xbdf4d308	-0.119543135
65	0xbdc931a5	-0.09823922
66	0xbcef8b88	-0.029241338
67	0xbc7f7cf6	-0.015593758
68	0xbcb5d49d	-0.022196108
69	0x3d82628d	0.06366453
70	0xbd831dc4	-0.06402162
71	0x3d044113	0.032288622
72	0x3dff4387	0.12464052
73	0x3d3258fc	0.043541893
74	0x3cb300ac	0.021850906
75	0xbd6943e4	-0.05694951
76	0xbd079a2e	-0.03310602
77	0x3d0e2950	0.034707367
78	0xbd7917d5	-0.060813744
79	0xbd45b88b	-0.048271697
80	0xbbc12631	-0.0058944453
81	0x3d83a474	0.06427851
82	0x3d97df9a	0.074156955
83	0xbca5d378	-0.020242438
84	0x3d36501b	0.04450999
85	0xbdc39c3b	-0.09551283
86	0xbc0cb55d	-0.008588162
87	0x3d15db2c	0.03658597
88	0x3d6da4c0	0.058018446
89	0x3df318e7	0.11869984
90	0xbcb6f944	-0.022335656
91	0x3da0f493	0.07859149
92	0x3dc6d0d9	0.09707803
93	0x3ca9acc6	0.020712268
94	0xbd58978e	-0.05287891
95	0xbe094d53	-0.13408403
96	0xbd1dbaa8	-0.038508087
97	0xbddb7edc	-0.10717556
98	0x3e0e2c58	0.13884103
99	0xbdd176f9	-0.1022777
100	0x3e04d9f9	0.12973775
101	0x3b894f16	0.004190336
102	0x3dd223a9	0.10260708
103	0x3ddced6c	0.10787472
104	0xbdbc8d58	-0.09206647
105	0x3e15f0d9	0.14642657
106	0xbd9cfff8	-0.0766601
107	0x3c952cac	0.018209778
108	0x3d0a1d1e	0.033719175
109	0xbb36646d	-0.0027830855
110	0xbe4669c6	-0.19376287
111	0xbd792fc6	-0.060836576
112	0x3c86a960	0.016438186
113	0xbd8ba85f	-0.068192236
114	0x3cbe707a	0.023246992
115	0xbbc1ef05	-0.005918386
116	0xbe07ac36	-0.13249287
117	0x3d7a68ee	0.061135225
118	0x3e06af32	0.13152769
119	0xbcd9c0f0	-0.026581258
120	0x3e1b07df	0.15139721
121	0x3da21450	0.079140306
122	0x3c78b527	0.015179909
123	0x3e09e585	0.13466461
124	0xbd9e9383	-0.077429794
125	0x3dbbe30a	0.09174164
126	0x3b6debda	0.0036303909
127	0x3e420427	0.18946896
128	0xbd96f95d	-0.07371781
129	0x3dbc23bb	0.091865025
130	0xbd910aeb	-0.070821606
131	0x3e42c15d	0.19019075
132	0x3d5d57c5	0.05403878
133	0xbe0a8244	-0.13526255
134	0x3dc775d3	0.0973927
135	0xbe3a0611	-0.18166377
136	0x3c69da74	0.014273275
137	0xbdc51736	-0.09623568
138	0xbbafc726	-0.0053643165
139	0x3ccf8927	0.025333954
140	0x3c5cc232	0.013474034
141	0xbbce99de	-0.0063049635
142	0x3dbeff83	0.09326079
143	0xbd291062	-0.04127539
144	0xbd8e88ea	-0.06959708
145	0x3e10c26e	0.14136669
146	0x3d838355	0.06421534
147	0xbdbaeaf3	-0.09126844
148	0xbdbee8c2	-0.09321739
149	0x3df5960a	0.11991508
150	0x3dad5465	0.084633626
151	0xbd027224	-0.031847134
152	0xbdefde50	-0.117123246
153	0xbb600f00	-0.0034188628
154	0x3d73043b	0.059330206
155	0x3de4c050	0.11169493
156	0xbdcb749d	-0.099343516
157	0xbbb71229	-0.0055868817
158	0xbd3492af	-0.0440852
159	0x3c88962a	0.016673166
160	0x3d01481e	0.031562917
161	0x3d33310c	0.043747947
162	0xbd7bb393	-0.061450552
163	0x3c25051b	0.010072018
164	0x3e600788	0.21877873
165	0xbc6c339a	-0.0144166
166	0xbd6b2a6f	-0.057413515
167	0xbd4463db	-0.047946792
168	0x3d17e2d1	0.037081543
169	0x3d560f88	0.052260906
170	0xbc9b0ffc	-0.01892852
171	0xbda7cb0f	-0.08193027
172	0xbd94506c	-0.07241902
173	0xbdf57238	-0.11984676
174	0xbcb006b6	-0.021487575
175	0x3df98abd	0.12184665
176	0xbc6a06a9	-0.0142838145
177	0x3dc386ab	0.0954717
178	0xbbd7fe13	-0.0065915673
179	0xbe28807f	-0.16455267
180	0x3d01c74c	0.031684205
181	0xbdb0caef	-0.086324565
182	0xbe1174d4	-0.14204723
183	0xbcaf4dde	-0.021399435
184	0x3bc3be8a	0.0059736418
185	0x3d233d89	0.039853606
186	0xbd90e7d5	-0.070754685
187	0x3c730796	0.014833352
188	0xbd42bd8a	-0.04754404
189	0xbdb110b1	-0.08645762
190	0x3e15b1d0	0.14618611
191	0x3d2ca377	0.04214808
192	0x3e125507	0.14290248
193	0x3d6b777d	0.057487
194	0xbdc8684f	-0.0978552
195	0x3d4d6a7a	0.050150372
196	0xbb8575c6	-0.0040728776
197	0x3d588669	0.05286256
198	0xbd71e356	-0.059054695
199	0xbe020d48	-0.12700379
200	0x3d216ffe	0.039413445
201	0x3e08b10f	0.13348792
202	0x3d2b9890	0.04189354
203	0xbcbdb483	-0.023157364
204	0xbcef7712	-0.029231582
205	0x3e4e5276	0.20148644
206	0xbda668f5	-0.08125488
207	0x3d322d56	0.043500267
208	0x3d284f71	0.041091386
209	0x3c44ae5f	0.012004464
210	0x3d98bed4	0.074582726
211	0x3df29265	0.11844329
212	0x3d7c8422	0.06164945
213	0x3cbe3b80	0.023221731
214	0xbd497c23	-0.04919065
215	0x3bcb78e7	0.006209481
216	0x3d8194e3	0.06327226
217	0x3cbe692b	0.023243507
218	0xbdc7910a	-0.09744461
219	0xbdb553d5	-0.0885388
220	0xbdb101a1	-0.08642889
221	0xbd675730	-0.056479633
222	0x3e109b08	0.1412164
223	0xbd810096	-0.0629894
224	0x3d97f847	0.07420402
225	0x3c50ea09	0.012751111
226	0xbde27a9b	-0.110585414
227	0x3d6e9a8d	0.05825286
228	0x3d8eb271	0.06967629
229	0xbd85a327	-0.065252595
230	0x3d8724f3	0.065988444
231	0x3d19ceff	0.037550922
232	0x3dce39ee	0.10069643
233	0x3d2326e1	0.039832
234	0x3d4e5cd9	0.050381515
235	0x3df56978	0.11983007
236	0xbd929738	-0.07157749
237	0xbdb1905f	-0.08670115
238	0xbb22cd35	-0.0024841551
239	0x3d3ec2d6	0.04657253
240	0xbe0f8942	-0.14017203
241	0x3e1a9b89	0.15098394
242	0xbdcb5053	-0.0992743
243	0x3e0ef3b8	0.13960159
244	0xbb555d09	-0.0032556674
245	0xbd985831	-0.07438696
246	0x3cefbe23	0.029265469
247	0xbd3d8413	-0.046268534
248	0x3e084b8a	0.13310066
249	0x3cc2345e	0.023706611
250	0xbb9b2c4d	-0.0047355057
251	0x3d563b68	0.052302748
252	0xbdf0335e	-0.117285475
253	0xbddbbd0d	-0.10729418
254	0x3d82d3da	0.06388064
255	0xbd7b6491	-0.061375204

network_body._body_endoder.seq_layers.2.bias f4 [128]
0	0x00000000	0.0
1	0x00000000	0.0
2	0x00000000	0.0
3	0x00000000	0.0
4	0x00000000	0.0
5	0x00000000	0.0
6	0x00000000	0.0
7	0x00000000	0.0
8	0x00000000	0.0
9	0x00000000	0.0
10	0x00000000	0.0
11	0x00000000	0.0
12	0x00000000	0.0
13	0x00000000	0.0
14	0x00000000	0.0
15	0x00000000	0.0
16	0x00000000	0.0
17	0x00000000	0.0
18	0x00000000	0.0
19	0x00000000	0.0
20	0x00000000	0.0
21	0x00000000	0.0
22	0x00000000	0.0
23	0x00000000	0.0
24	0x00000000	0.0
25	0x00000000	0.0
26	0x00000000	0.0
27	0x00000000	0.0
28	0x00000000	0.0
29	0x00000000	0.0
30	0x00000000	0.0
31	0x00000000	0.0
32	0x00000000	0.0
33	0x00000000	0.0
34	0x00000000	0.0
35	0x00000000	0.0
36	0x00000000	0.0
37	0x00000000	0.0
38	0x00000000	0.0
39	0x00000000	0.0
40	0x00000000	0.0
41	0x00000000	0.0
42	0x00000000	0.0
43	0x00000000	0.0
44	0x00000000	0.0
45	0x00000000	0.0
46	0x00000000	0.0
47	0x00000000	0.0
48	0x00000000	0.0
49	0x00000000	0.0
50	0x00000000	0.0
51	0x00000000	0.0
52	0x00000000	0.0
53	0x00000000	0.0
54	0x00000000	0.0
55	0x00000000	0.0
56	0x00000000	0.0
57	0x00000000	0.0
58	0x00000000	0.0
59	0x00000000	0.0
60	0x00000000	0.0
61	0x00000000	0.0
62	0x00000000	0.0
63	0x00000000	0.0
64	0x00000000	0.0
65	0x00000000	0.0
66	0x00000000	0.0
67	0x00000000	0.0
68	0x00000000	0.0
69	0x00000000	0.0
70	0x00000000	0.0
71	0x00000000	0.0
72	0x00000000	0.0
73	0x00000000	0.0
74	0x00000000	0.0
75	0x00000000	0.0
76	0x00000000	0.0
77	0x00000000	0.0
78	0x00000000	0.0
79	0x00000000	0.0
80	0x00000000	0.0
81	0x00000000	0.0
82	0x00000000	0.0
83	0x00000000	0.0
84	0x00000000	0.0
85	0x00000000	0.0
86	0x00000000	0.0
87	0x00000000	0.0
88	0x00000000	0.0
89	0x00000000	0.0
90	0x00000000	0.0
91	0x00000000	0.0
92	0x00000000	0.0
93	0x00000000	0.0
94	0x00000000	0.0
95	0x00000000	0.0
96	0x00000000	0.0
97	0x00000000	0.0
98	0x00000000	0.0
99	0x00000000	0.0
100	0x00000000	0.0
101	0x00000000	0.0
102	0x00000000	0.0
103	0x00000000	0.0
104	0x00000000	0.0
105	0x00000000	0.0
106	0x00000000	0.0
107	0x00000000	0.0
108	0x00000000	0.0
109	0x00000000	0.0
110	0x00000000	0.0
111	0x00000000	0.0
112	0x00000000	0.0
113	0x00000000	0.0
114	0x00000000	0.0
115	0x00000000	0.0
116	0x00000000	0.0
117	0x00000000	0.0
118	0x00000000	0.0
119	0x00000000	0.0
120	0x00000000	0.0
121	0x00000000	0.0
122	0x00000000	0.0
123	0x00000000	0.0
124	0x00000000	0.0
125	0x00000000	0.0
126	0x00000000	0.0
127	0x00000000	0.0

value_heads.value_heads.extrinsic.weight f4 [1, 128]
0	0x3e271557	0.16316734
1	0xbdc90a10	-0.098163724
2	0xbe3b30d4	-0.18280345
3	0xbdf5c346	-0.12000136
4	0x3e175dd4	0.14781886
5	0x3e387af3	0.18015651
6	0x3dfde805	0.1239777
7	0xbd6f36de	-0.058401935
8	0xbd8fb652	-0.07017197
9	0x3e575f6c	0.21032494
10	0x3dc4ef20	0.09615922
11	0x3e5cc77c	0.21560472
12	0x3e0bdfbf	0.13659571
13	0xbe16fe2c	-0.14745396
14	0x3e2c0183	0.16797452
15	0xbd6adddb	-0.057340484
16	0xbdc2d551	-0.09513343
17	0x3e4d9f75	0.2008036
18	0x3d6669b0	0.056253135
19	0x3db0d596	0.08634488
20	0xbe5aa033	-0.21350174
21	0x3cb8712b	0.0225149
22	0x3ce60dae	0.028082695
23	0x3cc84014	0.024444617
24	0x3d73751b	0.059437852
25	0x3ca4f3cd	0.020135785
26	0xbdf7f516	-0.12107293
27	0xbdb6c62c	-0.08924517
28	0x3d4ab98b	0.049493354
29	0x3e57e44b	0.2108318
30	0x3cf102a0	0.029420197
31	0xbdabf8b4	-0.08397046
32	0xbddd1fb4	-0.107970625
33	0xbd1e28ff	-0.038613316
34	0xbdf6c24e	-0.120487794
35	0xbe3d6ad8	-0.18497789
36	0xbd2d4987	-0.04230645
37	0xbe09347c	-0.13398927
38	0x3e2bc84f	0.1677563
39	0xbe23aca6	-0.15983829
40	0xbd818585	-0.06324295
41	0xbe378593	-0.17922048
42	0x3dac5115	0.08413903
43	0xbd5351ae	-0.051591568
44	0x3d8baca9	0.06820042
45	0xbd02021a	-0.031740285
46	0x3d8e99a7	0.069629006
47	0xbde6477e	-0.11244105
48	0x3d94f190	0.07272637
49	0x3e18da24	0.14926964
50	0xbcd61cd4	-0.026136793
51	0x3e308212	0.17237118
52	0x3e314316	0.17310748
53	0x3dac65da	0.08417864
54	0xbde712c5	-0.11282877
55	0x3c056fea	0.008144358
56	0xbe471836	-0.1944283
57	0x3d8bb8f8	0.06822389
58	0x3db8a90a	0.09016617
59	0x3e4eee46	0.20208082
60	0x3e160fe1	0.14654495
61	0x3d4dc64e	0.050237946
62	0x3e310bd0	0.17289662
63	0x3e0e774f	0.139127
64	0xbe350339	-0.1767701
65	0xbe03491d	-0.12820859
66	0x3d7bd94c	0.061486527
67	0xbd4383f2	-0.047733255
68	0xbe4af4d8	-0.19819963
69	0x3d49aa9d	0.049234975
70	0x3dd50775	0.10401813
71	0x3e33cc19	0.17558326
72	0x3d03c50f	0.03217035
73	0x3e0a15b7	0.13484846
74	0xbdfcca13	-0.1234323
75	0x3dcf52a2	0.10123183
76	0xbe0c2730	-0.13686824
77	0x3e465414	0.19368011
78	0xbe25e2b4	-0.16199762
79	0xbdbaad94	-0.09115139
80	0x3e40e870	0.18838668
81	0xbe4d812a	-0.20068803
82	0xbd58c76c	-0.05292456
83	0x3c88677d	0.01665091
84	0x3e1e9ba5	0.15489061
85	0xbdad237a	-0.08454032
86	0xbd2f12b3	-0.042742442
87	0x3e4bc236	0.19898304
88	0x3e418e8b	0.18902032
89	0x3d9fdfee	0.07806383
90	0xbe33a5e5	-0.17543752
91	0x3e547d43	0.20750909
92	0xbbd97eea	-0.006637444
93	0x3d926e42	0.07149936
94	0xbe34b6c6	-0.17647848
95	0x3e43de05	0.19127662
96	0x3dae0795	0.0849754
97	0xbdd387a5	-0.103286065
98	0x3e015528	0.12630141
99	0xbe0dd54c	-0.13850898
100	0xbdd0c592	-0.101939335
101	0x3e0a26e6	0.13491401
102	0x3dd55037	0.104156904
103	0xbe0b3f47	-0.13598357
104	0xbb872dcd	-0.004125333
105	0x3da60300	0.08106041
106	0x3cd0a238	0.025467977
107	0x3dfc12b4	0.12308255
108	0x3e4c15e7	0.1993023
109	0x3dc60d76	0.09670536
110	0x3e435df2	0.19078806
111	0xbe1ecbe1	-0.15507461
112	0x3e0ce2cf	0.13758396
113	0xbe3ff0ab	-0.18744151
114	0x3e182349	0.1485721
115	0x3d25488e	0.040352397
116	0x3e30c856	0.17263922
117	0x3e291e06	0.1651536
118	0x3d6410d8	0.055680126
119	0xbd9d2b3b	-0.07674261
120	0xbe0a2f8e	-0.13494703
121	0x3d1b45f0	0.037908494
122	0xbe599dc3	-0.21251588
123	0x3d25e116	0.04049786
124	0x3d938096	0.0720226
125	0x3d6f9abc	0.058497176
126	0x3e0d1f5b	0.13781492
127	0x3e08753b	0.1332597
