results/SnakeImitation3/SnakeAgent/SnakeAgent-149233.pt (torch, 713767 bytes, 41 tensors)

network_body._body_endoder.seq_layers.0.weight f4 [128, 61]
000000 7d ad 0e 3e 12 62 29 bf f6 7f a4 3f 6c fd 78 3d
       0.13933368 -0.6616527 1.285155 0.060788557
000010 4a a4 be 3e 97 3b 06 3f ab fd 37 bf 06 2d 22 3e
       0.37234718 0.52434677 -0.7187144 0.15837488
000020 a8 0d ab 3c 6e 15 db 3e 55 0c 85 be 4e 4e 23 3e
       0.020880535 0.42789787 -0.2598597 0.1594784
000030 12 d7 83 bf 24 a8 5d 3e 9d 9d b3 bd dc b9 30 3d
       -1.0300009 0.21646172 -0.08770297 0.043146
000040 06 a8 69 bf 4d 7a 6b 3f be 71 86 3f 5a 18 b6 3e
       -0.9127201 0.9198349 1.0503461 0.35565454
000050 68 65 29 be e5 69 ca 3d 58 33 9b bf 3f 9d 7a 3e
       -0.1654259 0.09883479 -1.2125044 0.24474047
000060 9b f0 cd be 76 9a 4f bd de 72 50 bf 12 06 1a 3f
       -0.4022263 -0.050684415 -0.81425273 0.6016551
000070 26 ec 83 be bd 2f b6 bd 3b ff 46 bc 94 f8 98 3d
       -0.25766104 -0.08895824 -0.012145813 0.074692875
000080 45 88 7f bf 25 88 b2 3c 9d 71 d9 3d 89 2c d2 3c
       -0.99817306 0.021793434 0.10617373 0.025656002
000090 5c 41 43 bf ac 2d 07 be 67 3c 62 be 85 8a 54 be
       -0.76271605 -0.13201016 -0.22093354 -0.20755966
0000a0 e0 b6 d4 3d 27 96 c4 3d ca 84 cb bf 00 31 49 be
       0.10386443 0.09598952 -1.5899899 -0.19647598
0000b0 e9 7e ad 3e 91 7d 65 be 37 91 1a bf 21 aa f3 3e
       0.33885887 -0.22411181 -0.6037783 0.47590736
0000c0 8d 67 0a 3f fc 0d 64 3e 58 d5 32 3e f1 69 3c 3f
       0.54064256 0.2227096 0.17464197 0.73599154
0000d0 68 c9 a4 bf 39 8f c8 be df bc a0 3e 4c 3c 94 be
       -1.2873964 -0.3917177 0.31394097 -0.28952253
0000e0 7c 95 96 bd 80 4f a0 be fb 47 68 3f bf 94 42 be
       -0.07352731 -0.31310654 0.90734833 -0.19002055
0000f0 89 13 87 3e dc 2a bd bd 43 7d 86 bd c4 01 27 bf
       0.26382092 -0.092366904 -0.065668605 -0.6523707
000100 e9 54 14 3f d6 a2 cb 3e b9 1e ee be e5 5e 3c 3f
       0.5794206 0.3977267 -0.46507815 0.735823
000110 dd 1b 98 bf aa 10 70 3e fb eb 30 3d b5 d1 13 3f
       -1.1883503 0.23443857 0.0431938 0.5774186
000120 46 18 bb bf 98 65 8b be c5 df b5 3e 8a 92 a0 3f
       -1.4616783 -0.27225947 0.35522285 1.254472
000130 78 c4 c7 3e 55 57 6c be 36 df 22 bf fb bd b3 3e
       0.3901708 -0.2308019 -0.6362184 0.3510588
000140 72 b7 26 3e 80 ac 59 be 7c 16 0c 3f 2c 42 ae 3d
       0.16280916 -0.2125721 0.5472181 0.08508715
000150 d4 55 c5 3e 68 82 e5 3e 44 f2 f1 3d 36 f2 2a bf
       0.38542044 0.44826055 0.118137866 -0.66775835
000160 17 27 ae be a6 26 4a be 7a 3d 37 3e ea 07 d9 be
       -0.34014198 -0.19741306 0.17894545 -0.4238885
000170 02 59 90 3f d4 a7 2b bd 9d 63 e5 3e 8d f0 92 3e
       1.1277163 -0.0419081 0.4480256 0.2869915
000180 92 76 2a 3e e4 1b c1 be d8 e5 0c bf 1e 46 10 3e
       0.16646793 -0.3771659 -0.55038214 0.14089248
000190 09 c5 a2 3d 39 a4 bb 3d 2c 69 08 3e 9f d1 f2 be
       0.07947738 0.09162182 0.1332137 -0.47425553
0001a0 bb 59 e4 3e 1d 12 ef 3e 22 eb 8c 3e 72 db 90 3c
       0.4459971 0.46693507 0.27523142 0.017682765
0001b0 16 08 89 bf ff 2c fb be cd e5 5e 3d a4 2d 7d 3e
       -1.0705593 -0.49057767 0.054418374 0.24724442
0001c0 fe 68 9f bf 65 77 b4 be 34 7f f5 3e 48 ee 26 3f
       -1.2453916 -0.3524734 0.4794861 0.6520734
0001d0 ee 5e da 3e ab 92 3b 3e 8b ea 69 bd c8 af 1a be
       0.4265055 0.18317668 -0.057108443 -0.15106118
0001e0 9a 76 0d 3e 53 5b 8d bd 57 06 66 be 79 69 92 3e
       0.13814774 -0.06902184 -0.22463356 0.28596094
0001f0 a9 cd 27 be 6e 46 00 3d 6e 0f a6 3e a5 dd 43 bf
       -0.16387047 0.031317167 0.32433647 -0.7651008
000200 75 00 82 3f 52 14 ce bd bd 61 d9 3e 90 3b c0 3e
       1.015639 -0.100624695 0.4245738 0.37545443
000210 e3 bf 27 3d 53 74 75 bd 2c bf dc be 3f f6 2c 3e
       0.04095448 -0.05992539 -0.43114603 0.1689081
000220 03 32 ab 3e 88 79 20 bd 89 26 89 bd 6d 3d 58 3d
       0.33436593 -0.0391784 -0.06696803 0.052792955
000230 a2 2d 5f 3f b5 0c d2 3d b8 27 ba 3e 9c 3e d1 bf
       0.87179005 0.1025633 0.36358428 -1.6347232
000240 19 d4 19 be 22 85 13 3f 1d 6b ca 3e 6c 54 fe be
       -0.15022315 0.5762502 0.39534846 -0.49673784
000250 f2 c6 17 3f 4f 02 82 3e 37 30 1b 3f ac e6 be 3e
       0.5928794 0.25392386 0.60620445 0.37285364
000260 64 de 86 3d 6e 23 bb be 36 68 2e 3e 7a 0c 20 3f
       0.065853864 -0.36550468 0.17031941 0.6251904
000270 9a 2f 06 3d 3d 80 d8 3d 30 27 25 bc 31 a5 b4 3d
       0.03276024 0.105713345 -0.010080144 0.0882057
000280 a0 a0 87 3e 7b 9b fa 3e 66 46 88 3c 4e 2a 9c be
       0.26489735 0.48946747 0.016635131 -0.30501026
000290 79 d2 5e bf fe c3 06 3f 1b 37 0d be f1 05 35 be
       -0.87039906 0.5264281 -0.13790552 -0.17678048
0002a0 82 ca 08 3f 07 ac dd 3d f6 dc 51 3f 1d 80 68 3e
       0.53434 0.10823827 0.81977785 0.22705121
0002b0 70 96 e7 ba 22 c3 92 bf 3a 13 7b 3d 63 91 04 3f
       -0.0017668735 -1.14658 0.061297633 0.5178434
0002c0 5e 24 3d 3e d0 62 b5 be 10 71 86 be 7d 65 fe 3e
       0.18470904 -0.3542695 -0.26258135 0.49686804
0002d0 b0 fd 2a 3e c5 55 7e bd ef b1 52 3e f1 3e 8d bc
       0.16698337 -0.062093515 0.20575689 -0.017241927
0002e0 05 7b bd 3e f4 77 e1 be ba db b5 3e 15 ab 5c 3e
       0.3700792 -0.4403683 0.355192 0.21549638
0002f0 cb cb 20 be d3 0e cc 3d 16 a0 0b bf 67 73 19 3f
       -0.15702741 0.09963765 -0.54541147 0.59941715
000300 35 30 d4 3e b6 b5 06 be a9 36 a6 be 3d fb 9b 3e
       0.4144303 -0.13155255 -0.32463577 0.30465117
000310 00 95 99 3e ff 23 cc be f3 5f 82 be eb 89 f0 bd
       0.2999649 -0.39871213 -0.25463828 -0.11745056
000320 f5 fd c5 bf ba a5 80 3f da e0 87 3e 0c 38 25 3e
       -1.5468127 1.0050576 0.26538736 0.16134661
000330 da d4 5d be d7 b3 3a 3e 01 9c a4 3e 01 0f 00 3e
       -0.21663228 0.18232666 0.32150272 0.12505724
000340 4c 2e ae bd 0a f3 2e 3f 66 90 af bf cc 20 bf bd
       -0.08504924 0.683396 -1.3715942 -0.093324274
000350 02 39 f1 bd 93 72 4e be a5 b8 be 3f 2b d3 aa be
       -0.117784515 -0.20160894 1.4900099 -0.33364233
000360 25 65 70 3e 1e 35 d5 3e b1 da 88 3e b5 37 a6 be
       0.23476084 0.41642088 0.26729348 -0.32464376
000370 48 1a 8b bf 97 d8 b9 bc 7e 5d 93 be 6b 8d 0e be
       -1.0867395 -0.022686286 -0.28782266 -0.13921134
000380 0a 78 8f be ed 97 6a ba c9 e0 1e 3e 93 95 19 3f
       -0.2802127 -0.00089490303 0.15515436 0.5999386
000390 eb e6 8d 3e 15 0f 97 be 82 8b e2 bf c5 53 68 be
       0.2771524 -0.29503694 -1.7698824 -0.22688206
0003a0 0d ce 11 3d 6e a4 10 bd 93 c3 9a 3e e3 ea e1 bd
       0.035596896 -0.035313062 0.30227336 -0.11031129
0003b0 7e e8 d0 3e e7 14 05 3f 60 2c 6a 3f d3 3d 15 3e
       0.40802377 0.5198502 0.9147396 0.14574365
0003c0 80 fc 9a 3e 79 7c 44 be 09 6e bd bd e4 ae 3d 3f
       0.30270767 -0.19188108 -0.09249503 0.74094987
0003d0 1d 93 85 3d d7 ea 48 bf 5c 75 1b 3e 8f 1d a5 be
       0.065222 -0.7848334 0.15181488 -0.32249114
0003e0 1f 56 73 3e 89 83 af 3c 44 12 5b be f3 2c ef 3d
       0.23763321 0.021425026 -0.21393687 0.11678495
0003f0 6c 76 e5 be 31 4a 02 3e c4 83 43 3f 4a 55 99 bf
       -0.4481691 0.12723614 0.76372933 -1.1979153

network_body._body_endoder.seq_layers.0.bias f4 [128]
000000 a3 3a 57 bd 3f d0 2c 3c 5e 7a e3 bd 0a 2e 5e bd
       -0.052546155 0.010547697 -0.11107324 -0.054243125
000010 43 5e 92 bd 2e 6c 35 bc bd 86 a4 bd 7a 35 69 bd
       -0.07146885 -0.011073155 -0.08033512 -0.056935765
000020 2d 99 f6 bd 3b 0d 0e 3e f1 fd a1 bd e8 25 52 3d
       -0.12040935 0.13872235 -0.079097636 0.05130568
000030 08 72 15 be 49 2b 7d bc 00 ea c1 bd 68 97 82 bd
       -0.1459428 -0.0154522145 -0.0946846 -0.06376535
000040 e5 d7 4d 3e 82 51 ee bd 42 47 70 3e d4 6f 0c 3e
       0.20101888 -0.1163664 0.23464683 0.13714534
000050 1f 35 47 3d f8 38 78 ba b9 dd 99 3d a6 8f 75 3b
       0.048634645 -0.0009468938 0.07512993 0.0037469654
000060 b4 49 45 3e ea 7f 47 3e 8a 58 2d bb 88 84 67 3e
       0.19266397 0.19482389 -0.0026450478 0.2260915
000070 c9 ec 57 be e4 81 8f 3d a1 df 04 3e 41 17 aa bc
       -0.2108642 0.070071965 0.12975933 -0.020763041
000080 45 ab 9d 3d e5 f4 03 3e 14 d5 19 bc 0d 50 10 3d
       0.07698683 0.12886389 -0.009389181 0.035232592
000090 44 fd a3 bd 16 80 9d 3d d6 e4 1e 3b b2 35 fb 3d
       -0.08007291 0.07690446 0.0024245284 0.12266101
0000a0 a5 d4 17 be 94 d8 37 3e c6 2b 34 bd af f5 2a bd
       -0.14827211 0.17953712 -0.043987058 -0.04173821
0000b0 9a 0f 9a 3d 7f 12 43 be 18 16 10 3e 3b c4 3f bd
       0.07522507 -0.19050024 0.14070928 -0.046818
0000c0 b5 11 91 bc ba 71 86 3d b0 a3 c8 3d 9f d5 b9 bd
       -0.017708639 0.0656466 0.09796846 -0.09073948
0000d0 27 0c 42 bd 38 29 bf 3d 2a 39 41 bc 72 a5 3c 3e
       -0.04737487 0.09334034 -0.011793414 0.18422487
0000e0 b2 58 3c 3e fd 1a 1f 3e 94 13 59 bd f0 74 a5 3d
       0.1839321 0.15537639 -0.052997187 0.08078945
0000f0 59 2a b7 bc 77 cb 64 bd 1e 4b a0 bd ff 49 97 bc
       -0.02235906 -0.0558581 -0.078268275 -0.018467901
000100 7b 0c 99 3c cb 7a 91 3d 72 e3 84 bd 97 55 24 3d
       0.018682709 0.07103499 -0.06488694 0.040120687
000110 8c ea c8 bd 90 59 90 3c fb c0 5b 3d f0 5c 04 be
       -0.09810361 0.017620832 0.053650837 -0.12926078
000120 f7 e9 75 bc ac 2e 31 be 50 16 b2 bd ea da 8f 3d
       -0.015009395 -0.1730296 -0.08695662 0.070241764
000130 f0 a3 be bd 1c 26 a4 3c 31 61 d9 3c 7f 5d 51 3b
       -0.09308612 0.020037703 0.026535602 0.0031946597
000140 bb 17 b3 bc 8d 01 ee 3d 2b d5 e7 3c 49 e5 9c 3e
       -0.021861902 0.116213895 0.028299889 0.3064368
000150 4a 5e 8d 3d f2 9b 0b 3d 9a a5 95 3e 46 3b ce 3d
       0.0690275 0.034084268 0.29227906 0.10069899
000160 99 43 ef 3d 53 7a e2 bc 40 18 1e 3e 3e 33 a6 3d
       0.11682815 -0.02764622 0.15438938 0.081152424
000170 9b c0 84 3d c4 45 10 3e 37 15 f1 3c f6 fb 8d 3e
       0.06482049 0.14089113 0.029429061 0.27731293
000180 38 f2 06 bd 9b d8 70 3e 4e 95 85 3d f9 31 9e 3b
       -0.03294584 0.23520128 0.06522618 0.0048277345
000190 12 c5 2d 3e 4b 5f a8 3d 37 f6 99 3b 89 36 85 bd
       0.16969708 0.08221301 0.0046985405 -0.065045424
0001a0 ae a4 f0 3d 35 9c 18 3e 9f 4f 57 3e 87 9f a8 bc
       0.1175016 0.14903338 0.21026467 -0.020583881
0001b0 1f 24 66 bd 6e 24 b9 3b 67 38 44 be 98 d2 1b 3e
       -0.05618679 0.0056500947 -0.19162141 0.15217054
0001c0 ad bd 49 bd 17 0c c2 3d ee 63 5a bc 74 d3 33 3e
       -0.049253155 0.09474962 -0.013329489 0.17561132
0001d0 c1 01 84 3e bf 08 8b 3d 2e 17 08 3e e6 4e 01 3d
       0.25782588 0.067887776 0.13290092 0.031569384
0001e0 8b 08 93 3e c5 8c 9d bd 71 54 2e be b0 43 ab bc
       0.28717455 -0.07692865 -0.170244 -0.0209063
0001f0 ab d1 0d 3e 70 4d bc 3d 71 d1 27 3e c7 ae d9 3d
       0.13849513 0.091944575 0.1638849 0.10629039

network_body._body_endoder.seq_layers.2.weight f4 [128, 128]
000000 d3 76 87 be 44 0b 14 3e 77 e1 80 bf e4 2f b8 3d
       -0.26457843 0.14457422 -1.0068806 0.089935094
000010 91 3f 99 bf 4e 48 38 be 89 88 52 3e 9f f5 22 3e
       -1.1972524 -0.17996332 0.20559897 0.1591401
000020 a7 a8 5d be c3 81 82 3e 29 0b aa 3d 88 b2 cf 3d
       -0.21646367 0.25489625 0.0830291 0.10141474
000030 56 7d 21 be f3 2d 89 be 66 3d c6 3c 0d ec de be
       -0.15770468 -0.2679287 0.024199199 -0.43539467
000040 e0 37 a6 3d 20 fd 28 bc cc fe e5 3e bb 72 13 3f
       0.08116126 -0.010314256 0.44920957 0.5759694
000050 51 0c b2 3c 55 8f 9e 3b 7c 72 20 3e e4 36 3b 3e
       0.021734389 0.004838864 0.15668672 0.18282658
000060 5c 83 56 3d 48 60 52 3d 4e 85 be 3d a8 26 4c 3e
       0.052371368 0.051361352 0.093027696 0.19936621
000070 02 5f 82 bf ba b4 c0 3e f3 79 41 3e bc eb 91 3e
       -1.0185244 0.37637883 0.18894176 0.28500164
000080 fe b8 f9 bc f6 72 1e be 67 61 d1 be f3 53 37 be
       -0.030483719 -0.15473542 -0.40894625 -0.17903118
000090 55 a2 68 bd dc 1c 36 3d 74 ed ee bd 65 fc 87 bc
       -0.056795437 0.044461116 -0.11666384 -0.016599843
0000a0 f6 f9 56 be cc 9a 91 3c cb 38 17 bc 15 47 e9 3d
       -0.2099379 0.017774008 -0.009229849 0.11390511
0000b0 68 fe 16 be cb 73 a7 be 56 7d 3a 3e 95 5b 42 3d
       -0.14745486 -0.3270553 0.18211874 0.04745062
0000c0 53 c3 a8 bd ed 7c c1 bf 25 ed b5 3d 0f 75 bf be
       -0.0824038 -1.5116249 0.08883122 -0.37393996
0000d0 e6 e6 e6 bd 78 d0 96 bd 7d cc c9 bd da 59 5d be
       -0.11274509 -0.07363981 -0.09853456 -0.21616307
0000e0 d4 1b 92 3e 67 ad 1b bd 47 5f 5c be e2 c9 94 bd
       0.28536856 -0.038007166 -0.2152072 -0.072650686
0000f0 19 b2 11 bf 9a 86 55 be 09 62 06 bf 1a 18 ad 3e
       -0.5691238 -0.20852128 -0.5249334 0.3380745
000100 db 93 44 be d7 8e 2e bf 95 5a f8 be fc 97 20 bb
       -0.19197027 -0.68186706 -0.4850661 -0.0024504652
000110 b0 59 c3 3e 9e 3b aa 3c 25 a9 4e bf 50 63 22 be
       0.38154364 0.02078038 -0.80726844 -0.15858197
000120 ea 22 31 bd 88 0d 91 be a8 1c 2f bb ad c1 0b 3e
       -0.043246187 -0.28330636 -0.0026719961 0.136481
000130 ed 6b 35 be 12 45 88 3e f4 9f 2a be 8a 98 c9 be
       -0.17716952 0.26615196 -0.1666258 -0.3937419
000140 fe ca e2 be 53 be 52 be 97 ed 92 bd 18 16 c0 3e
       -0.44295496 -0.20580415 -0.07174223 0.37516856
000150 b0 1c 9c 3e 70 ad ba 3e d9 d5 07 3f b8 b0 ec be
       0.30490637 0.36460447 0.5306068 -0.46228576
000160 7d 9d ad be cd 49 bf 3d 3c 69 dc bc f8 03 2f bf
       -0.33909217 0.09340248 -0.026905648 -0.6836543
000170 ff e2 f8 3d be 5f 4f 3e 28 3f 51 be ce 51 0d be
       0.12152671 0.20251366 -0.20434248 -0.13800737
000180 77 10 42 3e 67 c2 79 3d 6d 03 43 3e df e8 c9 3e
       0.18951593 0.060976412 0.19044276 0.3943548
000190 a4 fe 86 3e 7a 64 58 be ea b3 3a be d9 13 da be
       0.2636615 -0.21132079 -0.18232694 -0.42593268
0001a0 7b cb 45 3e 71 01 61 be 17 9e 3e bd f4 5e 62 3e
       0.19315903 -0.21973206 -0.046537485 0.22106534
0001b0 02 f3 a9 3e c7 16 77 3e e8 79 9b bf 0c 8d 65 3e
       0.33193213 0.24129783 -1.2146578 0.22417086
0001c0 f0 fa 77 bd 52 e3 c3 bd a7 77 9e be 8b db f6 3d
       -0.060542047 -0.09564842 -0.30950662 0.12053593
0001d0 ca 78 92 3e 8b 57 ac 3e 35 21 9a 3d 39 ef 94 3d
       0.2860778 0.3366054 0.07525865 0.072721906
0001e0 f4 69 cc 3e cd 55 9b 3e a4 cd fb bd 6e 20 50 3e
       0.39924586 0.30338898 -0.12295082 0.20324871
0001f0 69 98 6f bd d1 b4 77 3d 5a f3 a5 3d 70 71 9e be
       -0.05849496 0.060475174 0.08103056 -0.3094592
000200 90 3d 92 3c 4d 76 ad 3e b2 4c 14 3e 2e 43 45 bd
       0.01785162 0.3387932 0.14482382 -0.04815977
000210 a8 3e c9 3e bb 4e 43 bd d8 99 96 3e 81 eb 9c 3e
       0.39305615 -0.047682505 0.29414248 0.30648425
000220 94 64 a1 3b 76 08 a7 bd db 9c 94 be 08 94 9d be
       0.00492532 -0.08155911 -0.2902592 -0.30777
000230 87 d0 93 3d 6e b1 9e bc 6f 92 e9 3d ac 6a 54 3d
       0.07217508 -0.019371714 0.11404883 0.051859543
000240 f4 b9 3c bf 1d 95 23 3e 1d e8 10 be 88 cf c8 bc
       -0.7372124 0.15974851 -0.14151044 -0.024513021
000250 c1 9b ba 3d f4 71 4a bd 10 9d 09 bd 58 b6 06 3e
       0.09111739 -0.04942508 -0.033597052 0.13155496
000260 a9 3a 1a bf d3 f8 6c bf 4a f2 a3 bd 0b ed 5c 3d
       -0.6024576 -0.92567176 -0.08005197 0.053937
000270 bc 01 47 3d b4 a8 2c 3d 30 2c 80 3f fb 27 8d be
       0.04858564 0.042153075 1.0013485 -0.27569565
000280 02 0b bc bc 92 1e 91 3d cc d4 bc bd ed c2 c1 3b
       -0.022954468 0.07085909 -0.09220275 0.0059131295
000290 e5 b5 95 bd be 2f 31 be 46 04 20 be ad 2a be 3d
       -0.07310084 -0.17303368 -0.1562663 0.092854835
0002a0 e8 c9 09 bd db 93 ac bd 42 4f 5d 3e ff a6 e4 3e
       -0.03363982 -0.08426639 0.21612266 0.44658658
0002b0 a5 35 1d bf ef 66 c7 bd c1 ed a0 3e 21 75 9e bf
       -0.6140998 -0.0973643 0.31431392 -1.2379495
0002c0 d2 61 ab bd 36 71 85 bd c8 7d 25 bf 3a 04 ac 3e
       -0.08368267 -0.06515734 -0.6464505 0.33596975
0002d0 7b 11 8b 3e b1 c1 1f 3e 96 15 99 be cf 3a 55 be
       0.27161774 0.15601231 -0.2989928 -0.20823215
0002e0 ec b7 52 3c 01 31 a7 be 0a a7 10 3e cc 4b 2f bf
       0.012861233 -0.32654575 0.1412622 -0.6847503
0002f0 2e 88 25 bd b0 f5 b4 3e d4 ed 16 3f 9b bb 78 be
       -0.040413074 0.35343695 0.58956647 -0.24290316
000300 e8 7f 4e 3e 3f 63 05 3f 30 75 aa 3e ef f0 16 be
       0.2016598 0.5210456 0.33292532 -0.14740346
000310 66 fe c3 3b 1a ca ac 3e 23 e2 2d 3d df c5 68 3d
       0.0059812544 0.3374794 0.04245199 0.05682933
000320 07 12 c7 bd f7 13 3c be 23 c9 2d 3d bc 7e 50 3e
       -0.09720235 -0.18366991 0.042428147 0.20360845
000330 f8 1a 72 3e 6b 3c 42 bf 8d 33 a9 3e 85 76 07 3e
       0.236431 -0.7587344 0.33047143 0.13228805
000340 63 7b 36 3e 2f 48 db 3d 82 01 4a be 45 79 7e be
       0.17820506 0.10707127 -0.19727138 -0.24850948
000350 c6 8e 70 be de c6 ac bc 5f e1 76 3c 2c c2 c4 bc
       -0.23491964 -0.021090921 0.015068381 -0.02401837
000360 7a 0c 9d 3e ae a1 6b 3e 20 bd cc 3d 33 a7 33 3e
       0.3067358 0.23010895 0.0999701 0.1754425
000370 99 42 42 be 04 36 fc bc be b5 19 3e 13 0f e7 3c
       -0.18970717 -0.030787475 0.15010735 0.02820543
000380 0d c8 bc be 1a b8 c0 bd 93 ed 87 bc 25 62 8a 3e
       -0.36871377 -0.094101146 -0.016592776 0.27028003
000390 91 4f 5b 3e c6 8f 28 3d 43 8b c4 bd 7d 83 9d 3d
       0.21417071 0.041152738 -0.095968746 0.07691095
0003a0 4f 55 1b 3b 0c 3f ec be d6 e4 84 3e cc 43 7d 3e
       0.002370197 -0.4614185 0.25955838 0.24732894
0003b0 18 f0 7c bf fd 3f 8f 3e a0 21 85 be 88 65 41 bd
       -0.98803854 0.27978507 -0.26002216 -0.04721597
0003c0 12 1f a1 3e 36 b8 d2 3e 06 61 17 3e ac 1e df be
       0.31469017 0.41156167 0.14783105 -0.43578088
0003d0 b2 24 f9 3d fa 5f 3b bd 7c 3c b2 be 40 a1 26 3e
       0.12165202 -0.045745827 -0.3481177 0.1627245
0003e0 42 8e dd bd 2c 2e 16 bf d1 54 e9 3d 84 90 f4 3d
       -0.10818149 -0.586642 0.113931306 0.11941627
0003f0 45 ee 09 be 52 9e 9b bc 46 bc bf be 54 3e 8a 3e
       -0.13469799 -0.018996391 -0.3744833 0.27000678

network_body._body_endoder.seq_layers.2.bias f4 [128]
000000 7e 55 98 3d e0 cf a5 bd 10 90 b8 bc 76 6b f4 3c
       0.07438181 -0.0809629 -0.022529632 0.029836398
000010 4b 5e bc bd fa 8e 23 3d 6a 92 a9 be eb 19 0b 3e
       -0.091976725 0.039931275 -0.33119518 0.13584106
000020 c5 17 9c 3c 72 45 08 be 72 63 3a 3d cf 2c 19 bd
       0.019054303 -0.13307741 0.045504995 -0.03739625
000030 f8 b3 62 3d b6 eb 41 be 12 ae e7 3c d2 6d cc bd
       0.055347413 -0.18937573 0.028281245 -0.09981884
000040 98 a7 f8 3c f5 28 c2 3c fe 50 ac be c7 4e 07 be
       0.030353352 0.02370117 -0.33655542 -0.13213645
000050 7a b9 62 bd 98 2e 47 3e 53 86 fb bd 1c 18 8b 3e
       -0.055352665 0.19451368 -0.1228148 0.27166831
000060 44 31 78 3b 05 8c 6c bd 8f 92 8e bd 79 90 d1 bd
       0.0037871161 -0.05775072 -0.069615476 -0.10232634
000070 c0 42 14 be 6d 17 44 3d 48 6f de 3d 86 ad 3b be
       -0.14478588 0.047873903 0.10861069 -0.18327913
000080 a6 28 00 3d 8d b3 82 3d 36 2b 33 3d cf 42 85 be
       0.031288765 0.06381903 0.04374238 -0.26027533
000090 63 fc 1a bd f9 6f 3c 3d d7 1c 80 3d 91 dd ef bd
       -0.03783835 0.046005223 0.06255501 -0.11712182
0000a0 b6 51 cf 3d fb 2a f5 bd 9e 5d 1e be ab d2 69 3d
       0.10123007 -0.119710885 -0.154654 0.057085674
0000b0 1a b3 8d 3e bc 45 6e 3d 5d db 84 3e 91 90 cb bc
       0.27675706 0.058171973 0.2594861 -0.024849208
0000c0 75 70 7d bd 55 62 5c 3d f5 45 6c 3d a4 2a 23 3d
       -0.061874826 0.053804714 0.057683904 0.039835587
0000d0 4a b3 89 3d c8 9a 07 3e d2 c5 0f be bc 26 f0 bd
       0.0672365 0.13242638 -0.14040306 -0.11726138
0000e0 40 45 10 3e dd d4 8d 3e 7f bc 49 bd e5 68 0e 3e
       0.14088917 0.27701464 -0.04925203 0.13907202
0000f0 73 ae 73 3e 1f af 0d bd f6 09 6b be 4d a3 98 3c
       0.23797016 -0.034590837 -0.22953019 0.018632555
000100 c1 76 25 3c e1 c0 eb bc 61 20 21 be 76 da 37 3e
       0.010099114 -0.028778495 -0.15735008 0.1795443
000110 7f 2d c3 bd 6e 55 a7 3b ec 2b 11 be bc 77 2e 3e
       -0.09530162 0.0051066196 -0.14176911 0.17037863
000120 c8 72 62 3d f2 48 bb 3d be 14 63 3e cb e1 d1 3d
       0.055285245 0.091447726 0.22175881 0.10248145
000130 76 6b 93 3b 7a 63 7b be 20 7d 8b bd 47 2a bc 3c
       0.0044988943 -0.24549666 -0.06810975 0.022969378
000140 35 16 b6 3d c7 ca 98 3c 16 b5 15 be bd 13 e1 3d
       0.088909544 0.01865138 -0.1461986 0.10990093
000150 ce fc 71 3c ff 62 31 3c 47 a4 c5 3a 29 fb 10 be
       0.014769746 0.010826825 0.0015078866 -0.1415831
000160 0e 37 e6 3d 4c 2b 77 bd 9b c9 b6 be c8 30 2c be
       0.112409696 -0.060344025 -0.35700688 -0.16815484
000170 64 94 6d 3e c4 cf ac 3d 16 32 54 bd e7 31 93 3c
       0.23201138 0.08438066 -0.05180558 0.017968131
000180 a6 13 c4 bb 0d c9 63 3e 1c 18 94 bd a5 95 c7 bd
       -0.0059837876 0.22244664 -0.07231161 -0.09745339
000190 76 be c4 be c3 fc 69 be 9d 83 8d bd 40 ba 86 bd
       -0.3842656 -0.22850327 -0.06909869 -0.06578493
0001a0 87 b8 91 3d 79 17 c0 bd 64 16 2c 3e ea 83 a3 be
       0.07115274 -0.09379477 0.16805416 -0.3193658
0001b0 9a 58 84 3d 6e 6e 19 3e 0f 92 90 be 3e 10 81 bd
       0.06462212 0.14983532 -0.28236434 -0.06301926
0001c0 98 7e e4 bd b5 69 76 3e 40 4e ff bd 75 e6 e4 bd
       -0.11156958 0.24063762 -0.12466097 -0.11176769
0001d0 60 e7 7d 3d f2 21 4a 3d df 8c 79 3c e3 ef 7f 3e
       0.061988235 0.04934878 0.01523134 0.24993853
0001e0 e2 b9 0c 3e 11 35 6d 3d 67 4d 4e be 2f d5 22 3d
       0.13742784 0.057911936 -0.20146714 0.03975409
0001f0 f4 18 5d 3e 92 80 ac bd e4 cf 2a be e7 bb 26 be
       0.2159155 -0.0842296 -0.16680866 -0.16282617

action_model._discrete_distribution.branches.0.weight f4 [3, 128]
000000 54 f9 87 3b 77 f9 1f bf b5 1b aa 3e 3c 81 40 3f
       0.0041495953 -0.6249003 0.33224264 0.75197196
000010 4d 26 85 3e fc d0 05 3f 89 b8 44 bf 04 8d 94 3e
       0.26005784 0.5227201 -0.7684408 0.29013836
000020 97 35 1e 3e 3a 21 18 be 47 2e a6 be 18 52 35 3e
       0.1545013 -0.14856425 -0.32457182 0.17707098
000030 c3 c5 0f 3f 2a 8d e1 be 64 7c c9 3e ab 16 65 3e
       0.56161135 -0.44053012 0.39352715 0.22371928
000040 ed 03 0b 3f 96 7d 56 3e 4d 7a 8b bf e6 cf 83 bf
       0.54302865 0.20946345 -1.0896698 -1.029782
000050 b1 a1 4a bf 0f 93 89 bf 22 b8 63 bf bc eb 03 3e
       -0.7915297 -1.0748004 -0.8895284 0.12882894
000060 f1 cf 1c 3f 51 8b 6d 3f fe 84 e9 bd 49 c5 15 bf
       0.61254793 0.92790705 -0.11402319 -0.5850416
000070 3a 6f d7 be 39 76 c8 3e fb 56 f3 3d 4b c5 a4 be
       -0.42077047 0.39152697 0.118818246 -0.32181773
000080 6e 90 a8 3e 4f ea a0 3e 7e 94 17 3e 8c f6 1c bf
       0.3292269 0.31428763 0.14802739 -0.613137
000090 64 9c 8c bd cc e1 a2 bf 93 b7 f4 be 3d fe 75 bb
       -0.06865767 -1.2725158 -0.47796306 -0.003753557
0000a0 07 68 f8 3e 6e 1f 07 be 9b a6 0e be 05 9d b3 bf
       0.48516867 -0.13195583 -0.13930742 -1.4032294
0000b0 12 c6 3f 3f 11 3c 93 3e 73 93 8f 3e 8d 7e 8d 3e
       0.74911606 0.28756765 0.28042182 0.27635613
0000c0 83 d3 17 3f a0 2e d8 bd 0e 38 11 be c8 d2 65 bd
       0.59307116 -0.10555768 -0.1418154 -0.05610922
0000d0 bc 43 85 3e 5c fb b2 3e 11 e8 10 bf ec 60 3b 3e
       0.2602824 0.34957397 -0.56604105 0.18298692
0000e0 01 4a 1c 3f 0f 92 f3 3e 6c ba b3 be 61 b3 d5 3e
       0.6105042 0.4757237 -0.35103166 0.41738418
0000f0 b8 c4 fe 3e be fe 15 3e 7c 5c 38 3e 26 04 e3 3e
       0.4975946 0.14647958 0.1800403 0.44339103
000100 2c 2b 0d 3e af 1c a8 3e 93 a4 95 3e d4 80 43 3e
       0.13786 0.32834384 0.29227123 0.19092113
000110 f0 a9 82 3e b3 d0 14 3e 2d 04 ab bf 9e fc 45 3f
       0.25520277 0.14532737 -1.3360649 0.7733859
000120 8d 68 2f bf 4a 66 4b bf 09 11 b0 3e e4 f6 5b 3f
       -0.68518907 -0.79452956 0.34387997 0.859236
000130 7f a9 60 bf d0 38 64 bf c2 76 26 be 94 55 ba 3d
       -0.8775863 -0.8914919 -0.1625624 0.09098354
000140 51 73 8a bf 2c 0c 11 bf 34 31 0c be 20 b2 a2 3d
       -1.0816442 -0.566592 -0.13690645 0.07944131
000150 87 69 64 3d d7 81 98 bf 2a a7 fc be 8f 71 ac 3e
       0.0557647 -1.1914624 -0.49346286 0.33680388
000160 9e 48 79 3f b2 91 8a 3e 48 1b a3 bf be e9 15 bf
       0.9737643 0.27064282 -1.27427 -0.5855979
000170 34 be 7e 3e 10 13 53 3f 79 b4 bc 3e 86 43 3a be
       0.24877244 0.8245096 0.3685644 -0.1818982
000180 3f ca 2a bf 36 5c 2a bf e6 d1 a8 bd 70 49 0a bf
       -0.66714853 -0.6654695 -0.0824316 -0.54018307
000190 91 a4 a5 bb 31 b9 d4 be 21 73 67 3e d0 47 9a 3d
       -0.0050550182 -0.4154754 0.22602512 0.075332284
0001a0 3f a1 1e bf 71 2d 3a 3e 0a a0 90 3e 3e f6 94 bf
       -0.6196479 0.18181397 0.282471 -1.1637647
0001b0 45 73 15 3f ef 81 41 be 40 89 0a bf be d2 16 bf
       0.5837901 -0.18897222 -0.54115677 -0.5891532
0001c0 68 58 56 bf 17 31 fa 3e f9 9d 0a bf 90 90 25 bf
       -0.8372865 0.48865578 -0.541473 -0.6467371
0001d0 ff a2 7b be 7b 26 9b 3e 86 3d 00 bf 3e 74 6e 3e
       -0.24573897 0.30302796 -0.5009388 0.2328653
0001e0 f0 f9 7b 3e 94 73 f5 be 7b ed 19 bf c6 a2 dd be
       0.24607062 -0.47939742 -0.6012799 -0.4328825
0001f0 41 1b d9 3e d7 0e 41 bf b5 71 56 bf 2c 69 4e 3e
       0.42403606 -0.7541327 -0.83767253 0.20157307
000200 4f eb 71 3f cd 80 a3 3e c0 be 5c 3b f4 fa 5f bf
       0.9449968 0.31934205 0.0033683032 -0.874923
000210 13 f4 39 bf 18 3f 6f bf ac dd 8b 3f 11 17 05 3f
       -0.7263805 -0.9345565 1.0927024 0.5198832
000220 6e 4f c8 be ee 06 d7 3e 35 5d 82 bd 68 82 e2 3e
       -0.391231 0.41997474 -0.06365434 0.44240117
000230 cf 80 76 be eb 89 85 3e 2c e6 20 bf ad dd 93 3e
       -0.24072574 0.26081786 -0.62851214 0.28880063
000240 70 aa 0d bf 74 01 cf be 3e 30 9c be 41 fe 89 3f
       -0.5533819 -0.40430796 -0.30505556 1.0780717
000250 ae 76 67 3f 14 94 1a 3f 14 cf aa 3f 4c 9a 6d be
       0.90415466 0.603822 1.3344445 -0.23203391
000260 29 7f 5c bf a5 96 31 bf ec 36 0b 3f 45 fd 50 3f
       -0.8613153 -0.6937049 0.5438068 0.8163646
000270 d3 0b 77 3f f1 2a 09 3e 03 1e 70 be bd 47 cc be
       0.9650242 0.13395287 -0.23448949 -0.39898482
000280 c3 8f 9c be 43 b5 82 be 79 1c 28 3f f4 0a 18 be
       -0.3057843 -0.25528917 0.65668446 -0.14847928
000290 eb 29 10 3f a7 50 4f 3f ac 9c 84 3f 42 cf 18 3f
       0.5631396 0.8098244 1.0360312 0.5969125
0002a0 f6 fe 6a bf bc 40 0d 3f 5c 82 6b bf 0f b1 41 3f
       -0.9179529 0.551769 -0.9199579 0.75660795
0002b0 50 03 4b bf c1 55 01 bc 45 9f c8 3e c4 5b 8f 3e
       -0.7930193 -0.0078939805 0.39184013 0.279997
0002c0 ba d6 8a bf d8 7f 51 bf 9b d1 0a 3f 4e ed 2f 3f
       -1.0846779 -0.818357 0.5422608 0.68721473
0002d0 8d ee fa be b1 c4 1b ba be 0d a6 3e 01 d2 09 be
       -0.49010125 -0.000594209 0.3243236 -0.13459016
0002e0 49 a0 07 bf 52 1f 6c bc 31 67 65 be 50 0a 70 3e
       -0.5297895 -0.014411764 -0.22402646 0.23441434
0002f0 4b 8e d8 be d9 62 64 3e e5 86 48 bf 96 b8 a6 be
       -0.4229606 0.22303332 -0.7833083 -0.32562703
000300 52 ed 4d bf ac e7 83 bf d7 51 e5 bd 31 df 80 3e
       -0.8044025 -1.0305076 -0.1119725 0.25170282
000310 ea e7 8e bf 44 8a 3e 3e 4e b4 a0 3f c5 e0 8f be
       -1.1164525 0.18607432 1.2555025 -0.28101173
000320 73 de 0a 3f ab b7 bb be 93 39 bc be 96 3a bf be
       0.5424568 -0.36663565 -0.36762676 -0.37349385
000330 fc 67 5a 3f 73 cd 87 3f c3 36 31 3f e1 a4 54 be
       0.8531492 1.0609573 0.69224185 -0.20766021
000340 0f 20 91 3f 70 a3 0c 3f 03 cf d8 be b8 74 01 bf
       1.1337909 0.54936886 -0.42345437 -0.50568724
000350 a7 85 24 be 0e e2 8d 3f 1e cf a1 3e 54 88 47 bf
       -0.1606661 1.1084611 0.3160333 -0.77942395
000360 54 d0 43 bf dd e7 70 be 9b d3 8e 3f 4c f4 ec be
       -0.7648976 -0.23525949 1.1158327 -0.46280134
000370 83 c7 21 3d b4 a1 bf bf 43 00 37 bf 9b 3e 1e be
       0.03949691 -1.4971223 -0.71484774 -0.1545357
000380 5b c1 09 3f 32 8f 56 3f fa 52 70 be 10 1c 4b 3f
       0.5381066 0.8381225 -0.23469153 0.79339695
000390 e2 e6 63 3f 07 60 8a be d8 be 36 be a3 09 a0 bf
       0.89024174 -0.27026388 -0.17846239 -1.2502941
0003a0 45 39 a4 3e ba 0a e2 3d 50 11 3d bf dd 88 99 3f
       0.32074943 0.11037202 -0.7385454 1.1994892
0003b0 f4 69 a7 3d 0d ce a1 be e7 58 60 be 8e 7a 01 3e
       0.08174506 -0.31602517 -0.21908914 0.12644407
0003c0 ed d6 8b 3e 30 ce e4 bd 11 dd fd 3d 70 aa 35 3f
       0.27312413 -0.1117214 0.12395681 0.7096319
0003d0 d1 65 4f 3f 5c 48 5c 3e 10 fa 80 3e 44 d4 74 be
       0.81014735 0.21511978 0.25190783 -0.23909098
0003e0 ee 56 14 3c 39 03 49 3f 88 85 29 3f d0 1c ed 3d
       0.009053929 0.7852054 0.6621938 0.11577761
0003f0 9c a2 d7 be 7f cd 9f 3f fc ba 70 3e a2 e7 2c bf
       -0.4211625 1.2484587 0.23508829 -0.67540944

action_model._discrete_distribution.branches.0.bias f4 [3]
000000 b4 7e f7 3d 3a ab 31 be ba 46 61 3d
       0.120847136 -0.17350474 0.05499909

exp_avg f4 [128, 61]
000000 7c 44 46 3a 74 cb 91 b6 86 65 49 2a 67 00 00 80
       0.00075633056 -4.345022e-06 1.7887609e-13 -1.44e-43
000010 33 8a d3 b8 c0 0e 46 3a a6 dc 6d b6 ee a6 13 05
       -0.00010087006 0.00075552985 -3.5444186e-06 6.942567e-36
000020 ee 2b 47 24 d1 70 e0 b4 6a 07 48 3a 75 a1 39 b7
       4.3188456e-17 -4.1805336e-07 0.00076304993 -1.1064451e-05
000030 86 65 49 2a 04 00 00 00 83 67 34 b8 d7 fc 44 3a
       1.7887609e-13 6e-45 -4.3011747e-05 0.0007514483
000040 c3 18 08 35 ee a6 13 05 e7 9c 43 95 eb 6c 3c 39
       5.069998e-07 6.942567e-36 -3.950371e-26 0.00017969652
000050 08 5c 8e 3a 51 2e af b9 0c 00 00 80 61 7d 40 90
       0.0010861168 -0.0003341311 -1.7e-44 -3.7961912e-29
000060 3b f0 4b 39 71 67 54 3a eb f1 77 b8 ee a6 13 05
       0.00019449081 0.0008102572 -5.9114693e-05 6.942567e-36
000070 1e 06 00 80 c0 cb da 39 8a 65 12 3a 75 81 e7 36
       -2.194e-42 0.00041732006 0.00055845885 6.8994073e-06
000080 f9 d9 73 90 e3 c8 27 80 37 2c 0d 38 78 22 d7 ba
       -4.809122e-29 -3.653649e-39 3.3658198e-05 -0.0016413471
000090 98 fc 77 b8 04 00 00 00 0c d9 dd 96 bc 4d 1e ba
       -5.9124635e-05 6e-45 -3.5841451e-25 -0.0006038805
0000a0 d5 75 12 3a 38 f2 e4 36 51 05 74 90 e8 7c 66 04
       0.00055870163 6.8231275e-06 -4.812461e-29 2.7093724e-36
0000b0 f5 a5 9d 39 95 38 dd ba 74 e2 54 b7 04 00 00 80
       0.0003006902 -0.0016877825 -1.268891e-05 -6e-45
0000c0 04 00 00 00 d6 57 0c ba 25 fd 14 3a ff 6f 3d b6
       6e-45 -0.0005353665 0.00056834734 -2.8228385e-06
0000d0 f9 d9 73 90 88 25 66 09 93 d7 a9 38 63 61 5c 3a
       -4.809122e-29 2.770289e-33 8.098702e-05 0.0008406846
0000e0 e6 20 c5 39 97 a7 a9 bb 2f a6 1b b9 e6 20 c5 39
       0.0003759928 -0.005177449 -0.0001484386 0.0003759928
0000f0 34 be 68 3b 36 c2 af b8 87 19 f1 36 41 db 7a a9
       0.003551376 -8.380825e-05 7.1853315e-06 -5.5701324e-14
000100 b0 11 0c 80 24 ce b7 b9 b0 d9 a5 b8 44 23 25 36
       -1.108371e-39 -0.00035058067 -7.9083606e-05 2.4607443e-06
000110 b5 84 32 02 82 5f b3 25 8a a4 35 b9 81 80 9c b8
       1.311546e-37 3.111627e-16 -0.000173228 -7.4625954e-05
000120 5d 03 06 b6 41 db 7a a9 ac 11 0c 80 b0 1f f8 b9
       -1.9969514e-06 -5.5701324e-14 -1.108365e-39 -0.00047325855
000130 aa 99 94 b8 55 ca c0 b6 b5 84 32 02 a9 c3 98 97
       -7.085812e-05 -5.7456004e-06 1.311546e-37 -9.872161e-25
000140 c5 80 7e b9 f7 df 4d 3a 0d f6 61 ba cb 02 00 80
       -0.00024271298 0.0007853503 -0.0008619733 -1.002e-42
000150 db e5 2f 91 ad 80 74 b8 3e 56 95 b8 18 37 30 b5
       -1.3875896e-28 -5.8293972e-05 -7.1209375e-05 -6.564528e-07
000160 b5 84 32 02 62 84 03 00 94 a3 bf b9 9a 69 25 b9
       1.311546e-37 3.22996e-40 -0.00036552234 -0.00015774966
000170 a5 79 57 b6 1c 54 ef 11 21 a1 27 80 4c 85 ab b9
       -3.2108303e-06 3.7759388e-28 -3.639387e-39 -0.00032714976
000180 16 50 24 ba 85 52 30 b5 31 00 00 80 05 91 17 9b
       -0.0006268037 -6.568519e-07 -6.9e-44 -1.2537286e-22
000190 8d e2 1d ba 1c 03 25 b9 0b c6 52 b6 ef c3 ef 11
       -0.00060228334 -0.00015736785 -3.1407715e-06 3.7828305e-28
0001a0 e2 57 05 05 25 2b d2 b7 61 d2 26 ba 36 81 15 37
       6.2697715e-36 -2.5054042e-05 -0.00063637464 8.911176e-06
0001b0 15 00 00 80 04 00 00 80 3b e9 0e ba 3f f3 26 b9
       -3e-44 -6e-45 -0.0005451624 -0.0001592161
0001c0 3c 7a ad b5 1c 54 ef 11 36 7f 07 0a 09 6a a6 39
       -1.2925079e-06 3.7759388e-28 6.523939e-33 0.0003174099
0001d0 83 6b 81 bb 9b b0 20 b8 27 2f 44 3c 2c 7a 7f 37
       -0.003949584 -3.831145e-05 0.011974133 1.522763e-05
0001e0 9b b0 20 b8 61 bb bd b9 13 9f fe ba a8 34 7c b7
       -3.831145e-05 -0.00036188497 -0.001942607 -1.50326305e-05
0001f0 08 b7 2b 2a e1 5c 25 80 58 92 07 ba b1 a5 ff ba
       1.5251353e-13 -3.431232e-39 -0.0005171648 -0.0019504336
000200 49 ca f1 b6 ab 44 b9 04 8b 3c e0 22 38 64 2f ba
       -7.205909e-06 4.3556353e-36 6.0779424e-18 -0.0006690654
000210 d9 20 01 bb 5f 1a 55 37 08 b7 2b 2a 99 5c 25 80
       -0.0019703417 1.2701929e-05 1.5251353e-13 -3.431131e-39
000220 4d 7f 23 ba f1 ed 00 bb 12 80 21 37 ab 44 b9 04
       -0.0006236926 -0.0019673074 9.6261665e-06 4.3556353e-36
000230 01 13 5f 13 28 e8 48 ba 4e 64 e0 ba c1 cc 80 b9
       2.8155927e-27 -0.00076639885 -0.0017119737 -0.00024566616
000240 83 00 00 80 2b 49 c5 13 52 12 1e ba d0 fb fd ba
       -1.84e-43 4.980194e-27 -0.00060299516 -0.0019377414
000250 8c 0e e9 b7 ab 44 b9 04 b3 1a 00 80 80 6b 69 ba
       -2.7782538e-05 4.3556353e-36 -9.578e-42 -0.00089042634
000260 db b5 13 bb d1 b8 8c b6 9d 6e 12 8e 29 e3 24 80
       -0.0022538814 -4.1938406e-06 -1.8049148e-30 -3.387568e-39
000270 32 a2 8d ba af c5 09 ba 98 2a e9 b7 6d 46 00 00
       -0.0010805784 -0.00052555924 -2.7795599e-05 2.5264e-41
000280 ef ba 35 18 40 6d 7d b9 ad b5 13 bb 39 74 8e b6
       2.348808e-24 -0.00024168659 -0.0022538707 -4.24546e-06
000290 20 45 13 8e af 26 e3 86 69 e8 b0 ba 4e 06 0f ba
       -1.8152431e-30 -8.544475e-35 -0.0013496998 -0.00054559566
0002a0 e2 2c 02 b7 b1 49 00 00 04 00 00 00 5f fa 0f b9
       -7.759054e-06 2.6435e-41 6e-45 -0.00013730813
0002b0 96 2c 14 bb e9 c4 3e 36 9d 6e 12 8e ef 19 a6 8b
       -0.0022609583 2.8426823e-06 -1.8049148e-30 -6.3979895e-32
0002c0 6e 3a b5 ba 61 30 96 3b bf 4b 80 ba d3 84 c8 3a
       -0.0013826618 0.004583404 -0.0009788199 0.0015298374
0002d0 07 91 ca 39 bf 4b 80 ba dc 80 17 bc 97 e7 15 ba
       0.00038636496 -0.0009788199 -0.009247031 -0.00057184085
0002e0 e8 23 b4 b6 e7 5c 0d 29 db 65 00 80 7b ac 09 39
       -5.368598e-06 3.138887e-14 -3.6539e-41 0.00013129592
0002f0 3f 7a 15 ba 6c cd ea b6 d3 b9 0e 00 76 34 96 a5
       -0.0005702115 -6.9976577e-06 1.352358e-39 -2.60564e-16
000300 6d b9 09 b9 01 2d 12 ba fb 5a a4 b7 e7 5c 0d 29
       -0.00013134415 -0.0005576164 -1.959269e-05 3.138887e-14
000310 de 65 00 80 f4 63 90 38 02 c1 16 ba 0c 90 0e b6
       -3.6543e-41 6.885073e-05 -0.00057508063 -2.1243495e-06
000320 d3 b9 0e 00 43 73 16 17 57 5b 00 ba ee 55 e0 b9
       1.352358e-39 4.8613095e-25 -0.0004896423 -0.00042788632
000330 a6 93 1c b9 6b 02 00 80 1a ea 56 13 a7 a1 35 39
       -0.00014932323 -8.67e-43 2.7126018e-27 0.00017321725
000340 33 43 18 ba 99 a9 ad 36 d3 b9 0e 00 04 00 00 00
       -0.00058083533 5.1755455e-06 1.352358e-39 6e-45
000350 f0 35 70 ba 0b 65 dd b9 35 43 bb b7 e7 60 2b 11
       -0.0009163311 -0.00042227688 -2.2323433e-05 1.3519382e-28
000360 0c 36 ca 80 ca 75 89 38 7c 8c 77 3b 19 b4 ad 36
       -1.8570159e-38 6.554609e-05 0.0037772944 5.176768e-06
000370 04 00 00 00 6d dc 12 9a 21 72 85 3a fc 62 dd b9
       6e-45 -3.037015e-23 0.0010181108 -0.00042226154
000380 a9 40 b9 b7 e0 51 2b 11 26 20 8f 86 f6 28 f2 b9
       -2.2083828e-05 1.3514751e-28 -5.383786e-35 -0.00046188355
000390 03 77 78 3b 0b 98 13 b7 04 00 00 80 04 00 00 80
       0.0037912733 -8.797283e-06 -6e-45 -6e-45
0003a0 74 cc 90 3a b8 e2 ea b9 a2 d8 75 36 e7 60 2b 11
       0.001104726 -0.00044800877 3.6633942e-06 1.3519382e-28
0003b0 0a f7 55 8b 28 6d c6 b8 47 7b 55 3c da 4f 97 b9
       -4.120816e-32 -9.461708e-05 0.01302988 -0.00028860458
0003c0 8a de 45 3c 36 dc ed 38 da 4f 97 b9 0a 8c 32 bb
       0.012076983 0.00011342058 -0.00028860458 -0.0027244114
0003d0 8d 52 27 39 ae 94 0c b7 87 b6 08 2a 42 f6 53 80
       0.00015957114 -8.3792675e-06 1.2142553e-13 -7.710687e-39
0003e0 d3 74 bd b9 d5 c8 15 39 1f 07 0c 37 11 59 04 05
       -0.0003613593 0.00014284563 8.346308e-06 6.222969e-36
0003f0 04 0e 1f a3 a0 7f 9a b9 9c a5 58 39 67 71 68 b8
       -8.622375e-18 -0.00029468257 0.0002066106 -5.5418725e-05

exp_avg_sq f4 [128, 61]
000000 ee f7 06 3b 4b 41 be 38 98 ce 10 2f cb 8c da 30
       0.0020594555 9.072068e-05 1.317012e-10 1.5901603e-09
000010 7b 74 29 3a 14 3c 08 3b 98 b2 94 38 7e 2f 55 31
       0.00064641953 0.0020787762 7.0904556e-05 3.1022576e-09
000020 06 31 2f 32 1a e5 18 3a 17 07 07 3b 6c 3e ba 38
       1.0197487e-08 0.00058324786 0.002060359 8.880798e-05
000030 18 f6 10 2f e3 0c 16 32 3f 0a 57 3a 1b 70 0a 3b
       1.3184154e-10 8.734079e-09 0.0008203126 0.002112395
000040 29 f3 4c 38 ac d7 e3 30 43 b3 6f 2f 10 1b 1d 3a
       4.886385e-05 1.6577721e-09 2.180061e-10 0.00059931073
000050 61 d7 06 3b 01 80 d7 38 da e1 fb 2e 77 41 c0 30
       0.0020575153 0.000102758415 1.1454278e-10 1.3988445e-09
000060 fc 73 06 3a f2 b8 09 3b 3e 18 8a 38 2c 26 e5 30
       0.00051289774 0.0021014777 6.584868e-05 1.6672792e-09
000070 70 20 39 29 2e a3 30 3a 65 68 07 3b 0d e6 97 38
       4.1106387e-14 0.0006738183 0.002066159 7.2430914e-05
000080 01 34 03 2f 61 ed 5f 2e 0d c1 c8 39 ab 37 0b 3b
       1.1932856e-10 5.0915164e-11 0.00038290807 0.0021242897
000090 aa 74 29 38 18 d5 1b 33 0c da 69 28 d3 dc 5f 3a
       4.040139e-05 3.6282557e-08 1.298138e-14 0.000853968
0000a0 45 93 08 3b 37 b2 68 38 d7 20 04 2f 61 ed 5f 2e
       0.0020839733 5.5479086e-05 1.2016997e-10 5.0915164e-11
0000b0 11 8a ad 39 bb 70 0a 3b d9 b1 48 38 21 86 20 36
       0.000331 0.0021124322 4.784935e-05 2.3919931e-06
0000c0 f2 61 85 2e 70 b0 64 3a 3c 57 09 3b fd 96 26 38
       6.0655383e-11 0.0008723801 0.0020956537 3.9718103e-05
0000d0 d5 d0 52 32 5b ed 5f 2e 26 d3 a9 39 e1 5d f1 3c
       1.2271092e-08 5.0915144e-11 0.0003239151 0.02946371
0000e0 b6 90 0d 3a 9d 5d 55 3c e3 8d b9 3d b6 90 0d 3a
       0.0005400287 0.013022807 0.09060266 0.0005400287
0000f0 26 d6 7e 3d 85 75 05 3e e1 c6 18 39 a7 18 a0 2d
       0.062215947 0.13033111 0.00014569938 1.8200842e-11
000100 b0 2a c0 32 ef c2 39 3d 22 78 05 3e 16 2a 0f 39
       2.2371154e-08 0.04535192 0.13034108 0.00013653221
000110 f8 db 51 2e a8 73 99 34 69 1e 26 3d 17 7d 05 3e
       4.771647e-11 2.8582622e-07 0.040556345 0.13035999
000120 26 71 fb 38 88 6d d7 2d e1 d1 df 31 83 b9 6e 3d
       0.00011989688 2.4491312e-11 6.5140147e-09 0.058282387
000130 75 81 05 3e 63 42 d4 38 b5 8c b4 2d 6e bb fc 31
       0.13037665 0.00010121313 2.0526117e-11 7.3554736e-09
000140 4e a1 27 3d 83 77 05 3e ab 34 16 39 df 67 a0 2d
       0.040925317 0.13033871 0.00014324735 1.8236022e-11
000150 b1 49 ba 32 81 3a 0b 3d 6c 83 05 3e c5 e7 b6 38
       2.168676e-08 0.03399134 0.13038415 8.721607e-05
000160 2e 0f e1 2d 25 b0 52 28 37 1f 3f 3d 9c 7b 05 3e
       2.558628e-11 1.1695537e-14 0.04666063 0.13035434
000170 7c 04 02 39 d9 87 7b 35 f6 a4 c9 31 a8 b4 c5 3c
       0.00012399437 9.370247e-07 5.868624e-09 0.024133995
000180 22 87 05 3e 35 11 a0 38 cd 08 0d 33 1d e0 45 28
       0.1303983 7.6325996e-05 3.2837125e-08 1.0984294e-14
000190 4b bb 7a 3d 13 92 05 3e c0 c1 0d 38 12 62 80 35
       0.061213773 0.13044004 3.3797463e-05 9.565285e-07
0001a0 d1 a4 c9 31 34 f1 a3 3c 1a 79 05 3e de 8f 08 39
       5.8686074e-09 0.020012476 0.13034478 0.00013023565
0001b0 ca 1e 54 35 c0 88 3c 2c 83 5b 7f 3d 5e 97 05 3e
       7.902096e-07 2.6792318e-12 0.06234313 0.13046023
0001c0 5e 9a 9b 37 1c 78 81 35 c7 a4 c9 31 82 70 9a 3c
       1.8549323e-05 9.646205e-07 5.868603e-09 0.018852476
0001d0 cf 60 3d 3f c3 9d 05 3d 18 75 d4 3e 90 6a bb 40
       0.73975843 0.032621156 0.41495585 5.856758
0001e0 c3 9d 05 3d c6 8d 84 40 01 a2 58 3e 01 cb f6 38
       0.032621156 4.1423063 0.2115555 0.000117680065
0001f0 63 73 49 31 d8 aa 73 33 8a 9f 96 3d af a1 58 3e
       2.931494e-09 5.6733228e-08 0.073546484 0.21155427
000200 2a f0 fe 38 0f 2d 7f 31 b7 8f 90 34 92 a4 86 3d
       0.00012156398 3.7132997e-09 2.6926656e-07 0.06574358
000210 21 ac 58 3e 17 e2 af 38 11 77 49 31 1a 49 74 33
       0.21159412 8.386763e-05 2.931703e-09 5.6877163e-08
000220 f5 aa c1 3d 9c ab 58 3e a5 bb ad 38 26 b6 5f 31
       0.094564356 0.21159214 8.284234e-05 3.255431e-09
000230 ad b9 71 33 eb d7 87 3d ec b6 58 3e e2 3d ce 37
       5.6281056e-08 0.0663298 0.21163529 2.458593e-05
000240 70 69 41 31 b7 ac a9 37 57 d0 61 3d d4 a2 58 3e
       2.814513e-09 2.0226797e-05 0.05513033 0.21155864
000250 bf d8 e0 38 c8 08 9a 31 6a e3 27 2b 4a e2 9a 3d
       0.000107215244 4.482988e-09 5.964592e-13 0.075626925
000260 90 b9 58 3e 15 a4 77 37 2e 56 7e 31 1c 29 71 33
       0.21164536 1.4760551e-05 3.7010852e-09 5.6149574e-08
000270 e0 30 20 3d fd a6 58 3e 6a 49 b7 38 72 38 a6 31
       0.03910911 0.21157451 8.7397944e-05 4.837653e-09
000280 5b be 9f 28 73 5c cb 3d c7 b9 58 3e 71 da a6 36
       1.77351e-14 0.09929743 0.21164618 4.9726154e-06
000290 db e3 8e 31 1a 29 71 33 98 a3 04 3d b5 ab 58 3e
       4.158648e-09 5.6149567e-08 0.032382578 0.21159251
0002a0 31 96 89 38 fb 70 1e 36 15 af f0 2b db 29 cf 3d
       6.5606444e-05 2.3609598e-06 1.7101621e-12 0.10115405
0002b0 28 b9 58 3e b5 38 a7 36 d6 c3 79 35 18 29 71 33
       0.21164382 4.9835894e-06 9.304471e-07 5.614956e-08
0002c0 7b b1 f9 3c c1 bd 9d 3f d6 bd 58 3d a9 a5 2d 3f
       0.030480137 1.2323533 0.052915417 0.678309
0002d0 d3 66 18 41 d6 bd 58 3d 55 3f d7 40 57 8c 8d 3d
       9.525104 0.052915417 6.726481 0.06911533
0002e0 ca 03 12 38 99 17 11 2a fa 2c 85 2e a8 ca c4 3c
       3.481264e-05 1.2886774e-13 6.056129e-11 0.024022415
0002f0 de 6b 8d 3d 9e 9b be 38 57 89 e1 2a 92 d5 b6 34
       0.0690534 9.088892e-05 4.0063328e-13 3.4055535e-07
000300 29 cd af 3c af 82 8d 3d 68 4b 37 38 b2 2b c5 2d
       0.021460133 0.069096915 4.3700828e-05 2.2415712e-11
000310 b5 45 9a 30 a7 c6 fc 3c 99 67 8d 3d 94 82 e2 38
       1.1224787e-09 0.030856444 0.06904525 0.00010800842
000320 5f 2b e1 2a 0b 13 fd 2c e7 51 b1 3c 2d 7c 8d 3d
       3.9998124e-13 7.1928067e-12 0.0216455 0.0690845
000330 65 34 4f 38 6a 21 cb 2d 18 d8 c8 36 1a 95 93 3c
       4.9401442e-05 2.3093267e-11 5.985621e-06 0.018015433
000340 fd 6f 8d 3d 0c 4b bd 38 67 c1 fd 2a b5 5b 38 28
       0.06906126 9.026201e-05 4.5076028e-13 1.0233938e-14
000350 7a 33 ca 3c 41 80 8d 3d 1c b4 00 38 09 1d f8 35
       0.024682749 0.06909228 3.0685318e-05 1.848589e-06
000360 9c d5 2c 2f c8 bd 51 3c fd 5f 8d 3d 09 ce ea 38
       1.5719198e-10 0.012801595 0.06903074 0.000111963665
000370 be 12 30 2f 0f f6 47 25 c0 a3 04 3d 2c 80 8d 3d
       1.6013765e-10 1.7343866e-16 0.032382727 0.069092125
000380 bb ac b9 37 2f 7e fe 35 24 d5 2c 2f 37 d2 2d 3c
       2.2134152e-05 1.8961199e-06 1.5719032e-10 0.010609201
000390 c7 6a 8d 3d 28 17 c3 38 1b 89 41 33 e8 bc d1 2d
       0.06905132 9.302638e-05 4.506101e-08 2.384444e-11
0003a0 98 26 07 3d 98 80 8d 3d 18 e2 86 37 2b a2 03 36
       0.03299579 0.06909293 1.6079328e-05 1.9614915e-06
0003b0 12 d5 2c 2f f4 bb 23 3c c4 98 d5 3e c9 9c 8d 3c
       1.5719007e-10 0.009993542 0.41718113 0.017286675
0003c0 93 95 63 3e e3 48 48 40 c9 9c 8d 3c c1 66 0c 40
       0.22225027 3.1294487 0.017286675 2.1937716
0003d0 9a fe 0c 3d 72 29 54 38 c5 77 e5 30 85 c7 98 34
       0.034422494 5.0583338e-05 1.6695983e-09 2.8457376e-07
0003e0 3e d6 3e 3c df c4 0c 3d 14 d2 c0 38 7a e4 66 31
       0.011647759 0.03436744 9.1944035e-05 3.359928e-09
0003f0 3e 91 ad 35 16 fd 2a 3c 22 e6 0c 3d f0 ab 86 38
       1.2931775e-06 0.010436317 0.03439916 6.421644e-05

exp_avg f4 [128]
000000 42 01 45 3a 0b 99 9f b8 06 45 00 bb a4 37 17 ba
       0.0007515141 -7.610217e-05 -0.0019572391 -0.0005768484
000010 3f 28 1f 39 af 65 8f bb 92 0b b5 b9 03 c1 dc 38
       0.00015178414 -0.0043761353 -0.0003453163 0.00010526369
000020 3b 22 73 3a d9 fc fa 3b 7c 5d fc ba 64 ed 70 ba
       0.0009274815 0.0076595363 -0.0019253935 -0.00091906474
000030 2e b3 16 bb fd 85 68 ba 38 e9 10 bb 51 44 0a b9
       -0.0022994983 -0.00088700635 -0.0022111665 -0.00013186155
000040 5c ea 60 3b f7 0c 0d 3a f3 e9 24 3b 3c 80 06 3b
       0.0034319377 0.0005380655 0.0025163859 0.002052321
000050 b0 b0 00 3b c8 22 7b bb 36 a1 5b ba e9 cd f9 b9
       0.0019636564 -0.0038320292 -0.00083782093 -0.00047646396
000060 54 fb 9a 3b 2c b4 d4 3a 83 0a 96 b8 31 e7 87 3a
       0.0047296677 0.0016228012 -7.154515e-05 0.0010368583
000070 80 55 6a bb a0 df 00 3a 22 dc c7 38 4a 78 a6 39
       -0.0035756528 0.0004916135 9.5300624e-05 0.0003175161
000080 52 b3 03 3a 6c 74 dc ba f9 32 14 ba 43 67 0c 38
       0.0005023974 -0.0016819364 -0.00056533475 3.347477e-05
000090 c1 93 b2 bb ed 6a 70 3b ba 8e c3 3b 4b 04 b1 39
       -0.0054497425 0.0036684826 0.005967942 0.0003376327
0000a0 7a 4d 11 ba a9 2c c0 39 99 af 9a ba 1a 09 67 3a
       -0.0005542856 0.00036654368 -0.00118016 0.0008813307
0000b0 dc 52 00 b9 b7 53 d1 38 8c a5 39 b9 2b 5e b1 bb
       -0.00012237899 9.98149e-05 -0.00017704646 -0.005412837
0000c0 64 cf df 39 8b d8 e2 b9 09 7a 02 3b 2d 21 2d bb
       0.00042688393 -0.00043267416 0.0019909164 -0.002641748
0000d0 15 14 77 ba 8a 19 95 b9 00 a2 0e bb 82 28 99 b9
       -0.00094252947 -0.00028438523 -0.002176404 -0.00029212615
0000e0 1d de 0f ba b8 8d 6f 3b b1 62 be b9 c4 6a 39 3a
       -0.00054881145 0.0036552977 -0.00036313155 0.0007073099
0000f0 ee d2 18 3b a8 14 19 3b 61 52 fb 38 75 9d 56 3b
       0.0023319083 0.002335826 0.00011983957 0.003274766
000100 e1 00 96 ba 1d c2 96 3a 7d 12 b7 38 6c d8 7c 3a
       -0.0011444354 0.0011501942 8.729564e-05 0.00096452865
000110 62 d1 33 b9 4a 67 9f ba 87 34 95 ba 65 ef ed 3a
       -0.00017148771 -0.001216152 -0.0011383452 0.001815301
000120 26 f2 c6 ba d4 89 66 b8 c4 5e 20 37 4b dc 09 3a
       -0.0015178367 -5.4964636e-05 9.5588075e-06 0.00052589615
000130 0d 74 ee b9 23 19 4d 3a 37 a3 74 bb f8 b9 19 3b
       -0.00045481362 0.0007823875 -0.003732873 0.0023456793
000140 c9 f5 68 bb e3 da 63 3b 00 55 ac 3a 23 04 ae 3a
       -0.003554689 0.0034767918 0.001314789 0.0013276379
000150 25 c4 96 3b 84 76 a9 ba 84 a6 1b 3a f3 83 a2 ba
       0.004601019 -0.0012928997 0.00059375935 -0.0012398943
000160 34 ad 84 3b ef 3a 8e 3a a2 60 f1 39 83 8a eb 37
       0.0040489677 0.0010851304 0.000460391 2.8078683e-05
000170 7c 77 2b b9 cc 95 51 3a 9b 59 dc 3a 35 7e 7f 3a
       -0.00016352342 0.0007995039 0.0016811372 0.00097462843
000180 bc 5f c8 bb e9 31 7d 3b 20 ca 69 ba c4 49 26 bc
       -0.006114928 0.0038634485 -0.00089183636 -0.010149423
000190 62 45 c3 38 84 c7 d0 37 f9 86 8e ba 48 ac 12 3a
       9.311248e-05 2.4888439e-05 -0.0010873965 0.000559513
0001a0 dc 2a 95 ba 9a 3d 62 3b 4d 74 d5 3a b1 44 e3 3a
       -0.0011380571 0.003452158 0.0016285271 0.0017339197
0001b0 ad 89 81 38 a4 6b 7e 39 2e 8b 87 bb eb f4 1b 3b
       6.1768435e-05 0.00024263427 -0.0041364646 0.0023797106
0001c0 69 15 b9 39 95 21 b5 3a d8 f2 06 b9 24 03 46 bb
       0.00035301902 0.0013819212 -0.00012869702 -0.0030214274
0001d0 43 95 af 3a 0c 16 94 ba 46 5f 03 38 4b e9 ad ba
       0.0013395924 -0.0011298074 3.1321564e-05 -0.0013268379
0001e0 e7 80 02 3a fd 21 b5 bb ed a3 23 ba 36 a4 63 b9
       0.00049783144 -0.0055277334 -0.00062423834 -0.0002170958
0001f0 70 4a fe 39 0b 65 90 39 f4 1a c7 b9 3f cc 1f 39
       0.00048502116 0.00027541103 -0.0003797632 0.00015239509

exp_avg_sq f4 [128]
000000 5e 83 0d 3b 63 90 05 3e 8e b0 58 3e 28 7c 8d 3d
       0.0021593194 0.1304336 0.211611 0.069084466
000010 03 4a 0d 3d 3f fd 21 3c 71 50 34 3b 2b 00 93 3a
       0.03449441 0.009887039 0.0027513767 0.001121526
000020 58 c7 fd 3a f3 2d 9c 3e 85 dc 6a 3c 42 c9 8d 3d
       0.0019361777 0.30503806 0.0143348025 0.069231525
000030 17 cb a8 3c 4f bb 06 3d 90 4a d1 3a e1 5b 9c 3b
       0.020604653 0.032893475 0.0015967656 0.004771695
000040 34 39 71 3d ea 0a e4 3c ea c6 ab 3c 85 f7 16 3b
       0.058892444 0.027837235 0.020968873 0.0023035717
000050 e9 40 fc 3a 50 b9 ba 3a ec 9c 0b 3d 2b 95 3a 3a
       0.0019245419 0.0014245901 0.0340852 0.00071175647
000060 ef b4 a6 3c 37 1b 88 3b 6b 62 55 3a a8 be 70 3a
       0.020349948 0.004153635 0.00081399706 0.00091836834
000070 3c 2d e1 3b d5 38 0d 3b 18 de f3 3b bf d6 cc 3d
       0.0068718474 0.0021548767 0.007442247 0.10001897
000080 34 3c aa 3a 4e 9b aa 3c a6 58 ad 39 4d 68 41 3b
       0.0012987913 0.020826008 0.0003306318 0.002951163
000090 a7 fc 72 3d ee 61 6c 3b 8c 9c 18 3d 56 c1 91 3d
       0.05932298 0.0036069113 0.03725867 0.07116954
0000a0 7a 2f bb 3a f2 ec e3 39 bb 03 fc 3a 98 0f 14 3d
       0.0014281117 0.00043473352 0.0019227186 0.036147684
0000b0 00 52 a7 3a 4b 72 20 3e 9c 58 fc 3c 18 c3 53 3b
       0.0012765527 0.156686 0.030803971 0.003231233
0000c0 22 62 0e 3a ab 5e 7f 3a a3 51 ed 3b fe a8 b4 3a
       0.0005431493 0.00097415847 0.007242398 0.0013783274
0000d0 f4 49 8d 3e c0 80 87 3b f5 bf ce 3b 50 f8 c3 3a
       0.27595484 0.0041352212 0.006309504 0.0014951322
0000e0 68 6d d7 3a 00 29 6d 3b d1 9e 5c 3a fb 3d d0 3b
       0.0016435804 0.0036187768 0.00084159995 0.006355045
0000f0 ff 2f 21 3a 38 6a 99 3b 9d c6 c5 3a c0 4c ae 3c
       0.00061488146 0.0046818517 0.0015089099 0.021276832
000100 fa fe 2a 3b 29 3d 64 3c 06 39 28 3a 72 fb 82 3a
       0.002609192 0.013930597 0.00064171886 0.000999315
000110 f6 23 85 3a df 67 65 3a 09 13 c7 3a 2b 94 fc 3a
       0.0010157812 0.0008751135 0.0015188168 0.0019270232
000120 63 a5 29 3a 16 2f 36 3a 57 cf 10 3b ff 6a 2a 3e
       0.0006471483 0.00069497654 0.002209624 0.16642378
000130 54 7d 9b 3a 25 d0 b0 3a 1d dd 26 3e 21 a5 97 3a
       0.0011862912 0.0013489766 0.16295286 0.0011569598
000140 11 e5 fe 3b 21 71 22 3d 8c 39 29 3b d4 43 60 3b
       0.0077787717 0.03965867 0.0025821654 0.0034220116
000150 9f 38 45 3c a6 d3 e1 3a 1f 03 82 3c 74 cd 65 3c
       0.012037425 0.0017229214 0.015870629 0.014026035
000160 23 35 b1 3c d8 2e 15 3a c5 b9 dd 3a b2 07 a7 3a
       0.021631783 0.0005690879 0.0016916326 0.0012743382
000170 8f db 7b 3a 7e 80 c9 3d 2a d2 09 3c 18 b3 9a 3d
       0.0009607607 0.09838961 0.008411923 0.07553691
000180 fe ed 0f 3b 70 71 c6 3c 18 33 c6 3a 9d 71 a2 3b
       0.0021961923 0.024224013 0.0015121428 0.0049573914
000190 4c d9 84 3a 08 81 b6 3a db 85 0d 3c d0 6f 65 3b
       0.001013556 0.0013923952 0.008637871 0.0035009272
0001a0 0b 87 32 3b d1 9c f0 3c ef 50 8b 3b ec b8 a0 3a
       0.0027241136 0.02937165 0.0042515914 0.0012262142
0001b0 83 1e 8d 3c 66 ab 9b 3a af a0 fa 3a 8a 30 cf 3c
       0.017226463 0.0011876642 0.0019121374 0.0252917
0001c0 ec 4c e2 3a 45 31 c8 3a 39 d2 9b 3a df 71 f2 3c
       0.0017265356 0.0015273473 0.0011888213 0.029595314
0001d0 16 02 4d 3a b6 c5 c1 3a 72 ba 48 3d d0 97 3c 3a
       0.000782044 0.0014783654 0.049005933 0.00071942527
0001e0 0a 77 19 3b db a6 f3 3d f4 48 7b 3d 42 f7 89 3d
       0.00234169 0.118970595 0.06134887 0.06736614
0001f0 29 ac 2d 3a 3f ba 12 3b 32 a0 6b 3d a4 6a f2 3a
       0.000662508 0.0022388843 0.05752582 0.0018494916
