results/SnakeImitation3/SnakeAgent/SnakeAgent-40930.onnx (onnx, 101509 bytes, 6 tensors)

action_model._discrete_distribution.branches.0.bias f4 [3]
0.10554884 -0.14709124 0.035151053
00000000: fd29 d83d 169f 16be 8dfa 0f3d

action_model._discrete_distribution.branches.0.weight f4 [3, 128]
-0.031928767 -0.46884504 0.2742384 0.5378858 0.16972545 0.41845322 -0.6322022 0.20257552
0.0025346943 -0.046193752 -0.25569668 0.17669527 0.4483891 -0.31315586 0.28756443 0.11516991
0.352762 0.18552797 -0.72227174 -0.7069466 -0.6029134 -0.8635344 -0.61521506 0.11059824
0.47533026 0.6062103 -0.05729165 -0.34919673 -0.23748784 0.30087158 0.118252665 -0.2635833
0.23819183 0.19844519 0.14125344 -0.4629168 -0.05955764 -1.0270175 -0.36995402 -0.016665917
0.3740724 -0.0935409 -0.12588884 -1.1386911 0.63010556 0.25200513 0.2328439 0.19261765
0.47083795 -0.09598668 -0.09596824 -0.028949747 0.2067534 0.2581937 -0.47419855 0.1149537
0.40678278 0.37478003 -0.26615426 0.3551457 0.36488035 0.095320575 0.13243257 0.28094253
0.096682005 0.20132925 0.24833342 0.14760125 0.20373575 0.14052142 -1.0408 0.62500715
-0.5572174 -0.49514282 0.30421916 0.63947713 -0.70532864 -0.64057744 -0.1263175 0.06297484
-0.80579895 -0.43686336 -0.0846711 0.035548713 0.022773376 -0.9805311 -0.39430177 0.25054005
0.67213887 0.15107244 -1.0383811 -0.41099986 0.20438911 0.69184047 0.32995385 -0.12367394
-0.50564253 -0.5206895 -0.06664057 -0.42935097 -0.037757494 -0.346518 0.17606588 0.04450732
-0.52021885 0.10441942 0.2550349 -0.811725 0.4356287 -0.14513952 -0.40047932 -0.40297008
-0.6086755 0.38741314 -0.38354796 -0.5196229 -0.18042418 0.21621872 -0.38942257 0.1707216
0.19885573 -0.40507233 -0.46948588 -0.36899033 0.2678198 -0.56793743 -0.5385007 0.16971175
0.68878824 0.22442023 0.048307803 -0.6622041 -0.5479566 -0.69137913 0.83203876 0.42103776
-0.05878619 0.19112647 -0.09923647 0.30519617 -0.15250415 0.102257125 -0.46937215 0.21532941
-0.35312918 -0.3341269 -0.3024027 0.6827059 0.70441514 0.4723855 0.9301862 -0.1988778
-0.66774243 -0.4078602 0.4179256 0.5519969 0.72861 0.15606877 -0.20315509 -0.25413507
-0.18034728 -0.1618105 0.530961 -0.15702057 0.46295848 0.5750806 0.7941922 0.46929237
-0.7505697 0.38901475 -0.65607715 0.56259835 -0.65988004 0.0055137593 0.31789428 0.31175727
-0.83776563 -0.5325785 0.36336035 0.555866 -0.35854194 0.04917931 0.30620542 -0.044395167
-0.38295835 0.016105857 -0.24825 0.206154 -0.33001512 0.17770971 -0.58297193 -0.20492873
-0.6242774 -0.62671864 -0.07545789 0.22214133 -0.8992436 0.12880689 0.8713257 -0.21960014
0.393368 -0.35724252 -0.2864602 -0.25434503 0.6407899 0.7176722 0.54299766 -0.12905286
0.8872773 0.3798789 -0.3059484 -0.33930337 -0.10780937 0.84347606 0.2430205 -0.5090914
-0.46041724 -0.12367452 0.8279992 -0.446932 0.05034778 -1.1042507 -0.5936392 -0.15058643
0.40733382 0.6896602 -0.1865429 0.60669345 0.6748221 -0.21663272 -0.10246147 -0.94424963
0.27069187 0.110411584 -0.6038917 0.8467234 0.08289056 -0.25119177 -0.23097418 0.04400051
0.14208323 -0.0436467 0.036232043 0.59068567 0.6341586 0.16908918 0.18574204 -0.16224933
0.018916229 0.6034824 0.48833528 0.08075397 -0.2720828 0.98872674 0.14733149 -0.5514445
00000000: bdc7 02bd 750c f0be fa68 8c3e e2b2 093f
00000010: 82cc 2d3e 803f d63e 01d8 21bf f56f 4f3e
00000020: 1d1d 263b a935 3dbd adea 82be 9bef 343e
00000030: 4293 e53e f755 a0be a53b 933e 34de eb3d
00000040: 399d b43e 0bfb 3d3e cde6 38bf 74fa 34bf
00000050: 8858 1abf 9710 5dbf bc7e 1dbf 5481 e23d
00000060: 7d5e f33e 9930 1b3f a6aa 6abd eac9 b2be
00000070: 0330 73be d70b 9a3e 742e f23d 64f4 86be
00000080: 8fe8 733e 3735 4b3e bea4 103e 6e03 edbe
00000090: b6f2 73bd 4f75 83bf 9d6a bdbe f686 88bc
000000a0: 6b86 bf3e 5f92 bfbd 01e9 00be a1c0 91bf
000000b0: 994e 213f d106 813e a26e 6e3e 903d 453e
000000c0: ac11 f13e aa94 c4bd ff8a c4bd 0528 edbc
000000d0: 2ab7 533e f731 843e 27ca f2be d86c eb3d
000000e0: d545 d03e 2be3 bf3e 5f45 88be a8d5 b53e
000000f0: 99d1 ba3e 6f37 c33d 679c 073e b3d7 8f3e
00000100: 3701 c63d 4129 4e3e 1e4b 7e3e c824 173e
00000110: 1ba0 503e d9e4 0f3e ef38 85bf 7800 203f
00000120: cda5 0ebf 5c83 fdbe 9dc2 9b3e c6b4 233f
00000130: 6b90 34bf e2fc 23bf 6059 01be f4f8 803d
00000140: d748 4ebf 8eac dfbe 0b68 adbd 879b 113d
00000150: 3b8f ba3c 1604 7bbf ece1 c9be c946 803e
00000160: 4b11 2c3f bcb2 1a3e ace9 84bf 936e d2be
00000170: 614b 513e 751c 313f b6ef a83e c348 fdbd
00000180: ca71 01bf e84b 05bf da7a 88bd e4d3 dbbe
00000190: 9aa7 1abd cf6a b1be 9d4a 343e 4f4d 363d
000001a0: 102d 05bf d9d9 d53d ef93 823e 36cd 4fbf
000001b0: ba0a df3e 749f 14be a00b cdbe 1852 cebe
000001c0: 28d2 1bbf 045b c63e 6660 c4be 0206 05bf
000001d0: 1ec1 38be 7168 5d3e 6562 c7be a5d1 2e3e
000001e0: d6a0 4b3e a465 cfbe 7460 f0be 4dec bcbe
000001f0: ad1f 893e 5964 11bf 2fdb 09bf ebc8 2d3e
00000200: 6d54 303f 6bce 653e 67de 453d 3586 29bf
00000210: e246 0cbf 39fe 30bf 7e00 553f 4392 d73e
00000220: cac9 70bd a8b6 433e 7e3c cbbd ac42 9c3e
00000230: 0c2a 1cbe 2f6c d13d 8c51 f0be 507f 5c3e
00000240: 59cd b4be ae12 abbe 87d4 9abe d0c5 2e3f
00000250: 8d54 343f 83dc f13e af20 6e3f 9fa6 4bbe
00000260: 2bf1 2abf 0dd3 d0be 58fa d53e ab4f 0d3f
00000270: 2f86 3a3f 7ed0 1f3e e307 50be fe1d 82be
00000280: f5ac 38be a7b1 25be 0fed 073f 00ca 20be
00000290: e508 ed3e 7b38 133f 2e50 4b3f 1747 f03e
000002a0: 5625 40bf f12c c73e acf4 27bf 7206 103f
000002b0: e6ed 28bf c4ac b43b 0ac3 a23e a69e 9f3e
000002c0: cf77 56bf 1157 08bf 5e0a ba3e 3c4d 0e3f
000002d0: cf92 b7be 3f70 493d f5c6 9c3e b5d7 35bd
000002e0: 1e13 c4be 6ef0 833c 3f35 7ebe 091a 533e
000002f0: bef7 a8be 89f9 353e a63d 15bf d6d8 51be
00000300: a5d0 1fbf a270 20bf ab89 9abd 0479 633e
00000310: d434 66bf f4e5 033e 330f 5f3f dcde 60be
00000320: 8867 c93e 7ee8 b6be e9aa 92be 8339 82be
00000330: cf0a 243f 5eb9 373f e501 0b3f 6f26 04be
00000340: 9b24 633f 7d7f c23e 45a5 9cbe 2cb9 adbe
00000350: 29cb dcbd 0cee 573f 5eda 783e d053 02bf
00000360: cfbb ebbe 1149 fdbd c1f7 533f 45d4 e4be
00000370: 7939 4e3d 1658 8dbf bdf8 17bf 5433 1abe
00000380: 0f8e d03e 928d 303f 1a05 3fbe 4350 1b3f
00000390: 24c1 2c3f f8d4 5dbe 52d7 d1bd 58ba 71bf
000003a0: 2098 8a3e 781f e23d a598 1abf ddc2 583f
000003b0: 87c2 a93d 359c 80be 7f84 6cbe e139 343d
000003c0: 447e 113e e2c6 32bd 0d68 143d 2d37 173f
000003d0: 3858 223f b725 2d3e 2933 3e3e b024 26be
000003e0: 35f6 9a3c d37d 1a3f 1507 fa3e 5662 a53d
000003f0: 704e 8bbe 321d 7d3f 11de 163e 772b 0dbf

network_body._body_endoder.seq_layers.0.bias f4 [128]
-0.06151963 -0.015605401 -0.11064361 -0.053745653 -0.07439525 -0.023232669 -0.06121472 -0.04146824
-0.1118861 0.11153686 -0.07186679 0.040486336 -0.13126661 -0.0014484286 -0.09940563 -0.04611546
0.17658538 -0.11040587 0.1905794 0.10213504 0.03905703 -0.0060889567 0.07163866 0.031815752
0.16205387 0.16323504 -0.014583111 0.15541562 -0.15642747 0.047931302 0.09923363 -0.017084047
0.058150876 0.08901723 -0.031835582 0.0009246461 -0.07309789 0.042400338 -0.0011431184 0.10285818
-0.12670596 0.1530138 -0.024508188 -0.0360562 0.068198316 -0.17595515 0.09288424 -0.036753755
-0.029502911 0.040599898 0.06750771 -0.08015743 -0.063274786 0.054122325 -0.022441112 0.1762655
0.14602935 0.12743312 -0.04424057 0.045450468 -0.023343768 -0.056302313 -0.08572953 -0.009098792
0.020647997 0.058901444 -0.07150244 0.04188025 -0.082936436 8.6340755e-05 0.036620025 -0.1346197
-0.0071721477 -0.1528129 -0.07661332 0.046839874 -0.0889062 0.02686522 0.027124682 0.01172741
-0.042393975 0.067893386 0.011536829 0.24605325 0.043877214 0.008762305 0.24223758 0.07274584
0.076012634 -0.01528491 0.09240726 0.06800017 0.03880598 0.11875907 0.016293287 0.23863761
-0.009221994 0.18794589 0.035418104 -0.0031045044 0.13479102 0.07242862 -0.0054187686 -0.06601721
0.08515678 0.09478749 0.15795633 -0.0050653364 -0.058107063 -0.009381508 -0.18124466 0.10713733
-0.06788422 0.055415604 -0.031078786 0.14004429 0.22496688 0.04709529 0.10718117 0.018048191
0.22401634 -0.07579569 -0.1559832 -0.012793917 0.09079721 0.06801 0.1518058 0.07620575
00000000: 02fc 7bbd ccad 7fbc 1e99 e2bd 6724 5cbd
00000010: 895c 98bd 7052 bebc 49bc 7abd 9ada 29bd
00000020: 8a24 e5bd 706d e43d e52e 93bd 00d5 253d
00000030: c16a 06be 33d9 bdba 2e95 cbbd 91e3 3cbd
00000040: ccd2 343e 791c e2bd 3f27 433e 2d2c d13d
00000050: 44fa 1f3d df85 c7bb 4ab7 923d 3c51 023d
00000060: 73f1 253e 1627 273e 00ee 6ebc 4625 1f3e
00000070: 862e 20be 9d53 443d 003b cb3d d8f3 8bbc
00000080: 9d2f 6e3d aa4e b63d 0766 02bd f363 723a
00000090: 59b4 95bd faab 2d3d b0d4 95ba 4fa7 d23d
000000a0: 35bf 01be a6af 1c3e 65c5 c8bc aaaf 13bd
000000b0: 8fab 8b3d 962d 34be 183a be3d 1b8b 16bd
000000c0: 17b0 f1bc 144c 263d 7b41 8a3d 9429 a4bd
000000d0: 3696 81bd 5faf 5d3d 6cd6 b7bc f17e 343e
000000e0: b888 153e d47d 023e 9a35 35bd 452a 3a3d
000000f0: 6e3b bfbc 419d 66bd f792 afbd 1a13 15bc
00000100: fd25 a93c a442 713d df6f 92bd a08a 2b3d
00000110: 94da a9bd d711 b538 e1fe 153d bfd9 09be
00000120: 5604 ebbb fc7a 1cbe 72e7 9cbd 2bdb 3f3d
00000130: 7414 b6bd 7314 dc3c 9534 de3c 5324 403c
00000140: 4ea5 2dbd b00b 8b3d f804 3d3c 62f5 7b3e
00000150: 98b8 333d c58f 0f3c 210d 783e c5fb 943d
00000160: 83ac 9b3d 8f6d 7abc 0440 bd3d ac43 8b3d
00000170: 05f3 1e3d f537 f33d 8079 853c 6b5d 743e
00000180: d917 17bc e374 403e 9312 113d f174 4bbb
00000190: a806 0a3e 7555 943d ed8f b1bb 0834 87bd
000001a0: ae66 ae3d f21f c23d 4ebf 213e 1ffb a5bb
000001b0: ac01 6ebd e6b4 19bc 3398 39be d16a db3d
000001c0: e206 8bbd 79fb 623d f098 febc c567 0f3e
000001d0: b85d 663e fee6 403d cd81 db3d cdd9 933c
000001e0: 8a64 653e c53a 9bbd 0fba 1fbe 949d 51bc
000001f0: e3f3 b93d d448 8b3d fb72 1b3e c311 9c3d

network_body._body_endoder.seq_layers.0.weight f4 [128, 61]
0.16875596 -0.7147981 0.91843265 0.07028157 0.22499996 0.5192713 -0.7017755 0.11425018
0.031303003 0.3606039 -0.24596384 0.115036294 -0.69565237 0.24688499 -0.15884519 -0.014102208
-0.7510903 0.7534152 1.0634254 0.30305222 -0.15174326 0.069250666 -0.9204926 0.26764724
-0.33415106 -0.038003653 -0.85896933 0.5716872 -0.2409905 -0.08679614 -0.017683838 0.15866856
-0.868821 0.04665089 0.10017191 0.0076643243 -0.75130206 -0.031781852 -0.20535606 -0.15499195
0.09195881 0.09957289 -1.1893082 -0.17338254 0.31401548 -0.22379656 -0.5492332 0.36989045
0.53144 0.18055329 0.16838232 0.648678 -1.111673 -0.36976534 0.3404763 -0.25631222
-0.08252047 -0.277898 0.78330916 -0.19900906 0.2284366 -0.111785516 -0.10644381 -0.56042
0.5810131 0.304708 -0.4232141 0.5825964 -1.0911063 0.18368018 0.12671791 0.50584567
-1.3499221 -0.14712779 0.31291187 1.0888405 0.40396276 -0.3292333 -0.6319411 0.3159467
0.12613122 -0.22966437 0.5094515 0.15998259 0.3699062 0.33460885 0.08945847 -0.6518222
-0.3539879 -0.22403613 0.13782641 -0.4275118 0.94010717 0.04509623 0.4254053 0.20691058
0.14420442 -0.39729694 -0.5322964 0.12563768 0.0035435332 0.047268968 0.1559532 -0.25508815
0.41932282 0.35876584 0.22963788 0.0098817805 -0.82959443 -0.49150684 0.0075430814 0.17693068
-1.0653934 -0.3140779 0.45806393 0.5630613 0.39311653 0.15701975 -0.036257967 -0.120428085
0.111994624 -0.06847801 -0.22528838 0.24453363 -0.121087216 0.03486492 0.2917127 -0.7267746
0.9116985 -0.064632535 0.42085958 0.22936517 0.02413701 -0.07003836 -0.32044533 0.17096856
0.33060864 -0.048401874 -0.08564943 0.07857871 0.88832754 0.038059857 0.30681872 -1.4647369
-0.08229568 0.5668444 0.35634795 -0.45037904 0.44774503 0.25008482 0.61788774 0.28167158
0.051373377 -0.38949025 0.17496684 0.62861186 0.008877039 0.099542804 -0.0763333 0.1924059
0.26615044 0.36520517 -0.007010734 -0.3249293 -0.7678983 0.528066 -0.11813547 -0.16835546
0.42883328 0.1813891 0.8498684 0.15425153 -0.009910016 -1.3201667 0.02368957 0.5222215
0.20056759 -0.3534931 -0.26217258 0.46774167 0.17212623 -0.061677303 0.18657194 -0.014595636
0.33708152 -0.38243127 0.38157657 0.114781864 -0.16400845 0.11806475 -0.62728566 0.6586902
0.2845008 -0.14345452 -0.2770908 0.3222415 0.29242957 -0.3091515 -0.25613192 -0.11401943
-0.97845846 0.96665037 0.16252199 0.14782804 -0.1551986 0.123830505 0.36951476 0.14792539
-0.07304656 0.6384001 -0.70049155 -0.08592713 -0.25135693 -0.1948009 1.3737705 -0.3264182
0.25434676 0.34552515 0.24006101 -0.34539247 -0.8506025 -0.007953729 -0.31774274 -0.14956625
-0.2922949 -0.015093322 0.16809213 0.5527593 0.25996217 -0.4051073 -1.4117076 -0.20399779
0.0609792 -0.053593248 0.31764758 -0.04779385 0.42662382 0.45623428 0.74503607 0.14626618
0.23339249 -0.16283235 -0.09198195 0.63106245 0.010458547 -0.66159743 0.09513063 -0.33817098
0.29842415 -0.06037703 -0.026760565 0.10753253 -0.467132 0.05257673 0.7088002 -1.0218375
00000000: 5dce 2c3e 02fd 36bf 671e 6b3f c9ef 8f3d
00000010: 6466 663e f7ee 043f 8fa7 33bf 00fc e93d
00000020: 9437 003d 13a1 b83e f2dd 7bbe 2698 eb3d
00000030: 4616 32bf 6bcf 7c3e 50a8 22be f30c 67bc
00000040: 7447 40bf d2df 403f 531e 883f a929 9b3e
00000050: 9662 1bbe 4bd3 8d3d 67a5 6bbf 0f09 893e
00000060: d915 abbe b8a9 1bbd 6ae5 5bbf 185a 123f
00000070: 37c6 76be 2dc2 b1bd b2dd 90bc 037a 223e
00000080: 0e6b 5ebf 0115 3f3d ee26 cd3d 0325 fb3b
00000090: 5555 40bf b02d 02bd dc48 52be 36b6 1ebe
000000a0: e754 bc3d dfec cb3d 403b 98bf 318b 31be
000000b0: a3c6 a03e ed2a 65be 8c9a 0cbf 4862 bd3e
000000c0: 740c 083f f6e2 383e 6a6c 2c3e c30f 263f
000000d0: 4d4b 8ebf e251 bdbe e952 ae3e 5b3b 83be
000000e0: 7e00 a9bd a648 8ebe f386 483f 08c9 4bbe
000000f0: 49eb 693e ceef e4bd 36ff d9bd af77 0fbf
00000100: 46bd 143f b002 9c3e 85af d8be 0a25 153f
00000110: 5fa9 8bbf a816 3c3e 57c2 013e 1a7f 013f
00000120: 3fca acbf aba8 16be fc35 a03e 205f 8b3f
00000130: 35d4 ce3e 4491 a8be e4c6 21bf c4c3 a13e
00000140: 8b28 013e 232d 6bbe 6a6b 023f 7ad2 233e
00000150: 5864 bd3e da51 ab3e 0136 b73d d2dd 26bf
00000160: e73d b5be ba69 65be 5e22 0d3e d4e2 dabe
00000170: ddaa 703f d3b6 383d b9ce d93e 5ee0 533e
00000180: 53aa 133e 816a cbbe 9444 08bf 2aa7 003e
00000190: 9f3a 683b 1b9d 413d 32b2 1f3e ea9a 82be
000001a0: 7bb1 d63e 28b0 b73e 3126 6b3e 31e7 213c
000001b0: 4d60 54bf c9a6 fbbe f42b f73b 512d 353e
000001c0: d05e 88bf d2ce a0be 5b87 ea3e c924 103f
000001d0: 9246 c93e c9c9 203e 3c83 14bd 00a3 f6bd
000001e0: 705d e53d 333e 8cbd ffb1 66be 0667 7a3e
000001f0: 93fc f7bd 85ce 0e3d 5e5b 953e e60d 3abf
00000200: 1365 693f 105e 84bd e87a d73e b4de 6a3e
00000210: fbba c53c 4670 8fbd 6911 a4be 6212 2f3e
00000220: 8945 a93e 0b41 46bd f868 afbd e0ed a03d
00000230: 6f69 633f a7e4 1b3d 5817 9d3e 807c bbbf
00000240: a38a a8bd b71c 113f 3d73 b63e 1598 e6be
00000250: d63e e53e 1e0b 803e e42d 1e3f 4237 903e
00000260: e46c 523d 446b c7be 822a 333e b5ec 203f
00000270: 0071 113c 19dd cb3d a254 9cbd 0d06 453e
00000280: df44 883e 2cfc ba3e 4dba e5bb 225d a6be
00000290: fc94 44bf 552f 073f 02f1 f1bd 6065 2cbe
000002a0: 0990 db3e 10be 393e fa90 593f 1df4 1d3e
000002b0: 9f5d 22bc 39fb a8bf a110 c23c 4fb0 053f
000002c0: 9761 4d3e 0cfd b4be 7c3b 86be d67b ef3e
000002d0: dc41 303e 57a1 7cbd b70c 3f3e 8922 6fbc
000002e0: f395 ac3e 08ce c3be 015e c33e c112 eb3d
000002f0: d5f1 27be efcb f13d cb95 20bf ec9f 283f
00000300: 17aa 913e bee5 12be d8de 8dbe d6fc a43e
00000310: 54b9 953e 1b49 9ebe b923 83be 0583 e9bd
00000320: 417c 7abf 6676 773f 2a6c 263e 3c60 173e
00000330: 62ec 1ebe d99a fd3d 0a31 bd3e c179 173e
00000340: 6f99 95bd 306e 233f 6a53 33bf 90fa afbd
00000350: dbb1 80be e379 47be b6d7 af3f 4920 a7be
00000360: bd39 823e ace8 b03e 8ed2 753e 48d7 b0be
00000370: 16c1 59bf 5b50 02bc 2daf a2be e527 19be
00000380: ada7 95be fb49 77bc 5820 2c3e a281 0d3f
00000390: c319 853e 396a cfbe d6b2 b4bf cce4 50be
000003a0: 53c5 793d 9884 5bbd b4a2 a23e 7cc3 43bd
000003b0: 706e da3e 8a97 e93e afba 3e3f cdc6 153e
000003c0: 71fe 6e3e 86bd 26be 0861 bcbd 4f8d 213f
000003d0: 535a 2b3c 735e 29bf d9d3 c23d bf24 adbe
000003e0: 0dcb 983e e84d 77bd f938 dbbc 043a dc3d
000003f0: ed2b efbe b25a 573d ee73 353f 92cb 82bf

network_body._body_endoder.seq_layers.2.bias f4 [128]
0.062154777 -0.058362816 -0.023427375 0.023114944 -0.08414051 0.033511695 -0.26650047 0.11747624
-0.0143304905 -0.12246452 0.041940928 -0.050038442 0.03561328 -0.15183772 0.035537165 -0.061031193
0.0052208737 0.0032156433 -0.27708533 -0.101382755 -0.037626076 0.20581569 -0.13209051 0.24485566
0.00472909 -0.06224253 -0.053726792 -0.08433256 -0.11712312 0.03387544 0.1023025 -0.17794816
0.006445289 0.037731905 0.03364301 -0.24631907 -0.03718777 0.024140753 0.06649157 -0.08441423
0.064107485 -0.108474694 -0.13010085 0.030824825 0.22901264 0.052827846 0.23517683 -0.048515365
-0.067161374 0.048738472 0.046900354 0.01775833 0.049793832 0.1079646 -0.13168876 -0.11863317
0.1125649 0.20371588 -0.03629175 0.08318748 0.19887325 -0.05077316 -0.2108082 0.013057521
0.021660388 -0.030036652 -0.12458559 0.15094893 -0.092485525 -0.036402382 -0.1282971 0.14224997
0.050614428 0.07679977 0.18884194 0.06892863 0.013090542 -0.1759872 -0.06264126 0.005504289
0.04130251 -0.009511492 -0.14186884 0.104801096 0.005673617 0.016999604 -0.025601948 -0.12379779
0.08065264 -0.07225503 -0.30201992 -0.15800804 0.17621936 0.072969064 -0.07405682 0.015120201
-0.0068623857 0.19620025 -0.069346346 -0.077795915 -0.3640404 -0.19965395 -0.07316125 -0.07276774
0.059926588 -0.07725315 0.12332968 -0.26637283 0.037896257 0.11651666 -0.24385522 -0.08427024
-0.1046746 0.20616242 -0.08622737 -0.09006598 0.05462964 0.03176207 0.014869844 0.19276719
0.08852202 0.01925783 -0.1757138 0.04662581 0.18863207 -0.09603582 -0.15928218 -0.14473899
00000000: 0296 7e3d d90d 6fbd c4ea bfbc 8d5b bd3c
00000010: dc51 acbd 8f43 093d c072 88be 6297 f03d
00000020: 6fca 6abc aece fabd 40ca 2b3d 1cf5 4cbd
00000030: 3bdf 113d 597b 1bbe 6b8f 113d d8fb 79bd
00000040: dd13 ab3b 8bbd 523b 21de 8dbe c3a1 cfbd
00000050: cd1d 1abd 59c1 523e bc42 07be 71bb 7a3e
00000060: 7bf6 9a3b 06f2 7ebd a010 5cbd 8db6 acbd
00000070: 3fde efbd f9c0 0a3d f983 d13d 0b38 36be
00000080: 0133 d33b c58c 1a3d 41cd 093d 113b 7cbe
00000090: 3452 18bd d4c2 c53c bb2c 883d 5ee1 acbd
000000a0: c94a 833d fb27 debd 2839 05be 5884 fc3c
000000b0: 4a82 6a3e 0362 583d 32d2 703e 0cb8 46bd
000000c0: e78b 89bd fea1 473d 961a 403d eb79 913c
000000d0: 9ef4 4b3d 8b1c dd3d 6bd9 06be f3f5 f2bd
000000e0: 6d88 e63d e59a 503e a8a6 14bd 335e aa3d
000000f0: 6ea5 4b3e 84f7 4fbd 1bde 57be 36ef 553c
00000100: 2071 b13c 6d0f f6bc bb26 ffbd 5b92 1a3e
00000110: 0d69 bdbd aa1a 15bd 5160 03be faa9 113e
00000120: 1351 4f3d 3349 9d3d c85f 413e 742a 8d3d
00000130: b679 563c fd35 34be 104a 80bd 535d b43b
00000140: d22c 293d 17d6 1bbc 1146 11be f5a1 d63d
00000150: c0e9 b93b c142 8b3c 2dbb d1bc b289 fdbd
00000160: 362d a53d 72fa 93bd 5ba2 9abe dccc 21be
00000170: d972 343e ce70 953d 1aab 97bd b8ba 773c
00000180: dddd e0bb b8e8 483e 7505 8ebd 7753 9fbd
00000190: 8163 babe 1672 4cbe 91d5 95bd 4107 95bd
000001a0: 9575 753d e636 9ebd 4594 fc3d 0562 88be
000001b0: 1b39 1b3d 49a0 ee3d 2fb5 79be e095 acbd
000001c0: a35f d6bd 3e1c 533e fa97 b0bd 8374 b8bd
000001d0: 54c3 5f3d f218 023d a5a0 733c c364 453e
000001e0: 084b b53d 99c2 9d3c 52ee 33be b5fa 3e3d
000001f0: c428 413e 6eae c4bd de1a 23be 7536 14be

network_body._body_endoder.seq_layers.2.weight f4 [128, 128]
-0.19011375 0.084944 -0.75588095 0.08513276 -1.0181327 -0.15954955 0.13211612 0.153905
-0.1782385 0.21699762 0.08406199 0.07637621 -0.14760733 -0.18172602 0.054833245 -0.26740447
0.06914775 -0.006308964 0.4227404 0.48868236 -0.019728107 -0.027373556 0.1242439 0.23650257
0.081626125 0.034224328 0.0821813 0.224146 -0.9101269 0.2849567 0.1554809 0.27632153
-0.0409882 -0.13363683 -0.3287194 -0.23209558 -0.023590865 -0.035530634 -0.09007982 -0.024986299
-0.20531885 0.08770964 -0.04202281 0.13992646 -0.12250524 -0.2884288 0.14428842 0.0017307566
-0.08784723 -1.2117914 0.0488679 -0.32317486 -0.1333097 -0.086266525 -0.056399073 -0.16924006
0.24025744 -0.030387504 -0.21833152 -0.071487 -0.5926047 -0.17858692 -0.51062155 0.38048425
-0.07713391 -0.71339506 -0.44730902 -0.02245631 0.38280457 -0.028818674 -0.6812977 -0.16171098
-0.11873945 -0.24662983 -0.03867326 0.09955448 -0.16549198 0.2415285 -0.14664946 -0.37347814
-0.36702597 -0.17489341 -0.06272034 0.3440657 0.15103127 0.31620637 0.5138051 -0.3799633
-0.26595983 0.04580944 -0.05147106 -0.5735294 0.1029374 0.14313619 -0.12884575 -0.10369114
0.15937091 0.05418217 0.15046102 0.30785105 0.22795056 -0.20528427 -0.20812754 -0.34972405
0.16649622 -0.13066854 -0.07189082 0.06329645 0.30079985 0.20428512 -1.0383898 0.18409412
-0.09481049 -0.049200702 -0.27371168 0.13490023 0.236456 0.2864893 0.075536974 0.037231307
0.4019111 0.26272365 -0.07321441 0.12605716 -0.06229488 0.047461044 0.06483128 -0.264578
0.03661364 0.32717755 0.1454334 -0.055508796 0.33895883 -0.01653735 0.21220902 0.2584184
-0.11056166 -0.02777823 -0.3312346 -0.27960807 0.10039931 -0.02440702 0.11628071 0.022053463
-0.51913744 0.12826581 -0.10299431 -0.19875303 0.06783827 -0.062195662 -0.018835919 0.020543661
-0.48520198 -0.9018717 -0.088855155 0.07439814 0.07836422 0.048126627 0.69309247 -0.24307697
-0.065443344 0.09501656 -0.09296984 0.017566716 -0.09092094 -0.12533604 -0.16595843 0.07365973
-0.03825455 -0.08585223 0.114906825 0.27025288 -0.50983477 -0.07700734 0.194291 -1.0886775
-0.07586492 -0.04187174 -0.46575058 0.29219913 0.2376481 0.13748878 -0.24129899 -0.20227161
0.041412376 -0.2796353 0.14213447 -0.55404323 -0.0139306495 0.31830707 0.49387988 -0.1764149
0.17251001 0.43055525 0.17365958 -0.1485573 0.04985994 0.31605902 0.04536453 0.08189931
-0.090427324 -0.1887978 0.04905292 0.17350394 0.20246276 -0.747472 0.24757843 0.06419151
0.1756121 0.08440676 -0.26995614 -0.24055487 -0.20362657 -0.024450626 0.05910255 -0.03946154
0.22700249 0.067119464 0.033150233 0.1281985 -0.20812929 -0.0150480885 0.16732487 -0.0062618153
-0.27606234 -0.060920358 -0.0032347625 0.1832079 0.17375654 0.04610042 -0.095826834 0.035405394
-0.01501648 -0.38282877 0.2315732 0.23215275 -0.9520526 0.23302065 -0.21051496 -0.007304563
0.220873 0.38781416 0.11964711 -0.42349318 0.12822038 -0.025744809 -0.29294643 0.15807357
-0.08667688 -0.4743898 0.13183004 0.12834463 -0.14072418 -0.00610872 -0.339636 0.27538782
00000000: 2ead 42be 1ff7 ad3d 6a81 41bf 165a ae3d
00000010: 2c52 82bf f560 23be 7349 073e 4699 1d3e
00000020: 2784 36be a034 5e3e b128 ac3d 216b 9c3d
00000030: 6026 17be 6316 3abe d398 603d 3de9 88be
00000040: 569d 8d3d 6dbb cebb 6e71 d83e 9334 fa3e
00000050: d79c a1bc 823e e0bc 9673 fe3d bb2d 723e
00000060: 992b a73d cf2e 0c3d ab4e a83d 8786 653e
00000070: 14fe 68bf d8e5 913e 6336 1f3e 047a 8d3e
00000080: 3ee3 27bd 18d8 08be e94d a8be 77aa 6dbe
00000090: a141 c1bc 9288 11bd c57b b8bd 11b0 ccbc
000000a0: 1b3f 52be 1da1 b33d 1c20 2cbd e248 0f3e
000000b0: 07e4 fabd f1ac 93be 58c0 133e 8eda e23a
000000c0: 40e9 b3bd fb1b 9bbf b529 483d 2d77 a5be
000000d0: 5782 08be 81ac b0bd b702 67bd 444d 2dbe
000000e0: 0c06 763e 37ef f8bc 4c92 5fbe c767 92bd
000000f0: f1b4 17bf 7ddf 36be 18b8 02bf d5ce c23e
00000100: 62f8 9dbd 0fa1 36bf b005 e5be 4cf6 b7bc
00000110: f6fe c33e 2415 ecbc 8769 2ebf 9097 25be
00000120: ab2d f3bd 888c 7cbe da67 1ebd 38e3 cb3d
00000130: bb76 29be 3f53 773e 472b 16be 8738 bfbe
00000140: d4ea bbbe 4217 33be 8673 80bd 6129 b03e
00000150: f1a7 1a3e cde5 a13e bb88 033f 8d8a c2be
00000160: e32b 88be aea2 3b3d 51d3 52bd d3d2 12bf
00000170: d8d0 d23d 4b92 123e 24f0 03be 055c d4bd
00000180: 2132 233e 20ee 5d3d 7412 1a3e a79e 9d3e
00000190: df6b 693e 0a36 52be 631f 55be 080f b3be
000001a0: fc7d 2a3e f9cd 05be 7f3b 93bd 92a1 813d
000001b0: 7002 9a3e 1e30 513e f5e9 84bf 2b83 3c3e
000001c0: 012c c2bd ad86 49bd f023 8cbe 4923 0a3e
000001d0: 8621 723e baae 923e 21b3 9a3d db7f 183d
000001e0: 4bc7 cd3e b783 863e 70f1 95bd 2115 013e
000001f0: eb28 7fbd 8366 423d 43c6 843d c576 87be
00000200: 2ff8 153d d183 a73e 7eec 143e 315d 63bd
00000210: 038c ad3e 5679 87bc 524d 593e 6b4f 843e
00000220: 276e e2bd 2c8f e3bc 9597 a9be ca28 8fbe
00000230: 279e cd3d 3bf1 c7bc 9524 ee3d 77a9 b43c
00000240: 31e6 04bf 1d58 033e aeee d2bd ea85 4bbe
00000250: caee 8a3d e1c0 7ebd c94d 9abc 2e4b a83c
00000260: 656c f8be 10e1 66bf b1f9 b5bd 0d5e 983d
00000270: 6c7d a03d 6d20 453d 826e 313f 2be9 78be
00000280: 2907 86bd 0b98 c23d f966 bebd 13e8 8f3c
00000290: c234 babd 1758 00be 02f1 29be eada 963d
000002a0: ceb0 1cbd 4bd3 afbd 4554 eb3d 965e 8a3e
000002b0: 8884 02bf 06b6 9dbd 38f4 463e c959 8bbf
000002c0: 115f 9bbd b481 2bbd dc76 eebe 209b 953e
000002d0: 065a 733e dcc9 0c3e 1517 77be 4a20 4fbe
000002e0: 06a0 293d 5c2c 8fbe b38b 113e c7d5 0dbf
000002f0: 613d 64bc 25f9 a23e d3dd fc3e 1ca6 34be
00000300: 77a6 303e bd71 dc3e d1d3 313e 681f 18be
00000310: f039 4c3d 7dd2 a13e 28d0 393d d3ba a73d
00000320: f631 b9bd 3654 41be b7eb 483d 04ab 313e
00000330: 6652 4f3e 535a 3fbf 3385 7d3e d776 833d
00000340: a9d3 333e 74dd ac3d b137 8abe 0454 76be
00000350: 7c83 50be ae4c c8bc 8415 723d 6ca2 21bd
00000360: 5773 683e ee75 893d 8ac8 073d 7846 033e
00000370: d81f 55be 428c 76bc 3657 2b3e ea2f cdbb
00000380: 0b58 8dbe a087 79bd 4ffe 53bb da9a 3b3e
00000390: 3ced 313e cbd3 3c3d dc40 c4bd 3f05 113d
000003a0: af07 76bc 2202 c4be 8621 6d3e 73b9 6d3e
000003b0: b8b9 73bf f79c 6e3e 3c91 57be 1e5b efbb
000003c0: 882c 623e 948f c63e 8b09 f53d 19d4 d8be
000003d0: 344c 033e c7e6 d2bc 13fd 95be 0ade 213e
000003e0: a683 b1bd 38e3 f2be 74fe 063e c66c 033e
000003f0: 001a 10be a82b c8bb c5e4 adbe a2ff 8c3e
