results/SnakeImitation3/SnakeAgent/SnakeAgent-148136.pt (torch, 713767 bytes, 41 tensors)

network_body._body_endoder.seq_layers.0.weight f4 [128, 61]
000000 b9 1b 0e 3e 41 7f 28 bf 68 46 a4 3f 6c fd 78 3d
       0.13877763 -0.65819174 1.2833986 0.060788557
000010 ad 91 be 3e 42 40 06 3f e9 7c 37 bf 5b 29 25 3e
       0.37220517 0.524418 -0.7167497 0.16129057
000020 a8 0d ab 3c 66 52 db 3e 6d 23 85 be 16 27 24 3e
       0.020880535 0.42836303 -0.2600359 0.16030535
000030 d4 f6 82 bf 24 a8 5d 3e d4 71 b3 bd a8 a6 30 3d
       -1.0231576 0.21646172 -0.08761945 0.043127686
000040 4c 8c 69 bf 8f 49 6b 3f be 71 86 3f 96 12 b6 3e
       -0.912297 0.91909117 1.0503461 0.35561055
000050 b3 69 29 be 15 6b ce 3d e6 69 9a bf 3f 9d 7a 3e
       -0.16544227 0.10079018 -1.2063568 0.24474047
000060 85 5d cd be 2e d8 4b bd 7f 49 51 bf 5f e7 19 3f
       -0.40110412 -0.049766712 -0.8175277 0.6011867
000070 26 ec 83 be 42 1d b5 bd 89 86 4d bc 91 c6 91 3d
       -0.25766104 -0.08843471 -0.012544283 0.07117952
000080 12 83 7d bf 25 88 b2 3c 9c d9 da 3d ee 0a d1 3c
       -0.9902812 0.021793434 0.10686037 0.025517907
000090 4f 79 43 bf e7 01 07 be 67 3c 62 be 3d 06 54 be
       -0.7635698 -0.1318432 -0.22093354 -0.20705505
0000a0 c6 cf d3 3d ad 42 c0 3d 2b 43 ca bf 00 31 49 be
       0.10342364 0.093877174 -1.5801748 -0.19647598
0000b0 a7 12 ae 3e 0a b2 65 be 43 b2 1a bf d0 33 f1 3e
       0.33998606 -0.22431198 -0.60428256 0.47109842
0000c0 8d 67 0a 3f 2b fe 63 3e 80 1a 32 3e 6b e4 3b 3f
       0.54064256 0.22264926 0.17392921 0.73395413
0000d0 8e 36 a4 bf 39 8f c8 be ff 61 a1 3e a3 ec 94 be
       -1.2829149 -0.3917177 0.31520078 -0.2908679
0000e0 96 6f 96 bd 9b a7 9f be 8f 61 67 3f 92 81 42 be
       -0.07345502 -0.3118256 0.9038324 -0.1899474
0000f0 b1 26 87 3e 53 12 bd bd f9 ec 8b bd 55 73 26 bf
       0.26396707 -0.09232011 -0.06832308 -0.6501973
000100 e9 54 14 3f e7 34 cb 3e 8e 6c ee be a5 8d 3b 3f
       0.5794206 0.396888 -0.46567196 0.7326301
000110 2d 2a 98 bf aa 10 70 3e b2 bf 2e 3d a3 b9 13 3f
       -1.1887871 0.23443857 0.042663284 0.57705134
000120 57 03 bb bf a2 2f 8a be c5 df b5 3e 58 67 a0 3f
       -1.4610394 -0.26989466 0.35522285 1.2531538
000130 f9 17 c7 3e ea ed 68 be 0d c2 22 bf 09 be b3 3e
       0.38885477 -0.22747007 -0.6357735 0.35105923
000140 98 7f 25 3e ec 12 5a be f8 8b 0c 3f ea 4e b3 3d
       0.16161954 -0.2129628 0.54901075 0.08755286
000150 d4 55 c5 3e a8 ac e4 3e 05 2d ee 3d cd aa 29 bf
       0.38542044 0.44662976 0.116296805 -0.66276246
000160 d6 86 af be a6 26 4a be 70 18 36 3e 21 15 d9 be
       -0.3428256 -0.19741306 0.1778276 -0.42398933
000170 07 24 90 3f 47 1d 21 bd 9d 63 e5 3e d6 3f 92 3e
       1.1260995 -0.03933456 0.4480256 0.28564328
000180 3e e9 29 3e 42 5f c0 be f8 23 0d bf 1e 46 10 3e
       0.16592881 -0.37572676 -0.5513301 0.14089248
000190 c6 9b a2 3d 84 c5 ba 3d 07 5e 0e 3e 17 f9 ef be
       0.07939868 0.09119704 0.13903056 -0.46869728
0001a0 bb 59 e4 3e 5a 43 ee 3e 77 b0 8c 3e 51 ff aa 3c
       0.4459971 0.4653576 0.27478382 0.020873697
0001b0 45 cd 88 bf ff 2c fb be 97 34 60 3d 6c a6 7c 3e
       -1.0687643 -0.49057767 0.054737654 0.2467286
0001c0 c7 a9 9e bf 9f d7 b2 be 34 7f f5 3e 80 85 26 3f
       -1.2395562 -0.3493013 0.4794861 0.65047455
0001d0 de 96 da 3e 66 44 3b 3e cd 82 66 bd fb c2 19 be
       0.42693228 0.1828781 -0.056277085 -0.15015785
0001e0 55 28 0d 3e a5 a7 89 bd 9b 55 64 be d1 29 92 3e
       0.13784917 -0.06721429 -0.22298281 0.28547528
0001f0 5e 77 26 be 6e 46 00 3d da 8f a6 3e ab 44 43 bf
       -0.16256472 0.031317167 0.32531625 -0.76276654
000200 f7 0b 82 3f d2 e0 cc bd bd 61 d9 3e 71 a1 c0 3e
       1.0159901 -0.100038186 0.4245738 0.3762317
000210 c6 4d 29 3d 11 61 73 bd d8 f5 dc be 3f f6 2c 3e
       0.041333936 -0.05941874 -0.43156314 0.1689081
000220 4d 66 ab 3e 26 6d 17 bd 88 40 72 bd 03 d7 5a 3d
       0.33476487 -0.036969326 -0.059143573 0.053427707
000230 a2 2d 5f 3f 27 e2 d4 3d e7 aa ba 3e 5e 8b d0 bf
       0.87179005 0.10394698 0.36458513 -1.6292531
000240 77 b2 1b be 22 85 13 3f c7 9b ca 3e 53 64 fd be
       -0.15204798 0.5762502 0.39571974 -0.49490604
000250 36 85 18 3f 27 85 81 3e 37 30 1b 3f 61 25 bf 3e
       0.59578264 0.252969 0.60620445 0.37333205
000260 77 61 89 3d dc b6 b9 be 91 8b 2c 3e 7a 0c 20 3f
       0.06708043 -0.36272323 0.16850115 0.6251904
000270 53 46 09 3d 16 ad da 3d 70 25 dc bb c7 7d b2 3d
       0.033514332 0.10677545 -0.00671833 0.087153964
000280 a0 a0 87 3e b8 f2 fa 3e bc 5c 8f 3c 11 8c 9c be
       0.26489735 0.49013305 0.017500274 -0.30575612
000290 92 27 5f bf fe c3 06 3f e2 89 0b be cc ca 33 be
       -0.87169755 0.5264281 -0.13626817 -0.1755783
0002a0 8c 06 09 3f 03 ae db 3d f6 dc 51 3f 85 98 69 3e
       0.53525615 0.107265495 0.81977785 0.22812088
0002b0 0e b1 27 ba ae 32 93 bf df b9 78 3d 63 91 04 3f
       -0.00063969276 -1.1499841 0.060724135 0.5178434
0002c0 66 b9 3e 3e ba 84 b4 be 36 e7 85 be b8 00 ff 3e
       0.18625411 -0.35257512 -0.26152962 0.49805236
0002d0 d1 56 2c 3e 36 07 7a bd aa 7d 53 3e fc 4f 88 bc
       0.16829993 -0.061042033 0.20653406 -0.016639702
0002e0 04 54 bf 3e 21 9d e0 be ba db b5 3e 86 03 5d 3e
       0.37368786 -0.4386988 0.355192 0.21583375
0002f0 af e0 1f be dc fd ce 3d 8c 7c 0b bf 67 73 19 3f
       -0.15613054 0.101070136 -0.5448692 0.59941715
000300 2e 9e d4 3e 9e be 05 be 34 c8 a6 be ec 6a 9c 3e
       0.41526932 -0.13060996 -0.32574618 0.30550325
000310 00 95 99 3e dc 22 cb be 24 f8 81 be 19 87 ec bd
       0.2999649 -0.39675033 -0.2538463 -0.11549205
000320 08 37 c5 bf ba a5 80 3f 8c 4a 88 3e 98 ee 25 3e
       -1.5407419 1.0050576 0.26619375 0.16204298
000330 ab 40 5c be 85 dd 3b 3e 01 9c a4 3e 9a 94 01 3e
       -0.21509044 0.18346222 0.32150272 0.12654343
000340 94 ed ab bd 6e 93 2f 3f 0b e0 ae bf cc 20 bf bd
       -0.08394924 0.68584335 -1.3662122 -0.093324274
000350 58 fd ee bd 2a 69 4d be f8 26 bf 3f 21 d8 a9 be
       -0.11669415 -0.20059648 1.4933767 -0.33172706
000360 25 65 70 3e bd e0 d5 3e 1e 96 89 3e 3f 5e a5 be
       0.23476084 0.41773024 0.26872343 -0.32298467
000370 a4 df 8a bf 97 d8 b9 bc a0 60 92 be ac 66 0d be
       -1.08495 -0.022686286 -0.28589344 -0.13808697
000380 7d 07 8e be fa a7 96 3a c9 e0 1e 3e 08 24 1a 3f
       -0.27740088 0.0011494153 0.15515436 0.6021123
000390 4c ad 8e 3e 1c eb 96 be 6b 53 e2 bf c5 53 68 be
       0.2786659 -0.2947625 -1.7681707 -0.22688206
0003a0 64 b5 1a 3d 0b ed 0a bd 41 e7 9a 3e d4 6e df bd
       0.037770644 -0.033917468 0.30254558 -0.10909811
0003b0 7e e8 d0 3e 49 9b 05 3f 58 0c 6a 3f cf a5 16 3e
       0.40802377 0.5219007 0.91425085 0.14711688
0003c0 cf eb 9a 3e e8 7d 43 be 00 9e ba bd 65 cf 3d 3f
       0.30258033 -0.19090998 -0.09112167 0.74144584
0003d0 ea 64 86 3d 78 2f 49 bf 25 e6 1b 3e 8f 1d a5 be
       0.065622166 -0.78588057 0.15224512 -0.32249114
0003e0 a7 6f 74 3e 28 6b b6 3c 6b e6 55 be 3b a6 f3 3d
       0.23870717 0.022267893 -0.20888679 0.1189694
0003f0 6c 76 e5 be 68 40 03 3e 3e 53 43 3f 21 2e 99 bf
       -0.4481691 0.12817538 0.7629889 -1.1967202

network_body._body_endoder.seq_layers.0.bias f4 [128]
000000 32 ee 56 bd 8f ea 27 3c 9b 52 e1 bd 2e 8d 58 bd
       -0.052473255 0.010248794 -0.11002084 -0.052869014
000010 d7 23 92 bd 33 0b 49 bc a4 24 a2 bd 8a f1 65 bd
       -0.07135742 -0.0122707365 -0.07917145 -0.056138553
000020 d2 b6 f6 bd 5e 60 0d 3e d2 91 a1 bd b4 d3 54 3d
       -0.12046589 0.13806292 -0.07889141 0.05195971
000030 c6 21 15 be 85 20 78 bc a9 47 c0 bd 96 93 81 bd
       -0.14563665 -0.015144472 -0.09388668 -0.06326978
000040 26 23 4d 3e ad 2e ed bd 0f 42 6e 3e 0a ef 0b 3e
       0.2003294 -0.11581168 0.23267387 0.13665405
000050 b0 a5 46 3d 0e 92 1c bb df 8f 9a 3d a3 c1 42 3a
       0.048497856 -0.0023890766 0.075469725 0.0007429367
000060 ff 7d 45 3e 80 37 46 3e b0 8f 0a bb b8 64 66 3e
       0.19286345 0.19357109 -0.0021142773 0.22499359
000070 e8 a2 58 be 73 55 8b 3d 63 0f 04 3e 31 bd b4 bc
       -0.21155894 0.068034075 0.12896495 -0.02206287
000080 fb e1 9d 3d fb 28 05 3e 3b d2 1e bc ad 3f 0b 3d
       0.07709118 0.13003914 -0.009693678 0.033996273
000090 bd e9 a3 bd 1b c4 9d 3d d9 64 26 3b f1 9c fb 3d
       -0.080035664 0.0770342 0.00253897 0.122857936
0000a0 43 dd 17 be 20 7b 38 3e 2f 82 37 bd 4f 0c 21 bd
       -0.14830498 0.18015718 -0.044801887 -0.03931838
0000b0 de 18 9b 3d d3 2e 41 be fa 30 10 3e 6e b6 3a bd
       0.075731024 -0.18865518 0.14081183 -0.045584135
0000c0 3c d6 87 bc 5d 3e 87 3d c0 d6 c7 3d b6 38 b8 bd
       -0.016581647 0.06603692 0.09757757 -0.08995192
0000d0 ac 49 44 bd 2d 4c be 3d e5 6c 4f bc ae c5 3d 3e
       -0.04792182 0.09291873 -0.01266024 0.1853244
0000e0 ec e0 3c 3e de 4c 1e 3e 53 35 54 bd 41 9e a5 3d
       0.18445176 0.1545901 -0.051808666 0.08086825
0000f0 0d 70 bd bc a5 7c 64 bd 58 bd a0 bd de 8b a3 bc
       -0.023124719 -0.055782933 -0.078486145 -0.019964155
000100 6d b5 9a 3c 75 41 90 3d f2 50 87 bd e4 38 21 3d
       0.018885339 0.07043735 -0.06607236 0.039360896
000110 70 f6 ca bd 95 07 92 3c 01 86 5f 3d 1b e1 02 be
       -0.099102855 0.017825881 0.054571155 -0.12781183
000120 89 78 6f bc 6b 65 31 be 7a 44 b2 bd 54 20 91 3d
       -0.01461614 -0.17323844 -0.08704467 0.07086244
000130 19 cb bd bd ba 25 a0 3c 2e 39 de 3c 71 b7 6f 3b
       -0.092672534 0.01954924 0.027126875 0.0036577845
000140 7b b7 ae bc 3d 88 ed 3d 8b 66 e6 3c 07 ec 9c 3e
       -0.021327725 0.11598251 0.028125068 0.30648825
000150 8a f5 8d 3d 5d f5 09 3d b3 17 95 3e 0e 63 cf 3d
       0.069315985 0.033681262 0.29119644 0.10126315
000160 86 3d ef 3d bc bd d1 bc 7c 38 1e 3e 2d 82 a5 3d
       0.116816565 -0.025603168 0.15451235 0.0808147
000170 11 01 81 3d 9b aa 10 3e 78 a8 fd 3c 28 c3 8d 3e
       0.062990315 0.14127581 0.030964121 0.27687955
000180 5e 12 07 bd ee 49 70 3e 29 91 85 3d 02 9b 91 3b
       -0.0329765 0.23465702 0.06521828 0.004443527
000190 52 42 2d 3e c3 70 a4 3d fb cd 58 3b 42 5b 81 bd
       0.1691983 0.0802932 0.0033081758 -0.06316234
0001a0 c8 f7 f1 3d 09 86 18 3e 43 c5 56 3e 87 dc ad bc
       0.11814839 0.1489488 0.20973687 -0.02122332
0001b0 f7 c4 64 bd da 05 b5 3b 2b c1 44 be 59 6e 1b 3e
       -0.055851903 0.005524379 -0.19214313 0.15178813
0001c0 2e 0d 4e bd 3e 26 c2 3d 5f 16 62 bc 47 49 34 3e
       -0.050305538 0.0947995 -0.013799279 0.17606078
0001d0 f3 3a 84 3e 6f 6d 88 3d a6 d1 06 3e 3b b9 07 3d
       0.25826225 0.06661498 0.13165912 0.033135634
0001e0 63 c6 92 3e d4 97 9d bd 85 58 2e be 67 0b b0 bc
       0.28666982 -0.076949745 -0.17025955 -0.021489812
0001f0 ce 4d 0c 3e 4d d6 bb 3d 61 88 27 3e 4b 21 da 3d
       0.13701555 0.09171734 0.16360618 0.106508814

network_body._body_endoder.seq_layers.2.weight f4 [128, 128]
000000 c4 2f 87 be 8d 03 15 3e 62 c3 80 bf 1d 65 b8 3d
       -0.2640363 0.14552136 -1.0059626 0.09003661
000010 6e 1f 99 bf 0d e3 37 be 6f 9a 52 3e 98 92 24 3e
       -1.1962717 -0.17957707 0.20566724 0.16071546
000020 08 84 5c be 04 20 83 3e 55 7a ac 3d c5 9a cc 3d
       -0.21534741 0.25610363 0.084217705 0.099904574
000030 b4 ee 1e be 88 01 87 be 88 9e cf 3c d3 a5 dc be
       -0.15520746 -0.26368356 0.025344148 -0.43095264
000040 4e 63 a7 3d 11 92 21 bc e6 58 e6 3e ae 52 13 3f
       0.08173238 -0.009861485 0.449897 0.57548034
000050 e2 78 a9 3c a5 6e 9e 3b fc 8a 21 3e f4 2a 3d 3e
       0.020687524 0.004834967 0.15775675 0.18473417
000060 5e cb 5b 3d 50 a8 56 3d 13 0e c1 3d f5 dc 4c 3e
       0.053660743 0.05240661 0.094265126 0.20006163
000070 8e 28 82 bf 90 4c c0 3e 48 c7 40 3e b0 36 92 3e
       -1.0168626 0.37558413 0.1882602 0.28557348
000080 9e 32 f6 bc 7d 96 1e be ad bb cf be 84 d9 34 be
       -0.030053433 -0.15487094 -0.40572873 -0.176611
000090 a9 83 68 bd bd de 30 3d d7 70 ee bd 98 13 87 bc
       -0.056766186 0.04318117 -0.11642616 -0.016488835
0000a0 24 11 55 be e1 6b 9a 3c c7 b2 1e bc 7f 95 ed 3d
       -0.2080732 0.018850269 -0.0096861785 0.1160078
0000b0 16 01 16 be a1 e5 a6 be 55 8d 39 3e 93 94 40 3d
       -0.14648852 -0.32597068 0.1812032 0.04701669
0000c0 5b b3 a8 bd 63 60 c1 bf 35 6f b3 3d 67 b8 be be
       -0.08237334 -1.510754 0.087614454 -0.37250063
0000d0 82 10 ef bd af 20 95 bd d2 ac c8 bd e5 cd 5b be
       -0.116730705 -0.072816245 -0.09798588 -0.21465261
0000e0 3d f7 91 3e 7d e0 15 bd b1 92 59 be a1 fc 95 bd
       0.2850894 -0.03659104 -0.21247365 -0.07323576
0000f0 e7 4a 12 bf 47 7f 55 be 51 d1 06 bf 85 0d ad 3e
       -0.5714554 -0.20849334 -0.5266314 0.33799377
000100 63 4f 40 be 8e a2 2e bf 9d 21 f8 be c3 6f 06 bb
       -0.18780284 -0.6821679 -0.48463145 -0.0020513393
000110 52 aa c4 3e 94 1b b9 3c 0c 34 4e bf 47 fb 21 be
       0.38411194 0.022596158 -0.8054817 -0.15818511
000120 2b 34 39 bd 54 c0 90 be 7b 4d 30 bb 0d 81 0b 3e
       -0.045215767 -0.28271735 -0.002690165 0.13623448
000130 18 42 34 be 51 bf 88 3e d8 08 2c be b1 e0 c9 be
       -0.17603338 0.26708463 -0.16800249 -0.39429238
000140 78 46 e2 be 93 9c 53 be 68 91 91 bd 6f 2e c0 3e
       -0.44194388 -0.20665197 -0.07107812 0.37535426
000150 e6 92 9a 3e 6c 8c bb 3e 50 c4 07 3f e9 82 ec be
       0.301902 0.3663057 0.53033924 -0.46193627
000160 7c 51 ac be 90 47 bd 3d af 37 ed bc 52 6b 2f bf
       -0.33655918 0.09242165 -0.028957216 -0.6852313
000170 e3 34 fb 3d 55 b6 4f 3e e4 b8 4f be d2 d1 0d be
       0.12265947 0.20284398 -0.20285374 -0.13849571
000180 6a 9a 42 3e a7 cc 7b 3d 5e 2c 43 3e 12 2f ca 3e
       0.19004217 0.06147447 0.19059893 0.39489037
000190 d5 78 88 3e 1c ae 57 be 78 42 3b be 32 e6 d8 be
       0.26654688 -0.21062511 -0.18287075 -0.42363125
0001a0 ec 12 46 3e c3 20 5f be 9f c9 3d bd f9 77 5f 3e
       0.19343156 -0.21789841 -0.04633486 0.2182311
0001b0 c2 b6 a9 3e 3e ae 77 3e c2 2c 9b bf 7a c4 64 3e
       0.33147246 0.24187562 -1.2123034 0.22340575
0001c0 a1 d9 75 bd e6 16 bf bd 76 d8 9d be 67 ff f9 3d
       -0.060022 -0.093305394 -0.3082921 0.12206917
0001d0 6d 5c 92 3e 89 91 ab 3e 1a 96 99 3d cc 5a 95 3d
       0.2858614 0.33509472 0.07499333 0.07292709
0001e0 52 2a cc 3e 92 74 9b 3e 44 1b fc bd 27 0b 4e 3e
       0.39876038 0.30362374 -0.12309888 0.20121442
0001f0 28 4d 67 bd ef c7 75 3d 6f 87 aa 3d 0c 6b 9e be
       -0.056470066 0.060005125 0.08326613 -0.30941045
000200 c7 10 a4 3c b2 c2 ad 3e e0 7c 13 3e 6a 00 47 bd
       0.020027531 0.33937603 0.14403105 -0.04858438
000210 3a c1 c8 3e c6 eb 37 bd ac 49 96 3e 4b 7e 9d 3e
       0.3920992 -0.044902585 0.29353082 0.30760416
000220 ab b2 36 3b af 39 9f bd 68 b9 94 be 12 02 9d be
       0.002787749 -0.07774674 -0.29047704 -0.30665642
000230 13 ff 94 3d 53 5a 90 bc a0 a1 ec 3d 45 88 5e 3d
       0.07275214 -0.017621195 0.11554265 0.054329176
000240 11 e8 3b bf 54 2a 23 3e a3 d6 0e be 58 b5 d4 bc
       -0.7340098 0.15934116 -0.13949065 -0.025965378
000250 d9 88 ba 3d 40 11 4b bd 57 99 07 bd ec f5 04 3e
       0.09108133 -0.049576998 -0.03310522 0.12984437
000260 35 a0 19 bf e5 ea 6c bf 01 7c a4 bd 3d 05 60 3d
       -0.6001008 -0.9254592 -0.08031464 0.054692496
000270 10 ae 4a 3d 7b 43 2c 3d da 9c 7f 3f 69 13 8b be
       0.049482405 0.042056542 0.9984871 -0.27163246
000280 0b 8a bd bc e2 0f 90 3d fc a4 ba bd f6 d7 c3 3b
       -0.023137113 0.070342794 -0.091134995 0.0059766723
000290 2e b6 95 bd f2 50 31 be 03 ec 1e be 6e 10 bf 3d
       -0.07310139 -0.17316034 -0.15519719 0.093293056
0002a0 5a 64 0b bd 8f d8 ac bd 56 5a 5c 3e 03 8a e3 3e
       -0.03403125 -0.08439743 0.21518835 0.44441232
0002b0 76 77 1c bf ef 16 c6 bd 79 d8 a0 3e 06 8c 9e bf
       -0.6111978 -0.09672343 0.31415156 -1.2386482
0002c0 ed b0 a9 bd 9a e4 85 bd 37 98 25 bf 81 cb ab 3e
       -0.08285699 -0.06537743 -0.64685386 0.335537
0002d0 3e 4e 8b 3e d3 f3 20 3e 7d 03 98 be 5c 3c 55 be
       0.27208132 0.15718012 -0.2969016 -0.20823807
0002e0 71 4b 5f 3c ff 86 a5 be 07 dc 11 3e c0 02 2f bf
       0.0136288265 -0.32329556 0.1424409 -0.6836357
0002f0 9c 29 24 bd 54 e7 b4 3e 17 bc 16 3f 63 8d 77 be
       -0.040078744 0.3533274 0.5888075 -0.24175029
000300 94 95 4e 3e 3f de 04 3f 9c f3 a8 3e 43 75 16 be
       0.20174247 0.5190162 0.3299836 -0.1469317
000310 96 fb 1b 3c ad f8 ac 3e 14 4d 2f 3d 0f be 66 3d
       0.009520432 0.33783475 0.042798117 0.056333598
000320 69 98 c5 bd c8 ac 3b be bd e0 2d 3d 5e fc 50 3e
       -0.096482106 -0.1832763 0.042450655 0.2040877
000330 7d f8 72 3e 29 67 42 bf a1 76 a9 3e 7e e6 05 3e
       0.23727603 -0.7593866 0.3309832 0.13076207
000340 65 4c 37 3e 56 c8 db 3d fa b5 49 be 8b 22 7e be
       0.17900236 0.107315704 -0.19698325 -0.24817865
000350 b3 b5 6f be 44 97 a2 bc 0b a2 89 3c 9f 71 c8 bc
       -0.23409157 -0.01984752 0.0168009 -0.024468241
000360 29 ac 9c 3e 59 9e 6a 3e f2 6c cb 3d 2c 85 34 3e
       0.30600098 0.22911967 0.09932889 0.17628926
000370 45 85 42 be e4 d1 f2 bc a0 17 1b 3e df cd d5 3c
       -0.18996151 -0.0296411 0.15145731 0.026099144
000380 12 34 bd be 5f 78 c0 bd f2 c3 82 bc dc da 8a 3e
       -0.3695379 -0.09397959 -0.015962575 0.271201
000390 99 c2 5c 3e 20 64 2a 3d 55 ef be bd 35 42 9c 3d
       0.21558608 0.041599393 -0.09322993 0.076298155
0003a0 11 16 09 3b 1e f2 e9 be aa fc 84 3e 5e cf 7c 3e
       0.0020917694 -0.45692533 0.25974017 0.2468848
0003b0 e9 f7 7c bf 89 e3 8e 3e 88 26 84 be b7 19 40 bd
       -0.9881578 0.2790797 -0.25810647 -0.046899524
0003c0 68 b7 a0 3e 2a cc d2 3e 35 d3 16 3e 1e 86 df be
       0.31389928 0.4117139 0.14729007 -0.4365701
0003d0 8d 81 f9 3d 75 fa 39 bd 73 07 b1 be 55 7d 26 3e
       0.12182913 -0.04540487 -0.34575996 0.16258748
0003e0 9a 6d dc bd 71 2e 15 bf 1d ae ea 3d a3 ac f1 3d
       -0.10763092 -0.5827399 0.11458991 0.11800506
0003f0 45 c4 08 be 60 50 91 bc b7 72 be be d7 30 8b 3e
       -0.13356121 -0.017738521 -0.37196895 0.271857

network_body._body_endoder.seq_layers.2.bias f4 [128]
000000 d0 af 99 3d 7d b9 a3 bd cc c4 c3 bc 50 5d fc 3c
       0.07504237 -0.079943635 -0.023897551 0.030806214
000010 e8 4c bf bd c9 fb 20 3d aa 88 a9 be 7d bb 0a 3e
       -0.093408406 0.03930262 -0.3311208 0.13548084
000020 04 fa a2 3c 8f ec 08 be ad 60 3c 3d be ad 19 bd
       0.019894607 -0.1337149 0.045990635 -0.03751921
000030 c5 96 5e 3d 0b 63 40 be 16 03 e7 3c cf 2b c9 bd
       0.054343004 -0.18787782 0.028199714 -0.09822809
000040 f2 50 f6 3c d6 a5 ad 3c 49 33 ab be 42 f3 07 be
       0.030067895 0.02119724 -0.33437565 -0.13276389
000050 7b 31 5b bd 1e b8 48 3e 82 77 fc bd 03 7d 8a 3e
       -0.053513985 0.19601485 -0.12327482 0.270485
000060 87 39 46 3b 4f 7d 6d bd 7c 15 8e bd ff fd d2 bd
       0.0030246691 -0.05798083 -0.069376916 -0.10302352
000070 61 80 14 be a6 6f 43 3d 5c a3 dc 3d 7a ff 3a be
       -0.14502098 0.047713898 0.10773346 -0.18261519
000080 68 81 e5 3c 30 0a 86 3d 0b 82 33 3d 91 81 85 be
       0.028015807 0.06544912 0.04382519 -0.26075414
000090 f0 c8 1d bd aa 5f 3f 3d 4a 5d 80 3d 84 b9 ee bd
       -0.038521707 0.04672209 0.062677935 -0.11656478
0000a0 7e 30 cf 3d 5a 23 f5 bd 77 40 1e be f7 15 63 3d
       0.10116671 -0.119696334 -0.15454279 0.05544087
0000b0 73 d9 8d 3e 4a 50 6d 3d ff a9 84 3e 1c 2b c6 bc
       0.27704963 0.057937898 0.25910947 -0.024190478
0000c0 37 76 7c bd d8 6f 58 3d 11 68 6b 3d 38 89 25 3d
       -0.061636176 0.052841038 0.057472292 0.040414065
0000d0 5e dd 88 3d 7b ac 07 3e ee ef 10 be e6 1e ef bd
       0.066828474 0.1324939 -0.14154026 -0.11675815
0000e0 f1 c9 0f 3e 8e 2b 8d 3e ac 01 4c bd ee 4a 0c 3e
       0.14041878 0.27572292 -0.049806282 0.13700458
0000f0 3e 12 75 3e b8 73 03 bd cd da 6a be fd e0 8f 3c
       0.2393274 -0.03209278 -0.22935028 0.017563337
000100 f3 ef 1a 3c b7 db ee bc 4c d9 20 be b4 d1 38 3e
       0.009456622 -0.029157503 -0.15707892 0.18048745
000110 2e 29 c4 bd 25 9c 9f 3b b2 8c 11 be a1 19 30 3e
       -0.09578167 0.004870909 -0.14213827 0.17197277
000120 0a 56 66 3d c6 98 b9 3d 75 4b 62 3e a5 5f cf 3d
       0.056234397 0.09062342 0.22099097 0.101256646
000130 fa 32 91 3b 15 c6 79 be 9f 79 8a bd 31 f0 be 3c
       0.0044311257 -0.24391969 -0.06761479 0.023307892
000140 6e cd b5 3d a3 e2 99 3c 24 e5 14 be 86 77 e0 3d
       0.08877073 0.018784827 -0.14540535 0.10960297
000150 b6 8c 66 3c bb ef 43 3c 40 c4 05 3b e5 29 10 be
       0.014071634 0.011959012 0.0020411164 -0.14078481
000160 6d 49 e4 3d 53 0c 7a bd e2 74 b6 be 03 01 2c be
       0.11146817 -0.06104691 -0.3563605 -0.16797261
000170 ad 02 6d 3e be 5c ac 3d 74 ab 55 bd 06 67 85 3c
       0.23145552 0.08416127 -0.052165464 0.016284477
000180 1e bf c7 bb 6f 67 63 3e 12 d5 95 bd 8f 87 c7 bd
       -0.006095781 0.22207426 -0.073160306 -0.097426526
000190 09 4d c5 be 01 26 68 be 17 8e 8d bd 92 63 86 bd
       -0.38535336 -0.22670747 -0.06911867 -0.0656196
0001a0 79 ab 8c 3d 9b e0 c2 bd 5e 6c 2a 3e b6 17 a3 be
       0.06868643 -0.09515496 0.16642901 -0.31854028
0001b0 4d a9 83 3d 3b dc 18 3e 47 4e 90 be d5 78 79 bd
       0.06428776 0.14927761 -0.2818472 -0.06090625
0001c0 c9 28 e4 bd cf 55 75 3e a1 33 00 be 1a d0 e2 bd
       -0.11140592 0.23958515 -0.12519695 -0.110748485
0001d0 06 6f 81 3d 5f 87 46 3d 0c d3 7a 3c 90 76 7d 3e
       0.06320004 0.048468944 0.015309107 0.24752259
0001e0 bb e1 0d 3e ed da 6f 3d 7f a9 4c be 58 b6 1f 3d
       0.1385564 0.058558393 -0.19986533 0.038992256
0001f0 80 83 5d 3e bb b6 ab bd ba f7 26 be fe 74 26 be
       0.21632195 -0.083844624 -0.16305438 -0.16255566

action_model._discrete_distribution.branches.0.weight f4 [3, 128]
000000 76 44 8b 3b 33 a0 1f bf ac f0 a9 3e 6a 54 40 3f
       0.0042501045 -0.6235382 0.3319143 0.75128806
000010 ab e4 84 3e 98 fd 05 3f 5a 6e 44 bf e4 81 94 3e
       0.2595571 0.5234008 -0.76730883 0.2900535
000020 d2 40 1e 3e 50 1b 18 be 7b 5f a5 be 7b 91 33 3e
       0.15454414 -0.14854169 -0.32299408 0.17535965
000030 02 3d 0f 3f 58 e6 e0 be fc 8f c8 3e f6 9e 63 3e
       0.55952466 -0.43925738 0.3917235 0.22228608
000040 d8 c9 0a 3f 74 2e 55 3e 45 0b 8b bf 83 51 83 bf
       0.5421424 0.20818502 -1.0862814 -1.025925
000050 00 a6 4a bf 11 77 89 bf 75 2d 63 bf ef 06 05 3e
       -0.79159546 -1.0739461 -0.88741237 0.12990926
000060 48 c7 1c 3f 48 e9 6c 3f 6d 80 e4 bd 7e 1f 15 bf
       0.6124158 0.9254346 -0.11157308 -0.5825118
000070 a2 39 d4 be 21 ac c7 3e 88 8a f5 3d a4 11 a5 be
       -0.4145022 0.3899851 0.11989313 -0.3224002
000080 b9 a7 a7 3e 1b 88 a0 3e 39 eb 17 3e 95 7c 1c bf
       0.3274515 0.3135384 0.14835824 -0.611276
000090 a4 2f 8d bd f4 cc a2 bf 7c 86 f4 be 96 34 80 bb
       -0.06893852 -1.2718797 -0.47758853 -0.0039125187
0000a0 32 7c f8 3e 83 96 06 be 49 34 0f be 4c f8 b2 bf
       0.48532254 -0.13143353 -0.13984789 -1.3982024
0000b0 19 9b 3f 3f 07 86 93 3e 43 65 8f 3e e8 25 8c 3e
       0.74846035 0.28813192 0.28006944 0.2737267
0000c0 aa f6 16 3f 17 e0 d5 bd 83 1e 10 be 32 33 66 bd
       0.5897013 -0.10443132 -0.1407414 -0.056201167
0000d0 bf ea 84 3e 11 b1 b2 3e c0 90 10 bf cb e6 3a 3e
       0.25960347 0.34900716 -0.5647087 0.18252103
0000e0 bd d9 1b 3f f2 8b f2 3e 9e 52 b3 be d8 63 d5 3e
       0.6087912 0.47372395 -0.3502397 0.41677737
0000f0 0a f7 fe 3e 26 bf 14 3e 4a aa 39 3e ea ca e1 3e
       0.4979785 0.14526042 0.18131366 0.44100124
000100 89 62 0c 3e 77 d3 a8 3e e7 7a 95 3e 89 1d 43 3e
       0.13709463 0.32973835 0.2919533 0.19054236
000110 1c 68 82 3e 5d 03 15 3e 34 ac aa bf 9a 89 45 3f
       0.25470054 0.14552064 -1.3333802 0.7716309
000120 ad 32 2f bf 5e 11 4a bf 6e 35 af 3e b0 a8 5b 3f
       -0.684367 -0.7893275 0.3422045 0.8580427
000130 ae 71 60 bf 46 cc 63 bf 13 a7 27 be fc 46 b8 3d
       -0.8767346 -0.8898357 -0.16372328 0.08997914
000140 17 15 8a bf 0e 9d 10 bf aa 1c 0d be 35 e7 a3 3d
       -1.0787686 -0.56489646 -0.13780466 0.080030836
000150 1d a2 5f 3d eb 7b 98 bf 9b 35 fc be b9 79 ac 3e
       0.054597963 -1.1912817 -0.49259648 0.33686617
000160 ab 65 79 3f 5e 04 8a 3e 8d e8 a2 bf 12 63 15 bf
       0.9742076 0.26956457 -1.2727219 -0.58354294
000170 a3 82 7d 3e 61 ad 52 3f 7c 1b bc 3e 3a 7e 38 be
       0.24756865 0.82295805 0.3673972 -0.18016902
000180 0f af 2a bf 28 fc 29 bf 24 49 aa bd 21 5f 0a bf
       -0.6667337 -0.66400385 -0.08314732 -0.54051405
000190 54 ee c2 bb 75 02 d4 be 38 6f 67 3e 69 31 99 3d
       -0.005948821 -0.41408125 0.2260102 0.07480127
0001a0 9e 87 1e bf a4 4d 39 3e 10 91 8f 3e e8 87 94 bf
       -0.61925685 0.18096024 0.2804036 -1.1603975
0001b0 7a 20 15 3f ce a8 40 be f0 35 0a bf c5 3c 16 bf
       0.5825268 -0.18814394 -0.5398855 -0.58686477
0001c0 de 4a 55 bf 9e e7 f9 3e 8c 3f 0a bf dc f2 24 bf
       -0.83317363 0.48809522 -0.54003215 -0.64433074
0001d0 d3 28 7b be aa 04 9a 3e e3 00 00 bf df 05 6d 3e
       -0.24527292 0.30081683 -0.50001353 0.23146771
0001e0 22 66 7b 3e b3 ab f5 be 08 bd 19 bf 35 40 dd be
       0.2455068 -0.4798256 -0.60054064 -0.4321305
0001f0 e0 84 d8 3e 97 c8 40 bf f4 8d 55 bf 9b 7b 4e 3e
       0.42288876 -0.75306076 -0.8341973 0.20164339
000200 b2 24 71 3f 20 d1 a3 3e 64 7b 58 3b 8c e1 5f bf
       0.9419662 0.31995487 0.003303253 -0.8745353
000210 6e 67 39 bf 88 5a 6e bf 48 a9 8b 3f 95 ed 04 3f
       -0.72423446 -0.9310689 1.0911036 0.5192502
000220 0b 24 c7 be d3 e2 d5 3e 22 1b 84 bd cb 46 e4 3e
       -0.38894686 0.41774616 -0.06450488 0.4458526
000230 a4 5c 75 be 8c 82 84 3e 2c 5b 20 bf 32 6a 93 3e
       -0.23961121 0.2588085 -0.6263912 0.28791958
000240 9c 5d 0d bf 17 a6 cd be be 71 9b be 3f 5a 89 3f
       -0.5522096 -0.4016578 -0.30360216 1.0730666
000250 ad 9b 67 3f 53 4c 1a 3f 6b 72 aa 3f cc 1d 6d be
       0.9047192 0.6027271 1.3316168 -0.23155898
000260 5e 2c 5c bf 9a df 30 bf 91 2b 0b 3f d5 2a 50 3f
       -0.860052 -0.6909119 0.5436335 0.81315356
000270 9e 35 75 3f 33 b0 09 3e 6c 37 70 be 14 24 cb be
       0.9578494 0.13446121 -0.23458642 -0.39675963
000280 70 48 9c be 9d 48 82 be 90 4a 28 3f cc b6 18 be
       -0.30524015 -0.25446025 0.65738773 -0.14913481
000290 d1 ef 0f 3f 67 ab 4e 3f 91 54 84 3f 60 68 18 3f
       0.56225306 0.8073029 1.0338308 0.59534264
0002a0 3b b7 6a bf 5d 22 0d 3f fc b7 6a bf 6f ec 40 3f
       -0.9168584 0.5513056 -0.9168699 0.7536077
0002b0 43 b2 4a bf 51 2d 0f bc 9e e4 c8 3e 7a 0e 90 3e
       -0.79178256 -0.008738832 0.3923692 0.28136045
0002c0 bc 51 8a bf 88 a1 50 bf 0b c2 09 3f e9 03 30 3f
       -1.0806193 -0.8149648 0.5381171 0.68755966
0002d0 1d 4d fa be 3d 1f e8 b8 d3 0a a6 3e 63 af 09 be
       -0.48886958 -0.00011068441 0.32430133 -0.13445811
0002e0 2c 43 07 bf 1c 7b 65 bc 86 42 65 be 17 b5 6f 3e
       -0.5283687 -0.014006402 -0.22388658 0.23408924
0002f0 7f 63 d8 be 8d 2a 65 3e 9d 53 48 bf e8 10 a6 be
       -0.4226341 0.22379513 -0.78252584 -0.32434773
000300 3c 5c 4d bf 6c 55 83 bf 49 9e e5 bd 2b 87 80 3e
       -0.80218863 -1.0260444 -0.11211831 0.25103125
000310 7d 7c 8e bf e2 c9 3d 3e 02 0a a0 3f 87 70 8f be
       -1.1131741 0.18534043 1.2503054 -0.2801554
000320 68 93 0a 3f 2f e4 bc be b2 37 bb be 3b 0e be be
       0.54131174 -0.3689284 -0.3656593 -0.37120232
000330 b2 0d 5a 3f 71 95 87 3f 05 02 31 3f 24 d5 52 be
       0.8517715 1.0592481 0.69143707 -0.20589119
000340 4a d5 90 3f 22 21 0c 3f 0a 5a d8 be 2a 0d 01 bf
       1.1315091 0.54738057 -0.42256194 -0.5041071
000350 73 fc 22 be b8 5b 8d 3f 24 5d a1 3e ac 86 46 bf
       -0.15916614 1.1043615 0.31516373 -0.7754924
000360 68 e4 43 bf ff 35 6f be de 7d 8e 3f 2a 8e ed be
       -0.76520395 -0.23360442 1.1132162 -0.46397525
000370 76 09 22 3d fe ec be bf 0f a9 36 bf c4 9f 1e be
       0.039559804 -1.4916074 -0.7135171 -0.15490633
000380 73 81 09 3f 86 1a 56 3f b4 83 6e be d1 cb 4a 3f
       0.5371315 0.8363422 -0.23292428 0.7921725
000390 15 82 63 3f 8a 7c 8b be 92 21 38 be 7c b4 9f bf
       0.88870364 -0.27243453 -0.17981556 -1.2476954
0003a0 a3 b6 a4 3e 5b 03 e3 3d e6 79 3c bf 91 6c 99 3f
       0.3217059 0.110846244 -0.736235 1.1986257
0003b0 fc bd a7 3d c7 34 a1 be c1 fc 5f be 20 c4 00 3e
       0.081905335 -0.31485578 -0.21873762 0.12574816
0003c0 aa 65 89 3e 61 27 e5 bd 59 a3 fc 3d ad 3a 35 3f
       0.26835376 -0.111891516 0.123358436 0.7079266
0003d0 67 32 4f 3f 17 22 5d 3e 8f d9 80 3e 5b 14 74 be
       0.8093628 0.21595035 0.25165984 -0.2383589
0003e0 8d 13 10 3c 60 b8 48 3f ca 14 29 3f 58 29 ee 3d
       0.008793724 0.78406334 0.66047347 0.116289794
0003f0 8c 14 d7 be 80 7e 9f 3f cb 98 6e 3e b2 7a 2c bf
       -0.42007864 1.246048 0.23300473 -0.6737472

action_model._discrete_distribution.branches.0.bias f4 [3]
000000 08 3b f9 3d f4 e9 30 be 50 3e 5d 3d
       0.121694624 -0.17276746 0.054014504

exp_avg f4 [128, 61]
000000 7e 2b 38 b9 87 33 fa b9 ed b8 ab 89 9f ce e1 0a
       -0.0001756381 -0.00047722107 -4.1340656e-33 2.1744434e-32
000010 89 b9 b1 b9 3a d3 38 b9 c3 d7 f9 b9 e1 f5 07 1d
       -0.00033898305 -0.00017626295 -0.00047653736 1.7994218e-21
000020 9f ce e1 0a aa ee c0 b9 cc f4 2a b9 25 b4 fa b9
       2.1744434e-32 -0.00036798912 -0.00016303657 -0.00047817934
000030 04 00 00 80 9f ce e1 0a 6b 12 ac b9 fe 57 28 ba
       -6e-45 2.1744434e-32 -0.0003282012 -0.0006421803
000040 c2 9c 89 35 e1 f5 07 1d ac 1f 34 ad 2c 8d 37 ba
       1.0252918e-06 1.7994218e-21 -1.0238848e-11 -0.0007001932
000050 2e 50 15 3a b7 b3 9e ba af e4 b4 8e 6d 3f 31 a8
       0.00056958466 -0.0012108003 -4.459364e-30 -9.839227e-15
000060 f4 20 d7 b8 14 d8 2b ba 8d 38 71 37 e1 f5 07 1d
       -0.00010258137 -0.00065553305 1.4377886e-05 1.7994218e-21
000070 a7 0e fe 80 36 48 f7 b9 fd d7 bf 38 50 0e 40 ba
       -2.3331472e-38 -0.00047165313 9.147821e-05 -0.00073263515
000080 30 bb 8b 84 b1 89 92 97 8b 80 d6 b9 0f a7 2f ba
       -3.2850648e-36 -9.469787e-25 -0.00040913033 -0.0006700614
000090 d9 7b f2 37 1f 8e 64 09 31 aa 8c 05 e3 3c d7 b9
       2.890632e-05 2.7511327e-33 1.3228055e-35 -0.0004105336
0000a0 d8 fe 27 ba 01 bb a2 b4 f5 b0 1f a3 b0 3c 54 1c
       -0.0006408519 -3.0310915e-07 -8.656879e-18 7.0223353e-22
0000b0 12 66 19 ba 9a 3a 27 ba 7b 96 58 b6 9e e5 fb 88
       -0.00058516965 -0.0006379277 -3.22741e-06 -1.5160496e-33
0000c0 d1 ce e2 00 b9 b4 bc b9 31 13 28 ba ec f2 85 2e
       2.0829014e-38 -0.00035992803 -0.0006411551 6.0912914e-11
0000d0 0c 00 00 00 3e ec 53 21 51 d7 cd b9 e8 ef 3a ba
       1.7e-44 7.1802245e-19 -0.0003926107 -0.0007131086
0000e0 30 13 a8 b9 33 9a 4a 3b 87 4d 85 3b 30 13 a8 b9
       -0.00032057753 0.0030914664 0.00406808 -0.00032057753
0000f0 11 f6 02 bb c4 27 bf ba a8 65 8c ba da 75 b5 8f
       -0.0019983093 -0.0014583995 -0.0010711448 -1.7893373e-29
000100 5c d0 b1 96 88 24 74 ba 65 ff 86 ba b1 90 c4 ba
       -2.8727386e-25 -0.0009313305 -0.0010299502 -0.0014996735
000110 fb 61 24 1a 5c d0 b1 96 f8 32 45 ba 85 ea 86 ba
       3.3993553e-23 -2.8727386e-25 -0.00075225485 -0.0010293281
000120 54 cb c4 ba 04 00 00 00 5c d0 b1 96 43 4b 5d ba
       -0.001501421 6e-45 -2.8727386e-25 -0.0008441696
000130 99 ad 25 bb 86 93 3f b6 fb 61 24 1a 02 ab 8c af
       -0.0025280474 -2.8547088e-06 3.3993553e-23 -2.558736e-10
000140 5a 25 dd ba 08 bf cd b9 0c 23 0c bb 8d ae a4 91
       -0.0016872094 -0.00039242976 -0.0021383194 -2.5982213e-28
000150 49 f8 21 a9 13 52 5a ba 78 3e 25 bb 59 06 1f b7
       -3.5964534e-14 -0.000832827 -0.0025214236 -9.478616e-06
000160 fb 61 24 1a cd e1 0a 84 d6 59 b8 ba ed 1a f8 ba
       3.3993553e-23 -1.6325505e-36 -0.0014064859 -0.0018928923
000170 30 3b 27 ba 8b cc 10 85 36 f7 91 97 7e a7 f0 ba
       -0.0006379364 -6.808416e-36 -9.43281e-25 -0.0018360463
000180 9b 2f 24 bb 24 f1 d6 b7 a4 64 b5 8f 86 a7 86 08
       -0.002505279 -2.5623078e-05 -1.7886743e-29 8.104216e-34
000190 69 65 bd ba ff c9 25 bb a8 e5 9b b5 5b f9 4d 25
       -0.0014449778 -0.00252974 -1.1615239e-06 1.78654e-16
0001a0 cb 91 f5 1c 0b 2f e1 ba a1 dc 25 bb c1 47 5d b3
       1.6250427e-21 -0.0017180158 -0.0025308507 -5.1520832e-08
0001b0 87 10 1a 8f 33 ca ee 84 8a df b8 ba 7f dd 25 bb
       -7.595969e-30 -5.613922e-36 -0.0014104706 -0.0025309024
0001c0 2b 9c 09 af 7f 07 de 03 24 89 f9 21 ba 84 b1 ba
       -1.251556e-10 1.3049708e-36 1.6909197e-18 -0.0013543584
0001d0 96 e6 bc bb 7f dd a5 ba b7 6f 47 3c 3b d6 90 3b
       -0.0057647927 -0.0012654512 0.012172631 0.0044200695
0001e0 7f dd a5 ba cb e0 ac bb f3 13 d4 b8 f3 ed 5d b9
       -0.0012654512 -0.005275821 -0.000101126636 -0.00021164845
0001f0 9a b2 01 14 00 9d 89 97 da ee d1 b8 d7 3a ef b9
       6.5480586e-27 -8.89305e-25 -0.00010010386 -0.0004562947
000200 94 85 16 39 25 99 aa 1c 00 9d 89 97 b4 03 79 b9
       0.00014354876 1.1289243e-21 -8.89305e-25 -0.0002374787
000210 71 f5 ef b9 89 db 17 39 04 00 00 80 00 9d 89 97
       -0.000457685 0.00014482265 -6e-45 -8.89305e-25
000220 b0 f3 81 b9 b3 78 a3 b9 5e 2a 95 b5 25 99 aa 1c
       -0.0002478636 -0.0003117971 -1.1113696e-06 1.1289243e-21
000230 12 69 4d 2b e2 2a 30 b9 3e fa 01 ba a3 d9 3f 39
       7.2976445e-13 -0.00016800643 -0.00049582485 0.00018296255
000240 37 c3 72 90 02 aa b5 2b 4a 6d 96 b9 fa 72 a1 b9
       -4.7876473e-29 1.290801e-12 -0.00028691656 -0.00030793977
000250 71 b8 a6 b6 25 99 aa 1c 5a 4e 08 02 60 32 0b b9
       -4.9686573e-06 1.1289243e-21 1.0014188e-37 -0.00013274839
000260 6d d3 b7 b9 48 7d 1e 38 2d be 29 07 b1 dd 87 97
       -0.00035062004 3.7786813e-05 1.2770035e-34 -8.780133e-25
000270 34 1e 69 b9 e2 87 a1 b9 69 7d a1 b6 9a b2 01 14
       -0.00022231863 -0.00030809554 -4.8127736e-06 6.5480586e-27
000280 c5 a3 be 09 c3 d5 c4 b8 7a 0a a4 b9 11 1a d4 b2
       4.5894844e-33 -9.3858245e-05 -0.00031288323 -2.4691902e-08
000290 e3 8c 45 a2 20 2a d1 9e 68 2d 4e b9 2f 0f a4 b9
       -2.6773063e-18 -2.2146158e-20 -0.00019662606 -0.0003129183
0002a0 a5 9f 28 32 63 b6 07 14 8e dd 9f 00 a8 44 8b b8
       9.815186e-09 6.851728e-27 1.4681323e-38 -6.640825e-05
0002b0 dd 0d a4 b9 69 ae f3 2c f6 23 9b 84 eb f2 98 a3
       -0.00031290847 6.925839e-12 -3.647335e-36 -1.6582753e-17
0002c0 f4 0c 65 b9 b1 5e 4a b9 de 0d 24 b9 80 f9 e8 ba
       -0.00021843967 -0.00019299496 -0.00015645425 -0.0017774552
0002d0 7e c4 07 3b de 0d 24 b9 21 a2 42 ba 20 14 0b 3b
       0.0020716484 -0.00015645425 -0.0007424672 0.0021221712
0002e0 c0 e0 80 b9 af 93 bb 02 3e 9a 3b 94 d1 14 60 3a
       -0.00024581514 2.7561947e-37 -9.471506e-27 0.0008548024
0002f0 68 52 f3 3a bf a4 a6 37 2f f5 d8 16 3e 9a 3b 94
       0.0018563988 1.9865458e-05 3.5051415e-25 -9.471506e-27
000300 1a c1 45 3a 9a ee f1 3a 66 27 be 37 04 00 00 80
       0.0007543728 0.001845795 2.2668111e-05 -6e-45
000310 3e 9a 3b 94 83 3e 53 3a 8e 33 f5 3a 9e 00 1f b6
       -9.471506e-27 0.0008058326 0.0018707381 -2.3693206e-06
000320 2f f5 d8 16 7e 89 0a 2f 02 08 54 3a 38 7b 99 3a
       3.5051415e-25 1.2599874e-10 0.00080883515 0.0011709696
000330 fc d7 36 3a 65 aa 8e 91 a0 e5 45 2b 81 db 3b 3a
       0.0006974933 -2.2508663e-28 7.030713e-13 0.00071661925
000340 5e 3b f6 3a 58 a8 2b b7 2f f5 d8 16 8b bd ac 00
       0.0018786003 -1.023159e-05 3.5051415e-25 1.58637e-38
000350 43 81 50 3a dd 5d 9c 3a 86 0c 31 3a ac 3f f1 86
       0.0007953832 0.0011929829 0.00067538803 -9.074768e-35
000360 0a 33 ba 98 0e e3 33 3a b3 ce f7 3a f2 a8 ba b7
       -4.813141e-24 0.0006862142 0.0018906206 -2.22516e-05
000370 39 dc 17 08 17 96 5d 08 18 ea 5f 3a f2 ae f4 3a
       4.569878e-34 6.66812e-34 0.00085416576 0.001866786
000380 f9 70 d4 35 a5 97 5d a3 dd ca 83 9e 06 7b 72 3a
       1.582811e-06 -1.2012546e-17 -1.3954067e-20 0.00092498993
000390 b3 88 f4 3a a4 b4 36 36 3d 61 33 88 52 3e 8f 84
       0.0018656462 2.722526e-06 -5.3980156e-34 -3.367637e-36
0003a0 e1 bf 70 3a 0d e4 f4 3a 70 48 4c 2e 06 36 00 80
       0.00091838656 0.0018683687 4.6448567e-11 -1.938e-41
0003b0 cc 05 45 a3 4f a8 60 3a 43 39 90 3b 0d e4 74 3a
       -1.0680619e-17 0.0008570002 0.0044013574 0.00093418435
0003c0 0f 13 ba bb ac 56 19 38 0d e4 74 3a ee 7d e4 3b
       -0.0056785415 3.6558762e-05 0.00093418435 0.00697302
0003d0 09 3e d5 3a a4 ab ce 38 fe a3 6d 14 f5 9f 1a 98
       0.0016269098 9.854816e-05 1.1997784e-26 -1.9984791e-24
0003e0 c3 8d 03 3a e6 21 d8 3a 9b 6e a0 38 85 bc f3 1c
       0.00050183776 0.0016489595 7.6499964e-05 1.6129122e-21
0003f0 f5 9f 1a 98 a1 23 0b 3a 86 6b d7 3a aa dc ab 38
       -1.9984791e-24 0.00053077383 0.0016435243 8.195017e-05

exp_avg_sq f4 [128, 61]
000000 a3 c1 2d 3b 12 ee 8e 38 07 71 46 2f 0e c2 15 31
       0.0026513122 6.815432e-05 1.804815e-10 2.179266e-09
000010 25 1b 60 3a 2d 73 2f 3b a6 2f 35 38 0c 15 92 31
       0.0008548967 0.002677153 4.319814e-05 4.251552e-09
000020 3a 18 70 32 e0 fd 4a 3a 78 f3 2a 3b 87 6e ef 38
       1.3975347e-08 0.0007743519 0.002608506 0.000114169954
000030 24 a7 46 2f af a3 4d 32 7b f5 8c 3a b2 06 2f 3b
       1.8067375e-10 1.1969788e-08 0.0010754311 0.0026706872
000040 57 5d 8b 38 28 20 1c 31 35 40 a4 2f d4 a3 4b 3a
       6.6454224e-05 2.2719266e-09 2.9877048e-10 0.0007768248
000050 b8 ab 2a 3b bc 75 0b 39 3d 99 2c 2f 85 bd 03 31
       0.0026042294 0.00013299932 1.569775e-10 1.9170738e-09
000060 ad a9 2a 3a f7 f4 2d 3b 76 d0 b4 38 55 05 1d 31
       0.0006510269 0.0026543716 8.621898e-05 2.2849538e-09
000070 e6 b5 7d 29 77 0c 64 3a 19 0a 2d 3b 52 00 c8 38
       5.6335057e-14 0.0008699367 0.0026403724 9.536803e-05
000080 5c cf 33 2f 61 71 99 2e 78 37 fd 39 14 13 30 3b
       1.6353624e-10 6.9777746e-11 0.00048297248 0.002686684
000090 2d 78 57 38 3c 90 55 33 4f 3e a0 28 fd 79 93 3a
       5.1371917e-05 4.9724107e-08 1.779059e-14 0.0011251565
0000a0 81 14 2f 3b 18 da 8a 38 ed 13 35 2f 61 71 99 2e
       0.0026715102 6.620976e-05 1.6468933e-10 6.9777746e-11
0000b0 93 63 dc 39 74 79 31 3b 48 bf cc 37 40 fe 5b 36
       0.00042035858 0.0027080448 2.4407767e-05 3.2781536e-06
0000c0 05 cc b6 2e 01 af 97 3a 43 1d 30 3b 65 13 47 38
       8.312643e-11 0.0011572541 0.002687291 4.746336e-05
0000d0 53 75 90 32 5c 71 99 2e d9 9d d7 39 f6 5b 1a 3d
       1.681716e-08 6.977771e-11 0.000411256 0.037685357
0000e0 34 49 33 3a e8 0e 65 3c cc e8 fb 3d 34 49 33 3a
       0.0006839216 0.013980605 0.12300262 0.0006839216
0000f0 61 8a a7 3d c0 bb 36 3e c2 c2 f8 38 ca 65 db 2d
       0.081806906 0.17845058 0.00011861838 2.4942621e-11
000100 ee ad 03 33 09 78 7e 3d 32 c0 36 3e 29 03 d9 38
       3.0659002e-08 0.062126193 0.17846754 0.00010347955
000110 85 cd 8f 2e 10 4d d2 34 86 8d 63 3d fe b2 36 3e
       6.539395e-11 3.9171618e-07 0.05555489 0.17841718
000120 10 c6 25 39 34 9d 13 2e 85 5e 19 32 08 78 a3 3d
       0.0001580941 3.3563555e-11 8.927263e-09 0.079818785
000130 61 c2 36 3e 48 41 d1 38 0f 70 f7 2d 50 2e 2d 32
       0.17847587 9.978056e-05 2.8130413e-11 1.0080456e-08
000140 5a 84 65 3d 54 ac 36 3e 2a 34 43 39 c9 d4 db 2d
       0.056034423 0.17839175 0.00018616082 2.4991913e-11
000150 51 4d ff 32 81 85 3e 3d f1 c4 36 3e ef ec b4 38
       2.9721066e-08 0.046514038 0.17848565 8.627201e-05
000160 e4 37 1a 2e ed 5e 90 28 60 d3 82 3d 38 b3 36 3e
       3.5065187e-11 1.6028379e-14 0.06387973 0.17841804
000170 07 8d 26 39 94 5b ac 35 77 2c 0a 32 39 33 07 3d
       0.0001588353 1.2841651e-06 8.042767e-09 0.033007834
000180 52 ca 36 3e ce 93 8c 38 85 48 41 33 53 97 87 28
       0.17850617 6.703251e-05 4.500227e-08 1.5053637e-14
000190 c2 b2 ab 3d cf d1 36 3e 73 19 19 38 f5 f1 af 35
       0.08383705 0.17853473 3.6501744e-05 1.3108935e-06
0001a0 5c 2c 0a 32 97 40 e0 3c af b9 36 3e 82 6f 0e 39
       8.042743e-09 0.027374549 0.1784427 0.00013583715
0001b0 2d 5a 91 35 af 30 81 2c 1d de ae 3d 83 d8 36 3e
       1.0829586e-06 3.6718055e-12 0.085384585 0.1785603
0001c0 ed 25 a6 37 08 6f b1 35 56 2c 0a 32 d7 43 d3 3c
       1.9806403e-05 1.3219842e-06 8.042738e-09 0.025789184
0001d0 34 95 81 3f b0 de 36 3d c8 06 11 3f 52 62 00 41
       1.0123658 0.044645965 0.5665097 8.024004
0001e0 b0 de 36 3d bc 9b b5 40 c1 5d 94 3e 21 81 e0 38
       0.044645965 5.6752605 0.2897778 0.000107052045
0001f0 6e 0a 8a 31 1e f8 a6 33 7c 60 ce 3d 19 5c 94 3e
       4.0175143e-09 7.7751096e-08 0.10076997 0.28976515
000200 d5 21 fb 38 f9 da ae 31 f3 1d c6 34 f3 77 b8 3d
       0.000119749144 5.088961e-09 3.6902165e-07 0.090072535
000210 fd 61 94 3e ed 83 ab 38 fa 0c 8a 31 99 64 a7 33
       0.2898101 8.1784885e-05 4.017804e-09 7.794842e-08
000220 b1 ad 04 3e 43 62 94 3e 97 dc 97 38 74 4b 99 31
       0.12956883 0.28981218 7.241329e-05 4.461464e-09
000230 75 a3 a5 33 33 1b ba 3d 0d 66 94 3e d9 a6 c2 37
       7.713144e-08 0.09087219 0.2898411 2.3204297e-05
000240 51 88 84 31 ac 88 e8 37 a3 a4 9a 3d 4d 5c 94 3e
       3.857203e-09 2.7720198e-05 0.07550933 0.2897667
000250 4f e9 fa 38 6c 19 d3 31 00 16 66 2b 83 2f d4 3d
       0.00011964386 6.1437984e-09 8.1742946e-13 0.10360625
000260 67 6a 94 3e 88 80 26 37 c6 47 ae 31 6f 40 a5 33
       0.2898743 9.924297e-06 5.072226e-09 7.6951316e-08
000270 da 5f 5b 3d 79 5e 94 3e 23 8b cf 38 de cc e3 31
       0.053558208 0.28978327 9.8964454e-05 6.62986e-09
000280 76 ec da 28 27 51 0b 3e cf 6a 94 3e 0b 95 e1 36
       2.430541e-14 0.13605176 0.28987738 6.7228734e-06
000290 9a d3 c3 31 6c 40 a5 33 44 a2 35 3d bb 64 94 3e
       5.6993033e-09 7.6951295e-08 0.0443442 0.289831
0002a0 fb bc 63 38 9a 23 59 36 c7 ec 24 2c 0d ed 0d 3e
       5.429702e-05 3.2356243e-06 2.343724e-12 0.13859959
0002b0 69 6a 94 3e 5b 1b e2 36 c1 25 ab 35 6a 40 a5 33
       0.28987435 6.7385095e-06 1.2751481e-06 7.695128e-08
0002c0 bf f6 2a 3d b3 b1 d7 3f 9a 6b 94 3d c1 41 6d 3f
       0.04173922 1.6851104 0.07247086 0.9267846
0002d0 ff d7 50 41 9a 6b 94 3d 70 76 13 41 5d ae c1 3d
       13.052733 0.07247086 9.216415 0.09457085
0002e0 6e 9a 38 38 ca 75 46 2a 63 83 b6 2e 30 c0 06 3d
       4.4012842e-05 1.7626799e-13 8.299741e-11 0.032898128
0002f0 04 81 c1 3d 8d 00 02 39 9c 8b 1a 2b 9d 91 fa 34
       0.09448436 0.00012397971 5.490554e-13 4.6672076e-07
000300 9d bf f0 3c a2 a6 c1 3d e2 f1 46 38 50 1b 07 2e
       0.029388243 0.09455611 4.743215e-05 3.0719705e-11
000310 f9 6c d3 30 54 21 2d 3d a1 7b c1 3d 4e a5 19 39
       1.5383242e-09 0.042268112 0.094474085 0.00014652798
000320 45 4b 1a 2b 5d 6a 2d 2d 1f d8 f2 3c 88 9d c1 3d
       5.481625e-13 9.857529e-12 0.02964407 0.09453875
000330 4a f5 67 38 2b 31 0b 2e 1a a0 09 37 a3 11 ca 3c
       5.5303135e-05 3.164861e-11 8.203113e-06 0.024666613
000340 ef 86 c1 3d a9 93 00 39 d6 e1 2d 2b 49 a8 7c 28
       0.09449565 0.00012262039 6.1775357e-13 1.4025301e-14
000350 14 76 0a 3d a4 b6 c1 3d 0e ed ec 37 1a 04 2a 36
       0.033804014 0.09458664 2.824378e-05 2.5334361e-06
000360 4b dd 6c 2f 11 90 8f 3c 11 73 c1 3d 0f c5 1f 39
       2.1542694e-10 0.01752475 0.09445775 0.00015236832
000370 8f 4d 71 2f 38 05 89 25 21 ad 35 3d 7a b6 c1 3d
       2.1946377e-10 2.3769248e-16 0.04435456 0.09458633
000380 af 48 e0 37 2e 63 2e 36 a1 dc 6c 2f 44 e7 6d 3c
       2.6736727e-05 2.598575e-06 2.1542458e-10 0.01452047
000390 6a 97 c1 3d b5 4b ae 38 0c 9e 84 33 3d b8 0f 2e
       0.09452708 8.311068e-05 6.1754776e-08 3.2678072e-11
0003a0 cd 20 39 3d 0a b6 c1 3d 0c a4 b8 37 54 66 34 36
       0.045197297 0.09458549 2.20109e-05 2.6881653e-06
0003b0 8d dc 6c 2f c0 0e 60 3c 75 13 12 3f 64 c3 c1 3c
       2.154243e-10 0.013675392 0.5706094 0.02365274
0003c0 29 9d 9a 3e 94 3a 89 40 64 c3 c1 3c 8b 4b 40 40
       0.3019803 4.2884007 0.02365274 3.0046108
0003d0 c3 f9 3f 3d 2f 56 3f 38 38 3d 1d 31 29 61 d1 34
       0.04686905 4.5618213e-05 2.2881306e-09 3.8999977e-07
0003e0 77 50 82 3c c7 cc 3f 3d fd bb 32 38 31 37 9e 31
       0.01590751 0.04682615 4.2613585e-05 4.6046797e-09
0003f0 67 de ed 35 6d 95 69 3c 6f ce 3f 3d ef db 9c 38
       1.7722604e-06 0.014256817 0.04682773 7.4796255e-05

exp_avg f4 [128]
000000 19 fc 27 ba 2c e8 25 bb 8d 1c a4 b9 9f e3 f4 3a
       -0.000640811 -0.0025315387 -0.0003130179 0.0018683559
000010 bc 1c e2 3a b1 b4 20 3a e1 a9 a4 bb 6c 1d 74 39
       0.0017250995 0.0006130441 -0.005025134 0.00023280614
000020 ab 1a 8d 3a 7c a4 d1 3b 76 5a 12 3a cd df b6 ba
       0.0010765394 0.006397782 0.0005582938 -0.0013952196
000030 39 af a6 3a fd 52 7e ba 0d 91 7f bb cf db 26 bb
       0.0012717015 -0.0009701697 -0.003899637 -0.0025460606
000040 01 69 43 3b 98 3b a9 39 21 33 4c 3b 7a fb 1c b9
       0.0029817226 0.00032278593 0.0031158405 -0.00014971002
000050 b1 7f a3 ba 68 94 1d bb e9 a9 ba ba 6a db d8 ba
       -0.0012473968 -0.0024044756 -0.0014241311 -0.0016544883
000060 3a 49 54 3b cf 85 3b 3b 9c 7d 7f ba e7 ae ca b8
       0.003239228 0.0028613692 -0.0009746195 -9.664689e-05
000070 3b b7 7f ba 55 dd 54 3a 30 14 62 ba ab e6 2d 3a
       -0.00097547815 0.0008120139 -0.0008624224 0.00066337985
000080 8a 65 c9 ba 47 ac 45 ba 31 d4 8b 39 57 41 88 3a
       -0.0015365344 -0.0007540625 0.0002667024 0.0010395449
000090 23 ab da bb 62 13 95 3b 3c be f5 3b 35 c2 83 3a
       -0.006673233 0.0045494298 0.0074994843 0.0010052385
0000a0 4c 98 8a b9 0b 17 6d 3a f0 10 ba 39 45 fe 66 39
       -0.0002643488 0.0009044266 0.00035489304 0.00022029232
0000b0 69 06 68 ba d9 03 79 37 c8 f4 3e 3a 40 f4 6e 3b
       -0.0008851053 1.4842452e-05 0.00072844 0.0036461502
0000c0 e1 5c f0 39 56 24 12 bb 07 ce fd 3a 8e 44 d9 3a
       0.00045845567 -0.002229949 0.0019363769 0.0016576217
0000d0 18 4a 21 3b 55 0f 0a bb 4b c2 02 bb 4a 1f 8a ba
       0.0024610814 -0.0021066268 -0.0019952233 -0.0010537889
0000e0 8c 9e 65 3b 48 59 1f 3b b3 e8 e0 3a 42 a3 d3 39
       0.0035037128 0.002431469 0.0017159194 0.00040366693
0000f0 47 2e 00 ba d7 a8 22 ba 1d 35 c4 3a 77 11 7d ba
       -0.00048897084 -0.00062049687 0.0014969442 -0.00096537865
000100 61 86 67 39 b2 ea 03 bb 96 a7 2b 3a 2f b3 5b 3a
       0.00022079937 -0.0020128903 0.00065481046 0.00083808874
000110 d1 f5 da 39 a6 72 3d 3b 0c 57 78 3a b5 c5 e3 3a
       0.00041763348 0.0028907447 0.000947342 0.0017377647
000120 02 37 1d 39 4a 43 7c 38 66 b2 4e 3a cb 3b 63 3a
       0.00014993179 6.014415e-05 0.000788486 0.00086682726
000130 a0 a3 3e b9 63 dd 98 b8 65 2b 06 bb 75 ae 89 ba
       -0.00018180767 -7.289161e-05 -0.0020472642 -0.0010504263
000140 e6 a1 8d bb 45 4d 0a 3b 56 44 95 39 5d f5 19 ba
       -0.0043222783 0.0021103185 0.0002847041 -0.0005873049
000150 1c 35 82 b9 9a 25 99 b9 f4 82 d3 3a 19 ed 3c b9
       -0.00024835102 -0.0002921045 0.001613705 -0.00018017403
000160 54 36 e0 3b 71 a3 c3 ba 2e 87 4a 3a 9b 18 f4 b9
       0.006842414 -0.0014926029 0.0007725832 -0.0004655764
000170 a6 3d 96 3a ed de 3b 3a 3b de 67 3b 30 c8 e5 3b
       0.0011462464 0.00071667024 0.0035380262 0.0070123896
000180 73 07 42 3b 83 c4 aa 3b 13 b0 39 bb 0d ce 7c 39
       0.002960649 0.0052114143 -0.0028333708 0.00024109353
000190 27 80 25 ba 98 d2 71 ba 02 8a 21 ba f2 e7 0a 3b
       -0.00063133467 -0.00092248013 -0.00061622274 0.002119538
0001a0 db c0 d2 b9 28 88 2b 3b e7 b3 13 3b 04 e5 cf b9
       -0.0004019801 0.0026173685 0.002253765 -0.00039652747
0001b0 c1 98 3f ba 92 8a 89 bb fb 93 80 3b 38 93 45 3b
       -0.0007308834 -0.004197427 0.0039238906 0.0030147564
0001c0 56 8e db 3a 15 ef c9 3b 0d c1 87 3b c6 49 5c 3b
       0.0016750793 0.006162534 0.0041428865 0.0033613308
0001d0 11 b6 03 bb cb fa 94 3a 6e 38 b6 ba c7 24 61 bb
       -0.0020097534 0.0011366246 -0.0013902315 -0.0034354196
0001e0 87 b1 3d 3a 3e e3 2c b8 02 c2 3b bb 53 a7 ad ba
       0.00072362315 -4.121963e-05 -0.0028649573 -0.0013248719
0001f0 d4 20 b8 39 d0 cf b3 ba e3 20 20 3a 3a e4 80 39
       0.00035119674 -0.0013718549 0.0006108416 0.00024584105

exp_avg_sq f4 [128]
000000 7f 36 33 3b 70 cc 36 3e 7d 62 94 3e b5 96 c1 3d
       0.0027345715 0.17851424 0.2898139 0.09452573
000010 2d 36 40 3d 16 81 5b 3c 86 1b 6a 3b 2e 3f a5 3a
       0.046926666 0.013397476 0.0035721972 0.001260733
000020 26 55 23 3b 58 9e d5 3e b8 dd 9d 3c 26 17 c2 3d
       0.0024922579 0.4172237 0.019270763 0.094770715
000030 69 f9 e5 3c 31 7b 34 3d ad 7d 00 3b 80 75 d5 3b
       0.02807303 0.044062797 0.0019606159 0.006514251
000040 f7 62 a3 3d b8 76 1b 3d 90 80 ea 3c 95 31 3e 3b
       0.079778604 0.037955016 0.028625757 0.0029021252
000050 f0 8d 28 3b 78 76 f8 3a 66 a7 3d 3d d9 72 6d 3a
       0.0025719367 0.0018956205 0.04630222 0.0009057946
000060 3c 19 e3 3c 8f 3a b0 3b 58 9b 84 3a 89 37 91 3a
       0.027721994 0.0053780745 0.0010117097 0.0011079173
000070 bb 26 17 3c 2d 8a 17 3b dd b5 23 3c 00 50 0c 3e
       0.009225543 0.002312313 0.00999209 0.13702393
000080 b4 bc c6 3a 25 b1 e7 3c 0a 4a c1 39 c7 18 7f 3b
       0.0015162439 0.028282711 0.00036866992 0.003892468
000090 a6 48 a6 3d 1e bd 93 3b b7 4c 50 3d 09 9d c7 3d
       0.08119325 0.0045086285 0.05085441 0.09746749
0000a0 5f 2a fc 3a dd 0e 07 3a 38 ae ed 3a ee a1 4a 3d
       0.0019238702 0.0005152056 0.0018133586 0.049470834
0000b0 23 de c9 3a 70 cf 5b 3e 24 3f 2c 3d 5b b4 8a 3b
       0.0015401285 0.2146585 0.042052403 0.004232926
0000c0 ee ff 33 3a a1 d6 9c 3a 79 0d 21 3c 0d be ed 3a
       0.00068664446 0.001196582 0.009829872 0.0018138305
0000d0 b0 86 c1 3e 66 b6 ae 3b 47 07 08 3c 62 9e 01 3b
       0.3779807 0.005331802 0.008302516 0.0019778241
0000e0 cf 71 e7 3a b4 8d 9d 3b 3a 8b 7d 3a ae 16 0c 3c
       0.0017657819 0.004808152 0.00096719305 0.008550329
0000f0 60 1c 1d 3a 71 aa cf 3b d9 36 fc 3a d6 ab ec 3c
       0.0005993303 0.006337457 0.001924242 0.028890532
000100 bb 0f 64 3b 40 7c 9b 3c da 04 45 3a 2f c6 9c 3a
       0.0034799415 0.018980145 0.00075156766 0.0011960919
000110 0e 30 af 3a a4 11 90 3a ae fc cd 3a 69 88 14 3b
       0.0013365762 0.0010991585 0.0015715563 0.0022664315
000120 e0 95 4e 3a 58 5b 65 3a 06 ce 41 3b 73 64 69 3e
       0.00078806095 0.0008749268 0.0029572262 0.22792225
000130 d6 6f bd 3a e9 0e ec 3a d2 8d 64 3e ff df 98 3a
       0.0014452885 0.0018009815 0.22319725 0.0011663436
000140 e8 e4 2a 3c ca df 5d 3d e2 80 30 3b 75 fe 96 3b
       0.010430552 0.0541685 0.002693229 0.0046079704
000150 49 b6 85 3c 0c 55 0d 3b 6e b8 b0 3c 7c 5a 9c 3c
       0.016322272 0.0021565584 0.021572318 0.019086115
000160 4e b5 f1 3c 46 0e 42 3a 87 14 0d 3b 99 85 df 3a
       0.029505398 0.00074026396 0.0021527128 0.0017053365
000170 f6 7c a6 3a 33 90 09 3e b2 ef 3b 3c 3b 4b d3 3d
       0.0012702036 0.13433914 0.011470722 0.103170834
000180 41 07 3c 3b 3d 9a 06 3d 1f 99 00 3b 87 16 c4 3b
       0.0028690847 0.032861937 0.0019622517 0.005984131
000190 c4 95 b0 3a 04 07 97 3a 54 8c 40 3c 65 fe 8f 3b
       0.0013472368 0.0011522477 0.011752207 0.00439434
0001a0 ef fb 6e 3b 16 11 24 3d 69 c2 b3 3b 66 7a d2 3a
       0.0036466082 0.040055357 0.005485822 0.0016058206
0001b0 53 a0 bf 3c 0f 08 cb 3a c1 f3 1c 3b 0a 3a 0d 3d
       0.023391878 0.0015490073 0.0023949 0.03447918
0001c0 7d e2 14 3b 2d 70 03 3b 38 1c d4 3a 26 be 25 3d
       0.0022718005 0.0020055876 0.0016182726 0.040464543
0001d0 05 0b 80 3a fe 5f cd 3a 04 27 89 3d 1c fc 4e 3a
       0.0009768909 0.0015668867 0.06696895 0.00078958436
0001e0 5e 62 3b 3b 4d da 26 3e 93 e0 ab 3d 2e d5 bc 3d
       0.0028592567 0.16294213 0.083924435 0.09220348
0001f0 8f b6 62 3a 68 3d 3c 3b de 52 a1 3d 95 bb 1f 3b
       0.0008648419 0.0028723124 0.07877134 0.0024373282
