results/SnakeImitation3/SnakeAgent/SnakeAgent-1410.onnx (onnx, 101509 bytes, 6 tensors)

action_model._discrete_distribution.branches.0.bias f4 [3]
0.035516605 -0.010812428 -0.033240855
00000000: dc79 113d 9c26 31bc 9027 08bd

action_model._discrete_distribution.branches.0.weight f4 [3, 128]
0.0102863405 -0.035857547 0.014893374 0.029325001 0.014158297 0.007695049 -0.06052291 0.019278953
0.026178436 0.024276413 -0.05139825 -0.0003789291 0.0721472 -0.038496785 0.03985656 -0.010956464
0.047674853 0.025795894 -0.037303496 -0.05991623 -0.032152206 -0.16834182 -0.063938 0.038164195
0.05294836 0.029662767 -0.033565797 -0.031798616 -0.005590215 0.055185314 0.019193511 -0.046265144
0.0339572 0.0400728 -0.022495074 -0.059327647 -0.020321144 -0.03864321 -0.018933851 -0.0032862718
0.023865368 -0.030923514 -0.03969673 -0.17117703 0.0680266 0.038790394 0.036763404 0.0074868063
0.046659745 0.02265603 0.016438447 -0.043108385 0.07002369 0.014456511 -0.105778605 0.004351963
0.040764637 0.027678568 -0.05423377 0.042421825 0.090030484 0.033288762 0.025053447 0.012560545
-0.017317757 0.0040352247 0.06311999 -0.010518409 -0.029828202 0.023135502 -0.116566315 0.03687828
-0.09662764 0.030889027 0.046193972 0.030743305 -0.074906886 -0.049491003 -0.050579593 0.035830945
-0.077667244 -0.110168144 -0.0018618125 -0.006439265 0.028195929 -0.14754257 -0.092612535 0.0064286077
0.03545017 0.022661809 -0.09882054 -0.02427351 0.03334405 0.03435101 0.0018250394 -0.058668915
-0.03353664 -0.1316722 -0.06066845 -0.12511268 -0.007175261 -0.03126301 0.02695199 -0.012991232
-0.13459848 0.02221695 0.005193366 -0.06945484 0.035867397 0.0028490818 -0.037813734 -0.057390656
-0.14276199 0.036609232 -0.09476813 -0.060062833 0.013465117 0.020166468 -0.08592837 0.064281136
0.012328245 -0.04066944 -0.06761682 -0.1026369 0.042358197 -0.13000865 -0.03541432 -0.007966575
-0.0017992171 0.028690318 0.020348292 0.00023848948 -0.06864142 -0.03447614 0.037621748 0.022735454
-0.061816048 -0.019020922 0.008076649 0.05616044 -0.051705193 0.05241817 -0.025061803 0.05132631
-0.032873012 -0.064405635 -0.07682069 -0.06650126 0.07863958 0.09819777 0.10916571 -0.012386873
-0.057925705 0.013815045 0.049114827 0.101465605 0.048355855 0.010489905 -0.043966528 -0.016341038
0.011895493 -0.0053926487 0.09132729 -0.040301677 0.026178714 0.0054461034 0.06795361 0.06474824
-0.13868615 0.080898255 -0.112803385 0.035126522 -0.08839238 0.029410843 0.03695415 0.070749074
-0.083576284 -0.06954626 0.011726544 0.11761653 -0.098198526 0.019017274 0.09253007 0.049679875
-0.014420672 0.043359205 -0.09663275 -0.00014992528 -0.06994288 0.03519943 -0.042708285 0.041884236
-0.06654109 -0.09010099 0.0024420407 0.07211306 -0.13108537 0.027230646 0.118569694 0.017689206
0.09614932 -0.030747369 -0.045583263 -0.011973632 0.059628222 0.06045501 0.06435288 -0.033420257
0.12457155 0.034039 -0.03424209 -0.08323169 -0.04370425 0.13594313 0.054855715 -0.054119755
0.008022116 0.040339377 0.10426116 -0.07704497 0.05280145 -0.09064338 -0.028206322 -0.007886456
0.04229483 0.17122625 -0.043227646 0.111165576 0.07934958 -0.04758773 0.021165637 -0.11847168
0.08428992 0.05145995 -0.12783264 0.07019074 -0.0027357107 0.0076593035 -0.0333358 -0.009423292
0.041169293 0.012751304 0.020029092 0.014451695 0.013777071 -0.001867374 0.11576905 -0.04884669
0.0104944585 0.05697101 0.045928925 0.04907451 -0.0011623248 0.12830046 0.047130425 -0.06053601
00000000: 0a88 283c 5ddf 12bd 5703 743c fc3a f03c
00000010: 34f8 673c c026 fc3b dfe6 77bd e5ee 9d3c
00000020: 2974 d63c 54df c63c f986 52bd 01ab c6b9
00000030: e9c1 933d ceae 1dbd a240 233d be82 33bc
00000040: b546 433d e951 d33c 8dcb 18bd b96a 75bd
00000050: 08b2 03bd cc61 2cbe edf1 82bd 0f52 1c3d
00000060: 61e0 583d 55ff f23c 4a7c 09bd 443f 02bd
00000070: 1f2e b7bb ff09 623d b63b 9d3c 8580 3dbd
00000080: b416 0b3d 6023 243d 9747 b8bc 8c01 73bd
00000090: 8778 a6bc 5848 1ebd 2a1b 9bbc 7e5e 57bb
000000a0: 4e81 c33c 4f53 fdbc 0a99 22bd 0849 2fbe
000000b0: 8851 8b3d ade2 1e3d 3995 163d e253 f53b
000000c0: 4a1e 3f3d 2399 b93c eca9 863c 6b92 30bd
000000d0: 9568 8f3d 00db 6c3c 74a2 d8bd e99a 8e3b
000000e0: d2f8 263d 2abe e23c 3b24 5ebd 82c2 2d3d
000000f0: e761 b83d cc59 083d e33c cd3c beca 4d3c
00000100: f8dd 8dbc eb39 843b 0e45 813d 6855 2cbc
00000110: 465a f4bc aa86 bd3c 52ba eebd ae0d 173d
00000120: b6e4 c5bd fc0a fd3c e435 3d3d 62d9 fb3c
00000130: c868 99bd 14b7 4abd 8c2c 4fbd 78c3 123d
00000140: 0110 9fbd d69f e1bd 1008 f4ba 7800 d3bb
00000150: 26fb e63c 6615 17be a4ab bdbd 12a7 d23b
00000160: 3334 113d 42a5 b93c 6c62 cabd 3dd9 c6bc
00000170: c593 083d a5b3 0c3d 2936 ef3a d14e 70bd
00000180: b75d 09bd 14d5 06be 7b7f 78bd 8a1d 00be
00000190: 741e ebbb a40d 00bd 6bca dc3c 2dd9 54bc
000001a0: 2fd4 09be 5200 b63c 1d2d aa3b 573e 8ebd
000001b0: b1e9 123d a9b7 3a3b 93e2 1abd 7712 6bbd
000001c0: 3330 12be 90f3 153d cb15 c2bd 7204 76bd
000001d0: cb9c 5c3c 2634 a53c 37fb afbd d4a5 833d
000001e0: 68fc 493c 0095 26bd b07a 8abd 4c33 d2bd
000001f0: ca7f 2d3d fd20 05be 9b0e 11bd 3d86 02bc
00000200: b5d3 ebba f507 eb3c 76b1 a63c 0813 7a39
00000210: df93 8cbd da36 0dbd 4319 1a3d b43f ba3c
00000220: d332 7dbd c4d1 9bbc ec53 043c 7d08 663d
00000230: d3c8 53bd 6fb4 563d 694e cdbc 893b 523d
00000240: daa5 06bd 1ae7 83bd 2a54 9dbd d031 88bd
00000250: ca0d a13d ea1b c93d 4692 df3d 50f2 4abc
00000260: 8143 6dbd 8058 623c a12c 493d 33cd cf3d
00000270: ca10 463d dadd 2b3c 3f16 34bd a4dd 85bc
00000280: 50e5 423c d1b4 b0bb cd09 bb3d 5f13 25bd
00000290: be74 d63c 3a75 b23b 432b 8b3d ba9a 843d
000002a0: be03 0ebe fcad a53d 7605 e7bd d4e0 0f3d
000002b0: 1007 b5bd 02ef f03c 3c5d 173d e4e4 903d
000002c0: 0b2a abbd 456e 8ebd b120 403c efe0 f03d
000002d0: 4f1c c9bd 1dca 9b3c 6880 bd3d 207d 4b3d
000002e0: af44 6cbc 6c99 313d 64e7 c5bd 4335 1db9
000002f0: 363e 8fbd 472d 103d e2ee 2ebd ce8e 2b3d
00000300: b246 88bd de86 b8bd a50a 203b 03b0 933d
00000310: 3e3b 06be ce12 df3c abd4 f23d f4e8 903c
00000320: efe9 c43d e8e1 fbbc 84b5 3abd 0d2d 44bc
00000330: b93c 743d ac9f 773d 71cb 833d aee3 08bd
00000340: 5e1f ff3d 7a6c 0b3d 6f41 0cbd 6075 aabd
00000350: 3a03 33bd ad34 0b3e 63b0 603d adac 5dbd
00000360: 316f 033c e73a 253d e086 d53d c1c9 9dbd
00000370: 5546 583d 3da3 b9bd f210 e7bc 3236 01bc
00000380: 583d 2d3d ef55 2f3e 790f 31bd c7aa e33d
00000390: 0882 a23d 5aeb 42bd 8f63 ad3c 48a1 f2bd
000003a0: 32a0 ac3d abc7 523d 8fe6 02be 2ac0 8f3d
000003b0: 9c49 33bb e5fa fa3b 1f8b 08bd 2764 1abc
000003c0: 22a1 283d d8ea 503c 0d14 a43c cdc6 6c3c
000003d0: 39b9 613c adc2 f4ba 5318 ed3d 7813 48bd
000003e0: f3f0 2b3c 6f5a 693d f81f 3c3d 5a02 493d
000003f0: 2659 98ba 3261 033e d50b 413d 9bf4 77bd

network_body._body_endoder.seq_layers.0.bias f4 [128]
-0.0213618 0.01185982 0.02620785 -0.0035320527 0.011930611 -0.0013903062 -0.007665642 0.02574564
-0.033146642 0.018638574 -0.044709153 0.022180881 -0.027438046 0.021431498 0.0009360375 -0.033103704
0.034672756 -0.018624451 0.027574597 0.006405547 0.016573818 0.025634604 0.016448857 -0.002124352
0.02477508 0.024537962 0.010501957 0.04876507 -0.0060889386 0.02612566 -0.0021421984 0.007073164
0.036732454 0.04623497 -0.03108345 0.01307547 -0.014088929 0.02568146 -0.004883441 0.020951606
0.027880069 0.0073583303 0.020635711 0.012745758 0.021782273 -0.006390188 0.03809977 0.0061412356
0.012524599 0.051568 0.024531566 -0.02409292 -0.017786577 0.04150095 -0.0107473 0.021306299
0.026123378 0.053146865 0.047664892 0.049354065 0.01513079 0.000901214 -0.040119372 -0.0041358243
0.016547205 -0.01893353 -0.009911857 0.03802277 0.008060412 0.026190259 0.025348196 -0.04159822
-0.0036270858 -0.012809998 -0.0110025015 0.054235887 -0.052790903 -0.031923328 -0.032373272 0.019045696
-0.020212952 0.0061300644 0.015583536 0.035548758 0.021543462 0.005206403 0.03386235 0.02610776
-0.01662241 0.0105586555 0.0073089916 0.012572091 0.014030079 -0.0004378818 -0.025242416 0.049757525
-0.013293076 0.02908541 0.02637043 -0.009442791 0.04262383 0.0062527396 0.053727485 -0.03284128
0.04608145 0.036846023 0.05553206 0.019799655 0.006359896 0.010858855 -0.0070479363 0.01669361
-0.03345485 0.0365577 -0.012139206 0.057573754 0.044753525 0.0131505495 0.030966546 0.009202117
0.05717649 0.006309212 -0.031124186 -0.0010740607 0.021097708 0.0011515465 0.031437732 0.018498603
00000000: f1fe aebc b14f 423c d8b1 d63c 037a 67bb
00000010: 9c78 433c ef3a b6ba 1130 fbbb 85e8 d23c
00000020: c6c4 07bd ecaf 983c f220 37bd aeb4 b53c
00000030: c1c5 e0bc 1c91 af3c 6a60 753a c097 07bd
00000040: 0505 0e3d 4e92 98bc 1fe4 e13c 9fe5 d13b
00000050: d1c5 873c a9ff d13c c1bf 863c b638 0bbb
00000060: 1cf5 ca3c d603 c93c 6610 2c3c e2bd 473d
00000070: b885 c7bb 7b05 d63c 2064 0cbb 00c6 e73b
00000080: c574 163d e160 3d3d b8a2 febc 7f3a 563c
00000090: 40d5 66bc ed61 d23c 4605 a0bb b4a2 ab3c
000000a0: be64 e43c 261e f13b 390c a93c 95d3 503c
000000b0: bd70 b23c c864 d1bb 810e 1c3d 6b3c c93b
000000c0: fa33 4d3c f838 533d 6cf6 c83c 845e c5bc
000000d0: 28b5 91bc e6fc 293d 7215 30bc 8c8a ae3c
000000e0: b200 d63c 87b0 593d 433c 433d 7d27 4a3d
000000f0: 22e7 773c 733f 6c3a 3654 24bd cf85 87bb
00000100: 018e 873c 7e1a 9bbc 5765 22bc c4bd 1b3d
00000110: d10f 043c f48c d63c 05a7 cf3c e562 2abd
00000120: 67b4 6dbb 07e1 51bc d643 34bc 7326 5e3d
00000130: 463b 58bd 09c2 02bd d699 04bd b805 9c3c
00000140: a295 a5bc b5de c83b 1652 7f3c 939b 113d
00000150: ea7b b03c 799a aa3b 3fb3 0a3d f1df d53c
00000160: b82b 88bc 36fe 2c3c 4480 ef3b 2cfb 4d3c
00000170: 6bde 653c 8093 e5b9 2fc9 cebc 8cce 4b3d
00000180: 34cb 59bc 8744 ee3c cd06 d83c f0b5 1abc
00000190: 5396 2e3d c8e3 cc3b 5a11 5c3d 9484 06bd
000001a0: e7bf 3c3d dbeb 163d 9675 633d e332 a23c
000001b0: ad66 d03b 57e9 313c 60f2 e6bb 0ac1 883c
000001c0: f407 09bd 87bd 153d 85e3 46bc 75d2 6b3d
000001d0: 794f 373d 6775 573c 8ead fd3c 7ac4 163c
000001e0: e531 6a3d 82bd ce3b 26f8 febc 7fc7 8cba
000001f0: 1ad5 ac3c 7def 963a dac4 003d 628a 973c

network_body._body_endoder.seq_layers.0.weight f4 [128, 61]
0.041110553 -0.20684208 0.25228462 -0.06522396 -0.0709716 0.26456055 0.029061014 0.25512752
-0.16234721 0.09806561 -0.16102031 0.0105162 -0.40342212 0.13163944 -0.11055068 -0.045199674
-0.1564419 0.040599488 -0.09045979 0.22776037 -0.052150037 -0.05911689 -0.02426998 -0.003326605
0.010271027 -0.0009950111 -0.32823926 0.10653439 0.034065433 -0.05361189 -0.013020236 0.24852753
-0.20703943 -0.2071199 0.16085133 -0.015553826 -0.29979706 -0.063280605 -0.0035561714 0.020194545
0.10306835 -0.037773456 -0.24523954 -0.25327986 0.16055998 -0.099713 -0.35209298 0.060867067
0.046162717 0.118868954 0.16799991 0.32779706 -0.17651854 0.07996275 0.13631885 -0.12751655
-0.04234386 -0.075853795 0.3298991 -0.15882844 0.032382976 -0.10364359 -0.13970567 -0.13830726
0.19832 0.06146546 -0.19318958 0.20907345 -0.20952861 -0.2719465 0.16801435 0.065854184
-0.35628548 -0.03686095 -0.007132753 0.37745667 0.25635642 -0.05134954 0.12608333 -0.09385868
-0.20273468 -0.0691598 0.17541578 0.22925359 0.031256106 0.13825372 -0.059989452 -0.1949792
-0.2363725 -0.29642287 0.02326885 -0.1356275 0.21187289 0.03943915 0.13150115 -0.030067453
0.05686313 -0.05748858 -0.35518762 -0.03264928 -0.29277286 0.07060455 0.026012506 0.066638716
0.08558479 0.12046223 0.050267536 0.009805523 -0.0131969815 -0.08558678 -0.10571682 0.0017807131
0.008212773 -0.12288524 -0.014873077 0.19796817 0.23207822 0.18448539 -0.0357379 0.004431115
0.13946167 -0.047112133 0.010079551 -0.037341762 -0.04698571 -0.09576616 0.10801598 -0.25861406
0.20230606 0.16032231 0.13619792 0.16896074 0.093545064 -0.07819985 -0.09146148 -0.10471317
0.17038967 0.1324011 -0.18271618 -0.021019867 0.091414526 0.026360933 0.1801682 -0.32799497
-0.21486835 0.47191837 0.17349312 -0.17373312 0.1089778 0.13217187 0.2810284 0.29072982
0.095893785 -0.104687795 0.22854818 0.2760707 -0.111123174 0.122987635 0.05016607 0.25939956
0.01159191 0.29802176 -0.004056867 -0.10268374 -0.2539625 0.1830123 -0.13204138 -0.01533295
0.1584534 0.16281201 0.16041477 0.119097084 0.047022983 -0.34183112 -0.18783458 0.11180289
0.17250724 -0.12653431 -0.12528276 0.13085786 0.0428908 0.0752117 0.13276404 0.22953838
-0.062397145 -0.15227827 -0.03401046 0.021723963 -0.09227605 0.0027338434 -0.04842642 0.073221974
0.09901031 -0.084229685 -0.22915614 0.17125179 -0.04969083 -0.078604974 -0.2987893 -0.062102
-0.022502663 0.071583256 0.05968365 0.18370073 -0.070755504 -0.026143255 -0.0077514164 0.3527373
0.08757866 0.093694955 0.10663758 -0.025049755 -0.14899823 0.053265866 0.18317607 -0.059233252
-0.05497362 0.17468905 0.1390744 -0.074099876 0.13456772 0.1681993 -0.06872413 -0.16506594
0.093545064 -0.19715351 -0.040083062 0.23524469 0.08192113 -0.1040613 -0.1679312 0.0026791533
0.15424655 -0.035546802 0.1659679 0.12947382 -0.07281643 0.1136579 0.2938922 0.19645144
0.041669726 0.05510923 -0.04179661 0.2372184 -0.04411057 -0.34922972 0.034373883 0.05039094
0.17514263 0.043156337 -0.19838323 0.23318127 -0.11085737 0.02327423 0.532645 -0.3948766
00000000: 8a63 283d 69ce 53be 732b 813e 2494 85bd
00000010: 8f59 91bd 7b74 873e 5d11 ee3c 13a0 823e
00000020: 593e 26be 9fd6 c83d 82e2 24be 244c 2c3c
00000030: 588d cebe 7dcc 063e 6568 e2bd 4b23 39bd
00000040: 4e32 20be a64b 263d fb42 b9bd 043a 693e
00000050: 479b 55bd 8d24 72bd d6d1 c6bc 2c03 5abb
00000060: cf47 283c 086b 82ba fa0e a8be b42e da3d
00000070: 3288 0b3d 2498 5bbd d452 55bc 007e 7e3e
00000080: 2502 54be 3d17 54be 36b6 243e 79d5 7ebc
00000090: 007f 99be 4399 81bd a80e 69bb 086f a53c
000000a0: 8015 d33d 57b8 1abd 1320 7bbe e6ad 81be
000000b0: d669 243e 5436 ccbd 8845 b4be bf4f 793d
000000c0: 1e15 3d3d 9171 f33d 2b08 2c3e 04d5 a73e
000000d0: 47c1 34be 83c3 a33d 2b97 0b3e b393 02be
000000e0: c170 2dbd 3c59 9bbd 89e8 a83e eca3 22be
000000f0: 03a4 043d 1743 d4bd 010f 0fbe 6ba0 0dbe
00000100: 6614 4b3e 35c3 7b3d 7dd3 45be 5a17 563e
00000110: ab8e 56be 923c 8bbe f40b 2c3e 8fde 863d
00000120: 0d6b b6be 82fb 16bd deb9 e9bb 0042 c13e
00000130: 2641 833e e553 52bd fd1b 013e fb38 c0bd
00000140: ae99 4fbe a7a3 8dbd 32a0 333e 74c1 6a3e
00000150: 6706 003d 6292 0d3e 80b7 75bd a1a8 47be
00000160: a20b 72be bdc4 97be 519e be3c efe1 0abe
00000170: 35f5 583e f28a 213d 3da8 063e 0550 f6bc
00000180: 50e9 683d 2579 6bbd 27db b5be 40bb 05bd
00000190: 53e6 95be 1e99 903d 2e18 d53c e179 883d
000001a0: 1447 af3d e7b4 f63d 55e5 4d3d 58a7 203c
000001b0: 2738 58bc 1f48 afbd 0f82 d8bd d166 e93a
000001c0: de8e 063c 42ab fbbd 35ae 73bc 2bb8 4a3e
000001d0: eaa5 6d3e bde9 3c3e e761 12bd e332 913b
000001e0: 0acf 0e3e a7f8 40bd b324 253c adf3 18bd
000001f0: 1674 40bd 0c21 c4bd 7b37 dd3d 1069 84be
00000200: 5229 4f3e 882b 243e 7877 0b3e 0b04 2d3e
00000210: 8e94 bf3d 3e27 a0bd 2850 bbbd dc73 d6bd
00000220: a17a 2e3e 2794 073e f319 3bbe db31 acbc
00000230: 8a37 bb3d e2f2 d73c 037e 383e f5ee a7be
00000240: 7306 5cbe 499f f13e 2ea8 313e 18e7 31be
00000250: c12f df3d 1058 073e f4e2 8f3e 8ada 943e
00000260: f663 c43d 8e66 d6bd 8908 6a3e 2459 8d3e
00000270: 8c94 e3bd f1e0 fb3d f07a 4d3d 05d0 843e
00000280: ffeb 3d3c 4f96 983e 78ef 84bb da4b d2bd
00000290: 5f07 82be 9467 3b3e db35 07be 0e37 7bbc
000002a0: 9c41 223e 31b8 263e c543 243e 2ce9 f33d
000002b0: 2c9b 403d 7d04 afbe b557 40be eaf8 e43d
000002c0: bda5 303e 3692 01be 204a 00be 9aff 053e
000002d0: 43ae 2f3d 9708 9a3d 4cf3 073e 1c0c 6b3e
000002e0: 2694 7fbd d6ee 1bbe 8d4e 0bbd 74f6 b13c
000002f0: 3afb bcbd 482a 333b c85a 46bd 67f5 953d
00000300: ebc5 ca3d 9d80 acbd e8a7 6abe a15c 2f3e
00000310: 9d88 4bbd a5fb a0bd e9fa 98be ab5e 7ebd
00000320: 8157 b8bc 3e9a 923d d876 743d 0b1c 3c3e
00000330: 43e8 90bd 612a d6bc 98ff fdbb fc99 b43e
00000340: 715c b33d 24e3 bf3d ce64 da3d 2535 cdbc
00000350: fe92 18be 4f2d 5a3d 8292 3b3e 919e 72bd
00000360: 052c 61bd b0e1 323e 8569 0e3e adc1 97bd
00000370: 1fcc 093e 703c 2c3e 3dbf 8cbd 0c07 29be
00000380: 8e94 bf3d 9ce2 49be 232e 24bd fce3 703e
00000390: 44c6 a73d 171e d5bd 28f6 2bbe bc94 2f3b
000003a0: cff2 1d3e 8699 11bd 7df3 293e c994 043e
000003b0: c820 95bd 79c5 e83d 0a79 963e 912a 493e
000003c0: e0ad 2a3d 37ba 613d ec32 2bbd 61e9 723e
000003d0: 49ad 34bd 3dce b2be a1cb 0c3d bb66 4e3d
000003e0: 9758 333e b3c4 303d f924 4bbe 12c7 6e3e
000003f0: 3009 e3bd 99a9 be3c 6c5b 083f 442d cabe

network_body._body_endoder.seq_layers.2.bias f4 [128]
-0.0023820412 -0.03815303 0.01016829 0.019640246 0.015083936 -0.03753959 -0.0110587 0.006881644
0.030297758 0.013801502 -0.040426217 0.029052181 0.03244807 -0.032558892 -0.0031586331 0.0062562376
0.03016791 0.011108621 0.012077952 -0.0067068883 0.00122979 0.083503954 0.0009812932 0.03424246
-0.0128966635 0.009852409 -0.032056604 0.013288543 0.0041385433 0.040852133 0.009541338 -0.03781583
0.035317894 0.019277252 -0.035932373 -0.016497329 -0.020031666 -0.0412102 -0.0016396249 0.03377896
-0.0052463235 0.0017338814 -0.012158164 -0.0421588 0.016514897 0.025797874 0.03702794 0.009698697
0.0025641564 0.039384253 0.02721065 -0.011902386 0.036792737 0.028454045 -0.016092192 0.04430234
0.037361108 0.032687142 0.0007268799 0.036671456 0.045693338 0.047835443 0.0012140097 0.0053812778
-0.0073998785 -0.0053236666 0.043041192 0.0058420803 -0.004276735 0.016782906 -0.0018506075 0.036160126
-0.021568883 0.029199848 0.03173388 0.0260777 -0.015643697 -0.013037061 0.015750783 0.007232833
-0.0055520884 -0.020760078 -0.022603849 0.02023293 0.02649114 -0.011782312 -0.0379028 -0.01079321
0.033719916 0.038845837 -0.029859517 -0.030614665 0.028402388 -0.0060427315 -0.052664485 -0.02524692
-0.0069893487 0.030312212 -0.015483825 -0.02487975 0.0063696224 -0.01861511 0.020364016 -0.002642818
0.038846754 0.049182236 0.0034098844 -0.029500233 0.01713741 -0.027255008 -0.019154672 -0.028909482
-0.0005876305 0.026184065 0.005125081 -0.03778077 0.016079778 0.016927386 0.017943649 0.043262392
0.026978023 -0.019657997 -0.03373913 0.0044861604 0.037880655 -0.04878771 0.0046913903 -0.0032101262
00000000: 051c 1cbb 5a46 1cbd e698 263c 95e4 a03c
00000010: 9d22 773c 1dc3 19bd 8d2f 35bc 6a7f e13b
00000020: 0133 f83c b21f 623c f695 25bd d7fe ed3c
00000030: 44e8 043d 795c 05bd 1201 4fbb 2001 cd3b
00000040: b122 f73c ef00 363c 9ae2 453c 75c5 dbbb
00000050: e830 a13a 1f04 ab3d bc9e 803a d241 0c3d
00000060: 874c 53bc 006c 213c c94d 03bd 30b8 593c
00000070: 9e9c 873b 9154 273d 4653 1c3c c6e4 1abd
00000080: 7fa9 103d 54eb 9d3c d32d 13bd 6825 87bc
00000090: 7319 a4bc 07cc 28bd afe8 d6ba cf5b 0a3d
000000a0: 5ae9 abbb 6843 e33a 0933 47bc b5ae 2cbd
000000b0: 404a 873c 1056 d33c 9caa 173d 49e7 1e3c
000000c0: 680b 283b 6251 213d dee8 de3c 3a02 43bc
000000d0: fbb3 163d 7518 e93c c6d3 83bc 5f76 353d
000000e0: f607 193d f4e2 053d 168c 3e3a cf34 163d
000000f0: f028 3b3d 19ef 433d 681f 9f3a 6e55 b03b
00000100: ae7a f2bb 2772 aebb f64b 303d ec6e bf3b
00000110: da23 8cbb 4e7c 893c 1590 f2ba a41c 143d
00000120: 3ab1 b0bc 8534 ef3c 63fb 013d e7a0 d53c
00000130: 3627 80bc 6699 55bc c907 813c 6701 ed3b
00000140: 4bee b5bb 0a11 aabc b52b b9bc 88bf a53c
00000150: f203 d93c 990a 41bc f73f 1bbd 01d6 30bc
00000160: e51d 0a3d d01c 1f3d f29b f4bc 9bcb fabc
00000170: 20ac e83c 1b02 c6bb b7b6 57bd a1d2 cebc
00000180: e806 e5bb 5151 f83c deaf 7dbc 9ed0 cbbc
00000190: 44b8 d03b b77e 98bc 70d2 a63c 2133 2dbb
000001a0: c61d 1f3d 5073 493d 5e78 5f3b 79aa f1bc
000001b0: c163 8c3c e545 dfbc 42ea 9cbc 94d3 ecbc
000001c0: 370b 1aba f77f d63c 4cf0 a73b 02c0 1abd
000001d0: bdb9 833c 4dab 8a3c 8ffe 923c e833 313d
000001e0: 0401 dd3c cf09 a1bc 0b32 0abd a400 933b
000001f0: bf28 1b3d 9fd5 47bd 3cba 993b fb60 52bb

network_body._body_endoder.seq_layers.2.weight f4 [128, 128]
0.065830134 0.11713125 -0.0015309154 0.011817784 -0.110735886 -0.09604737 -0.03462448 0.1079693
-0.04909203 0.053534236 0.022447018 0.11484391 -0.06024249 -0.030508729 0.14227077 0.08176257
0.0048582773 0.071674064 0.16521095 0.13547905 -0.028846813 -0.13860561 0.06345991 0.18337129
0.1287554 -0.039618507 0.15353253 0.04190111 -0.18880063 0.048099015 0.0026132015 0.129984
-0.08028831 -0.039724503 -0.10862848 -0.0806361 0.018635875 -0.13066994 -0.020095391 0.043659274
-0.0140608465 0.012753769 -0.082479544 -0.091155626 -0.07276836 0.0205128 0.13525313 -0.03178876
0.1199763 0.0049840915 0.01858581 -0.0538135 0.08961471 0.0106732845 0.051857255 -0.101393364
-0.02267901 0.043088373 -0.17922716 -0.053628214 0.08444631 0.0010321676 -0.04277768 0.07634291
0.12680474 -0.15521775 -0.14052537 0.15204164 0.011960049 0.07804425 -0.21258144 -0.16901404
-0.08215019 -0.1905498 -0.019267865 0.032791533 -0.04090736 0.008280761 -0.053423412 -0.025224386
-0.08599635 -0.08112222 -0.0737836 0.1909568 -0.068753466 0.16889527 0.11247547 -0.17348586
0.017865265 -0.0754369 -0.0693434 -0.022642229 0.0542525 -0.014692638 0.0036858434 0.019802341
0.059710506 0.015506719 0.13382176 0.10417571 0.21047826 -0.06729178 -0.0067678564 -0.04191224
0.04570674 0.00024767334 0.08857375 0.031859744 0.083504565 0.032668345 -0.2419732 0.051200394
-0.033757266 0.057902407 -0.009140937 -0.0024237304 0.13763808 0.031992517 0.01914811 0.022210788
0.06912698 0.11193467 -0.0060209646 -0.03122177 -0.046755053 0.10218594 -0.028178917 -0.005874519
-0.01855534 0.06975437 0.03573085 0.09019522 0.12207047 -0.043410916 0.06939682 0.07291452
-0.13975734 -0.108418494 -0.029013153 0.032216806 0.03686311 -0.01985396 0.027362684 0.011983617
0.002871405 0.041955817 -0.018193133 -0.00030337423 0.013736428 -0.107092015 0.066869184 0.08703685
-0.22067733 -0.12711437 -0.066918805 0.094627246 0.040465884 -0.05873499 0.08819689 0.03258039
-0.15496778 0.048235655 0.040426306 0.039098043 0.034178812 -0.041728504 -0.029305078 -0.08043557
-0.012766595 -0.02385493 0.0739566 -0.08365957 -0.009005453 -0.09589717 -0.1431502 -0.113998055
-0.104312845 -0.057004437 -0.15488096 0.15786411 0.026814738 0.07369466 0.007367088 -0.050738703
-0.031444926 -0.086683795 0.028180307 -0.15415408 -0.04053663 0.12479774 0.1657588 0.004907222
0.12982108 0.124778666 0.041488636 -0.040306035 0.03144403 0.14356016 0.09105782 0.1714752
-0.0027850382 -0.1456691 -0.0054652286 0.049792543 0.073413834 -0.09188994 0.014297749 -0.155484
0.08300759 0.008570373 -0.19222708 -0.11304539 -0.17836712 -0.052797195 0.15115328 -0.09062053
-0.0518809 -0.031391464 0.0200792 -0.073579974 0.017004838 0.101152346 0.07492482 -0.08787865
0.043220904 -0.123718835 0.0054933596 0.16441552 -0.0067805164 0.030862423 -0.07021009 -0.0020696048
-0.056143656 -0.18878944 0.09332312 0.1318973 -0.12569804 0.074544325 -0.110102326 0.005624456
0.031444326 0.13000332 -0.06685589 -0.094774365 0.16990545 -0.039315533 0.037996378 0.0812134
-0.04793496 0.011693814 0.114588924 0.02615339 -0.077382505 -0.07465581 -0.08883527 0.072927415
00000000: f3d1 863d 82e2 ef3d ffa8 c8ba 619f 413c
00000010: 7fc9 e2bd 7cb4 c4bd 66d2 0dbd 021f dd3d
00000020: b914 49bd b746 5b3d cfe2 b73c 4933 eb3d
00000030: d4c0 76bd 71ed f9bc 6eaf 113e 2273 a73d
00000040: 2f32 9f3b dac9 923d 0f2d 293e 05bb 0a3e
00000050: 2750 ecbc a1ee 0dbe 45f7 813d afc5 3b3e
00000060: 75d8 033e 0447 22bd a237 1d3e 80a0 2b3d
00000070: f454 41be 7903 453d 3f42 2b3b 871a 053e
00000080: 336e a4bd 29b6 22bd 9c78 debd 8a24 a5bd
00000090: 43aa 983c 57ce 05be 179f a4bc 11d4 323d
000000a0: 775f 66bc 2ff5 503c 09eb a8bd cdaf babd
000000b0: 9407 95bd 760a a83c cc7f 0a3e ee34 02bd
000000c0: 22b6 f53d 9751 a33b 4541 983c 8b6b 5cbd
000000d0: eb87 b73d 00df 2e3c 4668 543d 53a7 cfbd
000000e0: 55c9 b9bc 6f7d 303d 5387 37be 42a9 5bbd
000000f0: 30f2 ac3d cc49 873a a637 2fbd ac59 9c3d
00000100: 1ad9 013e 67f1 1ebe e2e5 0fbe ceb0 1b3e
00000110: 15f4 433c aad5 9f3d f3ae 59be 0412 2dbe
00000120: 5c3e a8bd 7d1f 43be a4d7 9dbc 6a50 063d
00000130: 7a8e 27bd 07ac 073c 82d2 5abd 5fa3 cebc
00000140: db1e b0bd 6823 a6bd db1b 97bd 2e8a 433e
00000150: 9ece 8cbd e2f2 2c3e 8a59 e63d 47a6 31be
00000160: 2d5a 923c a97e 9abd ea03 8ebd 327c b9bc
00000170: df37 5e3d 64b9 70bc 318e 713b 8538 a23c
00000180: 0193 743d e50f 7e3c 9208 093e 135a d53d
00000190: 9d87 573e 46d0 89bd e5c4 ddbb 2bac 2bbd
000001a0: fe36 3b3d 27da 8139 2766 b53d 5d7f 023d
000001b0: 7104 ab3d 3ecf 053d d3c7 77be 81b7 513d
000001c0: 0f45 0abd 132b 6d3d dec3 15bc 73d7 1ebb
000001d0: fff0 0c3e 960a 033d 7fdc 9c3c 66f3 b53c
000001e0: 7292 8d3d 013e e53d 834b c5bb ccc4 ffbc
000001f0: 3a82 3fbd dd46 d13d 79d7 e6bc 097f c0bb
00000200: 5e01 98bc 61db 8e3d 835a 123d 46b8 b83d
00000210: 1500 fa3d a5cf 31bd ec1f 8e3d 3554 953d
00000220: 8c1c 0fbe 840a debd feac edbc c5f5 033d
00000230: c6fd 163d c6a4 a2bc b527 e03c ef56 443c
00000240: 2f2e 3c3b ddd9 2b3d c409 95bc 330e 9fb9
00000250: c10e 613c 0f53 dbbd b6f2 883d 6040 b23d
00000260: 3df9 61be 452a 02be ba0c 89bd eecb c13d
00000270: 8ebf 253d 1a94 70bd 92a0 b43d 0473 053d
00000280: e0af 1ebe c092 453d 0e96 253d 4525 203d
00000290: 15ff 0b3d 82eb 2abd 3411 f0bc 67bb a4bd
000002a0: fb2a 51bc 6a6b c3bc 8f76 973d b555 abbd
000002b0: 9c8b 13bc bc65 c4bd f795 12be d077 e9bd
000002c0: f9a1 d5bd 7c7d 69bd 1d99 1ebe 21a7 213e
000002d0: 95aa db3c 3aed 963d 9d67 f13b 63d3 4fbd
000002e0: 65cc 00bd 4687 b1bd 63da e63c 91da 1dbe
000002f0: bd09 26bd f595 ff3d adbc 293e c3cc a03b
00000300: d1ef 043e f58b ff3d fdef 293d f117 25bd
00000310: 75cb 003d 6f01 133e 867c ba3d 3297 2f3e
00000320: 3085 36bb 482a 15be a915 b3bb 44f3 4b3d
00000330: fe59 963d cb30 bcbd 1b41 6a3c 3337 1fbe
00000340: e2ff a93d c06a 0c3c 2dd7 44be 5784 e7bd
00000350: dfa5 36be df41 58bd edc7 1a3e 4297 b9bd
00000360: 1181 54bd 5694 00bd 227d a43c 19b1 96bd
00000370: bb4d 8b3c f628 cf3d 2f72 993d b9f9 b3bd
00000380: 6708 313d 4d60 fdbd a401 b43b 8b5c 283e
00000390: 182f debb 31d3 fc3c 4fca 8fbd 35a2 07bb
000003a0: e4f6 65bd 0552 41be 3120 bf3d 1610 073e
000003b0: fdb6 00be b2aa 983d 547d e1bd 5b4d b83b
000003c0: c4cb 003d 971f 053e beeb 88bd 1019 c2bd
000003d0: b2fb 2d3e 5309 21bd 17a2 1b3d 3653 a63d
000003e0: 7357 44bd 6997 3f3c 99ad ea3d a23f d63c
000003f0: b87a 9ebd 25e5 98bd 44ef b5bd f85a 953d
