results/NewSnakeAgent2/SnakeAgent/SnakeAgent-264838.onnx (onnx, 103045 bytes, 6 tensors)

action_model._discrete_distribution.branches.0.bias f4 [3]
-0.035934713 0.043580204 -0.013202438
00000000: 4730 13bd 2881 323d 0a4f 58bc

action_model._discrete_distribution.branches.0.weight f4 [3, 128]
-0.009130322 0.014056279 0.0059663695 -0.0073473984 0.02620166 0.010702252 0.0053633917 0.060013514
0.0024344944 0.0032256688 0.019264791 0.054757286 0.0011375861 -0.02395678 -0.010319095 -0.016267234
-0.016372578 0.00085094845 0.015089456 -0.018906917 0.002851467 0.019397197 0.013195715 0.00023255344
0.0261766 -0.015805854 0.0024543928 -0.008986658 -0.011022767 0.008902755 0.023087217 -0.0018216189
-0.031316247 -0.00060823857 -0.00037447416 0.014967897 0.016657524 0.007986895 -0.008128999 0.011451786
0.0040106555 -0.0008698554 0.003341853 -0.01118301 -0.0025091714 0.022131529 0.007910944 0.012183894
0.0025209363 -0.0019812682 0.0094438335 0.03308806 -0.014543076 -0.0096783945 0.007803923 -0.010131038
0.04030117 0.0027955614 0.056112103 0.009695465 0.009760504 -0.0010247596 0.04570295 0.018190192
0.002339876 0.009228058 0.0067362767 0.004209899 -0.005399354 0.040299717 -0.0050951527 0.012237306
0.0010675514 0.002783502 0.0100754285 0.014947301 -0.0009280371 -0.0017792823 0.004459595 0.008597852
0.004877144 -0.01471087 -0.016843911 0.004654521 -0.0008190775 -0.0027496747 0.02577481 0.0044551655
-0.0034872186 0.008486585 -0.010338692 -0.0033450865 0.012479074 0.011044793 0.008159876 0.0007390067
-0.0027298264 0.02556574 -0.0049944427 0.029163564 0.027167957 0.024658494 0.008855506 -0.001968848
-0.016586982 -0.017899195 -0.004998375 0.036625873 0.051794022 -0.0048925392 -0.010900751 -0.016661411
0.006901179 0.0021581654 0.009261784 0.022765292 -0.012497806 0.06880537 -0.0013349444 -0.009034302
-0.0017668782 -0.014744789 0.00073093316 -0.0010178958 -0.015571187 -0.013661665 0.020810738 -0.0050731227
0.029816205 -0.011550063 -0.003951472 0.003121292 -0.018923854 0.004059712 0.012047642 -0.058205437
-0.012386334 0.02829714 -0.011159169 -0.018673524 0.0089520505 0.00054657354 0.006688003 0.028577056
0.04299665 -0.0050269617 0.005863949 0.0038835383 -0.0062419674 0.00078190793 0.0001759535 0.014478496
-0.0061260983 0.009282769 -9.054338e-05 0.0012903418 0.035788845 -0.0154806245 -0.010499933 0.0012104199
0.011507181 -0.0054074763 0.0021784236 -0.009454334 0.010757619 0.005076534 -0.00818623 -0.0011528642
-0.016214099 0.0074268337 0.0030586084 0.0051163887 -0.0023488537 -0.020030223 0.0073046586 0.009684079
-0.009531328 0.00020985269 -0.0057058297 -0.04809899 0.06979758 0.0068784775 -0.0014669263 -0.010265455
-0.011978677 -0.019679843 -0.08598258 -0.0032117683 0.002230146 -0.012501855 -0.05587241 0.005245212
-0.009051625 0.018726693 0.0072423588 0.0047324854 0.01676164 -0.046895303 0.007867362 0.0022417468
-0.0010903089 0.021895777 0.0064939787 -0.0121400505 0.041581538 -0.017338743 0.014650262 -0.0032373692
-0.0028286832 0.035715614 0.023522854 -0.0037570426 -0.0074735857 0.00011241496 0.024866087 -0.010886889
0.025473073 -0.020976916 0.013611079 0.022100268 -0.0029998932 0.002452502 0.004906896 -0.017702717
0.00093620317 -0.027438642 -0.0068096244 -0.010312671 -0.05593946 0.007538926 0.019238837 0.001443112
0.020470621 -0.009637852 0.039746508 0.0029406373 -0.064345494 0.0012228817 -0.010762211 -0.008183622
-0.018641708 -0.011600973 -0.0059525287 -0.017608263 -0.00054315466 -0.100488566 0.013508884 -0.01224584
0.006285006 0.01262289 0.003930166 0.012972237 0.03232102 0.003027288 -0.020407747 -0.002354327
00000000: 5997 15bc 4f4c 663c 8981 c33b 72c2 f0bb
00000010: dda4 d63c 8058 2f3c 64bf af3b bbd0 753d
00000020: 0a8c 1f3b be65 533b 32d1 9d3c 2d49 603d
00000030: 0e1b 953a 0241 c4bc 6c11 29bc dd42 85bc
00000040: c91f 86bc 2f12 5f3a c439 773c aee2 9abc
00000050: aedf 3a3b dfe6 9e3c d732 583c 97d9 7339
00000060: 4f70 d63c 477b 81bc e1d9 203b c73c 13bc
00000070: d698 34bc dcdc 113c 6721 bd3c 63c3 eeba
00000080: 7745 00bd 3372 1fba 1255 c4b9 e93b 753c
00000090: 5c75 883c 77db 023c 7e2f 05bc 46a0 3b3c
000000a0: d16b 833b 0207 64ba fd02 5b3b f238 37bc
000000b0: e970 24bb 2e4d b53c e79c 013c f59e 473c
000000c0: 4b36 253b 2ad8 01bb 4fba 1a3c 5887 073d
000000d0: 1546 6ebc 2192 1ebc 0db8 ff3b a7fc 25bc
000000e0: d712 253d bd35 373b ced5 653d bad9 1e3c
000000f0: 85ea 1f3c 3a51 86ba 0433 3b3d 9903 953c
00000100: 9b58 193b 4831 173c fcbb dc3b 31f3 893b
00000110: 10ed b0bb 5111 253d 3df5 a6bb fb7e 483c
00000120: 15ed 8b3a 6a6b 363b 6913 253c 86e5 743c
00000130: 8447 73ba cf36 e9ba cb21 923b 01de 0c3c
00000140: 73d0 9f3b dc05 71bc 3efc 89bc f484 983b
00000150: 5cb7 56ba e333 34bb b225 d33c a3fc 913b
00000160: d289 64bb 510b 0b3c 9e63 29bc 3d39 5bbb
00000170: 0875 4c3c 38f5 343c 00b1 053c e6b9 413a
00000180: e3e6 32bb 3e6f d13c 6ca8 a3bb 6de8 ee3c
00000190: 568f de3c 9c00 ca3c af16 113c ca07 01bb
000001a0: 6ce1 87bc 55a1 92bc 69c9 a3bb 0305 163d
000001b0: f825 543d 9851 a0bb 1099 32bc 837d 88bc
000001c0: 4923 e23b 0270 0d3b bdbe 173c 477e ba3c
000001d0: 99c3 4cbc d4e9 8c3d 4df9 aeba 9c04 14bc
000001e0: 9896 e7ba 2194 71bc 189c 3f3a ea6a 85ba
000001f0: 4b1e 7fbc 2dd5 5fbc 487b aa3c 703c a6bb
00000200: 1d41 f43c 7a3c 3dbc 5a7b 81bb 978e 4c3b
00000210: 3306 9bbc 5507 853b 7963 453c d368 6ebd
00000220: 0df0 4abc 67cf e73c f2d4 36bc 38f9 98bc
00000230: 9fab 123c ee47 0f3a 0927 db3b 6e1a ea3c
00000240: 411d 303d 36b9 a4bb 5f26 c03b f682 7e3b
00000250: 6b89 ccbb f4f8 4c3a 2880 3839 3737 6d3c
00000260: 70bd c8bb c116 183c 1be2 bdb8 b020 a93a
00000270: 5397 123d 72a2 7dbc e907 2cbc f4a6 9e3a
00000280: 9e88 3c3c 3331 b1bb e2c3 0e3b 5ae6 1abc
00000290: b940 303c 0e59 a63b 8a1f 06bc b41b 97ba
000002a0: 6ed3 84bc cc5c f33b ef72 483b 61a7 a73b
000002b0: 3aef 19bb 6c16 a4bc eb5b ef3b f9a9 1e3c
000002c0: 4a29 1cbc e70b 5c39 f8f7 babb 7203 45bd
000002d0: 09f2 8e3d da64 e13b e145 c0ba 7030 28bc
000002e0: 3642 44bc 9f37 a1bc a317 b0bd 887c 52bb
000002f0: a427 123b 95d4 4cbc 78da 64bd 07e0 ab3b
00000300: 444d 14bc b968 993c 4f51 ed3b f712 9b3b
00000310: b54f 893c 4a15 40bd 1ce6 003c 45ea 123b
00000320: b2e8 8eba c65e b33c 71cb d43b 10e7 46bc
00000330: 6751 2a3d fb09 8ebc a707 703c 0b2a 54bb
00000340: 6e61 39bb 894a 123d 00b3 c03c b738 76bb
00000350: fbe4 f4bb 52c0 eb38 f7b3 cb3c ec5e 32bc
00000360: e8ac d03c c8d7 abbc 0101 5f3c 9f0b b53c
00000370: db99 44bb 28ba 203b 07ca a03b 4a05 91bc
00000380: 886b 753a 01c7 e0bc 4523 dfbb 7af6 28bc
00000390: c620 65bd 1809 f73b c49a 9d3c ce26 bd3a
000003a0: 01b2 a73c 15e8 1dbc 3ccd 223d b5b7 403b
000003b0: 92c7 83bd 1a49 a03a fc53 30bc 9914 06bc
000003c0: 7fb6 98bc 0212 3ebc 6e0d c3bb 343f 90bc
000003d0: 7e62 0eba f3cc cdbd 5e54 5d3c c7a2 48bc
000003e0: 74f2 cd3b 3dd0 4e3c 9fc8 803b 8189 543c
000003f0: 0c63 043d 7765 463b 262e a7bc 0d4b 1abb

network_body._body_endoder.seq_layers.0.bias f4 [128]
0.058542617 -0.031802345 -0.029366715 -0.014753359 -0.015855739 0.00856355 -0.02343592 0.025783613
-0.015518925 0.03288449 -0.0018568005 0.010626989 0.014448691 -0.06330789 -0.027007282 -0.0071185986
0.01934784 0.028024474 0.008330404 -0.04106565 -0.004315707 0.046009645 -0.0045284973 -0.025761627
-0.0018524767 0.00876891 0.0184422 -0.0325582 -0.03144959 0.045774065 0.052363027 0.03464502
-0.020532325 0.0021862714 -0.020934956 -0.011830576 0.03666771 -0.023423383 -0.04402821 0.05517729
0.015249969 -0.027897215 0.0076828017 0.0010043927 0.023833737 -0.008280131 0.0094625065 0.013841649
0.01519806 0.03791305 0.019017128 0.052822404 -0.030542029 -0.018118113 0.0030815024 0.020544155
0.049942207 0.005859563 -0.033865146 0.011533876 -0.032709334 -0.0028501772 0.010023517 0.025901238
0.0038468367 0.016868357 0.023292314 0.009344239 -0.042078957 0.03628437 -0.025718102 0.0233413
0.04786764 -0.0052888165 0.0014912556 0.030615784 -0.014115028 0.03586596 0.008621473 0.0212865
0.021541947 0.046629697 0.01806609 -0.01666794 0.028266497 -0.045542758 0.049285553 -0.025464244
0.013115855 0.009372391 0.044100832 0.0372345 -0.023084488 0.039373536 -0.016948638 0.024570957
-0.033212315 0.025763636 -0.019588366 0.026770314 -0.021258883 0.040379975 0.014475348 0.028823435
0.044598095 0.01587032 -0.010392723 -0.03741026 0.0030285208 -0.02593406 -0.0012774896 0.02950548
0.03218754 0.035113968 -0.0039720656 0.045770656 0.045239758 -0.0013983243 0.008376824 -0.044145774
-0.051126607 -0.0034949547 0.0038355158 -0.012529252 -0.018893678 -0.01757339 0.014521356 0.0123699205
00000000: 62ca 6f3d 2d43 02bd 7792 f0bc 13b8 71bc
00000010: e5e3 81bc 224e 0c3c b0fc bfbc 2838 d33c
00000020: 1743 7ebc e3b1 063d e35f f3ba d31c 2e3c
00000030: 34ba 6c3c 91a7 81bd 603e ddbc 2243 e9bb
00000040: 5d7f 9e3c 9593 e53c 3f7c 083c 7434 28bd
00000050: c66a 8dbb 9c74 3c3d ca63 94bb 0c0a d3bc
00000060: cece f2ba 79ab 0f3c 1914 973c bf5b 05bd
00000070: 49d1 00bd 967d 3b3d 9d7a 563d f0e7 0d3d
00000080: 6833 a8bc 8c47 0f3b c97f abbc 08d5 41bc
00000090: e130 163d 65e2 bfbc ed56 34bd 9501 623d
000000a0: 02db 793c b388 e4bc 03c0 fb3b d4a5 833a
000000b0: f83e c33c 63a9 07bc a108 1b3c 15c8 623c
000000c0: 4901 793c b74a 1b3d cfc9 9b3c 4e5c 583d
000000d0: 4733 fabc 706c 94bc 08f3 493b 374c a83c
000000e0: 3390 4c3d 9401 c03b 2eb6 0abd 95f8 3c3c
000000f0: 39fa 05bd 0aca 3abb ad39 243c d52e d43c
00000100: 361b 7c3b 822f 8a3c 86cf be3c 9418 193c
00000110: fc5a 2cbd eb9e 143d c5ae d2bc 4136 bf3c
00000120: dc10 443d cf4d adbb 3c76 c33a f4cd fa3c
00000130: b842 67bc 2fe8 123d 1441 0d3c 0761 ae3c
00000140: bd78 b03c c8fe 3e3d 56ff 933c 348b 88bc
00000150: 248f e73c 0b8b 3abd a6df 493d 649a d0bc
00000160: e2e3 563c a88e 193c 13a3 343d 3483 183d
00000170: ae1b bdbc 2546 213d dfd7 8abc 0849 c93c
00000180: a309 08bd 430e d33c c877 a0bc 6b4d db3c
00000190: 1c27 aebc 7965 253d 032a 6d3c 201f ec3c
000001a0: 7eac 363d 7902 823c 3d46 2abc 803b 19bd
000001b0: 267a 463b aa73 d4bc 7071 a7ba 7ab5 f13c
000001c0: 15d7 033d aad3 0f3d 1a28 82bb 037a 3b3d
000001d0: 534d 393d fa47 b7ba f23e 093c 33d2 34bd
000001e0: 226a 51bd 9c0b 65bb 475d 7b3b 7e47 4dbc
000001f0: eac6 9abc 12f6 8fbc fbea 6d3c 35ab 4a3c

network_body._body_endoder.seq_layers.0.weight f4 [128, 64]
0.10198872 -0.23342724 -0.13303056 -0.08930885 0.2801365 -0.315316 0.2175033 0.031079376
0.008905233 0.017935637 0.049589828 0.19190815 0.111336015 0.066762924 -0.2065445 0.120987386
0.05780312 0.10264233 0.20054206 0.109874934 0.13305546 -0.21510592 -0.028196013 -0.14111084
0.32228333 -0.0052689677 -0.024621591 0.21407527 -0.10060121 -0.019997535 0.019527752 0.01599717
-0.11184504 -0.16188501 0.19451573 0.11040699 0.1136993 0.20314157 -0.198793 -0.052210055
0.14176176 0.16558866 0.027357958 0.16307563 0.10510292 -0.024494609 0.3277299 0.008714332
-0.074458934 -0.05775461 0.2317457 0.12760617 0.094164535 -0.12071359 -0.041592307 0.34270817
0.31696764 0.11990243 -0.0505958 0.3445379 0.16041376 -0.092546105 0.08040928 -0.18663412
-0.1709217 0.3229095 0.073164895 0.036872692 -0.041445248 -0.1307316 -0.073499404 0.01849947
0.2050117 -0.11997287 -0.020332286 0.19566208 -0.030613108 -0.17641771 0.025937477 -0.15457527
-0.1369467 0.08218377 -0.088323556 0.0843282 0.00881833 -0.03953343 -0.07225551 0.011270836
-0.19440442 -0.26468292 -0.09270972 0.13331434 -0.16687593 0.067485504 0.017344372 0.09180814
-0.0076724296 -0.081836864 -0.12227629 -0.12540415 0.0051207673 -0.15874967 0.042250723 0.10731345
-0.13299139 -0.24651884 0.049819656 0.05539527 0.069758214 -0.06600422 0.09035223 0.12862515
-0.13592742 -0.0522726 -0.053345382 0.37080646 -0.02974972 -0.01673002 -0.16935383 -0.12809972
0.02916044 0.015972301 -0.12261025 -0.06799619 -0.23498334 0.02020966 -0.17622446 0.030409386
-0.16753155 0.14721647 0.14977525 -0.14233819 -0.029299174 0.0014698048 0.23875196 0.11134183
0.18768685 -0.28027868 0.10802325 -0.008302983 0.0875399 -0.057422973 -0.09609855 0.24962446
-0.074750125 -0.09197565 -0.045860466 0.20998535 0.07540447 -0.09948716 -0.17134003 0.27138302
-0.19438285 -0.021205135 -8.304054e-05 0.09017603 -0.16651861 0.047297817 0.10226927 -0.08398268
-0.1059044 -0.15859565 -0.14681314 -0.15468925 0.13219959 -0.30791405 -0.123108886 0.0397261
-0.16055363 0.16176593 0.008314552 -0.09996735 0.020368082 -0.1658128 -0.10676285 -0.13330314
0.060640346 -0.14019303 -0.12532368 -0.05633479 0.20890766 -0.12738554 -0.024820192 0.029970238
-0.20152575 -0.085944064 -0.0064847535 0.0050190724 0.06089552 0.13212998 -0.012437389 0.08118533
-0.052398376 -0.22490534 -0.17510752 0.077402756 0.055636786 0.015116841 0.08166471 0.25801888
0.08416545 -0.19469412 0.04542067 -0.004384108 0.12392013 0.06323523 0.009430529 -0.08967026
0.21515793 -0.20051783 -0.01819063 0.036659062 -0.12942691 0.17469622 -0.0758385 -0.05955405
0.11183846 -0.082137175 0.058124904 -0.21720037 0.11342201 0.02203423 -0.065453306 -0.23584363
0.0629957 0.13268407 -0.047516026 0.04564848 0.0027228047 0.07926861 0.02374086 0.10171277
0.016747523 -0.04201465 0.008763078 0.055583928 -0.0015258715 -0.10104973 0.08290406 -0.2143743
-0.04031628 -0.08200188 -0.023541922 -0.12328977 -0.06666843 -0.13071823 0.31015483 0.018655984
-0.21685591 0.099620126 0.14339238 -0.17078882 -0.025674598 -0.0130980695 0.044491306 0.048054807
00000000: 76df d03d 8d07 6fbe 2a39 08be 8fe7 b6bd
00000010: 0d6e 8f3e 1971 a1be 2fb9 5e3e 2d9a fe3c
00000020: 41e7 113c c2ed 923c b41e 4b3d 9283 443e
00000030: 2304 e43d 00bb 883d 6780 53be 3cc8 f73d
00000040: f7c2 6c3d 2436 d23d e65a 4d3e 1c06 e13d
00000050: b13f 083e ba44 5cbe 53fb e6bc 5c7f 10be
00000060: 5202 a53e 4ea7 acbb 38b3 c9bc 8c36 5b3e
00000070: 0208 cebd dfd1 a3bc aaf8 9f3c 7f0c 833c
00000080: 030f e5bd 2fc5 25be 222f 473e 0f1d e23d
00000090: 2edb e83d 5804 503e 6490 4bbe 36da 55bd
000000a0: ff29 113e 1390 293e cc1d e03c 4cfd 263e
000000b0: 3340 d73d eba8 c8bc 37cc a73e 8fc6 0e3c
000000c0: ed7d 98bd 1990 6cbd bf4e 6d3e 31ab 023e
000000d0: 56d9 c03d b038 f7bd b25c 2abd 7277 af3e
000000e0: 9549 a23e 688f f53d 8b3d 4fbd 4667 b03e
000000f0: 8143 243e d088 bdbd 9fad a43d 041d 3fbe
00000100: 1906 2fbe 6554 a53e 7ad7 953d d207 173d
00000110: 7ec2 29bd 81de 05be db86 96bd 338c 973c
00000120: 96ee 513e 56b4 f5bd e58f a6bc a45b 483e
00000130: 57c8 fabc d8a6 34be d57a d43c fb48 1ebe
00000140: c13b 0cbe f74f a83d fbe2 b4bd 43b4 ac3d
00000150: c27a 103c ceed 21bd b2fa 93bd 50a9 383c
00000160: f411 47be 8584 87be 98de bdbd 8e83 083e
00000170: 86e1 2abe d735 8a3d c915 8e3c e805 bc3d
00000180: 0169 fbbb 169a a7bd fe6b fabd f269 00be
00000190: 1ccc a73b 468f 22be 180f 2d3d 27c7 db3d
000001a0: e52e 08be 6f6f 7cbe b20f 4c3d 27e6 623d
000001b0: 65dd 8e3d 382d 87bd 970a b93d 50b6 033e
000001c0: 8f30 0bbe cb1b 56bd b080 5abd 58da bd3e
000001d0: afb5 f3bc 650d 89bc 176b 2dbe 932c 03be
000001e0: e0e1 ee3c 58d8 823c 151b fbbd 9641 8bbd
000001f0: 799f 70be bb8e a53c 2f74 34be 1b1d f93c
00000200: 648d 2bbe eabf 163e af5e 193e 1ac1 11be
00000210: d204 f0bc 77a6 c03a 657b 743e 2f07 e43d
00000220: fb30 403e b080 8fbe 4b3b dd3d 3c09 08bc
00000230: 1e48 b33d 5a34 6bbd 51cf c4bd 8e9d 7f3e
00000240: 9816 99bd bb5d bcbd 2fd8 3bbd 6606 573e
00000250: a96d 9a3d edbf cbbd c373 2fbe b7f2 8a3e
00000260: 4c0c 47be 64b6 adbc 0d26 aeb8 36ae b83d
00000270: db83 2abe 5bbb 413d 8d72 d13d 1dff abbd
00000280: 68e4 d8bd e666 22be 2f56 16be dc66 1ebe
00000290: 545f 073e e9a6 9dbe 8320 fcbd d6b7 223d
000002a0: 2c68 24be f8a5 253e c239 083c afbb ccbd
000002b0: f7da a63c d5ca 29be 7ba6 dabd 9e80 08be
000002c0: 0362 783d c38e 0fbe da54 00be 4fbf 66bd
000002d0: e4eb 553e 5b71 02be b753 cbbc 2584 f53c
000002e0: c45c 4ebe 7103 b0bd 0e7e d4bb 0877 a43b
000002f0: 956d 793d 154d 073e 31c6 4bbc 7f44 a63d
00000300: ae9f 56bd 964d 66be 634f 33be 5685 9e3d
00000310: 66e3 633d a0ac 773c d43f a73d 0d1b 843e
00000320: ef5e ac3d e55d 47be 060b 3a3d 90a8 8fbb
00000330: d6c9 fd3d 7981 813d 8182 1a3c 0ba5 b7bd
00000340: 5c52 5c3e 8c54 4dbe 8404 95bc d027 163d
00000350: 7d88 04be 91e3 323e 3751 9bbd f3ee 73bd
00000360: 900b e53d 8937 a8bd 6114 6e3d c669 5ebe
00000370: cc49 e83d 2181 b43c 620c 86bd fe80 71be
00000380: e403 813d 55de 073e 2aa0 42bd e7f9 3a3d
00000390: 1571 323b 9557 a23d 317c c23c c94e d03d
000003a0: 1a32 893c 8e17 2cbd 0393 0f3c f9ab 633d
000003b0: c0ff c7ba 29f3 cebd 9bc9 a93d f084 5bbe
000003c0: af22 25bd 9af0 a7bd fdda c0bc 597f fcbd
000003d0: 7589 88bd 00db 05be 9dcc 9e3e 6fd4 983c
000003e0: 7a0f 5ebe a305 cc3d 74d5 123e 44e3 2ebe
000003f0: 8953 d2bc 4999 56bc 843c 363d 1ed5 443d

network_body._body_endoder.seq_layers.2.bias f4 [128]
0.027561098 -0.041516185 -0.024610743 0.029429354 -0.022867426 -0.023077888 0.023272824 -0.01274441
-0.030251332 0.031776957 0.004809148 -0.0019860826 0.008751661 0.03423683 0.034116123 0.047201738
0.035189573 -0.03347349 -0.035337698 0.033592775 -0.019979678 -0.028411979 -0.019990804 0.02281669
-0.021479158 0.049352992 -0.02273768 0.03977376 0.060571283 -0.03558382 -0.04016137 -0.0042210864
0.049544122 -0.03550395 0.012673811 -0.020301996 -0.02225782 -0.035294447 -0.01378045 -0.046350066
-0.026439685 0.03730151 -0.035451677 0.016515354 -0.011745948 -0.032871254 0.008883356 0.025996793
-0.023407634 -0.004606196 -0.01853317 0.007871021 0.046317622 0.027407082 -0.05348312 -0.009701093
-0.0121815875 -0.008359469 0.0057150344 -0.033771466 -0.014461742 -0.037967846 0.014490666 -0.03247259
-0.037493646 0.020023298 -0.016557937 -0.026525015 0.04434407 -0.005057134 0.01421434 -0.033843264
-0.023958907 0.043821763 0.022770034 -0.030866852 0.046108577 -0.004981939 0.03249737 -0.033648383
-0.028428916 0.0600865 0.036166932 -0.0070972126 -0.030098729 0.008788086 0.021490203 -0.028655075
0.026143728 -0.02938112 0.030164154 0.021296313 -0.03769608 -0.019592363 -0.01944432 -0.03452011
0.00082574633 -0.021430802 -0.014076313 -0.013193622 -0.028815866 -0.01058004 0.025827652 0.009411801
0.03622779 0.01205215 0.035451908 -0.007482362 0.015202198 0.042941112 -0.008227086 0.0063857855
-0.022146476 -0.04137776 -0.03386225 -0.037191708 -0.0019128714 0.03931673 0.04131058 -0.012082852
-0.0108412355 0.04489121 -0.000320797 0.03463734 0.03714752 0.030498337 -0.029151486 0.007170119
00000000: d0c7 e13c e00c 2abd 789c c9bc d415 f13c
00000010: 7854 bbbc d70d bdbc a6a6 be3c eecd 50bc
00000020: a4d1 f7bc 8e28 023d 0f96 9d3b f028 02bb
00000030: 2063 0f3c eb3b 0c3d 59bd 0b3d 9c56 413d
00000040: f122 103d 801b 09bd 43be 10bd 9498 093d
00000050: 6cac a3bc 3dc0 e8bc c1c3 a3bc 11ea ba3c
00000060: 0ff5 afbc 5d26 4a3d 5f44 babc cfe9 223d
00000070: 9819 783d 57c0 11bd 4080 24bd 0a51 8abb
00000080: c7ee 4a3d 976c 11bd d1a5 4f3c 5f50 a6bc
00000090: 0856 b6bc e990 10bd 66c7 61bc 91d9 3dbd
000000a0: 0a98 d8bc 78c9 183d c735 11bd 354b 873c
000000b0: 1472 40bc 02a4 06bd 7f8b 113c 3af7 d43c
000000c0: 5ec1 bfbc 93ef 96bb e0d2 97bc 74f5 003c
000000d0: 8cb7 3d3d d184 e03c 1e11 5bbd 55f1 1ebc
000000e0: 4895 47bc 27f6 08bc 2f45 bb3b f353 0abd
000000f0: f1f0 6cbc 2c84 1bbd 426a 6d3c fb01 05bd
00000100: f092 19bd e607 a43c 83a4 87bc fd4a d9bc
00000110: 21a2 353d 51b6 a5bb 43e3 683c 3c9f 0abd
00000120: 7845 c4bc 737e 333d 3988 ba3c 7bdc fcbc
00000130: 59dc 3c3d 893f a3bb f61b 053d e3d2 09bd
00000140: c2e3 e8bc 431d 763d c723 143d bc8f e8bb
00000150: 9c91 f6bc e7fb 0f3c 390c b03c 0cbe eabc
00000160: 5f2b d63c adb0 f0bc d11a f73c 9b75 ae3c
00000170: 3467 1abd 2a80 a0bc b249 9fbc f564 0dbd
00000180: e676 583a a68f afbc 56a0 66bc 102a 58bc
00000190: 400f ecbc e757 2dbc 8394 d33c f433 1a3c
000001a0: 9763 143d 6276 453c 0536 113d 9a2e f5bb
000001b0: a412 793c 05e3 2f3d e6ca 06bc da3f d13b
000001c0: 876c b5bc ba7b 29bd 25b3 0abd 5556 18bd
000001d0: 50b9 faba 940a 213d 4835 293d 28f7 45bc
000001e0: 709f 31bc d8df 373d a530 a8b9 e2df 0d3d
000001f0: ff27 183d a6d7 f93c 19cf eebc 51f3 ea3b

network_body._body_endoder.seq_layers.2.weight f4 [128, 128]
0.010421779 -0.06570709 0.018393869 0.04226009 -0.06596781 0.04703775 0.048641562 -0.0444548
-0.053728517 0.10573931 -0.0021785877 0.022356946 0.109032996 0.12835608 -0.07775586 0.076698124
0.0664314 -0.0065631284 -0.06011461 0.06565912 -0.10657966 0.06523519 -0.14277218 -0.0038475634
0.13494575 0.09774097 -0.10591976 -0.10037329 0.009077309 0.074976005 -0.04466003 -0.07834705
-0.058746956 -0.02400504 -0.1115353 0.03247445 -0.1559067 0.16295815 -0.0025827473 -0.017366393
0.050008 0.06906955 -0.08370078 0.040016595 0.13217503 0.036879484 0.13662414 0.08248843
0.033965196 0.24419034 -0.018459406 0.21427861 -0.09481186 -0.009686431 -0.1393961 0.11762182
-0.040285647 -0.045968253 -0.14746432 -0.0892375 0.0045735203 -0.04533017 0.014299858 -0.056580152
-0.13363723 0.017522473 0.13422674 0.021620132 -0.1331473 -0.15350822 -0.064829625 -0.034412436
0.0055186916 -0.072522126 -0.05518438 -0.07157114 -0.005629544 0.06282625 0.08857975 0.05629475
0.027394326 0.0021994857 0.07845038 0.0085300235 -0.05749593 0.0069233594 0.10309571 -0.073019885
0.009864016 -0.04227073 -0.15642887 0.11154288 -0.0065629445 -0.1683967 -0.22930841 -0.03531541
0.029438514 -0.013782187 -0.04312036 -0.08849973 0.115217395 0.094159365 0.03516634 -0.0067541124
0.044663012 0.045063585 0.110935286 -0.0054433295 0.08197053 -0.024187792 -0.07134131 0.030391537
-0.044357132 0.11168821 -0.04218714 0.097377636 0.07381145 0.22093679 0.19781365 0.0014441229
0.0062830127 0.18605888 -0.050971568 -0.1194806 -0.12519445 -0.14115831 -0.008456111 0.056113567
-0.10413461 0.0900254 -0.026063569 0.024797382 0.21308775 -0.019583061 0.10463566 0.13791457
0.15776391 -0.027560618 -0.17013179 -0.120442085 -0.0038071526 0.12568595 0.056366984 0.12951581
-0.050040588 0.0053630876 -0.15589224 0.046837546 0.11881351 -0.037926573 -0.028221395 0.12642424
-0.060227156 -0.03630964 0.008513969 -0.06066436 -0.057249658 -0.10134415 -0.018119128 0.06399847
-0.14441445 0.06697341 -0.03193718 0.17174171 -0.18862706 0.076197386 0.018841648 -0.017634422
-0.060998004 0.009175946 0.0038962387 0.026371136 -0.14911799 0.18993539 0.14142394 0.04569677
-0.04463037 -0.020858848 -0.018497428 0.021155233 0.060414053 0.12903495 -0.023913974 0.0035873575
0.10200293 -0.0056766723 -0.037041213 0.20495528 0.026183533 0.01484143 0.06571387 -0.0033342037
0.10378001 -0.020710362 -0.1347776 -0.04500302 0.10088966 0.0033546833 0.102226 -0.022623071
0.07084043 0.13451526 0.045985073 -0.11207556 0.16625391 0.100703776 -0.025188098 -0.022931965
0.05237289 -0.1876806 0.033129413 0.09871533 -0.0743462 0.15988937 0.058389995 0.008033303
-0.05044177 -0.082345515 -0.043435678 -0.114928044 0.10762573 0.17904197 -0.0608185 -0.061713755
0.0754641 -0.020382745 -0.008149577 -0.12418319 -0.03785228 -0.21111076 -0.009604586 -0.0941303
0.03947501 0.020655587 0.13621224 0.036056004 0.12217722 0.16884395 0.0064936928 -0.14990924
0.04590306 -0.005944163 0.23661037 0.021177191 0.06697559 -0.029201033 -0.07736744 -0.10808278
-0.03161988 0.15381956 0.0911542 -0.140476 0.04460141 0.19522978 0.1093918 -0.0065176957
00000000: 1cc0 2a3c 7091 86bd bdae 963c eb18 2d3d
00000010: 221a 87bd a8aa 403d 603c 473d 3d16 36bd
00000020: 6f12 5cbd da8d d83d a3c6 0ebb ea25 b73c
00000030: b14c df3d c76f 033e 773e 9fbd e813 9d3d
00000040: 300d 883d 830f d7bb bd3a 76bd 4a78 863d
00000050: 7046 dabd 079a 853d df32 12be 6727 7cbb
00000060: 382f 0a3e 6b2c c83d 76ec d8bd 8390 cdbd
00000070: feb8 143c 058d 993d 70ed 36bd 6b74 a0bd
00000080: a6a0 70bd 38a6 c4bc 9f6c e4bd ee03 053d
00000090: 02a6 1fbe 80de 263e 4f43 29bb f743 8ebc
000000a0: 30d5 4c3d 5674 8d3d 516b abbd 71e8 233d
000000b0: e458 073e f10e 173d 33e7 0b3e b2ef a83d
000000c0: 171f 0b3d 080d 7a3e 2e38 97bc da6b 5b3e
000000d0: b82c c2bd d6b3 1ebc dabd 0ebe b5e3 f03d
000000e0: 9002 25bd 3549 3cbd e300 17be 27c2 b6bd
000000f0: 78dd 953b 21ac 39bd f449 6a3c 97c0 67bd
00000100: 33d8 08be 4a8b 8f3c bc72 093e b41c b13c
00000110: c457 08be 4231 1dbe 65c5 84bd 0ef4 0cbd
00000120: 24d6 b43b 7b86 94bd 0409 62bd e493 92bd
00000130: 0a78 b8bb 0dab 803d 4d69 b53d 5395 663d
00000140: 116a e03c 3f25 103b 98aa a03d 83c1 0b3c
00000150: da80 6bbd 59dd e23b d823 d33d 738b 95bd
00000160: af9c 213c 1324 2dbd e42e 20be 9870 e43d
00000170: f80d d7bb 2f70 2cbe d3cf 6abe e4a6 10bd
00000180: 0a29 f13c afce 61bc f99e 30bd 593f b5bd
00000190: 19f7 eb3d a0d6 c03d 950a 103d 9a51 ddbb
000001a0: 90f0 363d 9894 383d 0a32 e33d f55d b2bb
000001b0: 2ae0 a73d 7a25 c6bc 651b 92bd acf7 f83c
000001c0: d3af 35bd cabc e43d 6ccc 2cbd ed6d c73d
000001d0: 752a 973d 413d 623e a98f 4a3e b948 bd3a
000001e0: bbe1 cd3b 3886 3e3e 90c7 50bd 3fb2 f4bd
000001f0: f932 00be ce8b 10be 808b 0abc 57d7 653d
00000200: 8744 d5bd 3d5f b83d 4483 d5bc e123 cb3c
00000210: ad33 5a3e a86c a0bc 394b d63d 7a39 0d3e
00000220: dd8c 213e cec6 e1bc 0737 2ebe 57aa f6bd
00000230: 6c81 79bb d1b3 003e 11e1 663d cb9f 043e
00000240: 5cf7 4cbd d7bc af3b 37a2 1fbe bad8 3f3d
00000250: 7f54 f33d e558 1bbd 8e30 e7bc 5b75 013e
00000260: c0b0 76bd 6bb9 14bd 2d7e 0b3c 317b 78bd
00000270: 9e7e 6abd 868d cfbd 916e 94bc a111 833d
00000280: 62e1 13be 5b29 893d 8fd0 02bd 0fdd 2f3e
00000290: 7427 41be 600d 9c3d cd59 9a3c 1076 90bc
000002a0: 0bd9 79bd b556 163c 0a58 7f3b 4808 d83c
000002b0: 63b2 18be 6c7e 423e 70d1 103e 892c 3b3d
000002c0: 56ce 36bd 2de0 aabc eb87 97bc bd4d ad3c
000002d0: ba74 773d bd21 043e 3de7 c3bc df19 6b3b
000002e0: eae6 d03d 6103 babb 87b8 17bd ccdf 513e
000002f0: d97e d63c 7829 733c fe94 863d a882 5abb
00000300: 9d8a d43d c7a8 a9bc 2403 0abe 1655 38bd
00000310: 3d9f ce3d 3fda 5b3b dd5b d13d 0554 b9bc
00000320: ca14 913d 5ebe 093e d85a 3c3d df87 e5bd
00000330: 773e 2a3e c83d ce3d 4557 cebc d1db bbbc
00000340: f584 563d 582f 40be b5b2 073d 432b ca3d
00000350: d242 98bd 0aba 233e 592a 6f3d 1d9e 033c
00000360: 089c 4ebd c4a4 a8bd 9ce9 31bd 655f ebbd
00000370: e16a dc3d c756 373e d21c 79bd 90c7 7cbd
00000380: ec8c 9a3d b7f9 a6bc ce85 05bc c253 febd
00000390: fe0a 1bbd 6b2d 58be 8e5c 1dbc 63c7 c0bd
000003a0: 8cb0 213d e835 a93c 397b 0b3e 76af 133d
000003b0: 0d38 fa3d 6ee5 2c3e 0bc9 d43b cf81 19be
000003c0: d904 3c3d 41c7 c2bb fd49 723e ca7b ad3c
000003d0: 802a 893d 0137 efbc d272 9ebd 815a ddbd
000003e0: d983 01bd e082 1d3e 0eaf ba3d f1d8 0fbe
000003f0: f8af 363d 51ea 473e cf08 e03d 6592 d5bb
